checkpoints/gru/sh-CEEMDAN(1024)-h64-l2-lr0.001-d0.3-ep200.pth (torch, 160722 bytes, 9 tensors)

rnn.weight_ih_l0 f4 [192, 10]
00000000: 5490 153e 6acf 333e f71b c2bd f221 0d3d
00000010: 0973 4d3c f295 113e 47ba 93bd 17b6 393e
00000020: 45dc ac3e 5050 71be ddec 193e e44b 9f3d
00000030: a250 8f3d ab1f b2bd 586b bb3c e848 2cbd
00000040: 46ba 453e eafc abbd fb2b 80bd faf7 08bd
00000050: 7c9b 85bd 3ce1 773d f31b 89bd 4721 8eb8
00000060: 17cb 603d 338b 87bd 3838 adbd de58 1abd
00000070: 6f74 953d d4c6 a0be 4dc3 033e 5bf7 3abd
00000080: b986 9b3d de71 94bd 23b7 bbbb 8259 f03d
00000090: 3f5c b0bb b5ca fd3d 9d74 3b3e 380e 66bd
000000a0: f725 26bd 8ebf e6bd c611 483e ebca 5c3e
000000b0: ca94 34be c92e adbe e6e3 543e 3ada 59bd
000000c0: 56c9 04be d7af c4bc 035e 71bd 7464 d2bd
000000d0: 91c4 cebe 00f4 3b3e cdf7 24bd 70f0 a23d
000000e0: 0cba 8bbe f98c 0f3d eb1e e43c 861c ab3d
000000f0: 03fc c2ba b97c 8ebd 3edb 003d bdc9 723d
00000100: b12b 8d3d 3acc babc c13f 6e3d 6074 b83c
00000110: 6a9b 22bd 9f37 bebd 4788 b43d ffdf f03d
00000120: 4c55 c53c 5a5b 28be a502 f2bd 2fc4 ffbc
00000130: 3cec 5cbe f73b 2dbd 2093 3c3e a64e a4bc
00000140: fe09 8ebd dbbf e0bd e097 073e a087 6abc
00000150: 0cb5 003e ad1d 29bd 6605 ec3d f7d3 4cbd
00000160: 2f08 4bbe 3162 0bbd 545b 4e3d 1b14 59bd
00000170: 3172 853d 9718 4a3e f172 72be 8501 c7bc
00000180: 454e 513e 06aa 3abe 19ca 593e 26dd 17be
00000190: 76e5 99bd 6cae 97bc 6087 2d3d d6c0 74be
000001a0: 8eef 72bd 2560 46be 0a6f 973d 4811 2c3e
000001b0: e750 83be 63ff ecbd c807 453d f19e 3dbd
000001c0: 795c 953d 86b8 363c 19a9 f4bd 2f78 14be
000001d0: 6623 b03c 2e97 8abd 078e d6bd f09a 53bd
000001e0: 851e b43d 2d47 27bd cabe 0dbe 3f31 f93b
000001f0: a0d3 3fbd 52e2 dc3c ba5e bcbd acdf 1bbd
00000200: b26f 8b3e 949c 8b3d 263c 063e ac3c 073d
00000210: 0113 c2bd f154 1c3c 8947 f23b 71c4 793d
00000220: 9164 c8bd b915 12be b755 833e 4888 23bd
00000230: 5aa4 533b 6bf9 1bbe 3bd9 163e adaa 293d
00000240: 4298 583d 701e e3bd 0ff5 f43c c2c6 9b3e
00000250: 6554 443d 05dc 503e b5b3 663d e884 463d
00000260: 963a 3bbd 0722 38be 44be 1b3e 66c8 cb3c
00000270: b3e5 7a3c 94eb 12be df47 763e 5bc7 203a
00000280: 8a56 fa3d abd1 153e dcbd 6cbc 79a1 47be
00000290: c9f7 61be ca6b a3bc fd8c 1abe a67b 87bc
000002a0: f83b 873e 015a 083d 24e5 3dbd c0b8 dc3c
000002b0: b573 d83d 65fe ed3d 2d23 5cbd 4bd1 b3bd
000002c0: 29a5 80bd e154 4a3d 7679 eb3d 7483 91bd
000002d0: 6f45 253d c2b8 4bbd c856 be3b 752a 78bd
000002e0: 511b e23d ed86 243d 2d02 5dbc 428d b93d
000002f0: 7d18 95bb 69c8 223e 3e0a a73c ebbf 8cbd
00000300: fd60 d13c e7b6 193e 4452 adbd 78a9 d53d
00000310: 7065 a2bc a344 64bb ea61 d03d 970a 963d
00000320: 90fa d4bd 3773 d8bd b5a8 443e 8ef4 0c3e
00000330: 6c47 d4bd 551d 96bb f074 b73c bd67 96be
00000340: 55bc 8fbd 3706 de3d a24e 3b3e e266 81bd
00000350: 1cdb 29be 22d9 23be 4096 94bd 0715 463e
00000360: 4588 953c 056b b33b be00 033e 93cb 953d
00000370: b9b1 7bbd 3222 2b3e 986e 1f3d 03e6 ce3c
00000380: 6731 3ebe 5d38 d13d f3a6 803d 49e3 003e
00000390: d472 80bd 26f4 17bd 5022 08be a67c 723e
000003a0: 3362 80bc 348b a53a ed93 683d 4ce1 aa3c
000003b0: 41ee a63c 59fd 633d 3bac 48be 9f38 193c
000003c0: a25f 3b3d 836d 8abd 7ffe 1ebe 9dba 4fbe
000003d0: f13a 133e 8ca1 f13d 75bb 9b3d fa5a 273e
000003e0: 15d6 203e b2c5 a03d 9ce4 d3bc 2d46 f4bd
000003f0: 5553 a1bd 1f69 1dbe cedf fbbd 5e66 43bc
0.14605838 0.17559591 -0.0947799 0.0344562 0.012539634 0.14217356 -0.07213264 0.18135868
0.33761802 -0.23565793 0.15031762 0.07778147 0.06997801 -0.086974464 0.022878334 -0.042061716
0.19309339 -0.08397849 -0.062583886 -0.033439614 -0.06523797 0.060517535 -0.06694784 -6.777286e-05
0.05488118 -0.06618347 -0.084579885 -0.037682407 0.072975986 -0.31401694 0.1286747 -0.045646053
0.07594056 -0.07248281 -0.0057286187 0.11735822 -0.0053820903 0.12392179 0.18306203 -0.056165904
-0.04056355 -0.11267005 0.1953803 0.21561782 -0.17634884 -0.33824757 0.20790061 -0.053186633
-0.12967429 -0.024009628 -0.058927547 -0.10273066 -0.40384343 0.18354797 -0.040275384 0.07956016
-0.2729038 0.03504655 0.027846774 0.0835505 -0.0014876131 -0.06957383 0.031459086 0.059274424
0.06893099 -0.022802461 0.05816627 0.02251643 -0.039698996 -0.09287953 0.08815055 0.11761474
0.024088524 -0.16441098 -0.11816911 -0.031221477 -0.21574491 -0.042293515 0.18415499 -0.020057034
-0.069354996 -0.109740935 0.1324153 -0.014314562 0.12569064 -0.041288067 0.11524467 -0.050006833
-0.1982734 -0.03402919 0.050380066 -0.05299769 0.06515921 0.19735943 -0.23676659 -0.024292717
0.20440014 -0.18228921 0.212685 -0.14830455 -0.07514469 -0.018515788 0.04236543 -0.23901686
-0.05931049 -0.19372614 0.07394226 0.16803467 -0.2564766 -0.11572149 0.048103124 -0.046294156
0.072930284 0.011152392 -0.11946315 -0.14498971 0.021501254 -0.067671165 -0.10476308 -0.05166143
0.08794884 -0.040839363 -0.13842312 0.0076047475 -0.04683268 0.026963387 -0.09197755 -0.038055107
0.27233654 0.06816974 0.13108882 0.033016846 -0.09476281 0.009541736 0.0073937816 0.060978357
-0.097848065 -0.14266099 0.25651333 -0.03992489 0.0032294006 -0.15231864 0.14731304 0.041422535
0.05287958 -0.1108979 0.02990201 0.30425078 0.047932047 0.20396431 0.056323726 0.048466593
-0.04571017 -0.1798173 0.152093 0.02487583 0.015313554 -0.14347678 0.24050854 0.0006133222
0.12223537 0.14630763 -0.014449563 -0.1949519 -0.22067179 -0.019948859 -0.15092845 -0.016538452
0.2641294 0.03328896 -0.046361104 0.026943564 0.10568944 0.116207875 -0.053744484 -0.08780154
-0.06281502 0.049397353 0.11497776 -0.07105151 0.04034942 -0.049736746 0.005808685 -0.060587365
0.110403664 0.040167738 -0.013489288 0.09060146 -0.0045500384 0.15896763 0.020390626 -0.06872543
0.025558943 0.15011178 -0.084629565 0.10432714 -0.01982376 -0.003483095 0.101749256 0.073262386
-0.103993535 -0.105688505 0.19204982 0.13765165 -0.10365185 -0.0045811334 0.022394627 -0.2937602
-0.07018343 0.10841029 0.18291715 -0.063184515 -0.1658749 -0.16000798 -0.072552204 0.19343959
0.018253455 0.005475404 0.12793252 0.07314219 -0.061448786 0.16712263 0.03892383 0.025256163
-0.18573533 0.102158286 0.06281843 0.12586702 -0.06271902 -0.037098072 -0.13294339 0.23680362
-0.015671825 0.0012629987 0.056781698 0.020859383 0.02037728 0.055661533 -0.1959695 0.009351878
0.0457455 -0.06759169 -0.1552677 -0.20286031 0.14377953 0.11798391 0.07604114 0.16343299
0.15706666 0.078502074 -0.025865845 -0.119274475 -0.078772224 -0.15372132 -0.12298547 -0.011926262

rnn.weight_hh_l0 f4 [192, 64]
00000000: 87d0 a2bd 0482 82bd fecd 02bd 208a 00bb
00000010: 67ec 0bbc 6390 36bd 9139 fcbd 17de 62bd
00000020: 822f 5b3d 9591 443e 2230 26bd 2d64 98bc
00000030: 80a9 51be 97f7 c43d 752e 563d 836e 8dbd
00000040: f033 023e 2414 43be 6e89 95bc 1e85 29bd
00000050: 91f5 5f3e 83e9 acbc e7aa 923d cc48 243d
00000060: 7287 7bbc 2818 183e 2307 ddbd 010f 6dbe
00000070: b825 c03d 5753 583d bba3 15bd faee b9bc
00000080: 242d b4bc 1619 c43d 85dd 5fbe a02e 9b3d
00000090: 271d e4bd 437b e3bc c8d8 283d 1c19 c23c
000000a0: 5686 f8bd d355 e4bd fa5e 12bd 2970 8f3d
000000b0: 47a9 9b3d 112e d4bd 1b26 0ebe 88f6 463e
000000c0: a2a9 01bd 7e5c ad3c 271e 933d 74f1 2fbb
000000d0: 6692 e9bd b3fe 48be 3c4a c8bd ca1d 6b3e
000000e0: 2b09 b0bd 4ca6 22bd 8171 773c 2b45 3d3e
000000f0: b0c9 bbbc 4eac 243e 0b86 2a3d fd5f 1a3d
00000100: 36da 483d c38c 05be 68a9 a8bd f722 7bbd
00000110: 7518 c0bd e4e9 11bd 7ca3 8bbc 522a 653c
00000120: 81b4 cf3d b7fa 1dbd 8785 07be f0b2 49bd
00000130: 32df b9bd 1386 ca3d bb40 c7bc 0d64 78bd
00000140: e9f4 323d dce2 2dbe 5d83 943d de7f cfbd
00000150: 691f ab3c 658b 26bd abcc f23c 0581 8bbd
00000160: 47e3 dcbd 190f 843c fc4b 143b b198 96bd
00000170: f6fc f6bd 2ded b6bd 3e4e b1bd 214c babc
00000180: b0c6 cd3d af0b 66bc f9df f3bd b70f a4bc
00000190: e526 563d 6076 2d3d 9407 7a3a 60f7 88bd
000001a0: 2690 6a3c 0345 85bc dcf9 09be 5fdb 73bd
000001b0: e9e2 cf3d aa96 303a 6950 183d e160 943d
000001c0: c51b d1bd df21 bc3a ff40 c9bc 741c 2ebd
000001d0: cd4a a7bc 94c1 eabd 6fa5 98bd 4828 093e
000001e0: 8038 c9bc 828b b8bd 3288 d8bd 370f d3bd
000001f0: 70c7 2c3c 74df 0b3c d4f0 8f3d 870e 0d3e
00000200: d15d 153d 8848 d43d 7f15 d4bd a8cb b03d
00000210: a344 6bbd 20a9 0cbe 0591 31be 794c 9b3b
00000220: a189 4e3d 577e 4f3e 8486 f5b9 cb5f b43c
00000230: 34fd 75bd fb97 dfbd e698 e63d b0e2 c6bd
00000240: 8095 c53d 106d 9fbd c24e 8e3d bc7f efbd
00000250: 30f2 fd3d 8fc9 efbd 79df 8dbd cfd7 c83d
00000260: 6e2e a7bd 77a5 4b3e f2fb 5b3d 6512 fa3c
00000270: f1d1 ce3d 1468 d23d 7d6e 513c bcab d33d
00000280: 2a27 fabd c531 6b3e 4fce 69bd 13a6 31bd
00000290: 52a7 663e 1b6f bf3d 2588 69be bb66 ecbd
000002a0: a8b0 22bd 02c2 ddbd 64ae 343e 6cbc d63c
000002b0: 66f6 173e 6891 193e 186a dcbd cd9f e03b
000002c0: 43a7 8fbd 63ff 6b3d e78e 6e3d 35f3 e0bd
000002d0: c626 a33d 7d90 cabd 1815 9b3c 9165 903d
000002e0: a787 36bc 952d 303b 5e98 e6bd f70b b3bd
000002f0: 0a51 9cbc c261 973d c9d7 ee3c 6633 b53c
00000300: 3ccf 693d a9fa a73d 2c6d e43d 9d09 3f3d
00000310: 737f 03bd 17c7 cb3d 3fd8 6fbd 7835 ed3d
00000320: 95a6 f43d d0b2 d03d 746e dd3d d203 c43d
00000330: db7d e13c 303b a0bc 3fdb 5e3e 4494 15be
00000340: 0606 df3d 3353 b93b 6f94 e03d 3ffa 8cbd
00000350: 731f a9bb 4ada c93d bc43 c0bd ee6b 58bd
00000360: 8247 2a3c c7b8 12be f6be 793c 53f9 ddbd
00000370: 4b2a 873d 28ac 5ebd 4174 f73d d1bb ff3c
00000380: d1ac 0f3e b70a 3f3e f0ef d5bd 8525 b4bd
00000390: 5648 eb3d bd6a 12bd a15f 97bd 3611 04be
000003a0: 6a73 78bd d28f 27be fd0f c43d f946 c03d
000003b0: 9304 f83d 5cce e33d 7ef7 9e3b 041a 69bc
000003c0: 101b 7dbd 63bf cabc fa7e 123d 6846 1d3d
000003d0: 121b a23d d6b5 a63b 84c3 e4bd bdc0 8ebd
000003e0: 57ab 203d ec5e 713d 4776 403b a9ee 11be
000003f0: 5376 0fbe 8329 9fbd 3a14 5a3d 1834 c1bc
-0.0794993 -0.06372455 -0.03193473 -0.001961358 -0.008540249 -0.04457129 -0.123156674 -0.055387583
0.053512104 0.1919616 -0.040573247 -0.018602455 -0.20474815 0.096175365 0.0522904 -0.06905844
0.12715125 -0.19050652 -0.018254008 -0.041386716 0.2187102 -0.02110744 0.07161503 0.040108487
-0.015352117 0.14852965 -0.10792377 -0.23150255 0.09382194 0.052813854 -0.0365331 -0.02269696
-0.021994181 0.09575097 -0.21861847 0.075772524 -0.11138373 -0.027768737 0.041222364 0.023693614
-0.121349975 -0.11149182 -0.035735108 0.07003815 0.076006465 -0.10360349 -0.13881724 0.19429982
-0.031655915 0.021162268 0.071834855 -0.0026846798 -0.114048764 -0.1962841 -0.09779784 0.22960582
-0.08595499 -0.039709374 0.015102745 0.18483417 -0.02292332 0.16081354 0.04163174 0.037689198
0.049036227 -0.13041978 -0.08235437 -0.061312642 -0.09379665 -0.035623446 -0.017045729 0.013987141
0.1014185 -0.03856918 -0.1323453 -0.049242914 -0.09075774 0.09888854 -0.024322858 -0.06064229
0.043690596 -0.16981071 0.07251618 -0.101318106 0.020889001 -0.04066028 0.029638609 -0.06811718
-0.10785537 0.01612048 0.0022628298 -0.07353342 -0.12059967 -0.089319564 -0.08657502 -0.02274138
0.10047662 -0.0140408715 -0.11907954 -0.020027025 0.052283186 0.04234922 0.00095378724 -0.06687808
0.014316594 -0.016268259 -0.1347422 -0.05953538 0.101507016 0.0006736318 0.03718606 0.07245041
-0.10210375 0.0014353356 -0.024567125 -0.042507604 -0.02042141 -0.11462703 -0.07453429 0.13394272
-0.024563074 -0.09010984 -0.10572852 -0.103056364 0.0105455965 0.008537162 0.07028356 0.13775073
0.036466423 0.10365397 -0.103556626 0.08632594 -0.057438504 -0.13736391 -0.17340477 0.004739341
0.050424222 0.20263039 -0.00046830263 0.022018334 -0.060055926 -0.1091766 0.11259632 -0.09711206
0.096476555 -0.07784474 0.069486156 -0.11694285 0.12399709 -0.11708366 -0.0692739 0.09806787
-0.08163153 0.19887339 0.05370707 0.03052635 0.10098637 0.102737576 0.01278269 0.1033549
-0.12214501 0.22968204 -0.057081517 -0.04337127 0.22524765 0.093473636 -0.22805841 -0.11543032
-0.039719254 -0.1082802 0.1764465 0.026212893 0.14840087 0.14996874 -0.10762423 0.0068549872
-0.070143245 0.057616603 0.05824175 -0.10983888 0.0796638 -0.0989084 0.018930957 0.07050622
-0.0111407405 0.0026882638 -0.112595305 -0.087425165 -0.019081611 0.07391693 0.029155629 0.022119235
0.0570824 0.082021065 0.111536354 0.046640027 -0.032103967 0.09950083 -0.058555838 0.11582464
0.119458355 0.10190356 0.10812083 0.09571041 0.027525833 -0.019559473 0.21763323 -0.1460734
0.10889821 0.00565567 0.109658115 -0.06883668 -0.0051612197 0.098560885 -0.09387919 -0.052837305
0.010393025 -0.143283 0.015243283 -0.108385704 0.065998636 -0.0543634 0.120827205 0.031217488
0.14030768 0.18656431 -0.10446155 -0.08796219 0.11488406 -0.035746325 -0.07391287 -0.1289719
-0.060656942 -0.16363457 0.09573362 0.09388537 0.121102475 0.11123344 0.0048512807 -0.014227394
-0.061793387 -0.024749463 0.035765626 0.038397223 0.079153195 0.0050875945 -0.11170104 -0.06970356
0.039225902 0.058928415 0.0029367374 -0.14251198 -0.14009981 -0.077715896 0.053241946 -0.02358441

rnn.bias_ih_l0 f4 [192]
00000000: 9715 a83d 7950 d3bd 31c4 02bd 252b c53d
00000010: e25b a2bd 2cd0 26bd c263 be3c b6ee d7bd
00000020: 718b a53c b5d7 93bd d6b6 fdbc 81ff 473d
00000030: 791d bf3d 3379 c43d d0db aebd f067 ed3d
00000040: 8b63 97bc beb8 1d3d 5a94 173e d7dd 1cbb
00000050: 5450 c23c 63da df3d 4e49 343d 02d5 1f3d
00000060: 9602 843d 212e 793d 42aa 743e 6f88 ca3d
00000070: a913 04bc 183a 053d 329a f63b 0777 0c3e
00000080: c8ac 44bd 6e03 043e a011 4f3c 6331 6b3e
00000090: 412f 8f3d 6e52 a83d 875f 90bd 4ea4 c7bd
000000a0: d6d6 3f3e ec74 e7bd a0a6 b33d e847 c9bd
000000b0: 54ed e5bd 0849 0c3e a6c6 01bc 9790 5a3d
000000c0: d367 8cbd 7813 8fbd 133a 873e 5bb3 8d3d
000000d0: 8551 ea3c 14ee e83c 6dca 1f3e 8370 2b3e
000000e0: 3908 eb3d 7dec b83d 1151 4ebc 66c9 773d
000000f0: 8229 ee3c ee56 433d d6d3 afbd f7b1 133e
00000100: 7e60 d8bd 128d bfbe a939 f6be 587f f8be
00000110: e7f8 6a3c 477d 10be 1f92 b4be 146e 58be
00000120: a725 b7be c121 753e 9931 a23d 3ccb 0cbf
00000130: 92c3 2bbf d0e4 0ebe ecb8 0a3e c7b5 34be
00000140: b9ec 35bc c3f2 43be c308 4dbe bed5 a1be
00000150: 0e7c 6dbe ab1d 26bf 5746 6bbd 9645 b4bd
00000160: 0cdd b6be 31e5 37be b028 48bf 8825 a83d
00000170: 5663 3ebf e19b 783e e563 67be 9f5a 1bbe
00000180: 286a 48be c699 02bc 41eb 083e df0b 51bc
00000190: 20e8 bfbe 514f e3be 8e42 b9bd 9952 13bf
000001a0: 1a05 afbe 6c82 4abe 709c 32bf a229 4cbe
000001b0: de4f 44be 4656 babe cc46 c23d 1065 81be
000001c0: 6661 00bf a8b2 38be ff16 38be 569a 26bf
000001d0: b28f 2dbf 6c0f 92be 3daa 22bf fe04 cabc
000001e0: 289f 7dbd 575f f1bd 5f9e e4be d052 4ebc
000001f0: 4438 c7be aedc 5d3e 123d 89be 4b71 a3be
00000200: 78ad 63bd 6e7f cf3c 6318 413d 98a9 2e3d
00000210: aabc 963d 05c4 0b3c 5d96 e3bd ca95 093d
00000220: 8ef8 e63d 3ea8 6c3d d012 e23d 6890 78bd
00000230: b6af 203d 9ffd 9e3d 170b 663d 435c 93bd
00000240: b4de 033e a2de afbd 2474 41bc b324 783d
00000250: 5a0f a93d ccde 693d 2e1b 06bd 03c5 07be
00000260: 1516 293d ef91 c4bd c56e 4a3d db48 90bc
00000270: d9f3 8b3d 5ba7 58bc 2c2c cbbc 6028 56bd
00000280: 398a d4bc aa58 17bd 595d dabd f934 013d
00000290: d961 183d deb7 debd 4528 23bd 64da fdbd
000002a0: 64e6 f2bc 6337 a6bd e6a5 d33d d5fb 0bbe
000002b0: cd57 77bc 78d3 b63d e0cd 243d e67c ca3d
000002c0: 97f9 a0bd bac5 b43d 43ec fbbd 2bbc 053b
000002d0: a09b f0bd 927a ca3d 3888 763d c128 00be
000002e0: c6b8 2dbd 1ae1 00bd 7118 a5bc dc05 83bd
000002f0: d5d0 213d cad9 913d 8c65 23bc e705 c93d
0.08207243 -0.10318083 -0.031925384 0.0962737 -0.079276815 -0.040725872 0.023240928 -0.105435774
0.020208092 -0.07218877 -0.030970972 0.048827652 0.09331793 0.095934294 -0.0853802 0.1159209
-0.018480083 0.038506262 0.14802685 -0.0023935938 0.023719944 0.10930326 0.04401522 0.0390215
0.06445806 0.060835008 0.23893073 0.09889304 -0.008061328 0.032526106 0.0075257057 0.1371728
-0.04801634 0.12891933 0.0126384795 0.22968058 0.06991435 0.08218847 -0.070494704 -0.097481355
0.18734297 -0.11301598 0.087720156 -0.09828168 -0.11226907 0.13699734 -0.007920897 0.053360548
-0.068557404 -0.06986135 0.26411495 0.06918975 0.028603325 0.028433837 0.15604563 0.16742139
0.11476178 0.090294816 -0.01259257 0.060494803 0.029072527 0.047690324 -0.085853264 0.14423357
-0.105652794 -0.37412316 -0.48090866 -0.48534656 0.0143415695 -0.1411029 -0.35267732 -0.21135741
-0.35770914 0.23938657 0.07919616 -0.5499761 -0.6709529 -0.13954473 0.13547105 -0.17647468
-0.011103802 -0.19135575 -0.20022874 -0.31608385 -0.23191854 -0.6488902 -0.05744013 -0.08802335
-0.3571552 -0.17958523 -0.78187084 0.082102835 -0.74370325 0.24278213 -0.225967 -0.15171288
-0.19571745 -0.007971233 0.13370992 -0.012759178 -0.37481785 -0.4439645 -0.090458974 -0.5754791
-0.3418358 -0.19776314 -0.69769955 -0.19937757 -0.19171092 -0.36393946 0.0948616 -0.25272417
-0.5014862 -0.18036902 -0.17977522 -0.6507925 -0.67797387 -0.2852739 -0.63541013 -0.024660584
-0.06191936 -0.11785763 -0.44652078 -0.012592986 -0.38910115 0.21666214 -0.26804405 -0.31922373
-0.055585355 0.025329318 0.047142398 0.042642206 0.073602036 0.008530621 -0.11112664 0.033590116
0.11277877 0.057777636 0.110387444 -0.06068459 0.03923007 0.07763218 0.05616292 -0.07195332
0.12877923 -0.08587386 -0.011807475 0.060581874 0.08254881 0.05709724 -0.032740764 -0.13258748
0.041280825 -0.09598147 0.049422044 -0.017612865 0.068336196 -0.013223494 -0.024801336 -0.0522846
-0.025944816 -0.03694979 -0.10662336 0.03154466 0.03720269 -0.10874914 -0.039833326 -0.1239517
-0.029650874 -0.08116033 0.10334377 -0.13670285 -0.015096617 0.08927053 0.0402354 0.09887104
-0.078601055 0.08826776 -0.12300923 0.0020406346 -0.11748433 0.0988666 0.060188502 -0.12515546
-0.04241254 -0.031464674 -0.020153256 -0.06397602 0.0395058 0.07121618 -0.009972941 0.09815579

rnn.bias_hh_l0 f4 [192]
00000000: 1fa0 43bd 48f4 a63d 546d d43d 8862 743e
00000010: 5271 343d f77a 083b a349 883d 705d aebd
00000020: aa1f f5bd 09af bcbd 4616 cc3d 9594 f13d
00000030: 870d 2d3e a702 c53d 30a7 a5bd 0442 4b3d
00000040: 7a64 e2bd c153 073e 41d7 703c b0ec c2bb
00000050: 9ba0 073e 5635 23bd 34bc d83d cfbf 48bd
00000060: 9b37 83bd d2fb 4bbd b163 df3d 9d7a a43d
00000070: 0fab d53d 73a1 6bbd 712f 553d 5aaf 503c
00000080: be47 a83d 1311 203d 32bb 283e c903 663e
00000090: 3f2d c3bd 5595 e83d d1e3 e63c 5d77 d9bd
000000a0: a5fd aebb 026a bbbd e67c 1b3e 5354 c6bc
000000b0: 4c5b 463d 3deb e73c 5de4 153d 83a0 ee3d
000000c0: 4913 53bd acf2 97bc e167 733e 6709 e53d
000000d0: 3e1f 3d3e b451 1f3e 9853 46bd a770 193e
000000e0: e733 163d 2b28 873d 9735 42bd f2b1 dd3d
000000f0: a2e3 f1bb 0a75 1d3e b75d 20bd f84a c23d
00000100: f838 0bbe c7e7 94be 34d9 00bf 5f7a 29bf
00000110: cc24 e63d 322a 60be 841c c5be a643 fbbd
00000120: 62f8 13be 1911 ec3c 281d 56bd 3013 34bf
00000130: f768 23bf 89e9 413c 07d1 09bd e890 3fbe
00000140: 1d9d 8abd 6ffb 6ebe 5c24 90bd b466 4cbe
00000150: 596a 9fbe 6005 0bbf 9a48 09bd ae65 46be
00000160: 7182 81be 2832 93be 0c5c 4fbf f6c4 8e3d
00000170: ab2a 3cbf 2ad0 843e 07ed 25be 645b 4dbe
00000180: c8ff e3bd 2911 0dbe 3ac2 1d3e c67e e93d
00000190: 419e 9ebe fb1c d5be 9bd4 6abe 7eba 0bbf
000001a0: b698 92be f6d8 c5bd 3e7b 26bf 4e19 1fbc
000001b0: 5e0e 96be 8e5d 00bf 70e4 4c3c 6767 d5be
000001c0: 2bbd f6be 0ad4 9ebe a632 2fbe d672 11bf
000001d0: 1418 18bf a735 9ebe 5eb2 e3be 15cd 66bd
000001e0: 10c9 a13d a5db fcbd 84f9 abbe ca00 31be
000001f0: 6766 92be b276 373e 0520 a4be 0601 9cbe
00000200: 195a 2bbc 99b1 3d3d 7c2c 8cbd 77ce fcbc
00000210: ed2b 9abd 9a1a 563d 09e9 ce3d 6027 033d
00000220: 0893 84bd 4800 00be 50de c73d 0034 f4bb
00000230: b6cd 05be 7dec a3bd 1feb 263d ddb7 7d3b
00000240: 7ebd d2bc e358 ae3d 7b3a 353e d3ad 9b3c
00000250: 371c d1bd 3ff8 8abd ebd4 04be d892 9a3d
00000260: 1c39 efbd 15a5 05bd 47be cdbd 4a3a 9cbb
00000270: cfa2 cdbd 3a77 0cbe b76d c5bd 70f9 673d
00000280: ffd2 09be 842d dd3d 0608 503d d5ce 973d
00000290: 7f75 ab3d 22a3 783c 0ee4 a7bc 64af dfbd
000002a0: 4374 f2bd 8e47 e6bd a9ef e9bd b2d2 a8bd
000002b0: b16f 383d 48ff c0bc b20b 1c3d 02b8 c6bd
000002c0: 2c2b 3c3d b4d9 0dbe 8813 3f3b f4fb f5bc
000002d0: 6091 c13d 976a cebd a38e fb3d e458 40be
000002e0: 2e0a f7bd 3d7d 84bd c9ee 86bd 6497 dd3c
000002f0: 7b07 cbbd 820b 2bbd 7d69 13bd c358 8dbd
-0.047760125 0.08152062 0.10372415 0.23865712 0.044053383 0.0020825246 0.0665467 -0.085139155
-0.1196893 -0.09213073 0.09965186 0.11795918 0.16899692 0.096196465 -0.08088529 0.049623504
-0.11054321 0.13215543 0.014699758 -0.0059486255 0.1324486 -0.039845787 0.10582772 -0.049011048
-0.0640709 -0.0498007 0.109076865 0.08031199 0.104330175 -0.057527017 0.052047197 0.01273712
0.08216809 0.039078783 0.1647766 0.22462381 -0.095301144 0.11356608 0.028184803 -0.1061847
-0.0053402954 -0.09151079 0.15184364 -0.02421013 0.04842691 0.028310413 0.036594737 0.11651709
-0.051532064 -0.018548332 0.23770095 0.11183434 0.18468949 0.15558511 -0.048419565 0.1498438
0.03667059 0.06599458 -0.04741439 0.10824956 -0.0073818723 0.15376678 -0.039151873 0.094869554
-0.1359595 -0.29083082 -0.50331426 -0.6620235 0.11237487 -0.21891096 -0.38498318 -0.12268762
-0.1445022 0.028816747 -0.0522739 -0.7034178 -0.6383204 0.011835464 -0.03364661 -0.18707621
-0.06768248 -0.23338102 -0.07038185 -0.19961053 -0.31135824 -0.54305077 -0.033516504 -0.19374725
-0.2529483 -0.28749204 -0.8099983 0.06971161 -0.73502606 0.25940067 -0.162037 -0.20054394
-0.11132771 -0.13776077 0.15406123 0.11401133 -0.30980113 -0.41623673 -0.22932665 -0.5458144
-0.28632134 -0.09660523 -0.650318 -0.009710623 -0.29307836 -0.50142753 0.012505636 -0.41680452
-0.481912 -0.31021148 -0.17109165 -0.5681585 -0.5941174 -0.30900308 -0.4447202 -0.056347925
0.07899678 -0.12346581 -0.33588803 -0.17285457 -0.28593752 0.17916372 -0.3205568 -0.3046953
-0.010458493 0.04631195 -0.06844422 -0.030860169 -0.075279094 0.052271463 0.10103042 0.032019973
-0.064733565 -0.12500107 0.097591996 -0.007452488 -0.13066754 -0.08004091 0.040751573 0.0038714327
-0.025725123 0.085130475 0.1769809 0.019003784 -0.1021046 -0.067856304 -0.12971847 0.075475395
-0.116808146 -0.032628138 -0.10046058 -0.004767691 -0.10040819 -0.13717356 -0.09640067 0.056634367
-0.13459395 0.10799697 0.0507889 0.07412497 0.0837202 0.015175613 -0.020494487 -0.10922125
-0.118385814 -0.11244117 -0.11422665 -0.08243312 0.045028392 -0.023559228 0.03809709 -0.097030655
0.04593961 -0.13852578 0.0029155929 -0.030027367 0.09451556 -0.10078924 0.12283065 -0.18783909
-0.120624885 -0.064692 -0.065885134 0.027049728 -0.09913536 -0.04175902 -0.035989273 -0.069016956

rnn.weight_ih_l1 f4 [192, 64]
00000000: b1ca 7b3c bea8 aabd 600e 133d 7f2d a9bd
00000010: d363 91bd 5629 0fbd 867f 403d 78e4 81bd
00000020: a6d4 91bd f813 aa3b b93b 13be 358d b83d
00000030: 5340 80bc 023c a63c 0ef2 c7bd f775 a0bd
00000040: 4303 0a3d 989f fdbc ee2a d33d 436b ec3b
00000050: 3bf0 c73c d1f1 8e3d 68c3 c3bd bd27 233e
00000060: 5fe9 eebd 8976 dabd da6d c73d 52a8 053d
00000070: 769b 42bc 7866 3abc 1bbf 6b3d a105 91bc
00000080: e2ab 043c a3b5 fe3d 77a9 f43d 3379 0fbd
00000090: 4e63 2e3e 899b 83bd f19d bbbd b034 243e
000000a0: f7c8 d6bd 5be8 52bd 1bad 87ba ebb4 ce3d
000000b0: 3282 f13c 2a14 acbd feb5 613d 5902 a9bd
000000c0: 8af1 4c3e ab5b fa39 118e 71bd fc43 2e3d
000000d0: 1e83 dd3c d6a4 e3bd 89c3 fb3d 0aff f03b
000000e0: b9e6 7b39 73be efbd e76f b6bc b5f6 a3bd
000000f0: 9b55 2b3e 30fd 353d 690a af3d ed4d 133d
00000100: 120b 56bc 3f14 b7bd 4be3 293d a7d4 693d
00000110: 2241 77bd 701a 8c3d 997f 993c d4ff 0abe
00000120: b40a 79bd f509 e0bc 5766 023d 8798 1c3e
00000130: d095 f3bd be25 9ebd 8acf 073e daea e6ba
00000140: c723 e63d a7e5 efbd 7eb8 d03d 5924 cf3d
00000150: 3d10 be3b 12d1 623d 2e91 ee3b d61d ee3d
00000160: 12c3 5e3c de25 093d eed4 123d d6ce 0dbc
00000170: 697a cb3d e3bb c13d 2436 88bd cdbf dd3d
00000180: 559a eabc 7e07 d33d e4d3 1e3d 3b1e a9bd
00000190: b0ab c43c c964 4a3d ea70 82bb 4854 f63d
000001a0: 86b3 e33c dbb3 003e c050 3a3e f434 143d
000001b0: 9e6a d83c a8e5 453d 7c2e 423d e54f d8bc
000001c0: 4b82 0ebe 4f8a e2bc 2302 23bc f19c 30be
000001d0: 7fb4 e2bd 0046 88bd f7b2 473d a4c0 f73d
000001e0: 569b 66bc dfa5 36be 36d4 f6bd 62f7 0e3d
000001f0: 4f87 d0bc 8b99 db3d 5508 d3bd 56c7 bb3d
00000200: 8681 75bd a3e7 f8bd efb3 14be 2e0c 893d
00000210: 8eed 89bd 1452 903d 7061 5a3c 8894 733c
00000220: 18bd d73d decc 953c f64e 85ba c0e6 573d
00000230: 3dd0 c4bd 6b3d c5bd f44d 6abd b758 c43d
00000240: add3 70bd eea0 00be 9dfd 433c 6d00 4f3d
00000250: 80d9 533d 0909 953d 65dd b5bd a6bc 153d
00000260: 0fa6 b23a a1b3 f1bc c21a 9d3d ed87 2fbd
00000270: 7a5d 183e 6c57 ff3d 4957 47bd 0ef3 2c3e
00000280: 0c8d 153e a8ce f73d cf13 c6bd 4c42 a1bd
00000290: a83e 203d f533 003e dfa0 cb3d 18f3 9cbd
000002a0: ab9d 8bbd e5ad 08bc cbe5 c93d 46dc bdbc
000002b0: 8509 a63d 5f0b 373a 1a6d 373d b7d8 9c39
000002c0: 9254 f83d d43e 93bd f2c6 95bb 9b28 69bd
000002d0: 7eb7 aebd 6dea 1bbe fddb 9a3d 06e2 34bc
000002e0: 87fe 0cbc 21a5 4cbd 654a e4bc 54b3 033e
000002f0: 6bdd 11bd e893 983c 3008 6bbd 344e 633d
00000300: c1fe 453d 3c75 9f3d e3f1 523d 6367 87bd
00000310: 9bbf dfbd 7052 7cbd 88e0 743d 39f9 34bc
00000320: 3da4 c43c 4c72 613d 630b 18be d730 d5bc
00000330: 1444 733d bdaf 023d 95bb a53d 54a3 ebbd
00000340: 6183 f73c 841c 2bbd 66d7 df3d a514 63bd
00000350: 6618 36bd 64d6 f1bc e39d b63d 7da5 44be
00000360: e2ab 3cbe e904 51bd c872 9fbd 2c39 c8bc
00000370: 95d7 19bd 471a a6bd 90b0 a6bb 95ea 1dbe
00000380: a98a 153e 1f56 fbbd 4fd1 223e 3e2a 883d
00000390: fbd8 24ba d07b 95bd 8c56 a7bd ff8c e0bd
000003a0: 2c32 b1bd dee6 93bd 8d38 abbd e8ed 87be
000003b0: 7fed 09be bea2 3dbe 31b1 bfbd 3698 e7bd
000003c0: 4f3b ebbd 1c96 c03d f739 74bc bf01 333d
000003d0: 46b5 ec3d 66a1 163e a3ca 4e3d 0eef 643b
000003e0: ef49 1fbd 0522 2c3d 0834 c53d aa6d dcbd
000003f0: 9dd5 d93d 74db 27be 333c 283d be27 7fbd
0.01536815 -0.08332966 0.03590238 -0.08260631 -0.07099118 -0.03495153 0.046996616 -0.06342405
-0.071206376 0.0051903687 -0.14378251 0.09011308 -0.015655672 0.020292286 -0.09762965 -0.07835
0.033694517 -0.03095989 0.103109226 0.007214935 0.024406543 0.069797166 -0.09558755 0.15933128
-0.11665606 -0.1066714 0.097377494 0.032631226 -0.011877885 -0.0113769695 0.0575553 -0.01770288
0.008097621 0.12436988 0.11946385 -0.035027694 0.17030069 -0.0642615 -0.09160984 0.16035724
-0.1048755 -0.051491123 -0.0010351272 0.10093101 0.029481027 -0.084022835 0.055105202 -0.08252401
0.20014015 0.00047752014 -0.058973376 0.042545304 0.02704006 -0.11115424 0.12293155 0.007354622
0.00024023176 -0.11706247 -0.022270156 -0.0800604 0.16731875 0.04443091 0.085469075 0.035962988
-0.013064163 -0.089394085 0.04147653 0.057087567 -0.06036485 0.0684098 0.018737601 -0.13574153
-0.060801223 -0.027348498 0.03183588 0.1529256 -0.11893809 -0.077220425 0.13262764 -0.0017617599
0.11237293 -0.117137246 0.10191439 0.10114355 0.0058002756 0.055375166 0.0072804904 0.116267845
0.013596313 0.03348338 0.035847597 -0.008655271 0.09935457 0.09459665 -0.066509515 0.10827599
-0.028638044 0.103041634 0.038776293 -0.08257719 0.024007648 0.049412522 -0.0039807456 0.12027794
0.027795564 0.1256861 0.18194866 0.036183313 0.026418027 0.04831472 0.047407612 -0.026405284
-0.1391689 -0.027653841 -0.00994924 -0.17247368 -0.11069583 -0.066539764 0.04875466 0.1209729
-0.014075121 -0.17836712 -0.12052195 0.03490389 -0.025455145 0.10722645 -0.103043236 0.0916888
-0.059937976 -0.12153556 -0.14521764 0.06691776 -0.06734763 0.07046905 0.013328895 0.014866956
0.10534114 0.018286165 -0.0010170627 0.052710295 -0.09610031 -0.09630855 -0.05720325 0.095872335
-0.05879562 -0.1256139 0.011962322 0.050537515 0.051721096 0.07277114 -0.08880118 0.036556862
0.0013629812 -0.029504599 0.07671119 -0.04285424 0.14879408 0.12467846 -0.048667226 0.16889593
0.14604586 0.120999634 -0.09671747 -0.07873973 0.039122254 0.1251982 0.09942793 -0.07663554
-0.06817182 -0.008342241 0.09858283 -0.023176324 0.081072845 0.00069825904 0.04478178 0.00029916104
0.121255055 -0.07189718 -0.0045708353 -0.05692349 -0.08531092 -0.15226145 0.07561491 -0.011040216
-0.008605606 -0.049962167 -0.027867505 0.12861377 -0.03561155 0.018625215 -0.057380855 0.055494502
0.048338655 0.077860326 0.051500212 -0.06611516 -0.10925218 -0.061602056 0.059784442 -0.011045747
0.024004096 0.055040643 -0.14848094 -0.026024265 0.059391096 0.03190588 0.08092419 -0.11505762
0.030214014 -0.04177524 0.10929756 -0.05543961 -0.044456862 -0.029521175 0.08916833 -0.19203754
-0.18424943 -0.051030073 -0.07785565 -0.024441324 -0.03755911 -0.08110481 -0.005086966 -0.15421517
0.14603676 -0.12272286 0.15900157 0.06648682 -0.0006288436 -0.07299006 -0.081708044 -0.10964393
-0.08652148 -0.07221769 -0.083603956 -0.26548696 -0.13469504 -0.18519112 -0.093599685 -0.11308329
-0.114859216 0.09403631 -0.014906398 0.043702837 0.11558013 0.14710006 0.05048622 0.0034932527
-0.038888868 0.04202463 0.09629065 -0.10763104 0.106364466 -0.16392308 0.041073035 -0.06229376

rnn.weight_hh_l1 f4 [192, 64]
00000000: 29b4 d1bc c2b2 96bc 63f4 cabd db5d 15be
00000010: 46c2 e03d 42f0 4fbd 2102 bc3b 8569 84bd
00000020: 5fa5 22be 955c 16bd d3c3 7f3d a8d7 a4bd
00000030: 2286 1a3d f0df 26bd 4d92 1cbd d77c 463c
00000040: 64e2 a83d 86fc ae3b 3b06 30bc b2df b13d
00000050: 0e3e 0e3e ad69 6a3d e889 dabc 85b7 fa3d
00000060: 877f 58bc 89dd 693d dc72 19be 430a f5bb
00000070: a13f c93b 6cd6 893c e6bb c3bd d769 3cbd
00000080: 07a9 3e3e 9c12 03be 3f77 943c ddad 8bbb
00000090: 0a9f e83d 785d cdbb cb07 5bbc a6eb e4bd
000000a0: 5666 403c c6ee 2dbe d99d 4cbd 67b9 803d
000000b0: a259 cdbd bd88 413e ef65 363b b4d6 813d
000000c0: 80ac 2c3d 548f f93d b23e 213d 213b 0d3d
000000d0: 295b eebc a0ae 28be e204 6d3d f35a 80bd
000000e0: 2a00 b8bd 27d9 d73d a226 9fbd df9a ad3c
000000f0: efad 7a3d 1bae 68bd beda 83bd fb20 393e
00000100: 7538 dabd ff89 df3c a74e c73c 15db e8bd
00000110: 9083 0b3d a9c9 f13d c61f ac3d 2fe6 a43d
00000120: a960 21bd 5908 dbbd 857a 153d 2e2b 5fbb
00000130: 2383 943d ce5d 3db9 0630 67bd f5b2 8bbd
00000140: 6d7e 3c3d adf4 be3d 2fa5 f7bd 42d7 fdbc
00000150: edbc 273d 427d 8fbc 6214 f93d 7c8b c8bc
00000160: e839 0b3e dec0 8cbb f34a 853d 5c29 4ebd
00000170: b297 083e cdd1 e43c 9878 533d e884 283d
00000180: 3b1c 043d 5a76 4bbc b0c2 e8bd bc0d 0e3c
00000190: 1a0c dabd e03e a33d 41b1 e93d 9f2a b4bd
000001a0: b964 083e 9b69 3abd a873 94bd 9802 bebd
000001b0: 47c5 0ebd a62c 573d 84b4 abbc a680 87bc
000001c0: bbe8 043d 7796 d43d 1492 0abe 7857 f93c
000001d0: 68b7 af3d 99dc 23bd 3c6e 6fbc c44c b53d
000001e0: 4e2c 8d3d 9d18 b03d 22a0 a9bd 9bc1 2cbc
000001f0: da3f f5bd 0672 e3bd 9f81 9dbb d929 0c3c
00000200: 05fc ec3d 0fed d23d 97f6 efbd 55ca bc3c
00000210: 2773 e7bc 6a12 8abd aa52 f73d 0637 de3d
00000220: ab8b d8bd 4de8 3abe 2f7f 223d 588d df3d
00000230: 9603 363d 8c01 073e 70bd 02be 3934 9f3d
00000240: 270f 20bd db61 e4bc b443 f6bd 99db c53d
00000250: d9ca 543d 04cb 81bd 3683 3b3d eeb4 e23d
00000260: 6dee a23c d88e acbd b200 0a3b f59b 26bd
00000270: a825 db3d 6518 54bd ee71 c8bd 1555 eebd
00000280: be2e 83bd 6602 d8bd a95a 77bd 8754 9cbd
00000290: cc6f dabd 45df a7bd e8c4 a5bc 72df 653d
000002a0: 0669 a53d a36f d63b 67d7 173d f0bb 91bd
000002b0: 4bea 963d 6cec c43d cb69 7dbd d88e 64bd
000002c0: fd26 fcbc 3591 25bd 7136 2cbd 395f c23d
000002d0: aea0 82bd 6bbb 03be 8ae1 b2bc 06c2 0cba
000002e0: 16ce 843d 1581 f3bd 716e 023c 090d 953d
000002f0: fba9 a23d a70d 8a3d b85f 873d 46e9 0bbd
00000300: 34f4 0f3e 7558 123e 1f7d b43d d269 9c3d
00000310: acdc 13bb 8cb7 a0bd 304c 523d 6777 22bd
00000320: 504e cabd a344 b73c a4e0 263d 4c07 1f3d
00000330: 2df7 3fbc 2295 483a f7bc 043e a346 e53b
00000340: e210 03be 66ac 2b3e 7c02 b13c 6daf 63bb
00000350: 36da b1bd 6812 ac3c b8fd 243d 4f1e 013d
00000360: 35f1 143e 75b3 39bd 74df b4bd 049c a3bd
00000370: 3770 8b3d b475 233d 9d88 883d f473 efbc
00000380: 2937 7e3c 6d57 9b3d 3409 033d fe68 973d
00000390: d624 a6bc 80bd 383d be2a 52bb e985 6abc
000003a0: 8412 0ebb 0549 59bd 2d67 97bc ed69 a53c
000003b0: e815 d6bc dc92 57bc aa20 943d 9a80 dc3c
000003c0: 16ff 85bd 28c5 3ebb 167c 62bb 2f08 673d
000003d0: 69a1 ee3d 425d 213e 790e fabb 46c5 023e
000003e0: 1cf3 fe3c 8e43 ebbc ac3c 213e db44 e8bd
000003f0: d87e e5bd 923d e73d 978b 143d 4a5d 1b3d
-0.025598602 -0.018395785 -0.09909894 -0.14586584 0.10974555 -0.050766237 0.0057375585 -0.06465439
-0.15883397 -0.036709387 0.062442612 -0.08048946 0.037725575 -0.040740907 -0.03822546 0.012114725
0.082463056 0.0053401617 -0.010743673 0.086852446 0.1389086 0.057229687 -0.026677087 0.12242035
-0.013213999 0.057096038 -0.14985222 -0.00747803 0.0061416184 0.016825877 -0.09557323 -0.045999374
0.18619166 -0.12800068 0.018123267 -0.0042626695 0.11358459 -0.006267246 -0.013368557 -0.11177759
0.011743149 -0.16985616 -0.049955223 0.06285363 -0.10026862 0.18899818 0.0027831753 0.063397795
0.042156696 0.12185541 0.03936643 0.034480218 -0.029096203 -0.16472864 0.057865985 -0.06267347
-0.08984406 0.105394654 -0.077710405 0.021192012 0.061201032 -0.056806665 -0.06438206 0.18078987
-0.106552996 0.027287481 0.024329497 -0.113699116 0.034061015 0.11806042 0.08404498 0.080517165
-0.039398823 -0.106949516 0.036493797 -0.0034052837 0.07251575 -0.0001805939 -0.056442283 -0.06821243
0.046019007 0.09324012 -0.12092053 -0.030986432 0.040951658 -0.017515782 0.12162091 -0.024480574
0.13596308 -0.0042954525 0.06508436 -0.050332412 0.13339117 0.027932072 0.05162868 0.041142374
0.032253485 -0.012418354 -0.11365259 0.008670267 -0.106468394 0.07970977 0.114107616 -0.08797192
0.13319673 -0.04551087 -0.07248622 -0.092778385 -0.034856107 0.052532814 -0.0209601 -0.016540837
0.03244851 0.103802614 -0.13532287 0.030437216 0.08579904 -0.0400053 -0.014613684 0.088525325
0.06893216 0.085984446 -0.08282496 -0.010544206 -0.11975069 -0.111057326 -0.004806712 0.008554899
0.115715064 0.102991216 -0.11716955 0.023045698 -0.028253151 -0.067417935 0.12076314 0.10850339
-0.105735146 -0.18252678 0.039672073 0.10915631 0.044437014 0.13184184 -0.12767577 0.077736326
-0.03907695 -0.027878692 -0.12024632 0.096610256 0.051951263 -0.0633755 0.04577943 0.11069666
0.01988908 -0.08425683 0.0021057543 -0.040676076 0.10700542 -0.051781077 -0.09787355 -0.11637322
-0.064054 -0.105473325 -0.060389195 -0.0763331 -0.10665855 -0.08196882 -0.020235494 0.056121297
0.08076672 0.00654407 0.037070658 -0.07115924 0.073689066 0.096154064 -0.06186847 -0.05580029
-0.03078031 -0.040421683 -0.042044107 0.094908185 -0.063783035 -0.12864463 -0.021836061 -0.0005369488
0.0648462 -0.11889855 0.007960902 0.07277877 0.079425775 0.06740885 0.06610054 -0.034158014
0.14058 0.14291556 0.088129275 0.07637371 -0.002256195 -0.07847509 0.05134219 -0.039664652
-0.09878218 0.022371596 0.040741578 0.03882532 -0.011716646 0.0007651617 0.1296271 0.006996946
-0.12799409 0.16764984 0.02160763 -0.0034742013 -0.086841986 0.02100487 0.040281028 0.031523045
0.14545138 -0.04533716 -0.08831683 -0.07988742 0.06808513 0.039907172 0.06666682 -0.029230095
0.015516081 0.075850345 0.0319912 0.073930725 -0.020281237 0.045102596 -0.0032068933 -0.014314153
-0.0021678517 -0.053048152 -0.018481815 0.02019211 -0.026133493 -0.013157573 0.07232793 0.02691679
-0.065427944 -0.0029109214 -0.0034558824 0.05640429 0.1165188 0.15758231 -0.00763112 0.12770566
0.031121783 -0.028718736 0.157458 -0.11341258 -0.11205834 0.112910405 0.036265936 0.037930764

rnn.bias_ih_l1 f4 [192]
00000000: a2ff 99bd d334 04be fb98 fbbd e96e f8bd
00000010: 58e9 69bd 2286 bfbd b8fe 90bd a7ad ac3d
00000020: e234 96bd dafb 94bd 64fc 893d fc78 d9bd
00000030: 13be 5dbd 614c efbc 4a2c b33d 9e12 dfbc
00000040: 42db ffbd 7450 b83c 8330 98bd 1172 823d
00000050: bdf0 c33d b6a9 363d 0f6f 03bd 9989 693d
00000060: 1d35 23bc bad2 0a3c c84a 20bd ca53 7d3d
00000070: 97b4 d53d 1692 b13d 4f71 2abd dcbb 503d
00000080: b013 46bd fa98 013d ac9a fc3d 7f13 d73c
00000090: 849a 923d 3c32 7e3d b1ca 80bd ed3c 42bc
000000a0: 30cb e03b d57a d6bd c90f 473d 8cec a0bd
000000b0: 3a50 0ebd 44f2 78bd 8800 f43c 4d72 bd3d
000000c0: 7055 4bbd b5b8 7cbd e560 66bd 3baa 03bd
000000d0: 4cd1 a23c a535 4d3c f9e5 ddbd bb01 0c3d
000000e0: 0040 8fbd bfea 5fbd 84f0 bb3d bcb9 46bc
000000f0: d642 0a3e 5b7c 97bd d111 84bd 26c3 c6bd
00000100: 8f17 6dbd b864 52bd cb60 933e ea05 03bd
00000110: c296 c5bd 723c 25bd 4912 4c3e f767 553e
00000120: 34ff 03bc c537 f03c bf80 cb3c 4efb d03d
00000130: e3d4 9e3e a75d 213d f9b8 debb b96b 54be
00000140: d37e d239 6384 e23c c74e 193e 516b 1fbe
00000150: 93ea 573d af0b 6cbe 4305 393e 1d74 2a3d
00000160: e4f2 0a3e c8fb 343e 5fb9 4ebe 2333 073e
00000170: 5956 6eba dc08 3c3e 79ca ffbb b421 a7bd
00000180: f0b2 213d cafc 1f3e 9756 1f3e 96d9 5a3d
00000190: e40d 12bc 8259 35bc c5cc 053e 16d3 d23c
000001a0: 7279 5cbd 74cf 863d ffc9 f73d 057c 0dbe
000001b0: 8b08 4f3d 28d3 5e3e cfa6 a3bd ba00 06bd
000001c0: 37c0 8abd 15e9 02be e43b 3c3c 4f80 86bd
000001d0: d5de 783e 9a59 c83c afbd 9a3d 4294 fdbd
000001e0: d4ff 663d 49e0 efbc 99c4 e73d 36ac dd3d
000001f0: 8643 973e e1b9 153d f33e 12bd ef59 e43d
00000200: 5947 01bc d00a c8bd 63df 19bc bfdb ddbb
00000210: c5ce debd aa6e a9bc e52f a4bb d0db 85bc
00000220: 8846 f93d 6486 053d 063d c7bd fb6f 403d
00000230: 61b5 c63d 6a4e d8bd 63fd 98bd d20c e9bd
00000240: bd78 a43d ea63 91bd cdb0 dc3d 37f6 333d
00000250: da13 a13c 15d4 51bd ee48 2b3c ab62 b7bd
00000260: 81b0 dcbd 3058 babd 515b efbc 93db b43c
00000270: dd71 993d 91ce fdbb 5851 07bc d3db 00bd
00000280: 181a c63d 4023 b03c 79e4 a7bd 68f0 c0bd
00000290: 4d73 db3d 17c1 8f3c 92ea ec3d 6e7c e73b
000002a0: ced7 1a3d 7a45 b7bd 609a b6bd cd12 0d3e
000002b0: 8db7 8ebd f29b 93bd 331a f93b 90fc b83b
000002c0: 099f e3bd 35f5 c53d 645f e0bd f68d 5fbd
000002d0: 314f ec3d d465 b23d 0b08 183d 6bf8 cf3d
000002e0: 77f2 babd 75b8 c93d 3e2b ab3c a314 f33c
000002f0: 6c95 413d 7e32 c23d d339 cabd 8520 d43d
-0.07519461 -0.12910776 -0.12285038 -0.121305294 -0.0571073 -0.09351756 -0.07079834 0.08431559
-0.07334305 -0.072745994 0.06737593 -0.10618779 -0.054136347 -0.029211225 0.08748682 -0.027230557
-0.12492992 0.0224993 -0.07431128 0.06369413 0.095674016 0.044595443 -0.032088336 0.05701599
-0.009961394 0.008473093 -0.039133817 0.061847486 0.104348354 0.08670442 -0.041611966 0.050960407
-0.04835862 0.03164003 0.12334189 0.026254414 0.07158378 0.062059626 -0.0628866 -0.011855346
0.0068601593 -0.10472647 0.04859904 -0.07857618 -0.03474448 -0.060777918 0.02978541 0.09250317
-0.049642026 -0.061699588 -0.05624475 -0.032144766 0.019875191 0.012524997 -0.108348794 0.034181338
-0.06994629 -0.05466723 0.09176734 -0.012129243 0.13502058 -0.07396766 -0.06448711 -0.0970519
-0.057883795 -0.051365584 0.28784785 -0.031988062 -0.096478954 -0.04034085 0.1992885 0.2084044
-0.008056451 0.029323468 0.024841664 0.102041826 0.31021795 0.039395954 -0.006796953 -0.20744218
0.00040148813 0.027651018 0.14971457 -0.15568282 0.05271394 -0.23051332 0.18068413 0.04161464
0.13569218 0.17674172 -0.20187901 0.13203101 -0.00090918463 0.18362755 -0.007806119 -0.08160725
0.03947729 0.15623775 0.15560375 0.053430162 -0.008914445 -0.011068704 0.13066395 0.02573542
-0.053826757 0.06582537 0.120990746 -0.13816841 0.050545257 0.21760237 -0.079908006 -0.032715537
-0.06774943 -0.12784226 0.011488888 -0.06567442 0.24303754 0.024456788 0.075557105 -0.123817936
0.05639632 -0.029281752 0.11316795 0.10823862 0.29543704 0.03655422 -0.035704564 0.11149966
-0.007890546 -0.09767687 -0.009391638 -0.0067705805 -0.10879282 -0.020682652 -0.0050105923 -0.016340166
0.12171656 0.032598868 -0.09728436 0.046981793 0.09702564 -0.10561831 -0.07470205 -0.113793984
0.080308415 -0.07099135 0.107759096 0.04393598 0.019662786 -0.051227648 0.0104543995 -0.08954366
-0.10775853 -0.09098852 -0.029218348 0.022077357 0.07492421 -0.007745572 -0.00825914 -0.03145964
0.09672946 0.021501184 -0.081978746 -0.09420854 0.10715351 0.017548127 0.11568178 0.0070643937
0.037803464 -0.089487985 -0.089161634 0.13776703 -0.06968603 -0.072074786 0.007602 0.005645342
-0.11114318 0.0966591 -0.10955694 -0.054578744 0.11538542 0.087108284 0.037117045 0.10154804
-0.09128278 0.098496355 0.020894643 0.029672926 0.04726164 0.09482287 -0.0987431 0.10357765

rnn.bias_hh_l1 f4 [192]
00000000: 45ea 2bbd 714b 91bd bf68 3cbc db83 9f3d
00000010: e785 8e3d df3f bf3d 969d 73bd 15e9 163e
00000020: caf5 13bd eb25 203c ec40 023d da8d 18bc
00000030: 36e0 6e3c bd4c 72bd 286f 02be fa97 da3c
00000040: 20ae bd3d a905 553d 0cc4 c139 d3fd f1bc
00000050: 7799 5ebd fc5f 4a3d 7806 023e a81b 50bc
00000060: 84c0 e13d 3168 743d d433 803d 4f08 02be
00000070: af95 d23d a72a 373d 4bec 05be 0c4a 56bc
00000080: c9ca 37bc 0640 92bd fa03 d23d bc49 4fbd
00000090: aa7a 23bd 0178 f2bd 2818 5a3d 1e80 f4bd
000000a0: 107e 4bbd c678 783d 71b6 20bd de3f 12bd
000000b0: 8555 d1bd 1fec 303b b56f 1cbd f696 9dbd
000000c0: 72dd b7bd b224 81bd 7ac2 d9bc b1c1 18bc
000000d0: 08a9 4bbd 6729 263c fbf6 b33d f2fb b6bd
000000e0: f8f8 aabc 58af a638 4d88 313c 2098 aebd
000000f0: ff2d 74bd 732b e4bd 946c ccbd 5e11 39bd
00000100: e561 023c 11e0 78bd b8f4 893e 82b5 aabc
00000110: 05ca e13d 9667 1b3e 4bb2 f33d 0035 973d
00000120: 8a89 a3bd 188e 4fbe a404 45bd d45a ae3d
00000130: 9a94 733e cc2b b63d d126 a4bc c810 40be
00000140: 916c 14be b7ff cd3d 6ce3 133e c3cb 2bbe
00000150: dcbe f33d 62fa 5ebe b10d 673e 6553 1abe
00000160: 8f50 3e3e 3874 1b3d 31a0 0cbe 7af9 433e
00000170: b076 82bb 9bd6 8c3c e1f9 b4bc 0b68 313c
00000180: d5c8 d83d 72f6 023e ee93 f83c 0d99 e2bd
00000190: 27e6 cd3d ca1e 313c 6ca4 093e 64e6 413d
000001a0: dbeb 6dbd 14d6 833d aff9 db3d f03f a7bd
000001b0: 3171 02bc 902b 033e 0786 dd3d 11c4 abbc
000001c0: e169 02be 12b8 a7bc 7eb7 9ebd d8f2 23be
000001d0: d6d6 2a3d 939a 1cbd 1f2a 543d 85a0 c53c
000001e0: 80ce 153e 1ca8 2cbe 44d8 053e 335a 6f3e
000001f0: 3fe4 4f3e ec3a 063e c735 f0bd a2a2 533e
00000200: 4730 783d 641b debc 1e6c 53bd 1013 c83d
00000210: d08e e8bd 6f0c d13c 6b09 f83b ad74 0dbe
00000220: 2ef3 0c3d e74b 563d f21a 753d 7a16 733d
00000230: 6ed3 1b3d f6c2 583d f4ce 93bc c4c9 8bbd
00000240: 5c47 21bd 51f2 1ebc bfc6 80bd ccee 5e3d
00000250: ce73 8f3d e1a8 f93d 2bc5 e13d d8e1 2ebd
00000260: bfef 72bd c293 f63c 5089 1d3c f1f4 ecbc
00000270: 19b1 efbd 7502 efbd 4671 533d a565 cdbd
00000280: f2b0 fa3d 86d5 b73a 2757 663d 22b1 ca3d
00000290: 8b46 9e3c bc79 373d f845 eb3c d367 a33d
000002a0: 8c9c 143d ebde a03c cfd7 c1bd ad7c dbbd
000002b0: c4da f7bd 14c9 ea3d 0a19 533d e4bd 503c
000002c0: 3780 c7bd ea8f e9bc d38e 683c de8c 79bd
000002d0: d683 96bd dfe9 0b3d f908 5abd 59e2 c4bd
000002e0: 0cad 74bd 7d93 803d 402f d8bd 8057 213d
000002f0: f46e 573d 1b27 1e3d 9d3b 96bd 853b b73d
-0.041971464 -0.070944674 -0.011499583 0.07788821 0.069591336 0.09338354 -0.059476458 0.14737351
-0.036123075 0.009774665 0.031800196 -0.009311164 0.014579823 -0.059155215 -0.12737715 0.026683796
0.09261727 0.05200735 0.00036957895 -0.029539978 -0.054345574 0.049407944 0.1269778 -0.012701906
0.110230476 0.059669677 0.062598854 -0.12698482 0.10282456 0.04471841 -0.1307842 -0.013079178
-0.011217781 -0.07141118 0.10254665 -0.050607428 -0.039911903 -0.11839295 0.053245693 -0.11938499
-0.04968077 0.060662054 -0.03923649 -0.03570544 -0.1022139 0.0026996208 -0.03819247 -0.07694809
-0.08977784 -0.06305827 -0.026581991 -0.009323523 -0.049721748 0.010141707 0.08787342 -0.089347735
-0.02087067 7.948157e-05 0.010835719 -0.08525109 -0.059614178 -0.111411 -0.09981647 -0.04518258
0.00795791 -0.06076056 0.26944518 -0.020838503 0.1102486 0.15176234 0.11899241 0.07383156
-0.07985218 -0.20269048 -0.04810013 0.08513418 0.23787156 0.08895072 -0.02003804 -0.18756402
-0.1449454 0.10058539 0.14442223 -0.16776948 0.11901638 -0.21775201 0.22563817 -0.15070875
0.18585418 0.03795263 -0.13732983 0.19138137 -0.003981434 0.017192176 -0.022091808 0.010828028
0.10585181 0.12789324 0.030343976 -0.11064348 0.10053664 0.010810563 0.13441628 0.04733886
-0.058086257 0.064373165 0.10740983 -0.08166492 -0.007961557 0.12809587 0.10816579 -0.020967515
-0.12735702 -0.020473514 -0.07749842 -0.16010606 0.04170879 -0.03823335 0.051797982 0.024124393
0.14629555 -0.16861004 0.1307078 0.23374252 0.20301913 0.13108414 -0.11729007 0.20667508
0.060592916 -0.02711267 -0.05161678 0.09769261 -0.11355364 0.025518624 0.007569482 -0.1381404
0.0344116 0.05231848 0.05984015 0.059347607 0.038043432 0.052920304 -0.018043019 -0.06825593
-0.039374694 -0.009701327 -0.06287908 0.054426953 0.0700451 0.12190414 0.11023935 -0.04269585
-0.05931067 0.030099753 0.009615257 -0.02892539 -0.117037006 -0.116703905 0.051621698 -0.10029153
0.12240781 0.0014025427 0.05623546 0.09897067 0.019320747 0.04479383 0.028719887 0.07978787
0.036282107 0.019637546 -0.0946499 -0.107171394 -0.12102273 0.11464134 0.05153755 0.012740586
-0.09741252 -0.028511006 0.014194208 -0.060925357 -0.073493645 0.034158584 -0.053231213 -0.09613485
-0.059735343 0.06278131 -0.10555887 0.039390087 0.052596048 0.038611513 -0.07335589 0.08946899

linear.weight f4 [1, 64]
00000000: b95d 1e3d d761 823d 9ffe 6d3d 9450 e73c
00000010: 3031 d1bd a51c c23c 61a6 3fbd a653 00bd
00000020: 78bc a83d 334d 02be 940f c0bd b53b 24bb
00000030: 3749 c6bc 6afc f43c 54db 17bc 01a3 41bd
00000040: 0de8 8ebc 92eb c23d 4f60 cebd d2c4 823d
00000050: 72f6 5cbd 1ed7 dc3d e6cf 023d 46c5 0bbe
00000060: 8d8b 593d 4a99 5dbd b389 2d3d 4145 a9bc
00000070: 9c7f 923c 1299 d73d ba1e b83d 8844 1d3e
00000080: bbc2 31bd 7a58 04bd 0808 2b3b 909d 713d
00000090: 5c4f 00bd 77bf b93d 6f23 c53d c375 d53d
000000a0: a21e ac3d 281d 383c d6be eb3d c5fc d0bc
000000b0: d506 9a3d 22ad c9bd 5928 303d 7ad7 afbd
000000c0: b78c 56bd 4586 d0bd ac63 90bc dfdc 9bbd
000000d0: ee30 c13c fa90 b63d 0367 e63d 4a3d 0e3e
000000e0: 4f0f 79bb a029 48bd 518a 37bc f270 ec3c
000000f0: 4ab5 2c3c b068 8cbc e3c5 263d aa10 96bd
0.0386636 0.06366318 0.058104154 0.028236665 -0.1021446 0.0236953 -0.04678953 -0.031329773
0.082390726 -0.12724762 -0.09377971 -0.0025060002 -0.024204833 0.029905517 -0.0092686005 -0.047274593
-0.017444635 0.09517588 -0.10076963 0.06385197 -0.053945966 0.10783218 0.03193655 -0.13649473
0.0531116 -0.054101266 0.04236765 -0.020662906 0.017883115 0.10527243 0.089902356 0.15358174
-0.0433986 -0.03231094 0.0026097316 0.058988154 -0.031325683 0.09069722 0.09625899 0.10422852
0.0840428 0.01123742 0.115110084 -0.025511155 0.07520834 -0.098474756 0.04300723 -0.08586021
-0.05238029 -0.1018186 -0.017625652 -0.07610487 0.023582902 0.08914371 0.11250117 0.13890567
-0.003800351 -0.04886782 -0.011202411 0.02886245 0.01054127 -0.017139763 0.040716063 -0.07327397
