checkpoints/gru/sh-CEEMDAN-h64-l2-lr0.001-d0.3-ep200.pth (torch, 160692 bytes, 9 tensors)

rnn.weight_ih_l0 f4 [192, 10]
00000000: c183 163e f26a 2e3e 588a b2bd 9fba 933c
00000010: 4090 ca3c fa20 333e 5575 3cbe bcc1 f53d
00000020: 9fe0 fd3e 41ba 93be 45bb 073e b824 b23d
00000030: 8d1a ab3d a846 92bd 1d9c 063d 75fb 943c
00000040: f1ba 5c3e 9685 a9bd e265 0abe 044e 80bd
00000050: 158a dfbd dd3a 08bd 3d39 93bd 8000 49bc
00000060: 565f b13c 1640 32be 0e02 ee3c ccd5 c63d
00000070: 434b 2d3e fbe5 a2be 6e39 063e aee8 8abd
00000080: 8a73 863d 4834 73bd 96b8 66bc eae3 143e
00000090: 0067 a13b 04ce eb3d 4f84 2e3e ddc5 b9bd
000000a0: 2c2d 95bc 546a edbd 11b5 5a3e db07 663e
000000b0: f4fb 0abe 6ce9 a1be bdac 3d3e 2ac8 91bd
000000c0: b57e c1bb b71e 2cbb 6900 40bd dab1 0fbe
000000d0: 48c2 c2be 3b5c 033e 931e c13d 05b6 0b3e
000000e0: bc1c 06be ecb1 8d3e a865 67bc 15fb acbb
000000f0: 4019 eb3c 78f8 a4bd 538a 063d 80c8 4d3d
00000100: 8157 3d3d 1c87 3dbd 9896 0d3d c309 b3bc
00000110: 7e17 c23c 1fb7 8abd 24d2 a73d bc5c e03d
00000120: 9284 e73c 91ef 50be abdd afbd 1a40 45bd
00000130: a8d8 37be 80bb f13c ad91 283d 8c69 45bd
00000140: 1b60 85bd 323d 01be cebc 253e ab4f 7abd
00000150: 3de4 213e a5c0 06be aefc 6e3e ab68 73bc
00000160: 7322 5bbe ff51 a5bc 7136 983d d093 bfbd
00000170: db4b 6e3d ed47 1c3e 0271 d1bd 8488 643d
00000180: 601d fd3d 4777 0fbe f30f f03d 686e cdbd
00000190: 446c a5bd e18e 84bc 0b3e 823c d94c 20be
000001a0: ded7 75bc 8564 6fbe 69db e83d db83 813d
000001b0: 4e3c 62be 8071 173d 2e26 0a3d b9b6 78bd
000001c0: e294 c03d a78b d3bd 9f06 dbbd 4ed5 59be
000001d0: 7db2 d83d 754e 9ebd 9d95 4bbe 9fcb eabd
000001e0: 4bcf c23d 33c3 1dbd c185 febd cbed d7bb
000001f0: a5fa b9bc a034 a13c f6fe 1cbe c495 a3bd
00000200: 4b98 863e f1c4 4cbc 7c79 f83d b9e9 283d
00000210: 160d c9bd de46 eb3b 451c c43d e86d fcbb
00000220: 1cce c8bd bf70 85bd 37d3 3f3e 1569 88bd
00000230: 4236 213d a712 3abe 5805 143e 72d0 f83c
00000240: f1cf 7ebc 8ad7 58bd 3fd1 a2bb 430d f13d
00000250: ecbb 1f3e 4b40 013e 186a 9b3d 688b c63c
00000260: b795 2e3c 74e4 2fbe c098 1a3e a4b5 f4bc
00000270: 49f0 643d 6cbb 98bd b222 9f3c 672a 6fbd
00000280: 784a 433e 2895 183d 860b 9dbd 337b 92be
00000290: 4dbb 35be 89dc 4b3c fe94 f8bd 5e1e 293d
000002a0: 5dc6 903e 45b8 e53d f73a 3dbd 2d75 f03c
000002b0: fdd8 103e aefb aa3d e3b9 efbc d3dc 16be
000002c0: 9321 0cbe 89d6 593d 5490 3d3e f828 593d
000002d0: be52 2c3d c9b9 213d 6052 aebb 0b66 babd
000002e0: f795 f33d 376f 893d d13b 283d 91a9 513e
000002f0: f4cd 7dbc 7964 f83d ede5 bf3c c663 a8bd
00000300: a3a5 913d 4199 553e 5a50 0abe 0eaf 233d
00000310: 36b1 8dbb 76a5 3abd 7921 a73d 2f9d ad3d
00000320: ce7a e1bd c8f8 d2bd b2ee 913e 8e53 0d3e
00000330: ddf8 81bd b462 aa3c 4d25 a63d 9fb5 63be
00000340: f400 f5bd 8bea e53d 0eda 4d3e b58c 1bbd
00000350: b647 13be dbdf d5bd df41 a1bd f4b8 2a3e
00000360: 1452 59bd e25d ebbb d5ac 1a3e 9334 dd3d
00000370: 8bd9 89bd 24ce 3b3e f5ea 533b 786a 27bd
00000380: 331e 6fbe fa16 f63d 1142 583c 7dbd b63d
00000390: c520 843c 384e 80bd 3220 d6bd dd37 603e
000003a0: 741d 0bbd b24e a63d a775 5c3d bd26 e63c
000003b0: 8695 d8bd 8028 d3bc d2f8 55bb b61b 12bd
000003c0: ddbd 8e3d e6c8 86bd 3c55 38be 5572 6cbe
000003d0: 5069 0a3d 1a02 2f3e 4863 86bd eb76 b03a
000003e0: 9843 af3e 4b6a 8e3d 385c c8bc 8b93 f2bd
000003f0: d097 83bd 9215 dcbd b54a 19be 8378 24bd
0.14698698 0.17032984 -0.08717793 0.018033324 0.024726987 0.17493048 -0.18404134 0.119998425
0.49585435 -0.28853038 0.13255031 0.0869841 0.083546735 -0.07142383 0.032863725 0.01818631
0.21555687 -0.082774326 -0.13515428 -0.0626488 -0.10915009 -0.03325926 -0.07188652 -0.012268186
0.021651905 -0.1740726 0.029053714 0.09708747 0.16923241 -0.31816086 0.13107845 -0.067826614
0.06565006 -0.05937603 -0.014082095 0.14540067 0.0049256086 0.11513904 0.17042659 -0.090709426
-0.018210016 -0.11592546 0.21358134 0.22463934 -0.13572675 -0.316234 0.18522926 -0.071182564
-0.0059049972 -0.0026263425 -0.04687539 -0.14032689 -0.3803885 0.12828152 0.0942966 0.13643654
-0.13096899 0.27674806 -0.014123358 -0.0052789547 0.028698564 -0.08055204 0.03284676 0.05024004
0.04622603 -0.04627143 0.034567446 -0.02185524 0.023692843 -0.06773209 0.08194378 0.10955188
0.028261457 -0.20403887 -0.08587202 -0.048156835 -0.17953742 0.029508352 0.041154552 -0.04819636
-0.06512471 -0.12621 0.16185305 -0.061111134 0.15809722 -0.13159426 0.23338577 -0.014856498
-0.2139986 -0.0201807 0.07432259 -0.09354365 0.05817781 0.15261813 -0.10226633 0.055794254
0.123591185 -0.14010344 0.11721792 -0.10030824 -0.08077291 -0.016181411 0.015898725 -0.15654315
-0.01500508 -0.23378189 0.11369974 0.063239776 -0.22093317 0.036973476 0.033727817 -0.060721133
0.09403397 -0.10329371 -0.10694622 -0.21272776 0.10580919 -0.07729808 -0.19881292 -0.11464619
0.09512194 -0.038516235 -0.12427855 -0.0065896264 -0.022702524 0.019678414 -0.15331635 -0.0798755
0.26288065 -0.012498126 0.12132546 0.04123852 -0.09816949 0.007180079 0.095757045 -0.0077035315
-0.09804937 -0.06515645 0.18732916 -0.06660668 0.039358385 -0.18171178 0.14455163 0.030372832
-0.015552507 -0.05293993 -0.0049687917 0.117701076 0.1559903 0.12622182 0.07588595 0.024236396
0.010655812 -0.17176992 0.15097332 -0.02987177 0.055893216 -0.07457623 0.019425724 -0.058390047
0.19071376 0.03725162 -0.076682135 -0.2860962 -0.17747231 0.012442716 -0.12137793 0.041288726
0.2827634 0.11216787 -0.04619881 0.029352749 0.14145274 0.08348785 -0.029263442 -0.14732675
-0.13684683 0.053183112 0.18512088 0.053017586 0.042071097 0.03948382 -0.0053198785 -0.091014944
0.11893838 0.06710666 0.04107267 0.2047484 -0.015490998 0.12128539 0.023425067 -0.08222155
0.07111671 0.20859243 -0.13507214 0.039961867 -0.0043241037 -0.045567952 0.08160681 0.08477246
-0.11009751 -0.103013575 0.28502423 0.13801405 -0.06346295 0.020799018 0.08112583 -0.22237252
-0.119630724 0.11226376 0.20102713 -0.037975986 -0.14382824 -0.10443088 -0.07873892 0.16672117
-0.05305679 -0.0071828226 0.15104993 0.10801043 -0.06730946 0.18340355 0.003233609 -0.04087302
-0.23351364 0.12016101 0.013199345 0.08922861 0.016128907 -0.06264919 -0.104553595 0.2189631
-0.033963636 0.08120479 0.05382314 0.028094644 -0.10575394 -0.025776148 -0.003264953 -0.03567096
0.06969807 -0.06581287 -0.18001264 -0.23090489 0.03379184 0.17090645 -0.06561905 0.0013463175
0.34231257 0.069538675 -0.024458036 -0.11844548 -0.0642544 -0.10746302 -0.14969905 -0.04015399

rnn.weight_hh_l0 f4 [192, 64]
00000000: 454e 9fbd 7e5a 48bc e974 d3bc 8c92 a5bc
00000010: 71f2 aabd 06b3 9ebd c9d1 19be 2223 0ebc
00000020: f2bb 303c dfa9 573e bfd0 2abd 933e 91bb
00000030: 2cc4 47be 4a8c ca3d ae9c 973d 7bce 6bbd
00000040: b61c f13d fde6 53be 0c69 5dbd 1707 1fbc
00000050: 91bb 533e 9785 26bc 1288 a33d 2e3a 023d
00000060: 8a27 0fbc 2aea 1c3e fbfe 1fbe 5eba 73be
00000070: 845a e53d bafe cb3d 4092 68bd 0c11 4abd
00000080: 9f00 dcbc b7b1 173e 754f 94be affa ca3d
00000090: 8c20 fbbd de8b 8bbd 60aa a03d 7ca2 0e3c
000000a0: 331a 0ebe a3c1 1ebe dc63 89bd b6b5 9b3d
000000b0: bd85 ab3d b343 05be f833 d5bd f0f7 343e
000000c0: 3ad9 a2bd 8479 423d 648c bd3d 1b50 1a3c
000000d0: 3807 14be 1ced 3dbe c2af fabd 2a14 8d3e
000000e0: 5f2f 34bd ffee 31bd 59ec 2d3d bafb 653e
000000f0: b492 42bd f610 453e 5815 683d 15bd 303d
00000100: 01b5 a53d 06ff 2dbe a0e7 8cbd 00df 97bd
00000110: 771f 8fbd 8bd2 fabc 84e5 0bbc 6067 7bbb
00000120: f23d bc3d c7a8 883a ef41 0bbe 19a9 43bd
00000130: 5784 a9bd 10c7 4d3d 0b5b 28bd dd0e 2dbd
00000140: 3a7c 813d af90 30be fa34 8e3d aab7 c0bd
00000150: 6bf0 a33d f572 a3bd a8fa bb3c c566 e1bc
00000160: 8b24 01be 2fb1 50b8 e43a 023d 0b03 efbd
00000170: ad1d f1bd 7be7 0ebe 30a9 8fbd c1d3 8abd
00000180: 7963 b13d 1d72 6abc 4b2e b2bd d5f8 f9bc
00000190: 0843 eb3d 8241 4a3c 83a6 ebbc 4ddc d7bd
000001a0: 1747 b03c 04ae eaba 131e 06be 4a71 94bd
000001b0: 4d02 013e dccc b93b c240 823d 8051 ab3d
000001c0: 47f5 bfbd b38e 1cbc 648b e03c 7d89 57bd
000001d0: 4985 84bc f2d7 eabd dfb3 59bd 4151 0e3e
000001e0: 9be9 83bc 189b abbd 9098 03be 1d0c 1cbe
000001f0: f719 3b3c aa77 bc3c f406 583d 5e92 1c3e
00000200: 05d1 56bc 3727 18bd 6046 3cbc 20f4 af3d
00000210: e492 853c 873b e3bd ccb5 07be 765c b2bb
00000220: f78f 973d 1795 1a3e 0ce9 8ebb 2e22 aabd
00000230: 35dc 3b3c 0cc9 5cbd 9744 cd3d b334 3fbe
00000240: 13b6 263e 51ab 113d 1d00 183e 21b9 4bbe
00000250: e4ab 043d 4b88 54bd 227d 2bbc d603 7f3d
00000260: fd59 6ebd 9ca9 2c3e 6fc8 943c 1fcf 063e
00000270: 5c5f 0b3e a3b3 923d eb28 8cbd a49b 433d
00000280: 8362 21be 3ed2 3f3e 7bde a5bd 41ca 88bd
00000290: 1e04 423e 4531 683e f443 a0be 576b 97bd
000002a0: 4c43 80bd 2718 cdbc 78e7 2b3e 883e 783b
000002b0: 84c9 803d 4c11 1c3e c5da 99bd 8a2d acbd
000002c0: 0558 5d3d f548 6b3d 17b7 9cbd 457e 22be
000002d0: fa0f f43d d11c f0bc e113 debc c025 a93b
000002e0: 066a d6bc 3fde f1bd fcc2 56bd 78be 08be
000002f0: 47c7 a83d 6a5c 65bc 939d 5d3c 4d7b e73d
00000300: 088b ff3d c7e3 5a3d b086 043e e2d1 d33c
00000310: d2f5 55bd abdf 783d 0d69 51bd 330d f53d
00000320: 026b b63d b50f 8e3d cd47 0f3e fc3b 983d
00000330: 3230 be3c 7347 5ebc dc51 4e3e 5b09 00be
00000340: bb73 a93d bbe2 0538 38f6 3b3d d160 a1bd
00000350: de66 063d 8035 d13d 44b8 b2bd 41ee 0cbd
00000360: a8cd 63ba dfbb 0dbe 1bec 2cbc b075 19be
00000370: cbe3 483d d3e0 59bd 0505 f23d e6cd e53c
00000380: 39ca de3d 0077 3d3e c7d0 bfbd 0755 abbd
00000390: 09a0 e43d 075a 96bc 401e 97bd 5a41 f9bd
000003a0: 1601 b0bd 17d7 28be ea6e ce3d cc1c a03d
000003b0: 9dbf 063e 9e87 b83d c05f 453d 1795 fdbb
000003c0: f8a3 7cbd fdf0 91bc 1be4 7d3d 7cf8 353d
000003d0: a140 ba3d c562 fdbb 97fa e4bd 8458 a4bb
000003e0: 9c7e 2f3d 98c0 f23d 853f 093d 684c 2dbe
000003f0: b930 12be 404a 8dbd 380a 793d 4a9f e0bc
-0.077786006 -0.012228606 -0.025812583 -0.02021148 -0.08347023 -0.0774899 -0.15021433 -0.0086753685
0.010786997 0.21060894 -0.041702982 -0.0044325083 -0.19508427 0.09890039 0.07402931 -0.057569962
0.11773054 -0.20693584 -0.05405526 -0.00970628 0.2067702 -0.010163686 0.07984938 0.031793766
-0.008737454 0.15323702 -0.15624611 -0.23801562 0.11198905 0.099606946 -0.0567801 -0.049332663
-0.026855765 0.14813887 -0.2896687 0.09911095 -0.12262067 -0.06813787 0.078449965 0.0087057315
-0.13877182 -0.15503554 -0.067085 0.07603018 0.08375118 -0.13014106 -0.10410303 0.17672706
-0.07951589 0.047479168 0.09255293 0.009418513 -0.14455879 -0.18547481 -0.122405544 0.27554446
-0.04399049 -0.043440815 0.042461727 0.22459307 -0.04750319 0.19244751 0.05666098 0.043149073
0.080911644 -0.16991815 -0.068801165 -0.07415581 -0.06988423 -0.030617973 -0.0085386075 -0.0038361177
0.09191503 0.0010426276 -0.1359937 -0.047768686 -0.08277195 0.05023867 -0.04110245 -0.042250503
0.063225225 -0.17242692 0.06943698 -0.09410031 0.080048405 -0.07980911 0.02294667 -0.027514825
-0.12611596 -4.975608e-05 0.031794444 -0.11670502 -0.11773238 -0.1395549 -0.07014692 -0.0677867
0.08661551 -0.014309433 -0.08700236 -0.03051416 0.114873946 0.01234472 -0.028765922 -0.10540066
0.021518273 -0.0017904644 -0.1309741 -0.07248171 0.12598534 0.005670173 0.06360008 0.08365154
-0.09372955 -0.0095555065 0.027410217 -0.052621353 -0.016176837 -0.114669695 -0.053150054 0.13898183
-0.016102603 -0.08379191 -0.12851167 -0.15238996 0.011419765 0.023006279 0.052741006 0.1529021
-0.013111358 -0.037146773 -0.011491388 0.08591485 0.016305394 -0.11095338 -0.13252944 -0.005443151
0.07400506 0.15095936 -0.0043612774 -0.083073005 0.011466076 -0.05390267 0.10022848 -0.18672447
0.16280393 0.03556377 0.14843793 -0.1989484 0.03239049 -0.05188779 -0.010466846 0.062259518
-0.05819129 0.16861576 0.01816198 0.13164948 0.13610595 0.07163169 -0.06843742 0.047755852
-0.15760235 0.18732545 -0.080990754 -0.06679202 0.18946883 0.22675045 -0.31301844 -0.0739352
-0.06262836 -0.02503593 0.16787517 0.0037879068 0.06288436 0.15240973 -0.0751243 -0.084071234
0.05403902 0.057442624 -0.07652109 -0.1586848 0.1191711 -0.029310616 -0.027109088 0.005161971
-0.026173603 -0.11809968 -0.052432045 -0.13353908 0.08241134 -0.013999084 0.013526338 0.11302815
0.1247769 0.05343988 0.12942004 0.025856916 -0.052236386 0.06076018 -0.051125575 0.11965408
0.08907129 0.0693659 0.13992234 0.07433316 0.02321634 -0.0135668395 0.20148414 -0.12503569
0.08274027 3.192083e-05 0.04588911 -0.078797944 0.032812946 0.102152824 -0.08726552 -0.034406904
-0.0008690008 -0.13841198 -0.010554339 -0.149863 0.049045365 -0.053192925 0.11817364 0.028052282
0.10878415 0.18502426 -0.09365993 -0.08365827 0.11163337 -0.018353475 -0.073788166 -0.12170668
-0.08593957 -0.164883 0.10079749 0.078179926 0.13159032 0.09010242 0.048187017 -0.00773872
-0.06167981 -0.017815107 0.061985116 0.044426426 0.09094358 -0.0077327215 -0.11180609 -0.0050154347
0.042845353 0.118531406 0.033507843 -0.16923678 -0.14276399 -0.06898928 0.06080076 -0.027419705

rnn.bias_ih_l0 f4 [192]
00000000: 531b d83d 22fd adbd 0173 9ebc 3268 933d
00000010: 7a54 94bd ea93 3bbd 54f0 2b3d 8436 e9bd
00000020: b7de b93c efcd 7fbd 1ef4 083c 9459 81bd
00000030: 6791 b73d b626 dc3c 9c7e 71bd 4c8e 0b3e
00000040: b6e0 de3c b8fb 4fbc db90 0d3e 26f5 ca3c
00000050: ecf9 d53b 7cfb b93d 054b 863d 3ee4 9b3c
00000060: 1104 9f3d 4103 6e3d 4867 7a3e ba9b be3d
00000070: c9f9 233c 0ec0 ea3c 4680 9e3d f453 113e
00000080: c4fb f8bc 7a95 003e 4bec 3fbc d28f 5f3e
00000090: 7865 953d 1ff7 643d 83a8 2abd a65d 633b
000000a0: cd39 303e 2e96 ddbd 0ee0 d93d 5e47 d9bd
000000b0: 0a06 dfbd c872 033e 323b be3c 3161 923d
000000c0: f6a5 e3bd 1498 88bd 9dd5 823e 0b6c 323d
000000d0: 9178 a13c 3c21 0d3d 992e 103e a9f8 e83d
000000e0: 4f26 ac3d e361 d83d d785 8ebc ab87 1e3d
000000f0: c77d 903c 10de 573d eecb 98bd c677 173e
00000100: b8cf ea3d f625 dbbe 0583 acbe 88eb f7be
00000110: ff3c 583b f411 5cbd 8621 eabe 9ed2 35be
00000120: 90e6 cfbe 5d89 acbd 8894 873e 7710 93be
00000130: a2a2 34bf 972c 0abe b973 013e c1ec 2abe
00000140: 23f7 1a3e 0e58 21be 1c2d 80bc 24b9 92be
00000150: 671b bfbd 3262 1fbf 1a4a 033e 15f3 dbbe
00000160: 5220 a0be 445d b7bd 62f2 55bf 471c 013d
00000170: d631 48bf 57ab 323e 57f5 d7bd a703 62be
00000180: c66d 48be b0ea ce3d db16 283e 7864 2bbd
00000190: 10a5 c8be f94f 7dbe 6e4d 1b3b 6f3e 963d
000001a0: 9e58 c5be 6f7e 0bbe e614 34bf 415c acbe
000001b0: 566e 8abe bf9e c5be d19d 7a3e 8e8f 99be
000001c0: de9e eebe 8cf2 3cbe 6fb2 ac3d 6e4a 23bf
000001d0: 7b72 20bf 3bf4 b9be 33a8 21bf 857d 3abe
000001e0: e502 ad3d 9f84 d43c 0b87 91be 5092 093c
000001f0: 8836 afbe 6c99 243e 8bcf b1be 6448 3fbe
00000200: 2ec8 35bd 98bc d63c 2b9c b13d 5dfc 1d3d
00000210: b595 8d3d da7c 133b 6c14 dfbd 17b1 f13c
00000220: 1cfe e13d 68f4 623d 0aaf 063e 8fb3 e0bd
00000230: 5c78 343d 864d 803d a271 4d3d 596b 99bd
00000240: 5aa3 033e 6b86 a7bd a5b8 0fbd 47f6 6c3d
00000250: 5ab6 983d 21f0 463d 36b0 07bd 16d3 eabd
00000260: 2c0f 3a3d 9d4f d4bd 15b8 503d 9178 8bbc
00000270: 2507 a33d f893 0cba f57b fabc 29c7 8ebd
00000280: b2ba 02bd 4931 40bd d426 d0bd 3e29 273d
00000290: 963e 083d 34d9 08be 2558 e6bc c035 13be
000002a0: d959 65bc d9af b0bd 5efb db3d 1888 fdbd
000002b0: c57a 1abc babb a33d a960 133d 52e1 d93d
000002c0: 19d4 9cbd 29f9 9c3d 3bf9 bbbd 0681 2fbb
000002d0: ffde febd 23e0 d83d b836 383d f12d c5bd
000002e0: 8eed 62bd 3090 94bc 4a8c 71bc e7ac 8abd
000002f0: 66e7 1f3d eb40 8b3d b16d 933b 82ae f23d
0.10552087 -0.08495547 -0.019341948 0.07197608 -0.07242675 -0.04579536 0.04197724 -0.11387351
0.022689207 -0.062452253 0.008358983 -0.06315914 0.0896328 0.026873928 -0.058958635 0.136285
0.02720676 -0.012694292 0.13824789 0.024775099 0.006530037 0.0908117 0.065572776 0.019029733
0.077644475 0.058108572 0.24453461 0.09307046 0.010008284 0.028656032 0.0773931 0.14192182
-0.030393489 0.12557021 -0.0117140515 0.21832207 0.07294744 0.055899736 -0.04166461 0.003469327
0.17209549 -0.1081966 0.10638438 -0.10609315 -0.10889824 0.12836754 0.023221586 0.07147444
-0.11115639 -0.066696316 0.255536 0.04356007 0.01971081 0.034455523 0.14080276 0.11375553
0.08405744 0.105655454 -0.017397804 0.0387036 0.0176381 0.05270201 -0.074607715 0.14791784
0.114654005 -0.428024 -0.3369371 -0.48421884 0.003299534 -0.05372806 -0.457287 -0.17756125
-0.40605593 -0.084246375 0.26480508 -0.287235 -0.7056066 -0.13493572 0.12641801 -0.16691877
0.15133338 -0.15756246 -0.01564651 -0.28656876 -0.093313985 -0.6225921 0.12821236 -0.42958894
-0.31274658 -0.08953336 -0.8357297 0.031521108 -0.78201044 0.17448173 -0.10544842 -0.22071706
-0.19573125 0.10103357 0.16414969 -0.04184386 -0.39188433 -0.24737538 0.0023697275 0.07336127
-0.38544172 -0.1362245 -0.7034439 -0.33664134 -0.27037305 -0.38597676 0.24474265 -0.29992336
-0.4660558 -0.184519 0.08432471 -0.63785446 -0.62674683 -0.36319146 -0.63147277 -0.18211944
0.08447818 0.025942145 -0.28423342 0.0083967 -0.34221292 0.16074151 -0.34728655 -0.18679959
-0.04438036 0.026212975 0.08672365 0.03857075 0.0691332 0.0022504837 -0.10892567 0.029503388
0.11034796 0.055408865 0.1315271 -0.10971748 0.044060096 0.062647864 0.050157197 -0.07491178
0.12855282 -0.08179935 -0.0350882 0.057852056 0.07456656 0.04856885 -0.033127032 -0.11466043
0.045424625 -0.103667475 0.050956804 -0.017025264 0.07960347 -0.0005362625 -0.030576685 -0.069715805
-0.031916328 -0.046922002 -0.10163656 0.040810816 0.03326281 -0.13364106 -0.028118202 -0.14375973
-0.013998472 -0.0862729 0.10741304 -0.123794734 -0.009428685 0.079947904 0.035980854 0.106386796
-0.07657642 0.07664711 -0.09178396 -0.0026779785 -0.12444877 0.10589626 0.04497406 -0.09627903
-0.05540233 -0.01813516 -0.01474292 -0.0677126 0.039039038 0.067994915 0.00449916 0.11849691

rnn.bias_hh_l0 f4 [192]
00000000: 6129 c7bc af47 cc3d b932 ee3d db80 5b3e
00000010: 1580 503d 00bd 43bb 83a8 ae3d 35a5 bfbd
00000020: bf0a f0bd 42be a8bd 4151 0e3e 4bb3 c33b
00000030: 9447 293e 864c de3c 5415 5fbd 9955 8f3d
00000040: 7dd3 84bd 99cb a53d 933f a13b afd5 ad3c
00000050: cf0c ec3d 3cf3 6ebd 4071 023e 6251 8dbd
00000060: 426c 50bd c826 57bd aadd ea3d eb8d 983d
00000070: afac fa3d 347b 7bbd 65ae f93d e43f 8f3c
00000080: 185f cc3d 5559 123d 30cb 0f3e 3d62 5a3e
00000090: fcf6 bcbd 52be b23d 7388 693d 3982 abbb
000000a0: 51a7 a8bc 448b b1bd aa99 2e3e 1829 03bd
000000b0: f929 543d 2739 a13c c3b9 8a3d bedc 093e
000000c0: b5c7 c0bd 200a 7cbc f59e 6a3e 1d8c b03d
000000d0: 2004 343e 457c 253e 7e61 82bd fbf8 c43d
000000e0: b280 c33b a49d a63d 40e4 55bd e710 b13d
000000f0: c224 9abc cb96 223e a29b e4bc 70d6 c93d
00000100: 30be ac3d a280 b0be e9fb b7be 5530 29bf
00000110: a687 cf3d 64b1 06be f3ab fabe 9b0c b6bd
00000120: 1f7a 45be 38f2 96be 0789 083e a2a0 e1be
00000130: 0848 2cbf 74b7 863c bde5 2ebd dac7 35be
00000140: ad0e c23d bc60 4cbe 1ee2 e93d 5c2d 2ebe
00000150: 59e6 30be e749 04bf 7ec9 1b3e 530a 09bf
00000160: 698b 55be df2d 4abe c225 5dbf 8ab6 9c3c
00000170: 2df9 45bf a7af 433e 520f 2abd 5902 8abe
00000180: 5407 e4bd be91 ebbc deed 3c3e f1ed ad3d
00000190: 2a5b a7be 4beb 60be 18c6 0bbe f0fe d23d
000001a0: 32ec a8be a3a1 0fbd b3f3 27bf 2f80 16be
000001b0: b854 bebe be01 06bf bb48 263e c991 edbe
000001c0: 3a99 e4be eef3 a0be 167b be3d e422 0ebf
000001d0: c1fa 0abf 7b1a c6be 12ae e1be 2af0 5abe
000001e0: b3cd 663e fa93 a63c 7dc4 31be 9282 1bbe
000001f0: 55c9 74be f866 fc3d 81b2 ccbe e067 30be
00000200: ddff 703b 6be1 4f3d db1b 0ebd af13 04bd
00000210: a611 98bd 12fb 403d 48e2 d63d a496 d83c
00000220: 02d9 8bbd 054f ecbd 4f16 e03d 2b51 a8bd
00000230: df75 00be 31ca bebd 1f1e 133d 5525 b43a
00000240: af01 dabc f1e1 aa3d 3e66 1c3e bd5d 383c
00000250: 34e2 c5bd b4da 94bd 1ae1 0ebe a1a0 a73d
00000260: 7be8 f0bd e507 08bd 047b cdbd 5156 0b39
00000270: ccd9 babd 3f86 fabd 3fa6 c3bd c032 3b3d
00000280: 6a55 0cbe a9fa d83d 56ae 783d 4259 a23d
00000290: a0b2 a03d 51d7 8bbc 2659 82ba cf9e 0dbe
000002a0: 89ed eebd 5377 c8bd 2e48 f5bd 5e88 95bd
000002b0: 41a4 783d 99dc efbc 89e1 303d 2077 b2bd
000002c0: 93c7 413d 6b99 10be 400c 0e3d cb0b 02bd
000002d0: 81c0 b23d 4de3 b6bd a97d e73d 25e8 10be
000002e0: 22a8 e8bd 6704 6dbd 6838 70bd 4285 ac3c
000002f0: 46f5 cabd d08c 72bd a863 a8bc d15e 46bd
-0.024311723 0.0997461 0.11630768 0.21435873 0.0509034 -0.0029867291 0.08528235 -0.093576826
-0.117208 -0.08239414 0.13898183 0.005972301 0.16531211 0.027136099 -0.0544637 0.06998748
-0.06485651 0.08095474 0.0049209087 0.021220056 0.115258805 -0.058337435 0.12738514 -0.06900288
-0.050884493 -0.05252722 0.1146806 0.07448944 0.12239968 -0.061396793 0.12191466 0.01748652
0.09979075 0.035729725 0.14042354 0.21326537 -0.09226796 0.08727707 0.057014894 -0.0052340296
-0.020587595 -0.08669141 0.17050806 -0.032021612 0.05179784 0.019680573 0.067737125 0.13463113
-0.09413091 -0.015383273 0.229122 0.086204745 0.17579699 0.16160686 -0.063662514 0.09617802
0.0059662694 0.08135536 -0.05221963 0.08645802 -0.018816356 0.15877835 -0.027906243 0.09855354
0.08434713 -0.3447314 -0.3593438 -0.66089374 0.10133295 -0.13153607 -0.48959312 -0.08889123
-0.19284867 -0.29481673 0.13333522 -0.44067866 -0.6729741 0.0164449 -0.042699564 -0.17752019
0.094754554 -0.19958776 0.114200816 -0.1700949 -0.1727537 -0.51675266 0.15213582 -0.5353138
-0.20853962 -0.19744061 -0.8638574 0.01913001 -0.7733334 0.19109975 -0.041518517 -0.26954916
-0.1113421 -0.028756019 0.18450114 0.08492649 -0.3268674 -0.21964757 -0.13649786 0.10302532
-0.32992703 -0.03506626 -0.6560623 -0.14697336 -0.3717401 -0.5234641 0.16238682 -0.46400288
-0.44648153 -0.31436104 0.093008205 -0.5552199 -0.5428887 -0.38692078 -0.44078118 -0.21380678
0.22539406 0.020334233 -0.1736011 -0.15186527 -0.23904927 0.12324327 -0.39979938 -0.17227125
0.00367736 0.050752085 -0.034694534 -0.032245334 -0.07425241 0.04711444 0.104923785 0.026439019
-0.068285 -0.11538509 0.10941755 -0.082186066 -0.12544964 -0.09315909 0.035917398 0.0013744036
-0.02661213 0.08343876 0.15273377 0.011252818 -0.096622854 -0.07268277 -0.13953057 0.081849344
-0.11763092 -0.033210654 -0.10033229 0.00013288228 -0.09123573 -0.12232637 -0.09553193 0.045702696
-0.13704458 0.10594685 0.060713135 0.07927181 0.0784657 -0.017070444 -0.0009944781 -0.13830112
-0.116664 -0.09788384 -0.11976658 -0.073014006 0.06070352 -0.029279994 0.043183837 -0.087141275
0.04730947 -0.14121024 0.03467965 -0.031749528 0.087281235 -0.08930073 0.11303265 -0.14151056
-0.11360194 -0.057865527 -0.058647543 0.021059636 -0.099100634 -0.05921632 -0.020555332 -0.048430268

rnn.weight_ih_l1 f4 [192, 64]
00000000: 3512 21bc 1efc dabd 1181 ab3d f359 a0bd
00000010: 79dc babd f9d6 6cbd 79c9 863d 25e4 c7bc
00000020: e16a 45bd df23 6ebd d2e8 70bd 317c c53d
00000030: 91a7 e7bb b999 0e3c 1352 12bc f61b 9abd
00000040: f5cc 39bd e1d9 6bbd 7cb9 853d 4d60 c93c
00000050: 834b f43b 7172 743d 5e6c d4bd ec3c a93d
00000060: 2f35 d1bd d52b f5bd bbb2 b83d 57ed c63d
00000070: ed52 72bd 84cf e3bd 9be2 ad3d f5bc 55bd
00000080: 4534 cdba 9a6c f53d d2b1 e03d c4a2 c53c
00000090: 957a 2a3e d35d 84bd d00f 01be 1ded 3c3e
000000a0: c13c 4abd f8a6 8cbd 43ed 28bd cef1 9f3d
000000b0: 58b0 d5bc 6da6 11be aacb a13d 849e dabd
000000c0: 8f70 023e ccf7 283d e5bb 73bd 7a2f 5a3d
000000d0: 3f0b 543d c013 a1bd ece6 063e 6848 b3bc
000000e0: a6bf 95bd d6dd ff3c a126 1537 c756 dcbd
000000f0: 64c5 223e fdc6 873c 9c62 ee3d 4dca 3e3d
00000100: 1ab9 d0bc 6389 b6bd 302e 983d d4f9 233d
00000110: a3aa cfbc 1344 5f3d aac6 51bb cca0 00be
00000120: 65c6 8dbd a968 113d a4f2 383d e5da a83d
00000130: 9ec9 ffbd c8bc 95bd 50a4 d93d ba1b 5c3a
00000140: 55d5 c23d 2d58 c6bd 512d f03d 2b54 be3d
00000150: 5b7c f1bc fc19 bc3d 888b 943c 5036 963d
00000160: d524 cd3c 3fe1 7a3c 4ced b93c 37a8 0abd
00000170: 8727 d63d 428c 883d 07db 3cbd 185b dd3d
00000180: 8016 59bd 26f0 aa3d 9b07 213d 3d15 54bd
00000190: b4a2 ab3c eb5b 863d 3915 17bc a794 223e
000001a0: cda4 d33c 231d ed3d d2bf 623e 8952 303d
000001b0: ad26 8a3c 994f 933d 3d3a 3f3d 4ccc 53ba
000001c0: 0385 0ebe 5890 49bd 2b78 31bd f986 31be
000001d0: e11a d4bd 834c acbd 63eb 7d3d f371 2b3e
000001e0: d296 debc 46b4 39be 7284 c6bd 5ea4 373d
000001f0: c593 a5bc a37d b03d 7534 06be 93c2 cd3d
00000200: 81b0 a9bd f4ef f1bd c358 0fbe ecda 813d
00000210: 8878 59bd 7c1b 773d 3abe 3e3c f9a1 a03c
00000220: c647 d83d e221 283b 10ce 8a3c bbc9 5f3d
00000230: 44e8 bfbd 78e8 d9bd 2a4d fcbc 538d bd3d
00000240: 0f14 1fbd b07b 01be aa04 c23b 5882 463d
00000250: 1574 6b3d aebe 993d 5f31 d7bd af97 f03c
00000260: 579f 5f3b 06dc cbbc 6d3f c03d 52df 36bd
00000270: e9d6 113e 87a3 113e 5756 a6bc 79c8 273e
00000280: 3b8b 173e 2db7 ef3d 5fb0 e4bd 400d 84bd
00000290: 7d8f 2c3d 7c3c dc3d a972 b33d fb3a e8bd
000002a0: e58a 59bd 8efe d2bc 35c9 9b3d c755 f0bc
000002b0: 228e b93d d07a 97bc 6fd1 8b3d 3a10 a6ba
000002c0: 1075 f53d d060 86bd eb9c c83a c097 2ebd
000002d0: 832b b7bd ffdd 12be 91f3 673d 8812 dbbc
000002e0: 425d 0ebd 2d43 67bd 4488 43bd 3321 083e
000002f0: 74e3 1dbd 6eed 413d 8286 44bd 1b6f 2d3d
00000300: 53a2 a23d f474 ad3d 8fa4 9c3d 18ea 92bd
00000310: 6fa6 1dbe 3062 82bd 8b47 703d 5757 dabc
00000320: 7e58 e13c eb84 433d d110 05be b2b3 17bd
00000330: 65b7 3b3d 7801 d73c fb02 b23d f495 c0bd
00000340: b17c f43c b76d 21bd 0e29 bf3d dd24 2ebd
00000350: 2d57 d5bc 3e5e 99bd 075c b43d accf 5ebe
00000360: 9779 45be 54ed 26bd abbf 85bd 0d62 1abd
00000370: e0f8 ecbc 4dde 6bbd e91e fdba 5257 11be
00000380: b080 0d3e 9e52 edbd 90bc 1e3e 84f7 a13d
00000390: ccfc 093c 8e47 69bd 53f2 babd 542c b8bd
000003a0: 79df dcbd fea3 98bd 093e a0bd 311d 86be
000003b0: d254 f4bd ad84 28be 994e d5bd dd92 cdbd
000003c0: 24d5 ecbd 20bb ba3d 04c8 acbc 4594 d03c
000003d0: 64ea ed3d 75d3 153e 2957 773d 7b16 32bb
000003e0: 23db 61bd b328 703d 4603 e23d 6272 06be
000003f0: 6443 d33d 4be0 2cbe 1734 333d ac40 8abd
-0.009831001 -0.10692619 0.08374227 -0.078296565 -0.09124083 -0.0578222 0.065813966 -0.02440078
-0.04819763 -0.058139678 -0.058815785 0.09642828 -0.007069536 0.0087036425 -0.008930701 -0.075248644
-0.045361478 -0.057580832 0.06529519 0.024582053 0.0074552908 0.059679452 -0.10372232 0.08263573
-0.10215222 -0.11971251 0.09018465 0.09713238 -0.059161115 -0.11123565 0.08490487 -0.052182157
-0.0015655836 0.11983605 0.109714165 0.024125464 0.16648324 -0.06463208 -0.12603688 0.18449827
-0.049374346 -0.06867784 -0.041241895 0.078097925 -0.026085064 -0.14223643 0.07900174 -0.10674766
0.1273825 0.041251943 -0.059505362 0.053267933 0.051768538 -0.07865095 0.13174027 -0.021885112
-0.07311945 0.03123371 8.890086e-06 -0.10758739 0.15895611 0.016574377 0.11639902 0.046579648
-0.025478888 -0.08912923 0.074306846 0.040033177 -0.02534992 0.05450828 -0.0032009282 -0.12561339
-0.069226064 0.035500202 0.045153275 0.08244876 -0.12489627 -0.07311398 0.10627043 0.00083964656
0.09513346 -0.09684787 0.117273934 0.092933975 -0.029478243 0.091846436 0.01813294 0.07334578
0.025041977 0.015312492 0.02269616 -0.03385183 0.10456758 0.06667377 -0.04610732 0.108083904
-0.052999973 0.08346586 0.039313894 -0.051778067 0.020951606 0.06560501 -0.0092213685 0.15877019
0.02583542 0.11577823 0.22143486 0.04304746 0.016864145 0.071929164 0.0466864 -0.0008079454
-0.13917927 -0.049209923 -0.04332749 -0.17336644 -0.10356689 -0.08413031 0.06199206 0.16742687
-0.027171526 -0.18135175 -0.09693231 0.044834487 -0.020212064 0.08617713 -0.13105948 0.10046878
-0.082856186 -0.118133456 -0.13998704 0.06340584 -0.053093463 0.060328946 0.011642033 0.019608485
0.10560565 0.0025654961 0.016943961 0.054635745 -0.09370473 -0.10640043 -0.030798513 0.09255471
-0.03883749 -0.1264484 0.005920966 0.04846415 0.05748375 0.075070724 -0.10507464 0.029369203
0.0034122074 -0.024885189 0.093870975 -0.04464657 0.14242138 0.14222537 -0.020304842 0.16385068
0.14799206 0.1170486 -0.111664526 -0.0644784 0.04212903 0.10753724 0.08762104 -0.11339375
-0.053110976 -0.025756147 0.076067366 -0.029337777 0.09060313 -0.018491179 0.06827056 -0.0012669631
0.119852185 -0.06561434 0.0015305554 -0.04262519 -0.08943846 -0.14342497 0.056628767 -0.026742235
-0.034756906 -0.05646055 -0.047737375 0.13293914 -0.038546994 0.04734557 -0.04797984 0.042342287
0.07941117 0.08469573 0.076485746 -0.07173556 -0.1539552 -0.06366384 0.05866198 -0.026652975
0.027508017 0.047734182 -0.12994696 -0.037036605 0.045829196 0.026245818 0.08691975 -0.09403601
0.029844614 -0.039411273 0.093340024 -0.042515624 -0.026042545 -0.074886784 0.08806615 -0.21758908
-0.19284664 -0.040753677 -0.065306984 -0.037691165 -0.028927267 -0.05758505 -0.001931158 -0.14193466
0.13818622 -0.115880236 0.15501618 0.07908538 0.008422088 -0.056953005 -0.09128251 -0.0899283
-0.107848115 -0.07453154 -0.07824332 -0.26194146 -0.11930241 -0.16456862 -0.10415382 -0.100377776
-0.11564091 0.091177225 -0.021091469 0.025461325 0.11616972 0.14631446 0.060385857 -0.0027174044
-0.055140626 0.058632564 0.110357806 -0.13129571 0.10315588 -0.16882436 0.04375085 -0.067506164

rnn.weight_hh_l1 f4 [192, 64]
00000000: 7dd3 8f3c 326e d5bc 69f3 b9bd 1102 07be
00000010: 37ea f43d d01a 14bd a35e 3dbc de5a 5c3b
00000020: 225a ecbd c8a5 bebc 0716 953c 80ca 96bd
00000030: d251 853d 8455 bebd 9e47 6a3c e866 92bc
00000040: 2416 ff3d 772c 09bd 80a5 4dbd 8b83 ec3d
00000050: fa23 173e dae4 933d 8c67 a5bd 5ec5 ee3d
00000060: 2ff9 80bd c76a c63c c03e b7bd 6c51 54bd
00000070: 3663 e2bc 74ad 1dbd 7283 35bd dca6 67bd
00000080: 1c7f 783e c211 f1bd d50d 5c3b b214 0d3b
00000090: 6a32 113e 6de6 df3c 7739 57bd 930a b2bd
000000a0: 8b36 c93a 9999 3ebe eba0 80bd fc51 773b
000000b0: d9f0 d9bd fb08 4f3e c24d 45bc 4231 d93d
000000c0: 8bc3 1e3c 4cfa c13d f55b c53d a5f2 1b3b
000000d0: 708d 90bc 0f76 1ebe 301d 1f3d 3539 71bd
000000e0: 10f4 92bd 6ec2 a93d 3343 86bd 59db 2a3d
000000f0: d41b a03d 36c8 dabc 3226 06bd 0bfb 283e
00000100: f029 e0bd 9f80 c13b 02d9 883b 43cc 04be
00000110: e5fa 1e3d daf9 d33d 2f2a b23d ab95 933d
00000120: 7242 14bd ebba acbd c57e f43c b61f 5e3c
00000130: e253 a53d a7e3 1cbd e101 f4bc 14ff 62bd
00000140: c9f8 a53d 54da 8e3d e9a0 ffbd 13c1 37bd
00000150: e51c 5b3d 2c5f 75bc 84b6 ea3d 9927 99bc
00000160: 293f e73d 2535 383c 8a83 1a3d 26da a4bd
00000170: 1dbd 063e 6b24 42bb e61f 2f3d 7be7 d73b
00000180: b8d8 5a3d b6c7 1abd bdea f2bd c6c8 b33b
00000190: f1f2 bcbd 9e89 4c3d c06f ca3d 5aef a3bd
000001a0: 8bc0 db3d fa90 97bd 57fe adbd ac01 bcbd
000001b0: ca06 3abd c2d0 563d 8ce3 7abd 9d8c 2e3c
000001c0: bc32 113d acae cc3d 6335 fcbd 8b52 243d
000001d0: da52 9f3d a041 0abd 31b0 dbbc 68ed b53d
000001e0: eb7a 5b3d c8bf a33d 0a3e d3bd ccfe 1b3a
000001f0: c457 01be aba7 debd da08 fabc 1182 fa3b
00000200: 7f0e 013e a06f ca3d f236 fabd 1474 e13c
00000210: d1fe c5bc d31c 8fbd 8a75 023e 0c55 dc3d
00000220: ccf1 d8bd f8ca 34be 3582 083d e831 ca3d
00000230: 94e9 353d 14a4 0d3e 4fd0 29be 67bb 3b3d
00000240: 6bc4 1bbd 0bc8 3dbd 08bf 01be 003c 013e
00000250: 00b7 823d 19d6 65bd 097e 073d 917f d93d
00000260: 4d06 623c bb50 a6bd c54a 3f3c a886 14bd
00000270: 7021 d53d 5ebd 6fbd 9104 b6bd 8f8a e7bd
00000280: 1ea1 51bd 94e1 02be 2c6c 50bd 3a61 6cbd
00000290: 7a57 cdbd 4959 9ebd 5a49 11bd e8a7 6d3d
000002a0: 56be bf3d 02f6 593b 68ad e13c 17fc 94bd
000002b0: 9d10 a33d 70cd cf3d 57fa 7ebd 0880 8fbd
000002c0: 7c9f 01bd e5b7 36bd 7b4f 4cbd ea30 c13d
000002d0: bf61 8abd 797e 0cbe 9358 e0bc 3010 7e3a
000002e0: 5119 543d fd45 fbbd 3d27 bfbb fd37 8f3d
000002f0: 49f3 bd3d 92b3 973d a879 c63d 4aee bbbc
00000300: 14d5 fc3d 6719 0b3e 78b7 913d b5ee 853d
00000310: 9122 a23a b6f6 09be 9631 6d3d 8358 53bd
00000320: b4fd c0bd 8c4d bb3c 194c 103d afcf 363d
00000330: 7c00 30bb 4f25 17bc 474d 203e dfb9 c33c
00000340: 064a 05be 9417 303e 370f 9b3c 2cc1 273c
00000350: 7666 acbd 0b38 c93c 9a39 fb3c 840a 103d
00000360: 3fcc 133e 1059 43bd b3a3 c4bd 11a2 b0bd
00000370: 1bc5 853d fc93 0f3d fce6 883d 9146 99bc
00000380: e5df 993c ba5d ab3d 233e bc3c d22a 883d
00000390: a62f afbc a1cd 483d 5f0b 9cbc d4d8 8ebc
000003a0: 7f15 4abb b0b2 64bd dca4 b9bc 725e 02bc
000003b0: e652 f8bc 57e7 20bc 426c 8c3d 8d65 143d
000003c0: 9b4b 90bd 8156 01bb 4ff9 253b 2531 633d
000003d0: 71d4 f43d c365 183e 36a8 d5bb dd74 053e
000003e0: e01e ca3c 3564 c7bc 280c 1c3e 14db f9bd
000003f0: f3af d7bd a63e f13d b154 3f3d bd82 193d
0.0175569 -0.026053522 -0.0907963 -0.13184382 0.119587354 -0.036158383 -0.011558208 0.0033623497
-0.11540629 -0.02327241 0.01819898 -0.073628426 0.065097466 -0.092936546 0.014299301 -0.017871335
0.12455395 -0.03348967 -0.05020666 0.11548527 0.14759818 0.07221384 -0.080763906 0.116587386
-0.06297528 0.024220837 -0.089475155 -0.051835462 -0.027635198 -0.038495496 -0.04431481 -0.056555614
0.24267238 -0.11770965 0.003357758 0.0021527228 0.14179388 0.027331555 -0.052545037 -0.08693423
0.0015351338 -0.1861328 -0.06280693 0.0037738075 -0.10641641 0.2021827 -0.012042465 0.10605098
0.009690176 0.094715685 0.0963668 0.002379575 -0.017645568 -0.15474723 0.038846195 -0.058892448
-0.071754575 0.08289038 -0.06555786 0.041713092 0.07817808 -0.026706796 -0.03275127 0.16502015
-0.10945499 0.0059052254 0.00417626 -0.12968545 0.03881349 0.1035039 0.08699452 0.07206281
-0.03619618 -0.08434089 0.029845605 0.013557365 0.0807264 -0.038303044 -0.029786052 -0.055419043
0.08104093 0.069752365 -0.12481863 -0.044861864 0.053494353 -0.014976304 0.11460593 -0.01869564
0.11291344 0.011243139 0.0377231 -0.08049421 0.13158078 -0.0029623758 0.04275503 0.006588874
0.053429335 -0.037788115 -0.11861179 0.0054865805 -0.09226025 0.04993593 0.09884596 -0.08004637
0.10730084 -0.07400699 -0.08495777 -0.091800064 -0.04541663 0.05244518 -0.06125216 0.010653642
0.035448775 0.099942535 -0.1231487 0.04011778 0.077794746 -0.03375399 -0.026817413 0.08883172
0.05358402 0.07995564 -0.103145674 0.00059507485 -0.12631136 -0.10871824 -0.030521799 0.0076448997
0.12603186 0.09884572 -0.12217511 0.02752117 -0.024169357 -0.0698792 0.1274015 0.10758409
-0.10592994 -0.17655551 0.0333273 0.098728 0.04441221 0.13832122 -0.1658337 0.045833018
-0.038029116 -0.046333354 -0.12670529 0.12620544 0.06382561 -0.056112383 0.03307918 0.106200345
0.013795448 -0.08120867 0.011675541 -0.03626123 0.10406768 -0.058530204 -0.0888759 -0.11305725
-0.051179044 -0.12781364 -0.05088441 -0.05770991 -0.100264505 -0.077318735 -0.035470344 0.058021456
0.093624756 0.0033258204 0.027548507 -0.07274645 0.07962153 0.10146606 -0.06225046 -0.07006842
-0.031646237 -0.04460897 -0.049880486 0.09433158 -0.06756925 -0.1372012 -0.027385985 0.0009691743
0.051781956 -0.122692086 -0.005833535 0.06993101 0.092749186 0.07407297 0.09691173 -0.022940774
0.12345329 0.13583909 0.07115072 0.065396704 0.0012369921 -0.13473019 0.057908617 -0.051598083
-0.0942339 0.022864126 0.035228822 0.044631656 -0.0026855757 -0.009225204 0.15654479 0.023892341
-0.13016519 0.17196494 0.018928153 0.010238927 -0.084179804 0.024562856 0.030667115 0.03516628
0.14433382 -0.04769236 -0.09601536 -0.08624662 0.065317355 0.03505324 0.06684682 -0.018710406
0.018783519 0.08367486 0.022978848 0.06648792 -0.021385025 0.049024228 -0.01904839 -0.017437376
-0.0030835567 -0.055834472 -0.022661619 -0.007957088 -0.030312967 -0.009820781 0.06856586 0.03622966
-0.070456706 -0.0019735398 0.0025325601 0.05546679 0.119545825 0.14882569 -0.0065202964 0.13032861
0.024672925 -0.024339775 0.15239012 -0.12199989 -0.105316065 0.11779527 0.046711627 0.037478197

rnn.bias_ih_l1 f4 [192]
00000000: de9c 3bbd b66b eebd 9ab3 debd b350 eebd
00000010: 0217 84bd 3dc2 9ebd 5562 b1bd 5af0 6c3d
00000020: 51e1 62bd 358a 98bd 2d45 913d 20d6 ccbd
00000030: 6c37 27bd 4f58 a9bc 1f60 c03d f357 91bc
00000040: 52fb 02be 3b55 173d 78c5 adbd ef18 6b3d
00000050: aba2 d13d b68c 263d 609a 69bc dcdb 603d
00000060: b843 b2bb 82e0 883c b66d 27bd 78b7 ba3d
00000070: c98f b63d ed46 b83d 3b54 1abd 0e3f 3d3d
00000080: 102d 2bbd 30e8 fc3c 6496 a73d 8cf6 d83c
00000090: ecd4 993d be8b 773d e186 74bd d5d2 87bb
000000a0: b1e1 08ba ef71 98bd 16c4 753d e507 95bd
000000b0: 2f0b ccbc 4968 61bd bafa 023d 808e c73d
000000c0: 5881 40bd 60cc 72bd ef8e 6fbd 5bf6 fdbc
000000d0: cc35 113c b0af 18bb 2fac d8bd 7c86 353d
000000e0: 31af 9abd 41ed 47bd 4563 c73d a095 1cbc
000000f0: a1e4 f13d 3ce9 b2bd 6541 ccbd ddca e9bd
00000100: 13d9 77bd 4d68 8cbd cccb 893e b74a 3bbd
00000110: adc8 ccbd d04c 87bd 8aac 2d3e dffc 613e
00000120: 6faa b0bb ea2f 063d 2525 1f3d b90b d93d
00000130: e068 943e a1eb e93c 0cdf 80bc cad7 87be
00000140: 361f 4e3c a54d 1ebd db43 033e dee4 22be
00000150: 8582 5b3d 0efd 53be a389 263e 8ac3 8c3d
00000160: 6c28 493e 2a99 2c3e 4810 f2bd 9eb6 0c3e
00000170: 800f bfbc c3fa e13d 5046 333d 2818 83bd
00000180: c904 783d 64c7 273e e09a 373e 3db7 e2bc
00000190: 3dc5 5ebc c71a 90bc cfb2 093e dfca 533c
000001a0: e96c d6bd bfcc 613d a9d1 0d3e ae8e fdbd
000001b0: b640 ef3c 06d7 403e 75c4 d2bd 79dd 3abd
000001c0: d9f0 46bd 09e6 08be f051 143c eda1 a6bd
000001d0: 73a3 953e caf6 f13d bbeb 663d 0d2b fcbd
000001e0: 4123 223e 6614 10bd f337 bd3d 529a ff3d
000001f0: a6b6 843e 066b 673d 8b0f 04be 4351 f93d
00000200: fc4f 0bbc 657e c5bd d165 26bc 508e e5bb
00000210: 7595 e0bd 0187 a4bc 4221 1dbc a4a2 d9bc
00000220: 3161 fc3d 74f7 f73c 33e9 d1bd fb06 453d
00000230: 3c36 c43d a7a3 d0bd fc11 a2bd a902 d9bd
00000240: 8202 8e3d a025 81bd 4204 d93d a8b5 993d
00000250: 1243 9c3c 7eb7 4abd 8c9c 243c eae7 aebd
00000260: 9f00 d3bd 2268 bcbd 6835 eabc 6e00 c13c
00000270: 6b42 ae3d 42cd edba 6fb1 38bc 4ad3 cdbc
00000280: 4983 b93d 1f7d e53c 5582 b3bd af46 e3bd
00000290: 1a00 d83d c431 7b3c 050b e93d 8791 0c3c
000002a0: 9553 2c3d a5cb c4bd 117a b4bd 3409 0e3e
000002b0: c922 99bd d97e 90bd c4d8 1c3c ff38 0d3c
000002c0: a60c e0bd b0d6 c23d 930d ddbd ab86 66bd
000002d0: 540b f13d 16b9 aa3d 102a 233d 933c d63d
000002e0: 620e c5bd 8a4d d03d 0453 b03c c4eb e63c
000002f0: 784e 4a3d 1742 d63d bded c7bd 9d7b ce3d
-0.045803897 -0.11641638 -0.108741 -0.11636486 -0.06449701 -0.07751892 -0.086613335 0.057846405
-0.05539066 -0.07448236 0.07093272 -0.100017786 -0.04082434 -0.020671992 0.09393334 -0.017742133
-0.12791184 0.036946516 -0.0848493 0.057396825 0.102361046 0.040661536 -0.014257997 0.054897174
-0.0054402016 0.016708616 -0.040876113 0.09117025 0.089141436 0.08997903 -0.037677985 0.04620271
-0.04179102 0.030872434 0.081829816 0.02648475 0.07511315 0.060436003 -0.059698943 -0.004145006
-0.0005221619 -0.07443606 0.060001455 -0.072768964 -0.024907677 -0.055031095 0.031977393 0.097439766
-0.04699835 -0.05927694 -0.05848592 -0.03100126 0.008862924 -0.0023298077 -0.105797164 0.044317707
-0.07552946 -0.048810247 0.09735731 -0.009557158 0.11811186 -0.08735892 -0.099734105 -0.11415646
-0.060509752 -0.06855831 0.26913297 -0.04572555 -0.09999213 -0.06606448 0.1696035 0.22069119
-0.005391411 0.03276054 0.038853783 0.10597939 0.28986263 0.02855474 -0.015731357 -0.2653182
0.012580683 -0.038648266 0.12818854 -0.15907618 0.05359127 -0.20702001 0.16263442 0.068732336
0.19644326 0.16855302 -0.11819512 0.13741538 -0.02332282 0.11034157 0.043768227 -0.06401092
0.06055144 0.16384655 0.17930174 -0.027675265 -0.01359683 -0.017590893 0.13447116 0.012926786
-0.10469992 0.0551269 0.1384951 -0.123807296 0.029205661 0.18832025 -0.102913775 -0.04562137
-0.048569534 -0.13369001 0.009052739 -0.08136354 0.29226264 0.118146494 0.056377154 -0.12312899
0.15833761 -0.035175703 0.09239187 0.12480606 0.259206 0.05649855 -0.12896554 0.121737026
-0.0085029565 -0.096432485 -0.010156111 -0.0070054904 -0.10966007 -0.020083906 -0.009590449 -0.02656681
0.12323225 0.030269362 -0.10249557 0.04810236 0.09580657 -0.10187464 -0.079135865 -0.105962105
0.06934072 -0.063060045 0.10596515 0.07505351 0.01907495 -0.049491398 0.010047089 -0.08540328
-0.10302853 -0.09199549 -0.02858992 0.023559775 0.08508762 -0.0018142837 -0.011272772 -0.025125165
0.09058244 0.028013764 -0.08765093 -0.11097466 0.10546894 0.015331689 0.11379055 0.008579618
0.042071898 -0.096091546 -0.08812345 0.13870698 -0.07477338 -0.07055444 0.009573165 0.008619546
-0.109399125 0.09513605 -0.10793605 -0.056280773 0.11769739 0.083360836 0.039835036 0.10460772
-0.09621884 0.101710394 0.02152396 0.028188594 0.04939124 0.104618244 -0.09762142 0.10082171

rnn.bias_hh_l1 f4 [192]
00000000: 0b1f 4ebc 079b 6ebd f509 2b3b 11a2 a93d
00000010: 32c7 7e3d ba03 e03d 5c32 9abd ca9c f73d
00000020: a5da 94bc 04b4 033c 7cd2 103d 52db 4dbb
00000030: 987d e43c d052 4fbd 51aa f7bd 4e29 143d
00000040: bd92 b73d 7019 883d db99 26bc fcc9 12bd
00000050: ed35 43bd ec42 3a3d 9148 143e 44d4 72bc
00000060: eb02 eb3d de11 8b3d ea44 793d 1403 c8bd
00000070: e170 b33d 0a94 443d 16e5 01be 5e1e 92bc
00000080: 7c5f 98bb 74d2 93bd 01ff 793d eb57 4ebd
00000090: b205 15bd 47cb f5bd a026 673d cab5 e4bd
000000a0: 0abb 69bd 5745 ba3d 5104 e4bc 02ed f4bc
000000b0: 4230 bdbd ba62 0a3c 5d75 13bd be7a 93bd
000000c0: 6473 b2bd 0d5d 78bd 241f ecbc 5105 06bc
000000d0: 29c4 78bd 5770 9abb c530 b93d 9b39 a2bd
000000e0: 7ab5 d8bc 5486 c23b 868f 863c c253 a9bd
000000f0: e4b7 9cbd 3a98 ffbd 154e 0abe a020 7fbd
00000100: 4db9 ae3b faa5 9fbd b75f 803e 989f 0dbd
00000110: 2b98 da3d 4b10 013e 90e6 b63d 005f b03d
00000120: 5f14 9ebd 0609 4cbe e99f 0bbd 3b6b b63d
00000130: 9abc 5e3e c4f7 9f3d f257 edbc aa54 7bbe
00000140: ecf3 07be 736f 0c3d 02b1 fb3d 4b45 2fbe
00000150: eb8a f53d c5eb 46be fe91 543e 301d fdbd
00000160: 0e86 7c3e cfd2 f33c a1bb 5bbd d77c 493e
00000170: 6e3a d8bc fac2 65bd 4285 f13c 2eda e83c
00000180: e5f8 013e 13c1 0a3e 125b 5d3d b559 44be
00000190: 504f c43d 5c86 8c3b 798a 0d3e b86f 0d3d
000001a0: 2a26 dfbd f2d9 5b3d 02d3 ff3d 80d6 89bd
000001b0: f608 f0bc af5e ca3d 6468 ae3d a4be 0abd
000001c0: 338c ddbd 3ca0 d7bc 89b4 a3bd a203 34be
000001d0: e33b ba3d 4d26 633d de9a 053d cc44 cb3c
000001e0: fd31 7e3e 48b1 32be df23 e13d 9a28 803e
000001f0: 5cca 2a3e 2ba7 1a3e bf9a 57be 401e 5e3e
00000200: d51d 483d 689c d5bc 3eaa 5bbd f6ac c93d
00000210: 1e1a e8bd 6e3c ac3c a71d 8fba 1031 1fbe
00000220: b904 143d 1746 4e3d a8e4 6c3d 78aa 763d
00000230: c3db 103d bd57 673d 40d1 b5bc 9a48 80bd
00000240: 6eee 68bd af35 ecbb 1271 80bd a7a6 a03d
00000250: 1809 8b3d e415 ff3d 825a d93d 4845 22bd
00000260: f7a7 62bd 4eac f73c a28d 323c d6b3 f7bc
00000270: 15e7 dfbd 71e7 e6bd 1179 3e3d ad5b c2bd
00000280: 5707 f33d 38cc 243c 4bdd 323d 3adc d03d
00000290: 711e 8b3c f1a8 323d 294c e33c 6904 a93d
000002a0: fcf4 1b3d 013d 553c 2b62 c4bd 06f1 d7bd
000002b0: a0ca ffbd 5265 f63d a1a0 5a3d 5e2d 8a3c
000002c0: 08de c3bd cc5a efbc cf6f 573c 0963 72bd
000002d0: ded1 8cbd 5df5 e73c 247d 4ebd bf4c bfbd
000002e0: 4821 82bd 436c 893d 5e8b d5bd e1cd 183d
000002f0: e9ea 5b3d fb88 463d 23dc 9dbd ca95 ae3d
-0.012580643 -0.058253314 0.0026098464 0.08282865 0.062201686 0.10938211 -0.075291365 0.12090452
-0.018170664 0.008038525 0.035356984 -0.0031411243 0.027891919 -0.050616086 -0.12093032 0.036172204
0.08963535 0.06645477 -0.010168518 -0.03583716 -0.04765885 0.045473978 0.14480807 -0.014821116
0.11475166 0.06790517 0.060856737 -0.09766212 0.08761764 0.047992744 -0.12685046 -0.017836746
-0.0046500545 -0.07217875 0.061034206 -0.050376814 -0.036382385 -0.12001663 0.05643332 -0.11167486
-0.05706314 0.09095257 -0.02783409 -0.02989817 -0.0923772 0.00844639 -0.0360006 -0.072011456
-0.08713415 -0.060635615 -0.028823443 -0.0081799785 -0.060733948 -0.004713099 0.09042505 -0.079211436
-0.026453722 0.0059364233 0.01642586 -0.08267929 -0.07652262 -0.12480207 -0.13506348 -0.062286973
0.005332148 -0.077953294 0.25073025 -0.03457603 0.10673555 0.12603872 0.08930695 0.0861187
-0.07718729 -0.19925317 -0.03408805 0.08907171 0.21751633 0.078109294 -0.0289726 -0.24544016
-0.13276643 0.034285974 0.12289621 -0.17116277 0.11989387 -0.19425876 0.20758817 -0.12359083
0.24660513 0.029763607 -0.053645734 0.19676529 -0.026395049 -0.056094147 0.029482488 0.028424349
0.12692602 0.13550214 0.05404193 -0.19174846 0.0958544 0.004288478 0.13822354 0.03453037
-0.10895951 0.053674646 0.124914184 -0.06730366 -0.029301148 0.09881341 0.08516005 -0.033873215
-0.108177565 -0.026321523 -0.07993419 -0.17579511 0.09093454 0.05545645 0.032618396 0.024813078
0.24823757 -0.1745044 0.1099317 0.25030977 0.16678756 0.15102832 -0.21055125 0.21691227
0.048856575 -0.026075557 -0.053629152 0.09847443 -0.113331065 0.021024909 -0.0010918871 -0.1554606
0.036137316 0.05035981 0.05783525 0.060221165 0.03536583 0.056480158 -0.022194505 -0.06263848
-0.05686801 -0.007208548 -0.062715665 0.078442864 0.06788844 0.12455347 0.10612966 -0.039616853
-0.055335965 0.030233528 0.010898026 -0.03023712 -0.10932747 -0.11274613 0.046502177 -0.09490142
0.11866634 0.010058455 0.043668073 0.10198255 0.016982289 0.043618146 0.027746277 0.08252794
0.038075432 0.013015033 -0.095890366 -0.105440184 -0.124898195 0.12031044 0.053375844 0.016867336
-0.095638335 -0.0292181 0.013149216 -0.05917648 -0.068759665 0.02831524 -0.050412312 -0.0934081
-0.06354004 0.067101024 -0.10426973 0.037305716 0.053690825 0.04847048 -0.07708003 0.08524664

linear.weight f4 [1, 64]
00000000: e08b 113d ed17 873d 82f4 813d c4ce ff3c
00000010: 3829 d7bd d44f 0b3d 22d6 27bd fa88 1dbc
00000020: 647c b73d 4893 00be e624 c8bd 111f d5bb
00000030: cbae 92bc d71a 0a3d 67e1 8fbc e779 68bd
00000040: d263 95bc 3dc9 d53d e721 cdbd 7955 853d
00000050: d8e3 46bd 5e66 d23d 4148 2e3d 5274 0abe
00000060: 9698 4e3d 6fdb 90bd 03e4 063d 87e7 5cbc
00000070: 5896 533c c833 e83d 384c a23d c598 1d3e
00000080: bb91 57bd a83c 06bd 6717 d8bb 74ae 8d3d
00000090: 49e8 0cbd 7340 bd3d e11f bb3d 6366 d93d
000000a0: 8b3e b73d 50ac ee3b ea92 fa3d 5099 b6bc
000000b0: e3e4 973d 2990 d3bd 3fa3 323d 4bca 97bd
000000c0: 1a1e 42bd 0751 d5bd 7ba3 6abc f588 a1bd
000000d0: 3798 ad3c 4f74 af3d fcdb f13d e6c3 0b3e
000000e0: 1a25 22bc 0e70 56bd 24f0 71bb 3660 ec3c
000000f0: 16c2 a83b 76e2 8bbc 9181 463d c184 89bd
0.035533786 0.0659636 0.06345464 0.031226523 -0.10505909 0.034011677 -0.040975697 -0.009615177
0.089592725 -0.12556183 -0.09772663 -0.0065039475 -0.017905613 0.033717003 -0.017563535 -0.05675688
-0.018236075 0.10438774 -0.10016232 0.06510443 -0.048557132 0.10273431 0.042549375 -0.13520935
0.050438486 -0.07073104 0.032932293 -0.013482935 0.012914263 0.113380015 0.07924694 0.15390308
-0.052629214 -0.03277269 -0.0065945867 0.0691804 -0.034401212 0.09240808 0.0913694 0.10615232
0.08947476 0.007283725 0.12235053 -0.022289902 0.074167036 -0.10330231 0.043612715 -0.07411631
-0.04739199 -0.10415845 -0.014321203 -0.078874506 0.021190746 0.08567106 0.11809537 0.13648948
-0.009896541 -0.052352957 -0.0036916817 0.02885447 0.00515009 -0.017075758 0.048463408 -0.06714774
