checkpoints/gru/sh-EEMD-h64-l2-lr0.001-d0.3-ep200.pth (torch, 160677 bytes, 9 tensors)

rnn.weight_ih_l0 f4 [192, 10]
000000 d4 d5 07 3e 0a ef 3c 3e cd 14 b9 bd c1 eb 5c 3c
       0.13265163 0.18450561 -0.090371706 0.0134839425
000010 50 71 90 3c e2 84 25 3e 87 bf bf bd 9c 19 42 3e
       0.017632157 0.16163972 -0.09362703 0.18955082
000020 d7 31 ba 3e cc e2 91 be 9b 4f 16 3e 79 a8 91 3d
       0.3636615 -0.28493345 0.14678805 0.07112212
000030 ef 53 91 3d b0 1e bf bd 52 e1 b2 3c b4 9b 3a bd
       0.07096087 -0.09332025 0.021835957 -0.045558646
000040 c3 88 60 3e 91 2f ab bd b0 6f b2 bd 9c e1 8e bb
       0.2192717 -0.08358682 -0.08712709 -0.004360391
000050 70 c0 c7 bd 33 38 15 3d a9 48 26 bd 7c 82 b3 bb
       -0.097535014 0.03643055 -0.040596638 -0.0054782014
000060 b1 4d 9b 3d 1c a5 fe bd bc ff a2 bd cb b1 66 3d
       0.07583178 -0.12433836 -0.07958934 0.0563219
000070 56 ca 15 3c 7b c5 b8 be 11 06 01 3e 32 74 20 bd
       0.009142479 -0.36088166 0.1259997 -0.039173312
000080 b8 06 9f 3d de 90 a6 bd ee e1 37 3b 35 c4 b6 3d
       0.077649534 -0.081331 0.0028058249 0.08924142
000090 20 cf d9 bc 4a ef f7 3d 2f f6 39 3e 02 90 07 bd
       -0.026588023 0.12106188 0.18160318 -0.03309632
0000a0 b3 62 31 bd 33 37 c6 bd 7a 57 6b 3e bd 5a 69 3e
       -0.043307018 -0.09678497 0.22982588 0.2278852
0000b0 0c 3c 51 be 3a 5f c4 be 02 59 85 3e f7 30 5c bd
       -0.20433062 -0.38353902 0.2604447 -0.053757634
0000c0 59 8e d6 bd 1a c2 0e bd 8a b5 6b bd 4a 78 cd bd
       -0.104763694 -0.03485308 -0.057546176 -0.10032709
0000d0 c4 a5 d9 be e9 65 3f 3e 8a 1f 98 bc 43 0b be 3d
       -0.42509282 0.1869122 -0.018569726 0.09279492
0000e0 ad 25 99 be 36 91 f9 3d 18 8b bb bb 5e 2f ee 3d
       -0.29911557 0.121859 -0.0057233684 0.11630128
0000f0 d5 43 33 3c f4 9a 97 bd f2 cf 94 3c f8 2f 98 3d
       0.010941465 -0.07402602 0.018165562 0.07431024
000100 4b aa 5c 3d 4f 05 b8 bc 52 09 4c 3d f8 12 f3 3c
       0.05387334 -0.022463469 0.049813576 0.029672131
000110 14 fa 0d bc 41 5a e6 bd 40 cf c8 3d 99 c8 f9 3d
       -0.00866558 -0.11247683 0.09805155 0.12196464
000120 b3 13 00 3c 58 bf 24 be d8 ca 00 be 88 a5 47 bd
       0.007817197 -0.16088617 -0.12577379 -0.048741847
000130 bc 20 60 be fe b2 48 bd fe fa 29 3e 14 94 19 bd
       -0.21887487 -0.048998825 0.16599652 -0.037494734
000140 4a bb 94 bd 85 a6 de bd fa 75 0e 3e 42 20 7f 3c
       -0.07262285 -0.10871605 0.13912192 0.015571656
000150 75 2a da 3d ee 42 84 bd a5 e9 09 3e c7 64 c9 bd
       0.10652629 -0.06458078 0.13468035 -0.09833675
000160 62 3d 6f be ea 91 00 bd 4c 11 53 3d 42 ad 69 bd
       -0.2336326 -0.031389154 0.051530167 -0.057049997
000170 4c 82 a9 3d 5b a9 5d 3e ca 64 72 be 81 76 fa bb
       0.08276805 0.21646635 -0.2367126 -0.0076435213
000180 6c 57 5b 3e d6 35 02 be 9a f8 30 3e e9 8e f4 bd
       0.21420068 -0.1271585 0.17282334 -0.119413204
000190 5b a4 a7 bd 24 b0 8d bc 5f 78 67 3d 01 5e 52 be
       -0.08185645 -0.017295904 0.05651128 -0.20543672
0001a0 01 c7 70 bd 3f 14 59 be fe 4a cc 3d 8e 93 03 3e
       -0.058783535 -0.2119913 0.09975241 0.12849256
0001b0 be 73 89 be 04 92 89 bd 0d d8 39 3d 99 5c 7e bd
       -0.26846117 -0.067173034 0.045372058 -0.062100027
0001c0 85 c2 60 3d 9a 2c ed 3b 86 25 20 be a4 e8 03 be
       0.05487301 0.007237983 -0.15639314 -0.12881714
0001d0 0c 14 eb 3c 7f 06 b5 bd 98 87 d2 bd 73 7a 83 bd
       0.028696083 -0.0883913 -0.10279769 -0.0641984
0001e0 10 e0 c0 3d 17 4d 1e bd 31 0e 06 be 74 04 bb bc
       0.094177365 -0.038647737 -0.13091351 -0.022829272
0001f0 68 49 4a bd 1a 45 71 3c a9 81 f5 bd d8 9c 26 bd
       -0.049386412 0.014725948 -0.11987621 -0.04067692
000200 b1 61 8b 3e 5b 3f 88 3d ea 54 03 3e b9 27 37 3d
       0.2722297 0.06652709 0.12825361 0.044715617
000210 b7 3c d5 bd 5a 4c 82 bc 53 c9 07 3d e3 00 49 3d
       -0.10411971 -0.015905548 0.033150982 0.04907311
000220 d6 e9 ef bd 4c 70 1e be 1f 3d 8a 3e 24 93 f2 bc
       -0.117145225 -0.15472525 0.26999757 -0.029611178
000230 39 c7 1e bc 14 3e 1a be 49 89 11 3e 02 66 b0 3d
       -0.009691053 -0.15062743 0.14212526 0.086132064
000240 7f 20 46 3d 79 e0 f9 bd a4 a4 58 3d d8 d5 8c 3e
       0.048370834 -0.12201018 0.05289139 0.275069
000250 59 f2 ac 3d 0f 16 54 3e c0 e7 7e 3d 7f 1a 61 3d
       0.08444662 0.2071154 0.062232733 0.05495691
000260 f1 92 31 bd be b7 30 be db 4b 0e 3e da 8a 96 3c
       -0.043353025 -0.17257592 0.13896124 0.018376756
000270 36 f1 e4 3b 6d 7f 39 be 12 17 5a 3e 4f cc 9e 3c
       0.0069867624 -0.18115015 0.21297863 0.019384531
000280 94 07 10 3e ad 94 de 3d 08 0a 34 bd 05 58 59 be
       0.14065391 0.108682014 -0.04395488 -0.21224983
000290 06 fd 2b be 20 ac 9a bd fd 4f c6 bd 9f 46 10 bc
       -0.1679574 -0.075523615 -0.09683225 -0.0088059
0002a0 0e 50 8f 3e 59 fb 11 3e 24 c6 48 bd 08 f4 aa 3c
       0.27990764 0.14256038 -0.049017087 0.020868316
0002b0 fa af d9 3d 19 96 1f 3e c2 f1 a3 bd 37 c8 b7 bd
       0.10629268 0.15584601 -0.08005096 -0.08973735
0002c0 33 35 96 bd 92 66 4f 3d 3e 42 fd 3d 76 f4 4f bd
       -0.07334366 0.050634928 0.1236615 -0.050770245
0002d0 66 38 33 3d c0 55 08 bd 4a 41 9e 3b 38 02 49 bd
       0.043754958 -0.033284903 0.0048295604 -0.04907438
0002e0 22 6c 03 3e e7 cc 59 3d 93 48 14 bc ed cb 16 3e
       0.12834218 0.053173926 -0.009050506 0.14726229
0002f0 ef 62 00 bd 3f 2d 3a 3e b9 13 3f bc ce 81 57 bd
       -0.03134435 0.18181323 -0.011662417 -0.052614026
000300 2d 71 2e 3d 30 49 49 3e 5a f3 21 be b6 fe df 3d
       0.0425884 0.19656825 -0.15815488 0.10937254
000310 ca d5 45 bd dd 7a 87 bb f0 d9 f6 3d 97 e1 71 3d
       -0.04829959 -0.0041345195 0.12053287 0.05905303
000320 4b 13 e3 bd d5 e6 dc bd 8e 55 54 3e 6a 4a 0e 3e
       -0.11087664 -0.10786215 0.20735762 0.13895574
000330 aa 85 f7 bd 2d b7 0a bb 38 ec 2d 3c c2 a9 8e be
       -0.12086041 -0.002116631 0.010615401 -0.2786389
000340 f8 05 b3 bd 9a 99 ce 3d 2c 5e 40 3e f3 b8 7c bd
       -0.08741373 0.10087891 0.18785924 -0.06169982
000350 ac 00 2c be a7 90 14 be 53 6f 4c bd 39 48 1e 3e
       -0.16797131 -0.14508305 -0.049910855 0.15457238
000360 f9 5d a2 bc 52 ac b3 bb a8 29 08 3e f5 a3 b0 3d
       -0.0198202 -0.0054831887 0.1329714 0.08625022
000370 2d 11 7c bd 7d 08 41 3e 16 d6 16 3d 68 1a 44 bd
       -0.061539818 0.18850894 0.036825262 -0.047876745
000380 e4 13 81 be 8d e9 79 3d 44 fd 96 3c 7a 65 4a 3d
       -0.25210488 0.061013747 0.018431313 0.04941318
000390 fe 15 12 3d dc 64 09 3b 02 2c 05 be 0f 9f 85 3e
       0.035665505 0.0020964658 -0.13005069 0.26097915
0003a0 a9 df 35 bd f0 d8 02 3b 43 6e c1 3d b1 be 1a 3d
       -0.044402752 0.001996573 0.09444859 0.037779514
0003b0 81 33 30 3d 86 c3 4a 3d a3 36 2f be 8c bf 0d 3d
       0.043017868 0.049502872 -0.17110686 0.0346065
0003c0 f5 13 43 3d d8 a9 a2 bd d5 26 2c be 9c f1 62 be
       0.047626454 -0.079425514 -0.16811688 -0.22162479
0003d0 6d 54 fe 3d 10 8c 27 3e 31 60 63 3d 29 10 24 3e
       0.12418447 0.16362023 0.055511657 0.1602179
0003e0 0c 91 49 3e 50 80 48 3d 5c 7c 01 bd 66 84 08 be
       0.19684237 0.048950493 -0.03161274 -0.13331756
0003f0 f8 eb a0 bd 6c 6b 3c be 3b 94 f7 bd b3 7d 0c 3d
       -0.078575075 -0.18400353 -0.120888196 0.034299564

rnn.weight_hh_l0 f4 [192, 64]
000000 55 1f 8f bd 8f 5b 93 bd d2 e8 a7 bc 47 53 57 ba
       -0.06988398 -0.07195198 -0.02049676 -0.00082140084
000010 55 3b c2 bc b6 58 1f bd 66 47 f2 bd c6 78 5a bd
       -0.023709932 -0.03890296 -0.118300244 -0.053337835
000020 b7 52 3c 3d 85 12 51 3e 4b 46 31 bd 21 b4 92 bb
       0.04597732 0.20417221 -0.043279927 -0.0044770394
000030 1a 22 45 be 6d 4b df 3d 11 dd 47 3d c0 89 9e bd
       -0.1925129 0.10903058 0.04879481 -0.077411175
000040 e7 24 18 3e 67 79 45 be f1 e6 11 bd 55 5c 21 bd
       0.14857827 -0.19284593 -0.035620634 -0.039394695
000050 ed 9f 60 3e c9 3b a0 bc 62 d7 98 3d f2 dd 4c 3d
       0.21936007 -0.019559758 0.07462956 0.05001635
000060 68 73 b2 bc 0e 0d 1e 3e f8 7a f4 bd 56 87 62 be
       -0.021783546 0.15434667 -0.11937517 -0.22121939
000070 b8 fa c7 3d a5 29 9f 3d 36 8a 0f bd 37 30 92 bc
       0.09764618 0.07771615 -0.035043918 -0.017845256
000080 c9 37 81 bb 08 ad df 3d 01 f5 64 be 84 48 5e 3d
       -0.0039434177 0.10921675 -0.22359087 0.054268375
000090 e6 69 e4 bd c4 71 d3 bc 3b 21 2c 3d 28 35 de 3c
       -0.11153011 -0.025811084 0.04202388 0.027124956
0000a0 48 ce eb bd 47 38 db bd 0e 31 cf bc ab ba 7f 3d
       -0.115139544 -0.107040934 -0.025291946 0.06243388
0000b0 03 7f a5 3d 76 01 e2 bd 75 75 20 be 01 66 38 3e
       0.08080866 -0.11035435 -0.15669806 0.18007661
0000c0 f5 43 de bc 72 dc e8 3c 84 a2 a6 3d 19 17 59 bb
       -0.027132014 0.028425429 0.08136466 -0.003312534
0000d0 1e db f1 bd 8e 56 4f be be 31 e2 bd 1f 18 83 3e
       -0.118093714 -0.20247862 -0.11044644 0.2560434
0000e0 d0 ff 44 bd cc 6f 8f bd b6 cf 8d 3c ed d2 3f 3e
       -0.048095524 -0.070037454 0.017310958 0.18732806
0000f0 ab 04 a7 bc 95 9c 48 3e 52 cd 4b 3d 87 19 32 3d
       -0.020387968 0.19590981 0.049756356 0.043481376
000100 0e 33 80 3d 57 2e 20 be b1 66 ad bd 6b a9 8b bd
       0.06259738 -0.15642677 -0.084668525 -0.06819423
000110 28 ae ab bd 98 d6 2c bd 9c b5 9d 3b 4e ee c3 3c
       -0.08382827 -0.04219684 0.0048129093 0.023917343
000120 58 f4 db 3d 68 fe 28 bd 16 a7 12 be e6 e8 60 bd
       0.10739964 -0.041258246 -0.1432155 -0.05490961
000130 5b d4 c7 bd 69 8b cf 3d 9b 18 14 bd 0f 8c 89 bd
       -0.097573005 0.10134012 -0.036156278 -0.06716167
000140 c9 12 80 3d 8f 6e 36 be cb 84 bd 3d 12 f1 da bd
       0.06253583 -0.17815612 0.09253844 -0.10690512
000150 40 b0 f3 3c a7 be e7 bc 33 1e a9 3d 23 dc a4 bd
       0.029747128 -0.028289152 0.08257713 -0.080498
000160 9f 9d 00 be 33 36 ff 3b 24 2a 66 3b 94 9b bb bd
       -0.12560128 0.0077884435 0.0035120333 -0.091605335
000170 d5 19 fd bd 6e 98 ca bd d6 b8 c4 bd f2 4e 0c bc
       -0.12358443 -0.09892355 -0.09605567 -0.008563744
000180 4d 5a be 3d 83 1e 00 bd 8b 81 0b be cb 6c d4 bc
       0.09294567 -0.0312791 -0.13623635 -0.025930783
000190 e4 dd 44 3d 84 c6 72 3d 18 f1 95 bc 23 18 6c bd
       0.048063174 0.05927135 -0.018303439 -0.057640206
0001a0 b9 78 2b 3d bc 95 12 39 d2 49 0c be 0f 37 af bd
       0.041863177 0.00013979425 -0.13700035 -0.085554235
0001b0 96 8d ab 3d a3 fd 8e 3c 88 fb 3b 3d e2 14 84 3d
       0.08376615 0.017454928 0.045894176 0.064492956
0001c0 62 cc bd bd 7f 6d ec 3a b0 2b e7 bc a0 c5 2a bd
       -0.092674986 0.0018038003 -0.028219074 -0.041692376
0001d0 58 55 a1 bc c5 f7 df bd d4 42 b3 bd b6 bb f1 3d
       -0.019694015 -0.1093593 -0.08752981 0.11803381
0001e0 cc dc 06 bd 69 72 bc bd 15 58 c2 bd fb 42 f0 bd
       -0.032925412 -0.092015095 -0.094894566 -0.117315255
0001f0 65 5b a2 3c eb ab 3c bb d7 f7 b3 3d 4d 72 19 3e
       0.019818971 -0.0028788995 0.08787506 0.14985009
000200 87 28 81 3c a7 11 76 3d 66 13 a9 bd c1 98 0f 3e
       0.015766395 0.06007543 -0.08255653 0.14023115
000210 f2 d6 af 3b ad 51 f4 bd f6 39 1c be 3e ed e3 bc
       0.0053661996 -0.11929641 -0.15256485 -0.027823087
000220 aa ba 68 3d 5c a7 75 3e a1 60 16 3b d7 42 c0 3d
       0.05681864 0.23989624 0.002294578 0.09387749
000230 08 43 b0 bd 16 2e 8f bd d8 c2 b3 3d 8e 25 0c be
       -0.08606535 -0.06991212 0.08777398 -0.13686201
000240 9a f8 08 3e f8 34 e5 bd f5 68 cf 3d cf 15 ef bd
       0.13376084 -0.111917436 0.10127441 -0.116740815
000250 41 34 1e 3e 11 26 0a be eb b6 fb bc f4 e0 f0 3d
       0.15449621 -0.13491084 -0.03072687 0.117616564
000260 fa 52 57 bd 62 13 48 3e 06 17 de 3d fd 18 d0 3d
       -0.052569367 0.19538644 0.10844235 0.10161016
000270 1b 6c 40 3e d1 ae 02 3e 28 91 21 bd 3e dd f3 3d
       0.18791239 0.12762 -0.039445072 0.11907433
000280 ac db 0d be 50 c6 7e 3e e3 c2 eb bc 56 fb 98 bd
       -0.1385333 0.24880338 -0.028779453 -0.074698135
000290 05 6c 8c 3e e9 f1 eb 3d 40 3d 96 be 1e 27 f9 bd
       0.27426162 0.1152075 -0.29343605 -0.12165664
0002a0 63 64 98 bd c3 48 6d bd fd 0b 5c 3e a9 fa 17 3d
       -0.07441022 -0.05793072 0.21488948 0.037104283
0002b0 0a 69 ca 3d a2 28 3e 3e 67 0f de bd 15 1e 36 bb
       0.09883316 0.18570188 -0.108427815 -0.0027788926
0002c0 30 ef a0 bd 92 b4 7b 3d ff 3b 59 3d ee f5 35 be
       -0.078581214 0.061451502 0.053035732 -0.17769596
0002d0 82 c6 72 3d fe 4e 0e be 47 e6 af 3d cc 78 56 3d
       0.059271343 -0.1389732 0.08588844 0.052361295
0002e0 94 74 1a ba c0 7b c5 bd 57 92 02 be 82 a6 f7 bd
       -0.0005892005 -0.09642744 -0.12751137 -0.12092306
0002f0 b4 08 41 bb 42 27 6e 3d 52 d5 aa 3c 5e ea 01 3d
       -0.002945465 0.058142908 0.020853672 0.03171765
000300 57 7e 86 3d af fb b9 3d 74 03 d6 3d e2 7f 3f 3d
       0.06567066 0.09081208 0.104498774 0.046752818
000310 9f c6 f5 bc ed 28 df 3d 0c c4 64 bd ac 10 df 3d
       -0.030001936 0.10896478 -0.055851027 0.10891852
000320 23 e7 02 3e 88 1f a3 3d 89 c5 bc 3d e8 88 bc 3d
       0.12783484 0.079649985 0.09217364 0.092058
000330 e1 88 18 3d a5 c5 21 bd d5 a8 52 3e b2 35 0e be
       0.037239913 -0.03949513 0.20572217 -0.1388767
000340 74 f5 d6 3d 70 7c d3 3b 5d 67 f1 3d 57 05 94 bd
       0.10496035 0.006454043 0.11787293 -0.07227581
000350 a9 74 ba 3b db ec b7 3d dc 5d cb bd f5 70 2e bd
       0.0056901765 0.089807235 -0.09930012 -0.042588193
000360 30 5a 8c 3c 84 f9 09 be d4 36 07 3c 86 37 ef bd
       0.017132849 -0.13474089 0.008252818 -0.11680512
000370 a6 df 81 3d 7d 7b 42 bd 3d bf 0f 3e 0a 2c 3d 3d
       0.06341486 -0.04748105 0.14037795 0.046184577
000380 c7 9d 1f 3e 7b 69 4b 3e 92 1f ce bd e7 d9 9d bd
       0.15587531 0.19864456 -0.10064615 -0.07707577
000390 ff 9a ef 3d 76 bc 1c bd 73 ca 5a bd 87 76 11 be
       0.11699485 -0.038265668 -0.053415727 -0.14205371
0003a0 df a2 60 bd 8e 93 2e be d3 cc ec 3d ae d1 d5 3d
       -0.054842826 -0.17048475 0.115625046 0.10440384
0003b0 fe 40 01 3e b2 50 03 3e 68 fb a2 3c 2f 4a fd bb
       0.12622449 0.12823752 0.01989527 -0.0077297906
0003c0 fa 58 9a bd 4f 8e 33 bd 9d 78 47 3d b4 c3 9f 3c
       -0.07536502 -0.043836888 0.04869901 0.019502498
0003d0 72 09 a9 3d 0d 8a 06 3c 2e 89 c2 bd 05 86 8c bd
       0.08253755 0.008211625 -0.09498821 -0.068615
0003e0 ac 5c 54 3d 57 5d 6a 3d a3 5b a0 3b e3 6b 23 be
       0.05184619 0.057217922 0.0048937364 -0.15959124
0003f0 d3 ec 12 be bf 63 98 bd d0 f4 43 3d 64 94 e3 bc
       -0.14348154 -0.074409 0.047840893 -0.02778072

rnn.bias_ih_l0 f4 [192]
000000 7f b6 8e 3d 2b 33 bf bd 0d cf 0d bd 15 c4 c3 3d
       0.06968402 -0.093359314 -0.034621287 0.09558884
000010 b9 1c 99 bd 18 4c 13 bd 1d d8 6d 3c b7 d6 e2 bd
       -0.074761815 -0.03596124 0.014516857 -0.1107611
000020 18 26 b7 3c 49 10 a2 bd 89 ee 0d bd 68 b0 5e 3d
       0.022357032 -0.079132624 -0.034651313 0.054367453
000030 d9 02 d7 3d 9f e5 c3 3d 39 92 9d bd b5 0a f8 3d
       0.1049859 0.09565281 -0.076939054 0.12111417
000040 27 46 5b 3b 6d 3e d6 3c c0 69 1b 3e 12 52 97 bc
       0.0033458562 0.026152814 0.15177059 -0.018471751
000050 38 d8 d3 3c eb e5 f6 3d c0 a8 78 3d 5f b8 bd 3c
       0.025859937 0.12055572 0.060707808 0.023159204
000060 9b 23 79 3d b8 42 75 3d 0f 90 76 3e 69 d1 c7 3d
       0.06082497 0.05987808 0.24078391 0.09756739
000070 c2 ef 1b 3b 2f 59 ff 3c bb 6b 81 3c bf 42 1c 3e
       0.002379403 0.031170456 0.01579844 0.15259837
000080 a4 80 49 bd a4 7c 04 3e b9 a0 c4 3c 50 70 74 3e
       -0.049194947 0.12938172 0.02400242 0.23870969
000090 00 94 bb 3d c8 8a b8 3d 36 d8 3e bd 42 22 c8 bd
       0.09159088 0.090108454 -0.046592914 -0.09772159
0000a0 eb 87 56 3e 84 56 ee bd 73 77 e9 3d 0c 4b cb bd
       0.20950286 -0.11637595 0.11399736 -0.099264234
0000b0 b8 e0 f5 bd da fc 14 3e 7e c8 89 3c 7a 7c 7a 3d
       -0.12005752 0.1454958 0.016819235 0.061153866
0000c0 89 36 67 bd bd fb 33 bd ca 35 8b 3e ef 79 af 3d
       -0.056448493 -0.04394125 0.27189475 0.08568179
0000d0 16 0f 0c 3d b7 3b f8 3c 0c ce 21 3e b6 4a 2b 3e
       0.034194075 0.030301912 0.15801257 0.16727719
0000e0 87 d8 ff 3d e9 8a 8b 3d 4a 2e 13 bc 93 4a 52 3d
       0.12492471 0.068136044 -0.008983204 0.05134065
0000f0 f2 69 b8 3c 6d a7 44 3d 76 84 9e bd e5 82 26 3e
       0.022511456 0.048011232 -0.07740109 0.1626087
000100 ac dd b1 bd d6 5d d1 be 6a 4f c3 be c9 a4 07 bf
       -0.08684859 -0.40891904 -0.38146526 -0.5298582
000110 0e 4d b4 3c 9d 20 f7 bd cf 16 c9 be b5 d7 48 be
       0.022009399 -0.12066767 -0.39275214 -0.19613536
000120 47 8c cd be 02 4e bc 3d 46 a4 cd 3d 5b 4a 0f bf
       -0.40146086 0.09194566 0.10041098 -0.5597283
000130 f1 19 38 bf 31 c4 23 be 6d 27 24 3e fc 90 51 be
       -0.71914583 -0.1599281 0.16030665 -0.20465463
000140 1c 37 c4 3c 8f fd 33 be d4 9a f7 bd 98 f2 a6 be
       0.02395206 -0.17577194 -0.12090078 -0.3260696
000150 94 df 76 be 52 19 35 bf 76 b3 c6 3d e6 6d c4 bd
       -0.24108726 -0.7074176 0.09702198 -0.09591274
000160 fa 82 c1 be ff bf 0b be ca 4a 4b bf 97 e2 a9 3d
       -0.3779524 -0.1364746 -0.79410994 0.08295172
000170 86 8e 4b bf 34 23 7d 3e 54 30 44 be df 96 58 be
       -0.7951435 0.2472046 -0.1915906 -0.21151303
000180 ee d2 29 be b5 44 bc 3c 91 a6 1e 3e 23 8a 52 bc
       -0.1658437 0.02298198 0.15493228 -0.012850317
000190 fc 58 df be 27 48 e2 be 06 94 5c bc 2b fe 12 bf
       -0.43622577 -0.44195673 -0.013463026 -0.5741908
0001a0 e3 25 e6 be 4c d2 7b be e4 25 41 bf 13 2a 44 be
       -0.4495078 -0.2459194 -0.7544844 -0.19156675
0001b0 8c 97 55 be d4 ad c8 be 39 3f 24 3e e9 10 97 be
       -0.20858592 -0.3919512 0.16039743 -0.2950509
0001c0 a9 28 0d bf 04 ce 40 be ab 33 1d be b1 77 30 bf
       -0.5514017 -0.18828589 -0.15351741 -0.68932635
0001d0 eb 50 3c bf f5 de 98 be 8e 99 2d bf bd a8 32 bd
       -0.7356097 -0.29857603 -0.6781243 -0.043617953
0001e0 87 a4 f1 bc 69 92 c8 bd 69 7b e6 be a6 00 e5 ba
       -0.029497398 -0.097935505 -0.4501603 -0.0017471507
0001f0 be 00 d4 be 80 0a 82 3e 9b 05 9c be db 80 a3 be
       -0.41406816 0.25398636 -0.30473027 -0.31934246
000200 74 2b 56 bd ec 45 e7 3c d2 31 86 3d 43 30 3a 3d
       -0.052287534 0.028231584 0.06552471 0.045456182
000210 22 18 94 3d 8b 82 e3 3b 31 11 f2 bd 67 6e dd 3c
       0.072311655 0.006943052 -0.11819685 0.027030183
000220 e8 50 e6 3d e6 fb 42 3d b1 ec f1 3d 21 b2 7b bd
       0.112459004 0.04760351 0.118127234 -0.061449174
000230 66 35 1a 3d 70 00 9c 3d 5f e2 61 3d 93 96 8d bd
       0.03764858 0.07617271 0.055147525 -0.069134854
000240 f5 8a f2 3d d9 8c b4 bd ca 95 ea bb c9 7d 73 3d
       0.1184291 -0.08815927 -0.0071589695 0.05944613
000250 24 7f 9c 3d e5 89 70 3d fb 72 1a bd 36 e6 0a be
       0.07641438 0.058725256 -0.03770731 -0.13564381
000260 03 55 1c 3d 2f 26 cf bd fa 38 56 3d b6 1f 6e bc
       0.03816701 -0.10114705 0.05230043 -0.014533928
000270 98 21 95 3d 4b da 21 bc b7 0a d5 bc bb 98 81 bd
       0.07281798 -0.009878705 -0.026006086 -0.06327959
000280 a5 6f cf bc f7 ec 20 bd 18 c9 da bd e6 93 ab 3c
       -0.025321791 -0.039288487 -0.10682887 0.020944547
000290 47 a3 5f 3d 16 20 c9 bd 1d 49 df bc 66 81 02 be
       0.054599073 -0.09820573 -0.027256543 -0.12744674
0002a0 3f b5 04 bd 98 bd ad bd 94 29 d6 3d 71 24 0b be
       -0.032399412 -0.08483428 0.10457149 -0.1358812
0002b0 f1 01 4b bc bf 27 aa 3d cf cd 32 3d 2c c3 d7 3d
       -0.0123906 0.08308362 0.043653306 0.10535273
0002c0 c4 2f a5 bd df cc 85 3d 30 e7 ff bd 94 10 34 bb
       -0.08065751 0.06533217 -0.124952674 -0.0027475702
0002d0 e6 76 ed bd 3d 68 dd 3d a9 76 71 3d 05 f9 f5 bd
       -0.11594944 0.108108975 0.058951054 -0.12010387
0002e0 74 9c 3c bd c4 c7 24 bd 84 39 7c bc 97 c8 67 bd
       -0.046047643 -0.040229574 -0.015394572 -0.05658778
0002f0 ee ce 1b 3d 71 ff 92 3d d1 e6 f6 bb fa c5 b2 3d
       0.03803914 0.07177628 -0.0075348397 0.08729167

rnn.bias_hh_l0 f4 [192]
000000 6b 5e 76 bd 8f 11 bb 3d fc e7 ce 3d e9 ae 73 3e
       -0.060148638 0.091342084 0.10102841 0.23797192
000010 85 ef 46 3d 0f 5e e0 3b 32 d7 6c 3d 68 45 b9 bd
       0.048568267 0.00684715 0.057822414 -0.09046441
000020 08 b9 f0 bd 9d e7 ca bd 99 8c c4 3d 1b ed fc 3d
       -0.11754042 -0.09907458 0.095971294 0.12349912
000030 37 00 39 3e 13 6f c4 3d 99 5d 94 bd 7d 87 60 3d
       0.18066488 0.09591498 -0.07244415 0.05481671
000040 82 b1 b5 bd aa 5a f5 3d c9 16 97 3c 88 71 b4 bc
       -0.088717476 0.119801834 0.018443482 -0.022026792
000050 c5 d1 09 3e a3 3c ea bc f8 eb fa 3d 46 dc 84 bd
       0.13458927 -0.028593367 0.12252039 -0.06487326
000060 7e a8 8a bd 4e e7 4f bd 08 2f e3 3d c4 c3 a1 3d
       -0.067704186 -0.0507577 0.11092955 0.078986675
000070 e5 0c eb 3d e4 2e 71 bd e4 11 77 3d 2c b6 e6 3c
       0.11477069 -0.05888261 0.060319796 0.028163038
000080 de dd a5 3d fa f5 21 3d 11 5e 34 3e ba 42 6f 3e
       0.080989584 0.039541222 0.17614008 0.23365298
000090 5f c8 96 bd a3 cd f8 3d 04 59 55 3d 50 f5 d9 bd
       -0.073624365 0.12148597 0.052086845 -0.10642493
0000a0 5e c8 89 3c 9a 4b c2 bd 3c 65 36 3e e3 60 ce bc
       0.016819175 -0.09487076 0.17812055 -0.025192684
0000b0 d6 74 26 3d c8 c4 16 3d 3b 3a 7b 3d 98 96 fe 3d
       0.040638767 0.03680876 0.06133483 0.12431067
0000c0 4f 7a 21 bd b4 8d f1 3b 25 5f 7b 3e 18 68 03 3e
       -0.039423283 0.0073716287 0.24548014 0.12832677
0000d0 d6 d8 42 3e 7f 3b 21 3e 53 45 3e bd da 4a 19 3e
       0.19028029 0.15745352 -0.04645283 0.1496996
0000e0 a4 d4 3f 3d 36 8d 33 3d e3 6c 33 bd 68 f2 ca 3d
       0.04683365 0.04383584 -0.043805014 0.099095166
0000f0 21 71 64 bc 2d c9 1d 3e a9 7e fb bc bb ec e7 3d
       -0.013942988 0.15408774 -0.030700045 0.1132445
000100 22 ef ef bd 76 b8 a6 be 4d c8 ce be 6e df 34 bf
       -0.11715533 -0.32562608 -0.40387192 -0.70653427
000110 07 d9 f5 3d 0c 3d 4b be 37 a1 d9 be e4 16 dc bd
       0.12004285 -0.19847506 -0.4250581 -0.107465535
000120 ce c5 40 be 46 f1 f2 bd 6e 70 fe bc 66 92 36 bf
       -0.18825457 -0.118624255 -0.03105947 -0.71317136
000130 59 bf 2f bf d1 0b 0c bc aa 5b 10 bc 1a 6c 5c be
       -0.6865135 -0.008547739 -0.008810917 -0.21525612
000140 53 a3 05 bd 35 06 5f be 3f 93 12 3c 81 a0 56 be
       -0.03262646 -0.21779712 0.008946239 -0.20959665
000150 20 1c a4 be 14 01 1a bf 4e b2 f7 3d c3 79 4e be
       -0.32052708 -0.60157895 0.12094556 -0.20163636
000160 4a 28 8c be ff 3e 7a be 28 7e 52 bf 0a 82 90 3d
       -0.27374488 -0.24438094 -0.8222375 0.07056053
000170 d9 55 49 bf ca 13 87 3e 70 b9 02 be d4 4b 85 be
       -0.7864662 0.26382285 -0.12766051 -0.26034415
000180 65 d1 a6 bd 2b be da bd 8a 7d 33 3e 1e 4f e9 3d
       -0.081454076 -0.10680803 0.17528358 0.113920435
000190 10 0f be be d6 15 d4 be 92 fc 1b be 0d 66 0b bf
       -0.37120867 -0.4142291 -0.15233067 -0.5445259
0001a0 80 b9 c9 be 77 3c 14 be b0 04 35 bf 8a 08 f9 ba
       -0.39399338 -0.1447619 -0.7071028 -0.0018999737
0001b0 38 b2 9e be 51 89 07 bf 4f d4 9f 3d 2e 13 eb be
       -0.30995345 -0.52943903 0.078041665 -0.4591307
0001c0 d6 25 08 bf b7 e1 a2 be 4d 4f 14 be 23 50 1b bf
       -0.53182733 -0.31812832 -0.14483376 -0.60669154
0001d0 45 d9 26 bf 27 05 a5 be c2 90 f9 be b7 39 9a bd
       -0.65175277 -0.32230493 -0.48743254 -0.075305395
0001e0 51 2f e4 3d 95 0e d4 bd 7a d6 ad be ad e5 25 be
       0.111418374 -0.10354344 -0.33952695 -0.16200896
0001f0 f1 2e 9f be 09 af 5d 3e 92 e8 b6 be 99 10 9c be
       -0.310905 0.21648802 -0.35724312 -0.30481413
000200 d5 a6 f2 bb 8d 9e 50 3d de 23 56 bd 21 91 e3 bc
       -0.007405142 0.050932456 -0.0522803 -0.027779164
000210 26 d0 8a bd 8f 1e 56 3d 23 24 c1 3d 9d 8b d8 3c
       -0.067779824 0.052275237 0.09430721 0.02643376
000220 d3 86 87 bd 3c cd 03 be 90 f8 d1 3d c1 0e 5b bc
       -0.066175126 -0.1287126 0.10252488 -0.013370217
000230 ea 07 08 be 38 4f b3 bd 70 6a 14 3d d3 0b b0 3a
       -0.13284269 -0.08755344 0.03623432 0.0013431258
000240 20 2e 11 bd 19 c2 a3 3d f9 ef 3a 3e 16 03 8d 3c
       -0.03544438 0.079960056 0.18255605 0.017213386
000250 b0 b2 da bd f5 4b 88 bd 7c c8 13 be 17 1f 87 3d
       -0.10678613 -0.06655113 -0.14431947 0.06597727
000260 3c 00 f1 bd 00 c7 0d bd 4a a2 cd bd 3b de 84 b9
       -0.11767623 -0.03461361 -0.1004072 -0.00025342577
000270 18 5b cd bd 57 1d 0c be fc e4 c7 bd 86 d3 4f 3d
       -0.100271404 -0.13683067 -0.09760472 0.050738834
000280 59 ba 09 be ac 42 e1 3d 74 26 3b 3d 82 0c 8d 3d
       -0.13449992 0.10999045 0.04569097 0.06887151
000290 e3 09 d0 3d ee ed a1 3c 8c 30 ee 3a 48 c7 e9 bd
       0.10158136 0.019766774 0.0018172427 -0.11414963
0002a0 86 7f 01 be aa 6b ea bd 98 10 ef bd ef 2a a8 bd
       -0.12646303 -0.114463165 -0.11673087 -0.08211314
0002b0 1b 06 6a 3d 20 08 e2 bc 5e 0b 23 3d 11 18 b4 bd
       0.05713473 -0.027591765 0.039805762 -0.08793653
0002c0 46 55 34 3d 1e fd 20 be f2 d9 57 3a 76 1e 11 bd
       0.044026636 -0.15721557 0.00082340755 -0.03542944
0002d0 8a 1e c1 3d 9a c2 b9 bd 03 c3 fb 3d 4e 34 39 be
       0.09429653 -0.090703204 0.12293055 -0.18086359
0002e0 98 72 ef bd 84 2b 93 bd 3a bf 77 bd 30 77 1b 3d
       -0.11691779 -0.07186034 -0.060485102 0.037955463
0002f0 57 e1 d1 bd 43 9e 3e bd 1d d2 07 bd 1b 1a 9e bd
       -0.10248058 -0.04653765 -0.033159364 -0.07719823

rnn.weight_ih_l1 f4 [192, 64]
000000 a5 24 93 3c 98 ea ad bd 9f ba 16 3d 73 cb a0 bd
       0.01796181 -0.08492011 0.03679907 -0.07851305
000010 16 81 b9 bd eb 33 bd bc ad 01 8c 3d c0 f6 46 bd
       -0.09057824 -0.023096045 0.06836257 -0.048575163
000020 1c 33 37 bd 08 15 1c bd e8 4e 03 be 5b 6e 9c 3d
       -0.044726476 -0.038105994 -0.12823069 0.07638236
000030 df be e4 bb 6c 07 ec 3b a5 07 ba bd b3 30 ca bd
       -0.0069807614 0.007203033 -0.09083489 -0.0987257
000040 ae a9 88 3c f9 d5 8d bc 9c 48 c6 3d 83 09 ed ba
       0.016682472 -0.017313944 0.09681818 -0.00180845
000050 8f 68 52 bc c9 d4 89 3d 4d 77 af bd 81 04 12 3e
       -0.0128423115 0.06730039 -0.08567677 0.1425953
000060 3b 68 f0 bd 30 a9 eb bd 30 65 c5 3d f8 ce 83 3d
       -0.117386304 -0.11506879 0.096384406 0.064359605
000070 a7 4b 91 bc 86 c5 8f bd 6e bc 68 3d c9 ce e6 bc
       -0.01773627 -0.070200965 0.056820326 -0.028174775
000080 56 cd 88 bc 32 c0 df 3d df 1c 01 3e 02 78 1a bd
       -0.016699474 0.1092533 0.1260867 -0.037712105
000090 e3 ed 1f 3e cf 71 87 bd ca eb e4 bd 74 0b 13 3e
       0.1561809 -0.06613504 -0.11177786 0.14359838
0000a0 f3 91 a3 bd 5c 2c 3a bd de 27 b8 bc 90 a5 f7 3d
       -0.07986822 -0.04545246 -0.022479948 0.120921254
0000b0 f6 2b ef 3a 32 d5 cf bd 74 be 9b 3d d3 ab c5 bd
       0.0018247354 -0.10148086 0.076046854 -0.096519135
0000c0 8d 80 49 3e a7 bf a8 3c bd 2b 67 bd b5 d1 28 3d
       0.19677944 0.0205992 -0.056438196 0.041215617
0000d0 8b 61 26 3d b0 8e d0 bd 7c b2 ec 3d 67 fb 22 3c
       0.040620368 -0.101834655 0.11557481 0.009947634
0000e0 c5 c7 10 bd b3 14 de bd 92 95 97 bc 9e 7b cc bd
       -0.035346765 -0.10843792 -0.018503938 -0.099845156
0000f0 77 25 3a 3e a9 d7 a6 3c 37 5d cc 3d e6 a1 7c 3d
       0.18178354 0.020366507 0.09978717 0.061677836
000100 33 79 2d bc 8f 05 bf bd 3c 04 91 3d 8a e7 7c 3d
       -0.010587978 -0.09327232 0.07080886 0.06174425
000110 7f 15 fc bc c2 d0 83 3d 56 d9 f8 3b 5a 48 15 be
       -0.030771969 0.06436302 0.007594268 -0.14578381
000120 c7 95 97 bd d6 bb 08 3c a7 33 ef 3c 90 63 08 3e
       -0.07401615 0.008345565 0.029199434 0.1331923
000130 24 20 fb bd d2 49 70 bd 87 2e 06 3e 55 e0 db 3a
       -0.1226199 -0.05866415 0.13103686 0.001677523
000140 b5 1f c3 3d d6 97 e0 bd 9a ec bf 3d 95 e3 be 3d
       0.09527532 -0.109664604 0.093713 0.093207516
000150 59 6d fa 3b 3a 6b 7a 3d ac 6b b6 3c 81 85 be 3d
       0.00764243 0.061137415 0.022268139 0.093028076
000160 e0 d8 82 3c c5 ce fa 3c 20 9a 0a 3d 54 35 9c bc
       0.015972555 0.030616174 0.03383839 -0.019068398
000170 2f ab c4 3d 67 24 db 3d 1e 08 39 bd e8 e4 b2 3d
       0.09602963 0.107003026 -0.045173757 0.08735067
000180 ab cc 10 bd 9f ce d9 3d 33 d9 49 3c 78 f5 91 bd
       -0.035351437 0.10635113 0.012319851 -0.071268976
000190 3e 8e ee 3c eb 23 5c 3d c7 89 ff bb 81 0d 03 3e
       0.02912056 0.05374519 -0.0077984068 0.1279812
0001a0 87 74 ba 3c 78 2e f8 3d 8f f3 54 3e 11 e0 1f 3d
       0.022760643 0.12118238 0.20796035 0.039032046
0001b0 cc ea 89 3c 76 c1 13 3d 21 fc 3d 3d f6 73 8e bc
       0.016835593 0.03607317 0.046383027 -0.017389279
0001c0 bf 26 0c be 79 41 03 bd 5d 5f c8 bc ee 35 2b be
       -0.13686655 -0.03204486 -0.024459535 -0.16719791
0001d0 46 a4 e4 bd b0 3e 87 bd 2f e7 3b 3d fa 34 d7 3d
       -0.11164145 -0.066037536 0.04587477 0.10508151
0001e0 ee 03 5c bc d7 6b 3f be 23 78 dc bd 85 f9 83 3d
       -0.013428671 -0.18693481 -0.10765102 0.064440764
0001f0 b4 dc b1 bc fc c8 fe 3d 5f ee d2 bd ec 1e b7 3d
       -0.021711685 0.124406785 -0.10299372 0.08941445
000200 c4 35 82 bd 44 a1 f7 bd 54 1f 06 be 8d c1 8d 3d
       -0.06357911 -0.12091306 -0.13097888 0.069216825
000210 12 f7 b1 bd 3f e0 8c 3d 45 7a 49 3c 08 6a 5a 3c
       -0.08689703 0.06878709 0.012297218 0.013330944
000220 6d bd d5 3d 99 7c be 3c c7 48 61 3b 25 6e 54 3d
       0.10436521 0.023252772 0.0034375654 0.051862855
000230 ca d5 c6 bd 11 c3 a9 bd 22 9c 67 bd 4a 96 c5 3d
       -0.09708746 -0.08289159 -0.056545384 0.09647806
000240 ce d5 8c bd bc 86 01 be 91 7c 31 3c 8e a0 3a 3d
       -0.068767175 -0.12649053 0.010832922 0.045563273
000250 86 6a 47 3d 3c 79 9b 3d 75 16 c8 bd 4c 4a c0 3c
       0.048685573 0.07591483 -0.09769908 0.023472928
000260 bd 9d 84 bb e6 36 ec bc 73 91 9e 3d c7 0b 4e bd
       -0.004047124 -0.028834771 0.07742586 -0.0503042
000270 fa 43 18 3e 9c 75 12 3e d0 f7 c6 bc 21 96 2a 3e
       0.14869681 0.14302677 -0.024288088 0.16658832
000280 50 18 23 3e 33 ad ee 3d c0 b6 d0 bd 2a 12 93 bd
       0.15927243 0.11654129 -0.10191107 -0.07181199
000290 f1 21 10 3d ec 38 03 3e a7 b0 c0 3d e4 ac 85 bd
       0.03518862 0.12814683 0.09408694 -0.06527117
0002a0 fd 23 87 bd 37 ec 14 bc aa 55 c7 3d ee ca 7d bc
       -0.06598661 -0.009089521 0.09733136 -0.015490277
0002b0 ae a7 a1 3d c2 49 0e bc 76 da 4f 3d d4 e6 58 b8
       0.078933105 -0.008684577 0.05074545 -5.171339e-05
0002c0 69 46 f9 3d 00 c5 8c bd 06 dc 5a bc a3 39 39 bd
       0.12171633 -0.06873512 -0.013358122 -0.045220982
0002d0 3c 2f b4 bd 89 f6 17 be c2 7c 87 3d a2 2b 68 bb
       -0.08798072 -0.1484014 0.066155925 -0.0035426398
0002e0 a2 56 83 b9 b1 7e 2d bd 96 8d ba bc 7f 17 08 3e
       -0.00025050814 -0.04235715 -0.022772592 0.13290213
0002f0 60 5a 04 bd 50 a7 69 3c b1 9b 6b bd ed 83 36 3d
       -0.03231275 0.014261082 -0.057521526 0.044559408
000300 4a b8 48 3d 75 ff a4 3d 1d 5f 86 3d bf cd 84 bd
       0.049003877 0.08056537 0.0656111 -0.064845555
000310 f7 7e 11 be a2 7f 6d bd ba ce 77 3d 3a 9a bc bb
       -0.1420859 -0.05798305 0.060499884 -0.00575569
000320 c8 19 ea 3c 8e 89 62 3d 4d b8 1b be 1b 8c 19 bd
       0.028576747 0.055306964 -0.15207024 -0.03748713
000330 50 20 55 3d 8e 28 f8 3c 02 18 b3 3d 69 0c db bd
       0.05203277 0.030292775 0.087448135 -0.106957264
000340 38 62 34 3c d0 75 23 bd 12 54 de 3d b2 97 7b bd
       0.011009745 -0.039907277 0.10855879 -0.061423965
000350 7d a0 1f bd 49 0f 0b bd ce b8 d2 3d eb b5 4a be
       -0.038971413 -0.033950124 0.10289155 -0.19795959
000360 5b 7d 47 be 0b 62 54 bd fa ec a9 bd 4d 64 8a bc
       -0.19481413 -0.051851314 -0.08297153 -0.01689353
000370 95 a4 0b bd 86 d4 70 bd da a9 26 3c 3a ef 16 be
       -0.034092505 -0.05879643 0.010172332 -0.14739695
000380 0e 35 1c 3e b5 8e f6 bd ba 86 25 3e 54 01 83 3d
       0.15254614 -0.12038938 0.16164675 0.06396738
000390 3c 4a 9a bb 98 d1 87 bd cc 4e b8 bd 2b 0e e6 bd
       -0.0047085565 -0.06631774 -0.08999404 -0.11233171
0003a0 92 96 c0 bd a3 32 95 bd e6 e3 94 bd 6a 31 87 be
       -0.09403719 -0.07285049 -0.07270031 -0.26404887
0003b0 41 1a 12 be da 2d 3e be e5 f5 d3 bd bf 05 de bd
       -0.14267828 -0.18572178 -0.10349635 -0.1084094
0003c0 f8 52 e6 bd 07 44 c3 3d d5 25 b2 bc 82 8c 13 3d
       -0.11246294 0.095344596 -0.021746555 0.03602267
0003d0 ad c7 e9 3d 42 d7 14 3e fd 28 3d 3d e1 3e c6 bb
       0.11415038 0.1453524 0.046181668 -0.006049976
0003e0 0d 7f 2f bd 3c 0d 38 3d ae 2d d0 3d cc 42 cf bd
       -0.042845774 0.044934496 0.10164963 -0.10120162
0003f0 84 be e0 3d b4 0e 2c be 0d d3 41 3d 74 92 86 bd
       0.10973838 -0.16802484 0.047320414 -0.065709025

rnn.weight_hh_l1 f4 [192, 64]
000000 05 7c 65 bd ea d9 88 bc 4c fa a0 bd 09 e3 ff bd
       -0.056026477 -0.016705472 -0.0786024 -0.124944754
000010 6b a9 e0 3d e6 dd 6b bd 6e 30 d5 bb 46 d3 04 bc
       0.10969814 -0.057584666 -0.0065060174 -0.008107012
000020 83 d7 0d be 3e f4 34 bc 9b e5 4b 3d 26 a0 ae bd
       -0.13851742 -0.01104456 0.049779516 -0.0852664
000030 d2 e6 01 3d c8 19 4a bd 70 f1 b0 bb 75 3d b8 3c
       0.031714268 -0.049340993 -0.0053998753 0.022490242
000040 ad 1c db 3d 87 3f bc 3b 4a 85 de bc 47 d3 97 3d
       0.10698829 0.0057448777 -0.027163167 0.07413345
000050 ad 0b 07 3e b3 d0 89 3d 59 1e eb bc 94 30 d9 3d
       0.13188048 0.06729259 -0.028700994 0.10604969
000060 87 64 ac bc ff 8e 53 3d 2e 12 01 be af be 63 3b
       -0.021044029 0.051650044 -0.12604591 0.0034751107
000070 fd b9 a2 bc 63 1a 77 3c e5 07 a9 bd c7 9f 67 bd
       -0.019864077 0.015081975 -0.08253459 -0.05654886
000080 6f d0 42 3e 5f 23 d3 bd b4 02 6c bc b5 f6 00 3d
       0.19024824 -0.10309481 -0.014404941 0.03148528
000090 c7 7f e4 3d b2 3f 69 3c 11 c0 ab bc 29 cd dc bd
       0.11157184 0.014236378 -0.020965608 -0.10781319
0000a0 22 02 3c 3c 33 43 2a be 43 e6 29 bd c4 f2 3f 3d
       0.011475118 -0.16627197 -0.04147936 0.04686238
0000b0 87 2a c3 bd e1 3a 44 3e 13 6b 90 bb 82 49 81 3d
       -0.09529596 0.19163086 -0.0044072955 0.06312849
0000c0 c7 e9 27 3d e3 07 db 3d 7e 01 50 3d 9e 2c c9 3c
       0.04099443 0.10694864 0.050782673 0.024557408
0000d0 9b d7 1a bd 1d 3f 21 be 4a 30 74 3d 4c 43 66 bd
       -0.037803274 -0.15746732 0.059616365 -0.056216523
0000e0 37 47 aa bd 59 bf aa 3d 3d d9 8a bd 5e 79 2d 3d
       -0.083143644 0.08337278 -0.06779716 0.042352073
0000f0 4c 06 94 3d a9 8e 7c bd 3f 2d 5f bd 23 94 30 3e
       0.072277635 -0.06165949 -0.05448651 0.1724401
000100 c5 14 d4 bd 77 9a ca 3c 9e 70 e3 3c 9a 95 cb bd
       -0.10355524 0.024731858 0.027763661 -0.099406436
000110 f1 d0 13 3d 2e 33 f7 3d 5b fd b8 3d 9c e4 b6 3d
       0.036087934 0.120703086 0.09032699 0.089303225
000120 e9 23 2c bd 0f b3 f6 bd 4a 3e e0 3c 4b e5 1c bc
       -0.042026434 -0.120458715 0.027373452 -0.009576152
000130 52 23 8c 3d ac 12 24 3b d2 98 6e bd aa b1 ad bd
       0.06842674 0.0025035543 -0.05825121 -0.08481152
000140 54 d6 32 3d 5c 3d b4 3d 26 6b f0 bd eb 2d af bc
       0.04366143 0.08800766 -0.11739187 -0.0213842
000150 7a c2 1c 3d 41 0e bf 3a 35 dd ee 3d 71 da bb bc
       0.038271405 0.0014576392 0.11663286 -0.02293131
000160 1e 6e 08 3e f7 10 03 bc 7d d1 8b 3d 1a de 42 bd
       0.13323256 -0.00799965 0.06827066 -0.047575094
000170 7c 1e 1f 3e fb b5 bd 3c 05 d8 33 3d 99 26 4f 3d
       0.15538973 0.023158064 0.043907184 0.05057392
000180 b8 fd 08 3d 9e 5c da bc ff c6 f6 bd a1 35 30 3b
       0.03344509 -0.026655491 -0.12049674 0.0026887434
000190 9f f2 d8 bd 55 ee a9 3d 31 ba e9 3d cd 2b 9d bd
       -0.10593151 0.08297411 0.11412466 -0.0767437
0001a0 ef cc 0f 3e 8d 07 66 bd ca f6 92 bd e8 40 b5 bd
       0.1404302 -0.056159545 -0.071759775 -0.088502705
0001b0 d6 34 fa bc 7e af 5d 3d 55 93 9c bc 54 7b f1 bc
       -0.030542772 0.05412244 -0.019113222 -0.029477753
0001c0 e9 8c d7 3c 27 60 c0 3d d7 76 0d be e3 82 0a 3d
       0.026312308 0.093933396 -0.13814865 0.03381623
0001d0 5f c1 a4 3d 08 ea 11 bd 7b d8 8e bc 87 73 c1 3d
       0.08044695 -0.03562358 -0.01743721 0.09445863
0001e0 c6 a1 82 3d 47 7a a1 3d 20 a6 b1 bd e2 30 33 bc
       0.06378512 0.07884651 -0.08674264 -0.010936948
0001f0 52 37 08 be 59 7b eb bd ea 3b c1 ba 79 2b 34 3c
       -0.13302353 -0.11498136 -0.0014742587 0.010996693
000200 45 53 02 3e 5e 48 d9 3d 72 80 f4 bd c5 45 99 3c
       0.12727077 0.10609506 -0.119385615 0.018710027
000210 eb 67 ed bc cd b7 8d bd 04 09 fc 3d 3b f8 d0 3d
       -0.028980216 -0.06919823 0.12306407 0.10203596
000220 f2 df d7 bd 51 14 48 be bf d7 e6 3c 37 bb dc 3d
       -0.10540761 -0.19539 0.028179048 0.10777896
000230 ca 30 2c 3d 3a db 0f 3e 84 61 0a be 25 2f ae 3d
       0.042038716 0.14048472 -0.13513762 0.08505086
000240 17 88 1c bd 14 c6 e3 bc e9 bf 01 be 60 d6 d4 3d
       -0.038215723 -0.027804412 -0.12670864 0.10392451
000250 be 98 42 3d 35 4d 6e bd 39 ee 34 3d 09 4b eb 3d
       0.047508948 -0.0581791 0.0441725 0.11488921
000260 e9 ac a8 3c 78 6e af bd 42 05 3f 3c f3 37 13 bd
       0.020590262 -0.08565992 0.011658968 -0.03594203
000270 82 fc dd 3d 29 fd 5c bd 30 7a c5 bd 56 d8 e6 bd
       0.10839178 -0.05395237 -0.09642446 -0.112717316
000280 ed 9f 84 bd ac e8 e8 bd e1 aa 48 bd b0 05 a4 bd
       -0.06475816 -0.11372504 -0.048991088 -0.08008897
000290 30 00 dc bd b2 6b a5 bd 9e 3e b2 bc cc 54 7e 3d
       -0.10742223 -0.08077182 -0.021758374 0.062092587
0002a0 b8 3d af 3d 61 e6 d1 3b b6 57 30 3d 39 76 9a bd
       0.08556694 0.006405637 0.043052398 -0.075420804
0002b0 c0 07 a2 3d 60 98 bf 3d f2 ef 6e bd 68 f2 6b bd
       0.079116344 0.09355235 -0.0583343 -0.057604223
0002c0 71 62 15 bd 93 7c 43 bd 19 89 31 bd 60 a3 c6 3d
       -0.036470834 -0.047726225 -0.043343637 0.0969913
0002d0 f8 5d 81 bd e8 50 04 be 93 bb aa bc c6 10 dd 37
       -0.06316751 -0.12921488 -0.020841395 2.6353064e-05
0002e0 fb 64 76 3d fa e3 f1 bd c2 22 11 3c b6 5f 85 3d
       0.060154896 -0.11811061 0.008858385 0.06512396
0002f0 f2 be ab 3d 1f 02 87 3d f0 76 a6 3d fe cc 19 bd
       0.08386029 0.065922014 0.08128154 -0.03754901
000300 c7 36 05 3e f0 c4 0f 3e 14 88 b0 3d c2 1b 8f 3d
       0.13009177 0.1403997 0.08619705 0.06987716
000310 52 87 f6 3a ae 31 b2 bd 03 00 59 3d 9c e0 22 bd
       0.0018808639 -0.08700882 0.052978527 -0.039764985
000320 30 b9 d3 bd d3 c1 e8 3c 5f a9 29 3d c7 38 2e 3d
       -0.10338056 0.028412735 0.04142129 0.042534616
000330 79 05 43 bb 74 df 90 3b 44 13 0d 3e 9e 9d 0e 3c
       -0.00297579 0.004421169 0.1377688 0.008704571
000340 07 ba 05 be ee 24 2a 3e 81 2b 96 3c 6b 66 6f bb
       -0.13059245 0.1661565 0.018331291 -0.0036529552
000350 ac 3c b7 bd cd 97 9b 3c 27 f8 15 3d 3e 15 08 3d
       -0.08947119 0.018993283 0.03661361 0.033223383
000360 c5 d1 14 3e cc 8c 30 bd 6f 3f bc bd 28 69 9a bd
       0.14533146 -0.043103024 -0.091917865 -0.07539588
000370 bb 9e 7c 3d b8 85 10 3d b0 77 91 3d 78 55 e1 bc
       0.061674815 0.035283774 0.07102907 -0.027506575
000380 a2 9a 87 3c 87 07 9f 3d 0f 38 b9 3c 66 81 64 3d
       0.016553227 0.077651076 0.022609739 0.055787466
000390 5e 76 82 bc 18 6f 48 3d 0d 53 d0 bb 5f b6 a0 bc
       -0.015925582 0.048934072 -0.0063575567 -0.019618211
0003a0 81 eb 20 bc 5d 3a 4e bd f0 9b 94 bc b8 10 9c 3c
       -0.0098217735 -0.05034863 -0.018140763 0.01905094
0003b0 2d 54 a5 bc eb 91 4b bc 44 c6 93 3d 47 81 08 3d
       -0.02018174 -0.012424926 0.072155505 0.033326413
0003c0 92 35 79 bd b3 96 60 bb ba c3 f4 bb 8d ac 89 3d
       -0.060842104 -0.0034269511 -0.0074696215 0.067223646
0003d0 b7 c1 ee 3d 61 ca 1e 3e 7f b8 ec bb a2 7b 01 3e
       0.11658042 0.15506889 -0.007224142 0.12644818
0003e0 47 3e bc 3c 60 41 c4 bc 52 8b 26 3e e0 12 03 be
       0.022978915 -0.023956954 0.16264084 -0.12800169
0003f0 cb 36 d6 bd 90 df fc 3d 16 a4 39 3d 61 73 15 3d
       -0.1045967 0.12347329 0.0453225 0.036486987

rnn.bias_ih_l1 f4 [192]
000000 69 fd 98 bd 86 b8 04 be e0 e9 04 be 8e c3 f9 bd
       -0.07470209 -0.12961015 -0.12979841 -0.12195502
000010 65 e6 67 bd f0 51 bd bd f0 24 85 bd 6e 8d ab 3d
       -0.056616206 -0.09244144 -0.06501186 0.08376585
000020 8f 91 a6 bd ef 48 90 bd 16 20 83 3d 9c 2d cb bd
       -0.08133232 -0.07045161 0.06402604 -0.09920809
000030 d6 7c 7e bd 78 5e 00 bd 03 31 aa 3d 1d c9 cb bc
       -0.06213077 -0.031340092 0.083101295 -0.024876172
000040 07 cb fa bd 5d 31 9c 3c 3c c8 8f bd 8a 7d ab 3d
       -0.12245756 0.019066507 -0.070206136 0.08373554
000050 dc 96 cc 3d 71 08 3b 3d 97 de 43 bc a4 a6 45 3d
       0.09989712 0.045662347 -0.011954925 0.048254624
000060 dc f6 7f bc 90 4d 34 3c 92 5b 28 bd 78 63 79 3d
       -0.015622821 0.0110048205 -0.041102953 0.060885876
000070 a0 6f cc 3d 24 cb a9 3d 94 56 47 bd d3 c8 5c 3d
       0.09982228 0.08290699 -0.04866655 0.05390246
000080 c5 8b 4e bd 89 eb 40 3d df 01 b5 3d 3f 55 20 3d
       -0.050426263 0.047099624 0.088382475 0.039143797
000090 44 90 89 3d dd 6e 49 3d 05 05 8b bd c1 e6 c6 bc
       0.067169696 0.049177993 -0.06788067 -0.024279954
0000a0 90 75 bc 3b f1 53 d9 bd e8 9d 39 3d 2a 6d ab bd
       0.005751319 -0.10611714 0.045316607 -0.08370431
0000b0 b2 e1 4c bd e4 15 80 bd 09 84 db 3c 54 c5 b5 3d
       -0.050019927 -0.06254175 0.026796358 0.08875528
0000c0 c8 a4 5d bd 87 df 8f bd c0 c7 1c bd b2 15 0b bd
       -0.054112226 -0.07025056 -0.038276434 -0.033956237
0000d0 ce e5 a7 3c 21 c2 0f bc 4a 6e d1 bd 4b 42 d2 3c
       0.020495322 -0.008774311 -0.10226114 0.025666377
0000e0 e2 e9 83 bd 90 ac 63 bd c0 b3 c5 3d 95 5c bf bc
       -0.06441094 -0.05558449 0.09653425 -0.023359576
0000f0 3c e8 07 3e fc d3 86 bd a6 70 90 bd 00 89 be bd
       0.13272184 -0.065834016 -0.07052736 -0.093034744
000100 31 c7 5d bd 43 5b 48 bd 1f 74 a0 3e 4c 05 6a bc
       -0.05414504 -0.04891516 0.31338593 -0.014283489
000110 6e 27 b2 bd 91 a1 2d bd 85 1e 58 3e 0b 2f 7c 3e
       -0.08698927 -0.04239041 0.21105392 0.2462732
000120 ff 10 09 3c de ba 1c 3d 0c e5 36 3d 07 e2 08 3e
       0.008365869 0.038264148 0.04465203 0.13367473
000130 93 66 b9 3e 76 68 53 3d b5 86 0e bc a1 53 86 be
       0.3621107 0.051613294 -0.008699109 -0.2623568
000140 a8 4f b7 3c 5e ec 2b 3d 16 1c 37 3e ae 38 40 be
       0.02237685 0.041973464 0.17881808 -0.18771622
000150 46 0a b1 3d 47 e0 57 be 08 f7 3f 3e 0c a1 54 3d
       0.08644538 -0.21081649 0.18746579 0.0519114
000160 52 b8 59 3e bd c2 4f 3e 5d c2 3a be 37 be 3f 3e
       0.21261719 0.2028913 -0.18238206 0.18724905
000170 4d 2e 04 3d a5 e5 40 3e 7b 2a 2e 3c c4 3a 9c bd
       0.03227072 0.18837602 0.010630245 -0.07628396
000180 96 c4 64 3d 59 aa 1b 3e b4 d3 09 3e 77 95 51 3d
       0.05585154 0.15201701 0.13459665 0.05116793
000190 f3 67 86 3a de 3d a1 bb 62 12 27 3e 26 c7 65 3d
       0.0010254368 -0.004920705 0.16315606 0.056098126
0001a0 ed 6d 50 bd 20 cf aa 3d 98 05 1a 3e 9e 84 06 be
       -0.050886083 0.08340287 0.15041196 -0.13136527
0001b0 d9 e6 da 3d b1 35 80 3e e3 d6 a8 bd 0e 07 f8 ba
       0.10688562 0.25040963 -0.082441114 -0.0018923001
0001c0 14 77 99 bd 41 ac 05 be fe cd 50 3d b6 92 59 bd
       -0.074934155 -0.13053991 0.0509777 -0.05311843
0001d0 44 76 96 3e 44 f2 32 3d e5 42 bc 3d 55 d1 d8 bd
       0.29387105 0.043688074 0.091924466 -0.10586802
0001e0 88 d1 df 3d fc d0 dc bc bd 5f 0a 3e 1e 3b 09 3e
       0.10928637 -0.02695512 0.13513084 0.13401458
0001f0 df 9e 92 3e 3c 32 8f 3d 07 f0 41 bd ed 62 21 3e
       0.28636834 0.06992003 -0.04734805 0.15760393
000200 d4 73 d0 bb 1e 77 d0 bd e7 f8 2b bc e7 ad 1b bc
       -0.006361464 -0.1017897 -0.010496355 -0.009501911
000210 fd 5f db bd 7d f7 c2 bc 37 f0 8f bb 1c 3a 86 bc
       -0.10711668 -0.023799652 -0.0043926495 -0.01638513
000220 83 df fe 3d ac 38 10 3d b8 06 c2 bd 8f 95 39 3d
       0.12444975 0.035210297 -0.09473938 0.045308646
000230 ce 98 cc 3d 72 87 c8 bd 3c 0a a0 bd 74 13 cb bd
       0.09990083 -0.09791459 -0.07814452 -0.0991582
000240 96 3e a0 3d 7a 34 92 bd a5 36 dc 3d ff 67 29 3d
       0.07824437 -0.07138915 0.1075261 0.041358944
000250 09 ab c6 3c 9b 0c 4b bd dc 51 25 3c bd dd c2 bd
       0.024251478 -0.04957257 0.010090318 -0.095149495
000260 c8 3f e0 bd 8e 0b b9 bd 1d 23 fb bc b7 75 be 3c
       -0.10949665 -0.09035407 -0.030656392 0.02324949
000270 e6 9e 93 3d 2f 77 12 bc bf 71 50 bc e2 3c e2 bc
       0.07208042 -0.008939548 -0.012722432 -0.027616922
000280 7f 1a c8 3d 71 62 a3 3c 7b f4 ae bd de e9 df bd
       0.09770679 0.019944401 -0.08542725 -0.109332785
000290 2c f0 db 3d b0 24 64 3c 58 90 e7 3d 5c fe 10 3c
       0.107391685 0.013924763 0.11306828 0.0088497065
0002a0 92 7f 1a 3d f3 11 b9 bd 6c cd b8 bd 6f a9 1c 3e
       0.037719317 -0.09036627 -0.09023556 0.15299009
0002b0 23 37 8d bd 6b 0b 91 bd e2 69 ad 3b 4f da 25 3c
       -0.06895282 -0.07082256 0.005292163 0.01012285
0002c0 44 d8 e0 bd 21 0d ce 3d e9 5b db bd ab 5f 4c bd
       -0.109787494 0.10061098 -0.1071089 -0.049895924
0002d0 7c 95 e4 3d 2d 45 ab 3d 65 0b 18 3d f7 e3 dc 3d
       0.111613244 0.083628036 0.03712024 0.10785668
0002e0 c8 f6 da bd 75 97 c9 3d 77 e5 af 3c 51 96 c0 3c
       -0.10691601 0.09843341 0.021471722 0.023509176
0002f0 20 b8 17 3d 55 83 c5 3d cd 2c d8 bd 73 4b de 3d
       0.03704083 0.0964419 -0.1055542 0.108542345

rnn.bias_hh_l1 f4 [192]
000000 d0 e5 29 bd fb 52 92 bd a7 1f 97 bc 36 2f 9e 3d
       -0.041478932 -0.071447335 -0.01844771 0.077238485
000010 61 87 8f 3d 15 74 c1 3d 19 ea 5b bd 0a 59 16 3e
       0.07008243 0.09445969 -0.05369005 0.14682403
000020 f4 ae 34 bd d3 bd 45 3c 21 10 e9 3c 60 c8 18 bb
       -0.04411216 0.012069183 0.028450074 -0.0023312792
000030 77 ca d7 3b e6 04 7b bd c5 ec 06 be 92 e1 ed 3c
       0.006585415 -0.06128397 -0.13176258 0.029038224
000040 52 be c2 3d 41 f6 46 3d 01 a1 92 3b 94 9e 1b bc
       0.09508957 0.04857469 0.0044747596 -0.009498257
000050 5d 4d 4d bd b8 be 4e 3d 40 a4 16 3e 55 d4 af bc
       -0.050122607 0.050474852 0.14711094 -0.021463552
000060 50 28 d6 3d cc c6 7e 3d 1b 57 78 3d 69 04 03 be
       0.10456908 0.062201306 0.060629945 -0.12794651
000070 b8 50 c9 3d 6c 9c 27 3d 9b 25 0d be b6 15 26 bc
       0.09829849 0.04092066 -0.13783877 -0.010137012
000080 21 ab 59 bc aa 2d 65 bd f8 6a 8a 3d 2b 7e 1a bd
       -0.013285429 -0.05595175 0.06758684 -0.03771798
000090 27 8f 35 bd e5 6c 06 be 5c a3 45 3d 22 f9 06 be
       -0.044325974 -0.13127477 0.048251495 -0.13180974
0000a0 c2 08 50 bd b5 c6 72 3d 41 28 2e bd e3 40 27 bd
       -0.050789602 0.059271533 -0.042518858 -0.040833365
0000b0 28 9e f0 bd 40 44 75 3a 12 ae 28 bd d1 43 a5 bd
       -0.11748916 0.00093561783 -0.04118163 -0.080695756
0000c0 29 05 c1 bd e3 a7 92 bd 71 21 0d bc 45 6f 36 bc
       -0.09424812 -0.07160928 -0.00861393 -0.011134927
0000d0 ab 1e 49 bd 50 ce 36 bc aa 6e c0 3d 1f 6c c8 bd
       -0.049101513 -0.011157587 0.093961075 -0.097862475
0000e0 b0 3f 7b bc 75 9b 5b ba f4 a1 7f 3c 08 98 c5 bd
       -0.0153350085 -0.0008377352 0.0156025775 -0.09648138
0000f0 fe 97 7d bd 14 83 d3 bd 6b cb d8 bd 01 9d 28 bd
       -0.06191253 -0.103277355 -0.10585674 -0.041165356
000100 1a a4 3f 3c 96 d6 6e bd 0c 08 97 3e 20 64 4d bb
       0.01169684 -0.058310114 0.29498327 -0.0031340197
000110 6d 39 f5 3d 55 4e 19 3e 4e e5 05 3e 34 c3 e4 3d
       0.11973844 0.14971288 0.13075754 0.111700445
000120 8a e7 81 bd 54 66 46 be 10 c0 e7 bc 84 23 ef 3d
       -0.06342991 -0.19374973 -0.028289825 0.11676696
000130 fd 5b 94 3e 1c 31 cf 3d f8 bb b3 bc 60 4c 78 be
       0.2897643 0.10116789 -0.021940216 -0.24247885
000140 29 d8 fb bd bc 54 eb 3d be b0 31 3e 1c 99 4c be
       -0.12297089 0.11490771 0.17352578 -0.19980282
000150 0a 6a 1c 3e f5 ce 4a be 62 ff 6d 3e 30 c8 0f be
       0.15274826 -0.1980551 0.23241952 -0.14041209
000160 f9 8a 86 3e ea 47 83 3d 1b 52 f1 bd 8f 84 7c 3e
       0.26277903 0.06410201 -0.117832385 0.24659942
000170 aa 31 ef 3c b4 bb b3 3c ed 90 6f bb a4 4f 84 3c
       0.029198486 0.02194009 -0.0036554888 0.016151257
000180 a6 51 fa 3d 0b 48 fd 3d 39 f9 18 3c d9 3a e7 bd
       0.122226045 0.12367257 0.009336763 -0.11290521
000190 a7 41 e2 3d c3 ec 8a 3c 0f ea 2a 3e 11 22 9f 3d
       0.110476784 0.0169586 0.16690849 0.077701695
0001a0 56 e0 61 bd bf d5 a7 3d 69 1d 0c 3e 00 51 99 bd
       -0.055145584 0.08195066 0.13683094 -0.07486153
0001b0 e7 28 46 3d c9 c3 24 3e f3 55 d8 3d d2 79 21 3c
       0.04837885 0.16090311 0.105632685 0.009855704
0001c0 6a c5 09 be fd d1 bd bc d7 af 1b bd 39 17 17 be
       -0.13454214 -0.02317142 -0.03800949 -0.14754952
0001d0 d4 86 bd 3d 7f aa 9b bc 7a 9a 8b 3d 5e 55 2c 3d
       0.09254232 -0.019002197 0.068165734 0.0420736
0001e0 5f f7 4b 3e 46 46 2a be b3 55 1c 3e 9d df 84 3e
       0.19918583 -0.1662837 0.15267067 0.25951853
0001f0 e1 9a 46 3e 7e 65 28 3e 48 07 04 be 3e 6c 81 3e
       0.19395019 0.16444966 -0.12893403 0.25277895
000200 5d 8d 62 3d b0 46 fd bc 6a a9 53 bd 91 05 c3 3d
       0.055310596 -0.030917495 -0.051675238 0.09522546
000210 ae fb e8 bd c8 b9 b8 3c 1d e2 24 3c 2d 26 0e be
       -0.11376129 0.022549525 0.010063675 -0.1388175
000220 ca 00 20 3d af 6e 69 3d 53 03 7f 3d 05 50 70 3d
       0.039063253 0.05699032 0.06225903 0.058670063
000230 4c 2a 22 3d c2 ed 6e 3d 0c 8d af bc ea d4 6c bd
       0.03959112 0.058332212 -0.021429561 -0.05782024
000240 5a 8a 2a bd 94 18 2f bc ac 02 81 bd d6 c9 4c 3d
       -0.04163585 -0.010687012 -0.06299338 0.049997173
000250 c0 93 97 3d ce 0a fa 3d b0 f2 dc 3d 96 06 49 bd
       0.07401228 0.12209092 0.107884765 -0.049078546
000260 67 d5 75 bd 46 5d 02 3d e1 e1 d6 3b 6d 79 e1 bc
       -0.06001797 0.031827234 0.0065576886 -0.02752372
000270 a8 11 f6 bd 28 65 f2 bd d5 9c 3e 3d 54 47 cc bd
       -0.120150864 -0.118357 0.046536285 -0.09974542
000280 ff 5a fd 3d e0 cc c9 3a d5 3d 50 3d f5 f4 a2 3d
       0.12370872 0.001539614 0.050840218 0.07956878
000290 9e c4 99 3c 68 84 26 3d 8c c1 d3 3c 11 eb a5 3d
       0.018770512 0.040653616 0.025849126 0.08101476
0002a0 ce 58 12 3d d3 61 8f 3c 99 cc c6 bd bd a9 c1 bd
       0.035729222 0.0175027 -0.09706993 -0.09456203
0002b0 1c 4b f6 bd 4c 9e ed 3d 07 1b 43 3d 6d ca 80 3c
       -0.12026045 0.11602458 0.047633197 0.015721524
0002c0 51 91 c3 bd 59 7a c7 bc 0c 68 65 3c 58 63 67 bd
       -0.09549201 -0.024350332 0.0140018575 -0.056491226
0002d0 52 f3 9e bd 2e fe 0c 3d 14 9d 57 bd 61 58 bc bd
       -0.077612534 0.034422092 -0.052640036 -0.091965444
0002e0 09 57 9a bd b6 fa 82 3d 09 25 d7 bd 04 65 07 3d
       -0.07536132 0.063954756 -0.10505111 0.03305532
0002f0 f8 1a 3e 3d 69 04 1c 3d 8d 58 a4 bd 1e 3b c0 3d
       0.04641244 0.038090143 -0.08024702 0.09386276
