checkpoints/gru/sh-EMD-h64-l2-lr0.001-d0.3-ep200.pth (torch, 160672 bytes, 9 tensors)

rnn.weight_ih_l0 f4 [192, 10]
00000000: f885 173e 23e4 553e 7789 40bd ae32 1a3d
00000010: 5ff8 df3b 0492 1f3e 1dfd 86bc c274 1a3e
00000020: e3ee a53e 9ce8 69be b647 1a3e 4c90 823d
00000030: c95e 803d df9d c9bd 512a 2a3c 93a3 3fbd
00000040: e62c 583e 7717 97bd 47e9 6fbd f2ac 0ebd
00000050: aab7 7bbd 1e4e 1e3d 501c 82bd b2ad 95bc
00000060: dd18 ce3d eb48 a1bd e65b c5bd 12e5 2dbd
00000070: 0f67 543d 5a72 a1be 37e8 f93d 5609 0dbd
00000080: f6ed a93d 4ae7 a2bd 601f 893b 99cc ad3d
00000090: 461f 99bc 0a47 f53d 157b 3a3e ebcd 10bc
000000a0: 1e36 11bd e342 0cbe 21b5 433e 393f 5f3e
000000b0: bd77 7cbe 68b7 b6be 417b 3a3e 85ae b3bc
000000c0: d59e 6fbd d6ba 79bd 88d2 81bd 30bf cfbd
000000d0: a5bb d0be 927c 353e a7b3 11bd 5c32 d53d
000000e0: 4239 97be b3be 6b3d 9c1b e63b 6c3a 7d3d
000000f0: 8e9c 7f3b 984f 95bd c512 f23c 2a47 a23d
00000100: 368c 8c3d 38ac e4bc 2849 4a3d 4abd 173d
00000110: ec6c 00bd 9f5f b5bd 80de d43d bada f83d
00000120: 477f 233d 88ee 1abe f27d f9bd c166 15bd
00000130: bd32 67be d4d6 94bd 37d0 413e c602 0bbd
00000140: 1b98 9abd e203 d4bd f215 113e e08e 123c
00000150: 2ef8 bd3d 1f61 75bd 91a6 d13d 023b b7bd
00000160: b5cc 63be e0fa e3bc 73aa 7a3d a7fa 50bd
00000170: c9fb 503d 4d0f 553e 1bab 99be aaa8 723c
00000180: b52d 613e 5c76 3fbe 51d5 873e f969 1cbe
00000190: d98c a8bd a863 f7bc 9088 3c3d 0476 21be
000001a0: 7f2d ebbc 10d7 52be 0638 883d 1a57 dc3d
000001b0: d704 62be 5d0f a9bd 2f3e 3c3d bfa7 43bd
000001c0: 479f 813d 6c29 003c 6ae0 18be c0ea 0ebe
000001d0: 07a3 153d 4103 62bd 8c6c e1bd da4d 2abd
000001e0: 6a77 bc3d 7b85 4ebd 99ab 0fbe 6a88 8dbb
000001f0: 9cc7 51bd 1472 f63c 496b debd c0d2 3ebd
00000200: 8e08 863e 85cb ae3d 9914 e83d 152f 3c3d
00000210: 6fa7 a9bd 8957 053d f8ce 103d b303 983d
00000220: 5418 d1bd ee7c 26be 484c 813e 2374 a33c
00000230: 676f 51bc 94d6 1cbe fa40 303e 5290 843d
00000240: 4440 713d b30c b2bd 95fa 20bc efe6 ac3e
00000250: 82c6 303d 3cac 873e bb7c 343d adec a63d
00000260: 0e60 b3bc 7919 39be e4b3 053e 527e 2e3d
00000270: 0ebd 663d 3caf 39be 784a 823e c083 a9bb
00000280: a63a 703d 4ca2 543e 7934 66bb c065 21be
00000290: cad8 59be 6bd6 e4bc cf11 fabd ec6e 08be
000002a0: 927c 963e 1bf4 8c3d b4d1 3cbd 32f4 653c
000002b0: cfa5 d83d 4372 0f3e 2ca2 a5bd 1fb2 babd
000002c0: b741 8abd bb49 783d 4fd9 cc3d a8b0 8dbd
000002d0: 4753 783d ac4f b1bd 2095 3bbc b1a0 81bd
000002e0: 6367 a73d e7fb cd3c e81d 23bb 9b79 773d
000002f0: b439 86bc 10fd 243e e10c db3b b6d5 8fbd
00000300: 1746 083d e6e6 0b3e d76f 0ebe f5c6 d83d
00000310: 31cb d6bc 9974 fbbc 31e2 ff3d 7f4b ab3d
00000320: c691 d8bd 8cc7 ecbd fd04 223e 6853 d33d
00000330: 70b4 18be 13e0 a63c 1597 67bc 9f33 9bbe
00000340: 851f 95bd c6a1 bc3d f0f4 373e 77a7 7dbd
00000350: 1478 24be ed9b 34be ce8e 91bd 6aba 353e
00000360: 94be ea3c d95c 9d3a 12a6 043e 84b5 803d
00000370: e76f 6bbd afc9 403e d87a 703d e056 c43c
00000380: 36cd 47be 1991 c53d 71df 833d 13c2 8b3d
00000390: 23b3 c5bb 5503 8dbc cf64 04be f29e 773e
000003a0: 634a 26bd 949f 02bd 3518 6c3d e08d 523d
000003b0: fcb0 9b3c 6ef0 8c3d 5cb9 51be 71d9 8b3d
000003c0: f223 3c3d 9a97 95bd c015 39be e017 54be
000003d0: f263 ec3d e7a3 f13d f3f0 963d d72a 203e
000003e0: 2e1b 093e e30d e43d 538f f6bc ba3b 02be
000003f0: dc8e b2bd ac7c 37be e3a0 10be 9807 123d
0.14797199 0.20887809 -0.047006097 0.03764599 0.006835028 0.15583044 -0.016478116 0.15083602
0.3240882 -0.2284264 0.15066418 0.06375179 0.06268079 -0.09844565 0.010386066 -0.046786856
0.21110877 -0.073775224 -0.05857208 -0.034832902 -0.061454453 0.038648717 -0.063530564 -0.018271301
0.10063336 -0.07875236 -0.09636669 -0.042454787 0.051856097 -0.31532556 0.122024946 -0.03443273
0.082973406 -0.07954271 0.0041846484 0.084862895 -0.01869167 0.1197644 0.18211015 -0.008838157
-0.035452 -0.1369739 0.19112064 0.21801461 -0.24655052 -0.35686803 0.1821108 -0.021933803
-0.058501083 -0.060969196 -0.06338984 -0.10143888 -0.4076816 0.17723301 -0.03557172 0.10409996
-0.29535872 0.05755491 0.0070223343 0.061823294 0.0039003226 -0.07290572 0.029549966 0.0792373
0.068626806 -0.027914152 0.049386173 0.037045754 -0.031353876 -0.08856129 0.10394001 0.12151094
0.039916303 -0.15130055 -0.12182225 -0.036474947 -0.22577949 -0.07267538 0.18927084 -0.03393819
-0.07548543 -0.10352303 0.14168528 0.008945197 0.09275852 -0.059907075 0.10236848 -0.08946802
-0.22246058 -0.027829587 0.06119771 -0.05102029 0.05102137 0.20806618 -0.30013356 0.01481072
0.21990092 -0.18697494 0.26529935 -0.152748 -0.082299896 -0.030198887 0.046028674 -0.15767676
-0.028708218 -0.20589852 0.066513106 0.10758801 -0.22072159 -0.082548834 0.04595774 -0.047767397
0.06329208 0.007822376 -0.14929357 -0.13956738 0.036532428 -0.055178884 -0.11007032 -0.04157815
0.09202464 -0.050420266 -0.14030303 -0.0043192403 -0.051215753 0.030083694 -0.10860307 -0.046587706
0.26178402 0.08534912 0.11332054 0.04594334 -0.082838885 0.032554183 0.03535363 0.074225806
-0.10209718 -0.16258594 0.2525351 0.01995284 -0.012782908 -0.1531623 0.17212287 0.064728394
0.05889918 -0.086938284 -0.009825368 0.33769938 0.04315806 0.26498592 0.044064265 0.08150611
-0.021896388 -0.18076123 0.13056904 0.042600937 0.05633264 -0.18133253 0.2544744 -0.0051731765
0.05864968 0.20765036 -0.003512649 -0.15761471 -0.21274105 -0.027934274 -0.12210428 -0.13323563
0.29391915 0.06882497 -0.046098426 0.0140352715 0.105785005 0.14008431 -0.080875725 -0.09116005
-0.06750815 0.06061719 0.10002386 -0.0691846 0.060626294 -0.08657774 -0.011449128 -0.063294776
0.08174016 0.02514453 -0.0024889652 0.060418706 -0.016384937 0.1611216 0.006684885 -0.07023184
0.033269968 0.136623 -0.13909851 0.10584823 -0.026219936 -0.030695247 0.124943145 0.08364009
-0.10574679 -0.11561498 0.15822215 0.10318643 -0.14912581 0.020370519 -0.014135142 -0.3031282
-0.072814025 0.09210543 0.1796453 -0.061927285 -0.16061431 -0.17637606 -0.07107316 0.17746893
0.028655328 0.001200582 0.12953976 0.06284621 -0.057479765 0.18826936 0.058710903 0.023967206
-0.19511876 0.09646816 0.064391024 0.06824126 -0.0060333177 -0.017213503 -0.1292908 0.24181727
-0.040598284 -0.031890467 0.057640273 0.051404834 0.019005291 0.06881796 -0.20480865 0.06828583
0.045932718 -0.07304306 -0.18074703 -0.20712233 0.115425006 0.1179884 0.07370176 0.15641342
0.13389274 0.11135461 -0.03009764 -0.12718096 -0.087186545 -0.17918652 -0.14123873 0.035651773

rnn.weight_hh_l0 f4 [192, 64]
00000000: 911e e0bd f22d 09bd 7410 7ebd 894f 1d3d
00000010: 0220 8bbc b897 1ebd 6036 1cbe c2b9 b8bd
00000020: ca0d b63c 11f3 343e 50b5 80bd a935 643c
00000030: 9bae 6ebe 3db6 423d a6a6 393d 508d 2ebd
00000040: 2620 ef3d 789f 4fbe e709 59bd 26e1 a9bc
00000050: 9c06 5f3e 0688 38bd 8823 5b3d e9a7 a53d
00000060: b9ab 753c 98ad 0d3e 4188 bbbd fcd9 6cbe
00000070: 214f fa3d 87f2 073c 4d6c ecbc 0835 cfba
00000080: ebde 94bc df74 d03d b26c 2ebe e3e2 8e3d
00000090: 7cfb c3bd 5fb2 1ebd 7532 b83d 5f36 963c
000000a0: bca9 10be 87ba edbd 7ab5 a53a 1b35 ac3d
000000b0: 641c bd3d 969e cabd 9de3 49be d0de 5b3e
000000c0: 5738 9ebd 628d 82bc e031 c23d 9f4b 1dbc
000000d0: e444 00be 78b8 6fbe 9679 91bd 32d0 903e
000000e0: 6170 80bd 4758 0bbd 36e9 c63b 48f5 453e
000000f0: 9285 05bd be45 3d3e c605 df3b e541 cd3c
00000100: 6dd8 883d 7c13 2abe c382 40bd 6492 abbd
00000110: 87e9 d7bd e2d7 04bd 3104 30bb 60e8 103d
00000120: 471f d83d 0c97 3abd 8ef3 0bbe 5b20 6ebd
00000130: 131b 9fbd c598 043e 5ee5 98bc 5a2d aabd
00000140: ca36 2d3d 7209 2cbe b768 b13d 5020 f8bd
00000150: 468a 97bb 46f9 02bc 5ee5 973d f6a5 d1bd
00000160: 8234 0abe b05d 453c 964d 40bc 5122 4fbd
00000170: 6bda 11be 47e7 d4bd f733 d5bd 89f6 fbbb
00000180: 497a bb3d 8443 dbbc 3f65 19be fc07 16bd
00000190: 437f 0c3d ad6f a93d 6bf1 f4bc 6579 5abd
000001a0: 544f 243d 220c c03a f617 19be fb3d a1bd
000001b0: 9637 a53d 5cb3 0ebb 60e8 0d3d 6c68 3d3d
000001c0: c8ac bdbd c397 ce3c 2d17 7abd 326f 59bc
000001d0: 9828 b33a bf4a d7bd e72a e1bd 99a1 f33d
000001e0: 2091 07bd 8f69 d5bd 5267 a7bd 1aea cfbd
000001f0: f786 f73c 3f36 48bb 5e13 c93d 03ee 203e
00000200: 02fe 383d 2c8c ec3d 66f2 e4bd 3abe cd3d
00000210: 2172 88bd a7a5 04be dcba 38be 5181 aa3b
00000220: 9445 433d f9e1 4c3e fd19 5d3b a9ed 6f3d
00000230: dac3 debd fade d9bd 83a6 e13d b515 c0bd
00000240: 67ef ac3d f289 c3bd 3307 a33d 4ef4 b9bd
00000250: eafe 253e 804c 01be 098f 81bd 5f90 eb3d
00000260: 6e34 bfbd 78b0 353e 6f64 a43d f955 e0ba
00000270: 1ca8 013e 68e0 0d3e 1143 263c cf86 ea3d
00000280: 6d3c 0fbe 349b 553e 8ab5 8ebd 80af 3cbd
00000290: e9d0 853e ee05 b43d c110 5dbe 64ff eabd
000002a0: 3474 83bd 3602 e9bd 6d3c 3c3e 4bc9 993b
000002b0: b0dc 073e e992 233e ec05 dcbd a8ab 353d
000002c0: 5bcb 96bd 3d46 473d e721 383d 4c3b 0bbe
000002d0: 514a 803d 947f 0bbe 4046 ef3c 7193 8e3d
000002e0: 1a6b babb 28a0 843b 98b6 f5bd 3a84 cfbd
000002f0: 40cd f8bc 72d5 9c3d ecb2 a13c 7aee 713c
00000300: 2ab5 843d c3c1 cb3d e9f7 d83d f7a0 573d
00000310: 82b9 cebb 302a f23d 1d4f 83bd b2ae db3d
00000320: 7a59 033e f673 e63d 8b48 bb3d a588 c83d
00000330: 750d 243d 8646 16bd 5921 4d3e 0fa0 0cbe
00000340: 8ec4 f13d 2b73 ae3a 3e4f 033e f60c 85bd
00000350: fa84 a7b8 3306 b93d 21d8 d1bd 28b3 48bd
00000360: 176d 8a3c 0384 12be 6db2 a13c 638b f1bd
00000370: afdb 843d 0259 96bd a977 003e bab5 533d
00000380: eafb 223e 09c4 3c3e 1e97 dbbd 519d a9bd
00000390: 8572 dd3d bfd5 3fbd 8ba1 46bd fb44 0bbe
000003a0: bd50 58bd eeb3 2bbe cc51 d93d f53a db3d
000003b0: 9b54 013e f8dc 003e 3206 c63c 7537 f8bb
000003c0: f9d2 a3bd 10b3 3bbd 5e6b 1e3d 83f3 f03c
000003d0: 33e7 a33d 8b0d 143c 893a c5bd 4503 b7bd
000003e0: 2c84 803d e55a 6f3d f5ff 05bc 7518 16be
000003f0: fd3d 15be 8e32 9bbd c623 273d 436b 03bd
-0.1094333 -0.033491082 -0.06202741 0.03840593 -0.016983036 -0.03871891 -0.15255117 -0.090198055
0.022223372 0.17670847 -0.062845826 0.013928809 -0.23308794 0.047537077 0.045324944 -0.042615235
0.11676054 -0.20275676 -0.05298796 -0.020737242 0.21779865 -0.045051597 0.053500682 0.08088667
0.014994555 0.13835752 -0.09156848 -0.2313003 0.12222124 0.008297569 -0.028860236 -0.0015808651
-0.018172702 0.101785414 -0.17033651 0.06976869 -0.09569451 -0.038744327 0.08993999 0.018336473
-0.14127249 -0.11607843 0.0012642585 0.084085666 0.09233931 -0.09893529 -0.19715734 0.21471715
-0.0772559 -0.015936557 0.09482169 -0.009600549 -0.1252628 -0.23410213 -0.07103269 0.2828384
-0.062714346 -0.034019735 0.0060702814 0.19331849 -0.032598086 0.18483636 0.006806108 0.025055835
0.06681905 -0.16608995 -0.046999704 -0.08377531 -0.10542589 -0.032432444 -0.0026857967 0.03537786
0.10552841 -0.045554206 -0.13667127 -0.058136325 -0.07768836 0.12948902 -0.018664058 -0.083094314
0.04228858 -0.16800478 0.08662551 -0.12115538 -0.004624638 -0.007994002 0.07416795 -0.10236733
-0.13496593 0.012046263 -0.011737248 -0.050569836 -0.14243476 -0.10395675 -0.10410302 -0.0076893014
0.091541834 -0.026765592 -0.14980029 -0.03662871 0.034301054 0.082732536 -0.029900273 -0.053338427
0.040114716 0.0014652053 -0.14950547 -0.0787315 0.08067243 -0.0021774387 0.03464544 0.046242163
-0.09261471 0.02521885 -0.06105726 -0.01327114 0.0013668714 -0.105123036 -0.10994511 0.11896057
-0.033097386 -0.10420524 -0.08174004 -0.10152073 0.030215723 -0.0030549911 0.09818147 0.15715794
0.045164116 0.11550173 -0.11179046 0.100460485 -0.06662393 -0.12953816 -0.18040031 0.005203404
0.047673777 0.20008077 0.0033737414 0.05857626 -0.108771995 -0.106382325 0.11018088 -0.0937914
0.084441 -0.09547795 0.079603575 -0.090798005 0.16210523 -0.12626839 -0.0632611 0.11502146
-0.09336172 0.17743099 0.08026969 -0.0017115466 0.12661785 0.13855135 0.010147826 0.11451494
-0.13987894 0.20859987 -0.069682196 -0.046065807 0.26135948 0.087901935 -0.21588422 -0.11474493
-0.06418648 -0.11377375 0.18382426 0.0046931854 0.1326778 0.1597401 -0.10743317 0.044353157
-0.07363006 0.04865097 0.044954207 -0.13596839 0.06264175 -0.13622886 0.029208302 0.06961716
-0.005689037 0.0040474124 -0.119977176 -0.10132642 -0.030371308 0.07657899 0.019738637 0.01476633
0.06479867 0.099490665 0.1059416 0.052643742 -0.0063087353 0.11824453 -0.06411574 0.1072668
0.12827101 0.112525865 0.09144696 0.09791688 0.040051896 -0.03668835 0.20032252 -0.13732933
0.11805068 0.0013309469 0.12823197 -0.06496613 -7.987949e-05 0.090343855 -0.102463014 -0.04899898
0.016897721 -0.14308171 0.0197384 -0.11794164 0.06487214 -0.07341196 0.12545647 0.05168698
0.1591641 0.18434156 -0.10722183 -0.08281959 0.108128585 -0.046834704 -0.048493903 -0.13600533
-0.052811373 -0.16767856 0.10611305 0.107046045 0.1262993 0.12584293 0.024172876 -0.0075749704
-0.07999224 -0.045825064 0.038676612 0.02941299 0.08003082 0.009036432 -0.09630305 -0.089361705
0.0627521 0.058436293 -0.008178701 -0.14657767 -0.14574428 -0.07578002 0.0408056 -0.032084715

rnn.bias_ih_l0 f4 [192]
00000000: c8b2 6d3d cd9d c2bd 36ae b3bc 2ce5 c73d
00000010: 6112 93bd 8e5d e5bc ca75 693c 062a d2bd
00000020: c504 8b3c afe0 87bd 87d6 18bd a62a 483d
00000030: eab0 dc3d 04a6 b53d 39fb c7bd 2e9e e33d
00000040: 3cff 40bd bfe6 d93c c989 1e3e 122d 22bb
00000050: 9cd3 d53c 5147 f33d bc39 703d 473f 193d
00000060: 5289 623d a5a0 7e3d 8c62 763e 282a cb3d
00000070: bba3 11ba 53ec 093d 9fdc 53bb 01c5 133e
00000080: 80f4 63bd 32e9 073e d544 b33c 446c 7b3e
00000090: 0b29 b73d d6ab db3d 0f72 92bd f322 cbbd
000000a0: d39f 4a3e a0cb 06be 9de2 f03d 8638 cebd
000000b0: a0aa f2bd a087 113e 4252 80bb 4a4f 5e3d
000000c0: a35e 69bd 9779 7abd 36ca 823e e8b6 b13d
000000d0: e9bc ff3c 5d92 e83c 08be 1d3e f453 233e
000000e0: 9c79 e33d 5ec6 b73d 586d aabc 1de9 663d
000000f0: 8959 cc3c a2cd 8a3d de89 a3bd 988b 273e
00000100: 94f9 0fbe f288 d1be 1a8d edbe 773c 06bf
00000110: 9735 0a3d c0c0 14be a43b b5be 3f72 5cbe
00000120: 621f bdbe f6bf 773e a89e 0a3e ee7b 16bf
00000130: ac6d 3abf 824b fdbd 49dc 323e 33de 45be
00000140: 3284 f5bb f2b4 50be 071a 79be 0f30 b5be
00000150: acd1 89be e1a0 34bf a26b 9b3d c3d9 ebbd
00000160: ea63 c2be 6d36 25be 9ed2 47bf 1b28 aa3d
00000170: 32e3 4abf 36e7 813e 2e51 77be 78b4 0ebe
00000180: 3339 49be 423b 81bc 2b2c 233e 4e29 413c
00000190: 0dc1 dabe 2526 f8be 3136 3fbd 8017 21bf
000001a0: a5c9 c4be 391f 7cbe 335a 36bf 815e 30be
000001b0: 4159 3ebe d3a5 c6be dedc 903d 2170 8cbe
000001c0: 59ad 11bf 4689 38be 0c67 6cbe d9e2 33bf
000001d0: 7679 3abf 1010 a5be 98a5 2cbf 404d 2cbd
000001e0: 0fd4 8cbd 00ad ffbd 59e8 eebe 9f2b 44bc
000001f0: 9b7a cfbe 0c57 883e 513c 9ebe 5ab2 b9be
00000200: d994 68bd 20d9 db3c e4c5 463d ecbf 313d
00000210: 796e 933d 3715 6c3c 02e2 fabd 1f4d c23c
00000220: bdc7 e73d 0fcf 773d 4025 f03d 0d8f 88bd
00000230: 8aec 1d3d c139 a33d 73cf 533d 70e7 8dbd
00000240: ef1d fa3d c70e bbbd 942f 2dbc edef 6d3d
00000250: 9ced a23d 8cbc 6a3d d039 eebc 3535 0bbe
00000260: b585 293d 4065 cfbd 93e7 513d 0648 46bc
00000270: 3c68 953d e6ee 26bc 121d 8dbc 484c 53bd
00000280: 7e86 a7bc 3010 17bd 775f d8bd 05d6 b33c
00000290: 4060 5b3d a9ee c0bd 65bb e3bc 2be0 01be
000002a0: 2737 03bd 80bf a3bd 1de2 b83d 6727 0dbe
000002b0: 6b01 e4bb 2041 a43d 4211 433d 1c55 d63d
000002c0: 0bf1 a1bd 8a33 9f3d bf15 0bbe 8bec 113b
000002d0: 3a8e ebbd ba9a e33d f317 6e3d 47b5 fdbd
000002e0: 7507 28bd edb6 1ebd d270 abbc 1c91 6fbd
000002f0: 42d7 263d fc45 803d dfc4 0abc 7890 aa3d
0.058031827 -0.09502754 -0.021933656 0.09760508 -0.0718124 -0.027998712 0.0142492745 -0.102619216
0.016970048 -0.06634652 -0.037313964 0.048868798 0.10775931 0.088695556 -0.09764714 0.11114155
-0.04711841 0.026599286 0.15482248 -0.0024746102 0.02610188 0.11878837 0.05864881 0.03741386
0.05530674 0.06216492 0.2406103 0.0992015 -0.0005555709 0.033672642 -0.0032327545 0.1443062
-0.055653095 0.1327255 0.021883408 0.24553019 0.08943375 0.107261345 -0.07150661 -0.099187754
0.1978753 -0.13163614 0.11761973 -0.10069375 -0.118489504 0.14211893 -0.003916056 0.054274835
-0.05697502 -0.061151113 0.255449 0.08677465 0.03121801 0.028390104 0.15404522 0.15949994
0.111071795 0.089733824 -0.020804092 0.056374658 0.024945037 0.067775026 -0.079852805 0.16361845
-0.1406005 -0.40924793 -0.46396714 -0.5243601 0.033742514 -0.14526653 -0.35397065 -0.21527956
-0.36938006 0.24194321 0.13537085 -0.5878285 -0.72823596 -0.123679176 0.17466845 -0.19323044
-0.0074925655 -0.20381525 -0.24326335 -0.35388228 -0.2691778 -0.7055798 0.07588889 -0.11516144
-0.37966853 -0.16134043 -0.7805575 0.08308431 -0.7925292 0.25371712 -0.24152061 -0.13936031
-0.19650726 -0.015775327 0.15934817 0.011789633 -0.4272541 -0.48466602 -0.04668254 -0.62926483
-0.38435093 -0.24621285 -0.71231383 -0.1722355 -0.18588735 -0.3879839 0.07073377 -0.27429298
-0.5690513 -0.18021116 -0.23086184 -0.7026802 -0.72841585 -0.32238817 -0.67440176 -0.04206586
-0.068763845 -0.12484169 -0.46661642 -0.011973291 -0.40523228 0.26628911 -0.30905393 -0.36268884
-0.056782577 0.026836932 0.048528567 0.04339592 0.07198805 0.014409355 -0.12250139 0.023718415
0.11317394 0.0605002 0.11725855 -0.0666791 0.03855566 0.0797 0.05171151 -0.06928909
0.12212741 -0.09133678 -0.010570426 0.05809014 0.07955477 0.05730872 -0.029080302 -0.13594516
0.04138728 -0.10126734 0.051246237 -0.012102133 0.07295272 -0.010188794 -0.017225776 -0.05158642
-0.020449873 -0.036880672 -0.105650835 0.021952638 0.053558588 -0.09420521 -0.027799318 -0.1268317
-0.03203502 -0.0799551 0.09027503 -0.13784562 -0.006958177 0.08020234 0.04762388 0.10465452
-0.079073034 0.07773502 -0.13582514 0.0022266235 -0.11501737 0.11113496 0.05812831 -0.123880915
-0.041022737 -0.03874867 -0.02092782 -0.058487996 0.04073263 0.062633485 -0.008469789 0.083283365

rnn.bias_hh_l0 f4 [192]
00000000: 490c 93bd e7a6 b73d dde3 e83d 6ebf 753e
00000010: 9e04 533d dda4 723c d9be 6b3d ae98 a8bd
00000020: 68c1 fbbd 03b8 b0bd b918 bf3d 22aa f13d
00000030: 4cd7 3b3e 792f b63d 99c6 bebd 87ae 373d
00000040: 9e85 0ebe aa44 f63d df17 b03c 1894 c5bb
00000050: 0511 0a3e abb6 f8bc 61b4 f63d 8855 4fbd
00000060: 85f5 95bd 7c89 46bd 5cd4 e23d 5b1c a53d
00000070: 2e0a e53d 0cef 66bd 491e 293d 3fc8 a23c
00000080: b6a3 983d 3ba8 2f3d a132 323e b23e 763e
00000090: 6433 9bbd 41f7 0d3e 9399 de3c f6f5 dcbd
000000a0: 7921 aa3b 688c e1bd ee1a 3a3e c616 dabc
000000b0: bee0 2c3d 02f0 083d 844b 263d 0c80 f03d
000000c0: 28a2 23bd 6b2f 21bc 1a88 6a3e 7686 043e
000000d0: a5cc 3f3e 4c46 1f3e 2b85 4ebd 1b54 113e
000000e0: e716 073d 1a02 863d 06d8 63bd b041 d53d
000000f0: e491 3cbc 3806 323e 29ca 07bd fafd e93d
00000100: 4b02 2fbe afe3 a6be e805 f9be 1477 33bf
00000110: 3ff0 063e a36d 64be 0bc6 c5be 06a6 01be
00000120: c0eb 1fbe c280 003d eb9f 7f3b f2c3 3dbf
00000130: 1313 32bf a1ed e23c c7e4 b53b 58b9 50be
00000140: bc37 83bd 98bd 7bbe 0a47 e8bd 4f1b 73be
00000150: 0a7e b2be 9888 19bf 7d6a cc3d b62f 62be
00000160: 6f09 8dbe cbda 89be fb05 4fbf 8cc7 903d
00000170: 89aa 48bf 6269 8a3e 41da 35be 45b5 40be
00000180: cb9d e5bd f10e 15be 2b03 383e b7e2 0d3e
00000190: 1177 b9be cbf3 e9be d600 3ebe 577f 19bf
000001a0: 435d a8be 5689 14be 0739 2abf c2cb 8e3c
000001b0: cb12 93be 4485 06bf a66a 3ebc 6272 e0be
000001c0: 91aa 0cbf 6bbf 9ebe b282 63be 4bbb 1ebf
000001d0: d001 25bf 4036 b1be d1a8 f7be 0c0c 97bd
000001e0: 77c4 933d 8f94 05be 6743 b6be 695e 30be
000001f0: aca8 9abe 2b48 6a3e 561f b9be 1442 b2be
00000200: 7d5b 67bc ed58 4d3d e18a 86bd a3e2 e8bc
00000210: 6298 9dbd 6667 6c3d ea3e b73d 7bd5 d03c
00000220: fa2f 85bd fae9 f9bd 69c4 c83d 563a 03bc
00000230: 62de 06be 6102 a7bd 8c75 013d 1336 ea3b
00000240: f798 21bd 57f0 a23d a5f6 3a3e ed76 803c
00000250: d9e3 dfbd 68f1 89bd 68b6 01be 1b5b 913d
00000260: 094b e9bd 27c9 17bd 742c c8bd ce06 913a
00000270: cf94 cfbd 60dd 0bbe cb5d bbbd 628f 773d
00000280: 0aa8 04be 88a8 e03d 1c10 4d3d dae5 863d
00000290: d3f2 c93d 06ac e23c 31df 7539 8dd2 d5bd
000002a0: 10ed f7bd 64a6 e6bd f87f ffbd 155d aabd
000002b0: 68fd 693d 25ba 06bd d4cd 253d 6cbd b7bd
000002c0: e19f 3f3d 86fe 17be f04c 2dbc 58b3 04bd
000002d0: b6ba c83d 6650 b6bd 847e f73d 46af 43be
000002e0: 2abb eabd 469b 8fbd 3e34 87bd 52ba 173d
000002f0: 41c4 cdbd 2a85 4bbd 9365 11bd 359c a5bd
-0.071800776 0.08967381 0.113715865 0.23998806 0.051518075 0.014809814 0.057555053 -0.08232246
-0.12292749 -0.086288475 0.09330887 0.118000284 0.18343848 0.088957734 -0.09315223 0.044844177
-0.13918158 0.120248154 0.021495758 -0.006029617 0.13483055 -0.03036054 0.12046123 -0.05061868
-0.0732222 -0.04847096 0.110756606 0.08062049 0.11183582 -0.056380317 0.041288648 0.019870875
0.074531004 0.042885046 0.17402126 0.24047354 -0.07578161 0.13863851 0.02717284 -0.10789101
0.0051919785 -0.110131085 0.18174335 -0.026622187 0.04220652 0.033432014 0.04059936 0.11743173
-0.039949566 -0.0098379655 0.22903481 0.12941918 0.1873041 0.1555416 -0.050419968 0.1419224
0.032980826 0.065433696 -0.055625938 0.104129195 -0.011509392 0.17385185 -0.03315178 0.11425395
-0.17090718 -0.32595584 -0.4863732 -0.70103574 0.13177584 -0.22307448 -0.38627657 -0.12660989
-0.15617275 0.031372793 0.003900523 -0.74127114 -0.69560355 0.0277012 0.005550954 -0.20383203
-0.06407115 -0.24584043 -0.113416746 -0.23740886 -0.34861785 -0.5997405 0.099812485 -0.22088513
-0.2754626 -0.26924738 -0.808685 0.070693105 -0.78385216 0.27033526 -0.17759039 -0.18819149
-0.11211737 -0.14556481 0.17969958 0.13856016 -0.36223653 -0.45693812 -0.18555006 -0.5995993
-0.32883653 -0.14505515 -0.66493267 0.017431144 -0.28725275 -0.525471 -0.011622107 -0.43837267
-0.54947764 -0.31005415 -0.22217825 -0.62004536 -0.6445589 -0.34611702 -0.48370984 -0.07375345
0.07215207 -0.13044952 -0.355983 -0.17223515 -0.3020681 0.22879092 -0.3615672 -0.3481604
-0.014120934 0.050133634 -0.06569458 -0.028428381 -0.0769508 0.057715796 0.08947547 0.02549242
-0.065032914 -0.122028306 0.09803087 -0.008009514 -0.1317077 -0.081547506 0.031606242 0.0071475594
-0.03945252 0.079559974 0.1825815 0.015681708 -0.1093213 -0.06735498 -0.12667239 0.07097455
-0.11391265 -0.03705707 -0.09774104 0.001106465 -0.10135805 -0.13658667 -0.09148749 0.060439475
-0.12954727 0.10969645 0.05006419 0.065868095 0.09860768 0.027669918 0.00023448166 -0.1044055
-0.12105763 -0.11262205 -0.1247558 -0.08318535 0.057126433 -0.032892365 0.040479496 -0.08971676
0.04678333 -0.14843187 -0.010577425 -0.032397598 0.09801237 -0.089020535 0.12084678 -0.1910983
-0.1146148 -0.07012038 -0.06601761 0.037042923 -0.10047198 -0.049687542 -0.03549726 -0.08086435

rnn.weight_ih_l1 f4 [192, 64]
00000000: cea1 40bc b7b7 a8bd f1f9 fb3c 86b7 9bbd
00000010: 0e3e 4bbd c857 41bd dd37 583d 22c5 aabd
00000020: e139 88bd efd0 273b 43c3 1ebe 88a5 a03d
00000030: c5f1 a0bc 129a f5bb e93e e2bd 59f1 b6bd
00000040: 0ee5 333d 39df febc 7022 cd3d ccab 21bc
00000050: f9c3 823b a102 8f3d ff7d cebd 2824 2f3e
00000060: a462 d3bd 9813 d4bd ceea c93d 8ec3 e93c
00000070: b9bf 9fbb 89e4 d2bc 478b 503d 121f 6bbc
00000080: 85e4 8dbc ad41 033e c842 0f3e e0b3 09bd
00000090: a920 2b3e c785 8fbd 1dba a7bd 2531 1b3e
000000a0: 9406 bcbd 36f0 50bd e9d1 e8bb be91 ec3d
000000b0: 6ea4 1d3c 3bee 9fbd fea4 573d 4a91 b1bd
000000c0: 3a63 5f3e caff 933b 4f73 13bd 25b9 0f3d
000000d0: 896c 993c cd33 e5bd 6b9c 013e 64f7 2c3d
000000e0: 8292 debc 8eaa e8bd 291a 22bd 4fba e5bd
000000f0: 562d 363e 55c4 733d e173 ab3d a07e 353d
00000100: 6e4d 91bc 7094 a9bd f870 0d3d 4eba 8b3d
00000110: 70e4 94bd 8a4f 9b3d 5500 9b3c 0555 17be
00000120: 27a3 6cbd 05dd 98bc 38c1 cb3c 32ed 173e
00000130: bfb5 ffbd 756d 85bd 2c0d 113e 52c4 84bc
00000140: ddcb d93d 6cd1 e5bd cf00 c53d 9ea6 de3d
00000150: 1cdc 063c 8ba5 473d e2cc 383c 65d9 083e
00000160: ec54 2a3c 590f 2f3d ce5a 133d 1b3d 87bc
00000170: e7e1 cf3d 1a0d eb3d 21dc 9ebd c5fa d73d
00000180: 1485 89bc 63df e13d 4437 b83c 1ecd a0bd
00000190: 19f5 063d f6c0 543d b83c cbba d809 013e
000001a0: 70c3 e73c a199 ec3d 585a 383e f62e 613d
000001b0: 6af4 bc3c 564d 393d 6c3b 523d a631 afbc
000001c0: f254 0cbe 5056 d2bc 138b bdbc 3178 31be
000001d0: 4c0b edbd 0442 82bd c63d 233d d847 cf3d
000001e0: 3a64 a03b 633e 48be 12ec e4bd 6d93 683d
000001f0: 7c0a d6bc 8f2e fa3d 1494 d0bd edc9 a53d
00000200: 85e1 78bd 122e fbbd 6068 1ebe e626 973d
00000210: 4846 9bbd f66a 883d 658b 883c 3a31 4c3b
00000220: d404 d13d 7806 203d 99ab 1dbc f2a9 833d
00000230: 0049 d5bd 5426 b5bd 84b0 87bd 608c d23d
00000240: c148 80bd 8c32 fcbd 7d32 383c f9a6 433d
00000250: 1a1a 3b3d e77e a03d 166c aebd b41f 343d
00000260: e4d4 953b 5d96 e0bc 0501 aa3d 9dcc 4bbd
00000270: 7eeb 1f3e 2adb 0b3e 1678 2bbd fb17 383e
00000280: 3aec 1b3e 2480 eb3d 13fd acbd 2d67 91bd
00000290: 0cac 1b3d 812c 073e 08c2 e33d e107 7dbd
000002a0: 5b9b 86bd 24da 0dbb 3125 e33d eaf4 02bc
000002b0: 295e 9a3d c5aa 2b3c e2c0 2a3d 3c84 6eb9
000002c0: 86cf 033e 3fc6 b5bd 334f de3b 1f9b 6ebd
000002d0: 155e bfbd 7a92 1cbe feaf aa3d 3f5d 1bbc
000002e0: 4ff7 8abb 839a 17bd 7269 a4bc ce1c 003e
000002f0: be24 01bd 23db 0e3c e5f4 81bd d01d 2c3d
00000300: 60bc 4f3d 1cfd 993d c153 853d 6ea2 96bd
00000310: 493f d3bd 839b 4bbd 86a7 783d 4327 1d3b
00000320: 954c 993c 4f99 463d d3cb 1abe a0ca 15bd
00000330: 3060 893d d841 fe3c b6b3 9c3d f57a edbd
00000340: 99ce 393d e239 0fbd 9572 e43d 8871 4dbd
00000350: 7642 3abd da2f c0bc b463 be3d 8e4f 4cbe
00000360: 8e07 43be 98f1 9fbd 7602 bbbd 11c1 02bd
00000370: 86f5 38bd 2283 98bd 8605 533c 3c30 25be
00000380: 4868 193e e3b9 13be 9351 173e d2f9 823d
00000390: 83d8 2eba c286 97bd 6c4f 95bd 4bd4 e8bd
000003a0: d618 b2bd 7f4b 90bd 5d21 b7bd d911 95be
000003b0: 8bc7 0cbe d652 4dbe 737a b7bd 9eef e9bd
000003c0: fd88 e8bd 1e19 c53d e0b5 91bc 6f72 553d
000003d0: e5fd f03d 76c4 1a3e 3fb2 103d 7539 24bc
000003e0: 35f0 f7bc 4936 fd3c 04f2 cc3d 5b9a c2bd
000003f0: 79fc e13d bf58 27be 057d 173d 30fe 43bd
-0.011757327 -0.08238166 0.03075883 -0.07603364 -0.049619727 -0.047202855 0.05278765 -0.08338381
-0.066516645 0.0025606712 -0.15504174 0.078440726 -0.019646535 -0.0074951733 -0.110471554 -0.08932752
0.043919615 -0.0311123 0.10016334 -0.00986762 0.003990647 0.06982923 -0.100826256 0.17103636
-0.103215486 -0.103553 0.098592386 0.02853563 -0.00487515 -0.02574374 0.050914075 -0.014350669
-0.01732088 0.12818022 0.13990319 -0.033618808 0.16711678 -0.07007938 -0.08189795 0.15155466
-0.09180942 -0.051010333 -0.0071051014 0.115512356 0.009621723 -0.07809111 0.052647583 -0.0867029
0.21815196 0.0045165764 -0.03599864 0.035088677 0.018728511 -0.11191521 0.12657325 0.042228118
-0.02716947 -0.11360656 -0.03957573 -0.11217176 0.17790732 0.05951341 0.083717115 0.044310212
-0.017737117 -0.08280265 0.034531564 0.06822644 -0.072701335 0.0758353 0.018921057 -0.14778526
-0.05777278 -0.018660078 0.024872407 0.14836577 -0.12485837 -0.06515018 0.14165181 -0.016206894
0.10634587 -0.11221585 0.09619295 0.108716235 0.008231189 0.04874186 0.011279317 0.1336418
0.0103962235 0.042739246 0.03597527 -0.01650863 0.10150509 0.11477108 -0.0775683 0.10545877
-0.01678709 0.11028936 0.02248729 -0.07851623 0.032948587 0.051941834 -0.0015505766 0.12601411
0.028291434 0.1155274 0.18003213 0.054976426 0.023065764 0.04523977 0.0513262 -0.021385979
-0.13704279 -0.025675923 -0.023137605 -0.17331006 -0.1157442 -0.06360248 0.039853834 0.10121125
0.0048947604 -0.19555049 -0.11177839 0.05678122 -0.026128046 0.122159116 -0.10184494 0.08095155
-0.060761947 -0.122646466 -0.15469503 0.07380466 -0.075817645 0.06661026 0.016668031 0.003115727
0.10205999 0.03906867 -0.009623432 0.06428899 -0.10414314 -0.08845201 -0.066254646 0.10280681
-0.06263877 -0.123143286 0.011242506 0.04776666 0.04567919 0.07836705 -0.085167095 0.043975547
0.0045724977 -0.027415449 0.08300976 -0.04975568 0.15617177 0.13657823 -0.04186257 0.17977898
0.15226832 0.1149905 -0.084467076 -0.07099757 0.038005874 0.1320057 0.11120993 -0.061775092
-0.065726005 -0.0021644915 0.11091078 -0.007992962 0.07537491 0.010477726 0.041687854 -0.0002274671
0.12872133 -0.08875703 0.0067843436 -0.058253404 -0.093441166 -0.15290251 0.08334349 -0.009482681
-0.0042409073 -0.03701259 -0.020069811 0.12510988 -0.03152918 0.008719238 -0.06345538 0.04202062
0.050716758 0.0751898 0.065101154 -0.073552 -0.10314805 -0.049708854 0.060706638 0.00239797
0.018713275 0.04848605 -0.15116815 -0.03657019 0.067077994 0.031037256 0.07651465 -0.11595718
0.045363043 -0.03496731 0.11154667 -0.0501571 -0.04547354 -0.023460317 0.092963606 -0.19952223
-0.1904585 -0.07809752 -0.09131329 -0.031922404 -0.045156024 -0.074468866 0.012879735 -0.16131681
0.14981186 -0.14426379 0.14777212 0.06395306 -0.0006669836 -0.0739875 -0.07290539 -0.11368617
-0.08696143 -0.0704565 -0.089419104 -0.2911518 -0.13747995 -0.2005113 -0.08958902 -0.114226565
-0.113542534 0.09623931 -0.01778692 0.052111086 0.117671765 0.15114006 0.03532624 -0.010023464
-0.030265907 0.030909674 0.10007098 -0.09502097 0.110344835 -0.16342448 0.036984462 -0.047849834

rnn.weight_hh_l1 f4 [192, 64]
00000000: 0485 febc ffe4 e0bb d784 c5bd 44f0 0dbe
00000010: bf3a f33d 84c2 57bd 4c7a 323a ecaf a3bd
00000020: 6113 15be 588f bcbb 614c 8e3d 5bd5 89bd
00000030: 471b 193d e831 79bd 69dc 42bd 3ab7 45bb
00000040: 5c07 c63d a2bc 203c 1ff5 53bc 44a3 903d
00000050: 4717 113e d4dc 653d 6660 21bd dac4 e53d
00000060: f619 d9bc c9c0 833d 9dd5 29be ec4f edbb
00000070: c948 8fbc bcfc af3c 800f c4bd ccac 88bd
00000080: fb38 463e 5959 0bbe bdb7 323d c45a 183d
00000090: 453a e83d 774b 14bc 8ecd 0cbd fb38 f3bd
000000a0: f8fb 49bb 2c24 3abe 8974 65bd f237 853d
000000b0: 82d1 d6bd ca68 503e fae0 76bc 9215 8b3d
000000c0: 7e6b 4a3d 6187 003e a2f5 a03c b0cd e13c
000000d0: 6328 0fbd c05e 30be a02c 233d 3ae9 86bd
000000e0: ecb7 c0bd 6e25 da3d c5da bebd 0af2 0e3d
000000f0: 3e3f 803d 83b3 82bd 0be6 98bd 911d 393e
00000100: 5844 cfbd 8bf7 b93c ec33 903c a179 f8bd
00000110: e5f1 ee3c 0d10 e33d 7501 ba3d e780 a43d
00000120: a69d 3abd 918a 07be 6aed 103d 84e5 adbc
00000130: 07f1 933d ab79 1c3c f2cf 92bd a07c 96bd
00000140: 7868 d23c 5579 ce3d 7148 e8bd 5d51 b8bc
00000150: e550 2e3d 66a8 7abc e43d 033e c6d5 c8bc
00000160: 2cf4 0e3e 4471 49bc 8aee 883d 3363 54bd
00000170: 2dcc 173e cd15 d43c ea33 213d 7063 513d
00000180: 2fea df3c 2418 07bc 44f4 f8bd fc2e fdb9
00000190: 2d86 e6bd 3201 943d 112e fa3d 13e2 b9bd
000001a0: 3f72 143e f818 22bd 325f 9bbd c33c bbbd
000001b0: ebfb 01bd cedf 4b3d 2b64 c0bb 7533 a6bc
000001c0: 7e1b 8d3c ec15 d73d afe7 12be 25d4 0f3d
000001d0: 5331 b03d 62a4 10bd e9b7 49bc 9697 b83d
000001e0: 40e3 5a3d 6b14 bf3d 3fe4 acbd f884 59bc
000001f0: 8fb8 07be 1039 e2bd 867f 48bc 0227 313c
00000200: 8424 f53d 1012 e23d c1c8 f8bd dc1c df3c
00000210: 414b d5bc b594 86bd 45dd f83d e7a2 d03d
00000220: 4a90 d1bd 0bf9 53be b277 183d 55c3 e03d
00000230: b8cd 203d 3a34 013e f327 0ebe 68f5 a23d
00000240: 8cb3 1dbd be7b afbc 03b2 fcbd 5bef c33d
00000250: d6e1 3c3d 2c7d 79bd 622b 373d 270f ea3d
00000260: 9710 a03c d73c a7bd a9c5 413b caa7 2ebd
00000270: 89d5 dc3d 576b 4abd ed98 bebd f661 edbd
00000280: c939 85bd ea13 e3bd 8055 79bd e93a a3bd
00000290: 0b73 dfbd 0d36 afbd 6f24 a0bc ab95 793d
000002a0: de24 9b3d bd64 9d3b 5ed7 353d a764 9dbd
000002b0: 9132 923d c54e c23d f6b4 75bd 6edf 42bd
000002c0: 80cf 03bd d004 2bbd c2a8 0ebd a292 c63d
000002d0: 2e55 84bd c86e 04be a1ae c5bc 4431 8eba
000002e0: 34f2 873d e636 f4bd 05d4 2a3c 2e76 743d
000002f0: d4c9 a43d ebc3 893d 8957 8d3d 9672 28bd
00000300: c9ad 083e 8cb6 133e e263 bf3d 81a9 993d
00000310: 10ae 1d3b 2d15 83bd d9db 3c3d a72f 11bd
00000320: 3286 bebd acdc ee3c a690 173d 33a0 3c3d
00000330: 4f31 8ebc d192 583c 893e f43d e417 6b3b
00000340: a370 03be 0b3b 2f3e 2301 893c 17ad 72bc
00000350: 9135 bdbd 294d e23c f66b 393d df85 f03c
00000360: 4b14 193e 9ec9 46bd 584c aabd e033 a4bd
00000370: b5f1 8f3d 8366 363d 1180 893d 948f dcbc
00000380: 7775 2e3c 43f2 a23d 7f0a 153d 7ed3 953d
00000390: bd21 d1bc 4f43 2a3d 2c0d 7bb8 7de7 3dbc
000003a0: 3c0d ccba aabf 5fbd bff2 7dbc 566d 9c3c
000003b0: 80ca 7abc da83 62bc a16a 943d 640e 7f3c
000003c0: c98f 6dbd 39cd 27bc 5152 9cbc 4dde 803d
000003d0: fdec f23d ce39 213e bc5a bdbb fd53 013e
000003e0: 77ca f83c 2ea8 1ebd 4d75 233e d071 e4bd
000003f0: 73bd e4bd 6004 ec3d 229c 1d3d c935 143d
-0.031069286 -0.006863236 -0.09644478 -0.13861185 0.11876439 -0.05267574 0.0006808385 -0.07992539
-0.14558174 -0.0057543926 0.06948162 -0.067301475 0.03737953 -0.06083861 -0.04757348 -0.0030169026
0.096693724 0.009810599 -0.012936859 0.070623904 0.14169036 0.0561188 -0.039398573 0.11219187
-0.026501637 0.06433255 -0.16585393 -0.0072421934 -0.017490761 0.021482818 -0.09573269 -0.066735834
0.19357674 -0.13608302 0.043632258 0.037195936 0.11339239 -0.009051195 -0.03437572 -0.118761025
-0.003082035 -0.18177861 -0.05601934 0.06504811 -0.10489179 0.20352474 -0.015068287 0.067912236
0.04941892 0.12551643 0.019648377 0.0275639 -0.034950625 -0.17223644 0.03983748 -0.06587453
-0.0941008 0.106516704 -0.09319071 0.034898795 0.062620625 -0.063818954 -0.07465752 0.18077685
-0.101204574 0.022701045 0.017602883 -0.12132574 0.029168079 0.11087046 0.09082309 0.08032399
-0.0455605 -0.13236453 0.035382666 -0.021227606 0.07223707 0.009550492 -0.07168569 -0.07347989
0.02568458 0.10081736 -0.11341942 -0.022499735 0.042557616 -0.015298938 0.12816578 -0.024515998
0.13960332 -0.012295071 0.06686123 -0.051852416 0.1482398 0.025889302 0.03935615 0.05112022
0.027333347 -0.008245502 -0.12155965 -0.00048290926 -0.11256061 0.072267905 0.12215818 -0.09076323
0.14496706 -0.039574593 -0.075865164 -0.09142449 -0.03173439 0.049773984 -0.005871316 -0.020288208
0.017225023 0.10502228 -0.14346193 0.035114426 0.08603158 -0.035313018 -0.012311914 0.09013288
0.05343938 0.09330066 -0.08441972 -0.013276331 -0.13253997 -0.1104604 -0.012237435 0.010812523
0.119698554 0.110386014 -0.12147666 0.02723544 -0.02603686 -0.06571332 0.12151579 0.10187321
-0.10232599 -0.20700471 0.037223525 0.10974757 0.03925869 0.12617579 -0.13882427 0.07956964
-0.038501307 -0.02142131 -0.123386405 0.09567138 0.04611381 -0.06091039 0.044719107 0.11428671
0.01953916 -0.08165901 0.0029567278 -0.042640485 0.10782916 -0.049418774 -0.09306512 -0.1159095
-0.06505162 -0.11087783 -0.060872555 -0.079702206 -0.109106146 -0.08555231 -0.019548623 0.06093375
0.07575391 0.0048032687 0.044394843 -0.076852135 0.07138551 0.0948768 -0.05998703 -0.04757636
-0.03218031 -0.041752636 -0.03482891 0.09695937 -0.06461559 -0.12932885 -0.024131121 -0.0010848423
0.066379935 -0.119245335 0.010426526 0.059683017 0.08046308 0.067268215 0.06901462 -0.041124903
0.13347544 0.14425105 0.09345223 0.075030334 0.0024060048 -0.06400523 0.0461081 -0.035445835
-0.093029395 0.029157959 0.037003182 0.046051215 -0.017357497 0.0132185975 0.1192599 0.0035872394
-0.12835936 0.17112367 0.016724175 -0.014811776 -0.092387326 0.027624683 0.045268975 0.02936071
0.14949147 -0.04853212 -0.08315343 -0.08017707 0.07028524 0.044531357 0.0671388 -0.026923932
0.010648123 0.07956364 0.036386963 0.073157296 -0.025528783 0.041568097 -5.985533e-05 -0.011590836
-0.0015567909 -0.054626144 -0.01549977 0.019095104 -0.015307069 -0.013825381 0.072469 0.015567396
-0.057998452 -0.0102418 -0.01908222 0.062924005 0.11861608 0.15744707 -0.0057786386 0.12629695
0.03036998 -0.038734607 0.15962715 -0.111545205 -0.11168947 0.11524272 0.038478978 0.036184106

rnn.bias_ih_l1 f4 [192]
00000000: 7d5d 90bd 833c 07be 66a4 07be 1b06 02be
00000010: bd3c 5cbd 9110 ccbd 0460 91bd 6ed6 b43d
00000020: b695 aabd 6896 99bd 2e94 833d e982 cabd
00000030: 8831 7bbd cde0 0abd 6663 9f3d 7814 f9bc
00000040: bc0e f4bd 4829 503c 7980 95bd ba0a b63d
00000050: 1f14 c63d 5c5a 303d 961f 38bd 5aa5 3c3d
00000060: f659 63bc 846b 363c ac42 1fbd 4b03 513d
00000070: 1ea3 ca3d 2a6e cb3d 2aed 6abd 870d 533d
00000080: 5548 5dbd ae9f 5f3d c014 103e a920 1d3d
00000090: 3895 8b3d c8b0 513d 83b6 8cbd e567 b8bc
000000a0: 2bdf 2f3b 3f04 e7bd 118f 2c3d 2f68 97bd
000000b0: 1588 78bd 304c 8fbd 90c3 a93c aaa9 ba3d
000000c0: 05ef 6cbd 401a 96bd 4423 60bd f386 1abd
000000d0: a022 473c 60e0 293b 9000 d6bd 7de5 d53c
000000e0: e8b3 84bd b644 77bd a3b5 c63d 197e 87bc
000000f0: aa1b 143e 9c95 83bd 713b 8dbd 10c1 d7bd
00000100: f1b5 84bd e965 41bd 1eb8 9d3e 3d00 63bd
00000110: c46a afbd 5f26 2fbd 46a1 513e 66e1 223e
00000120: 618e a73c 9eff 033d bdf2 2c3d a54a 073e
00000130: dfe7 b03e 5701 2c3d 3400 713c b9d5 7fbe
00000140: 0e32 0e3c 0215 a23d 02e8 1b3e 0319 4cbe
00000150: 834b ad3d 1102 5ebe 072b 373e ba66 823d
00000160: b397 363e 0750 453e d339 32be 66ab 1c3e
00000170: f9e3 863c b8be 603e 282a b1bc cd4f acbd
00000180: b19a 9e3d c307 283e 2dfa 0e3e bbed 863d
00000190: 8955 38bc 91e4 d53b d75b 1b3e f16f 5b3d
000001a0: ae0c 02bd fed7 773d 4b9d 093e e31c 04be
000001b0: 268b d23d b307 813e 9937 acbd f104 93bb
000001c0: e364 5cbd 4830 07be d29f e23c 080a 1fbd
000001d0: a66d 7c3e 61c9 2c3d 059c da3d 8e4c c9bd
000001e0: 294b 703d c0f7 a4bc ab56 0d3e 9324 013e
000001f0: d469 963e ec94 843d 8641 a3bc a3fe 0f3e
00000200: 715e 13bc 08ec cebd c8a9 11bc f2a4 21bc
00000210: 03a2 dabd bc2c c8bc 1fc3 cabb f042 6abc
00000220: 3418 013e 7baf 0e3d 06e7 bfbd 034c 383d
00000230: 8e49 c63d 6b0a cfbd 2b88 a2bd def1 d8bd
00000240: ddd5 a53d 9940 95bd a565 db3d 38a8 ab3c
00000250: 492b c03c 1198 4cbd b373 293c 5540 c6bd
00000260: 52be debd cf49 bdbd d3e6 f2bc 4a05 be3c
00000270: caaf 8c3d 21c8 0bbc 951e 2bbc 889c f4bc
00000280: 5f6b c93d 86e2 733c 911e 9cbd 750d d5bd
00000290: 1c93 d93d 4746 6f3c a1a0 e73d ffa4 0f3c
000002a0: 9256 163d 7707 b8bd b06b b5bd 3b72 153e
000002b0: 5c46 7dbd fa95 93bd be65 3f3b 8d6a 203c
000002c0: c4a3 e1bd c51d da3d fb29 d9bd 9dac 49bd
000002d0: f8fc ec3d 2836 b93d 50d2 193d f6db d63d
000002e0: 1760 d0bd 694d c63d ff54 be3c 98a0 d83c
000002f0: 65e1 353d e73d b83d 5811 d7bd 5bb0 dd3d
-0.070490815 -0.13206677 -0.13246307 -0.12697642 -0.053768862 -0.09964097 -0.07098392 0.08829962
-0.08329336 -0.07499391 0.064247474 -0.098882504 -0.061326534 -0.033905793 0.077826306 -0.030405268
-0.11916873 0.012705155 -0.07299895 0.08888765 0.096718065 0.043054923 -0.044951998 0.04605613
-0.013876429 0.011134032 -0.038881943 0.05102853 0.098943934 0.099331215 -0.057355084 0.051526573
-0.05402406 0.05459564 0.14070415 0.038361225 0.068155706 0.051193982 -0.06870749 -0.022510478
0.00268359 -0.11280107 0.042128626 -0.07392918 -0.060676653 -0.069969535 0.020723134 0.09114392
-0.057845134 -0.073292255 -0.054721132 -0.037726354 0.012154251 0.0025921091 -0.10449326 0.026110405
-0.06479627 -0.060368262 0.09702613 -0.01653962 0.14463678 -0.0642502 -0.06896103 -0.105348706
-0.06480015 -0.04721633 0.30804533 -0.05542015 -0.08565286 -0.042761203 0.20471677 0.15906295
0.020453634 0.032226197 0.04222368 0.13212068 0.34551904 0.041993465 0.014709521 -0.24983872
0.008678926 0.07914163 0.15225223 -0.19931416 0.08461668 -0.21680476 0.17887507 0.0636725
0.17831306 0.1926881 -0.1740487 0.15299758 0.016466128 0.21947753 -0.021626547 -0.08413658
0.07744349 0.16409211 0.13962622 0.06588312 -0.011250862 0.0065274914 0.15171753 0.053573553
-0.031750374 0.06050872 0.13438909 -0.12901644 0.10280447 0.25201187 -0.08409042 -0.004486673
-0.05380715 -0.13202012 0.027664099 -0.038827926 0.24651203 0.042184237 0.106742896 -0.09829055
0.05866543 -0.020137668 0.13802592 0.12611608 0.29377615 0.06473717 -0.019928705 0.1406198
-0.008994685 -0.10103613 -0.008890577 -0.009865986 -0.106754325 -0.024435394 -0.006187811 -0.014298186
0.12606889 0.03483532 -0.09370236 0.044994365 0.09681998 -0.10109409 -0.07936128 -0.105930075
0.08097432 -0.07287712 0.107127465 0.020954236 0.02345814 -0.04994971 0.010342526 -0.09680239
-0.108761445 -0.092425935 -0.029651081 0.023195881 0.068694666 -0.008531601 -0.010444303 -0.029859796
0.098349325 0.01488555 -0.076230176 -0.10402957 0.10623762 0.014604158 0.113099344 0.0087673655
0.036703654 -0.08985799 -0.088584304 0.14594357 -0.061834678 -0.0720634 0.002920493 0.009791029
-0.11017564 0.10650209 -0.1060371 -0.049236882 0.115716875 0.090435326 0.037554085 0.10491173
-0.10174578 0.096827336 0.023233889 0.026443765 0.044404406 0.08996182 -0.10501355 0.10824653

rnn.bias_hh_l1 f4 [192]
00000000: dca5 18bd c05a 97bd 9cf3 acbc 99e6 933d
00000010: 5b5c 953d 6cb5 b23d 1b60 74bd 74fd 1a3e
00000020: 4fb7 3cbd 84a4 f63b b9e0 ea3c 1874 03bb
00000030: 5c25 f23b b8c3 82bd 8e53 0cbe f995 c03c
00000040: ac7a c93d fae7 2c3d b478 dc3a 626c 8ebb
00000050: e652 5abd 9a10 443d bab4 e93d 12d7 c1bc
00000060: fbbb d93d 6d4e 7f3d dfb7 803d 681c 0dbe
00000070: 3684 c73d d5e2 6a3d 300b 16be 1703 4dbc
00000080: af4e 8abc 4679 46bd 6492 f53d c9b2 1dbd
00000090: 2f85 31bd 615c 04be a140 423d 6129 05be
000000a0: a399 5cbd e365 573d 1537 3bbd be6e febc
000000b0: cd38 03be 8cbb d4bb 768e 41bd 865f a0bd
000000c0: 2eaa c8bd 93e2 98bd 2b48 cdbc 6b34 74bc
000000d0: f948 6bbd eef3 5a39 64dc bb3d 6283 c7bd
000000e0: 8ac8 80bc fb34 b8bb 62d8 833c 6ba0 b7bd
000000f0: 2cca 4cbd b844 d0bd 0c96 d5bd 070d 5bbd
00000100: 8e8f 883a 38e1 67bd 0e4c 943e 1155 35bd
00000110: 07f6 f73d 2aed 183e 1bd0 fe3d 0fa0 c83c
00000120: 3f4c 52bd 1f95 4cbe b0a4 fbbc cef4 eb3d
00000130: 50dd 8b3e 817d bb3d c374 c03a d17a 6bbe
00000140: b6f2 0bbe cbb9 1b3e a37c 163e 6f79 58be
00000150: a68a 1a3e c7f0 50be 6733 653e fdbc 03be
00000160: 69f5 693e 65c5 5c3d 4641 e0bd bf71 593e
00000170: 2172 5b3c 3542 593d b318 13bd d0f7 073c
00000180: 0545 133e 5801 0b3e ac5f 6b3c 1118 c9bd
00000190: 391d c93d 41b5 e83c 7c33 1f3e 6cf6 993d
000001a0: 547f 13bd 3ce5 713d 456a f73d ac81 94bd
000001b0: 7471 353d c767 263e 3df5 d43d e9f0 ed3b
000001c0: 0746 e8bd 6af2 c9bc b02d 7bbd 0d75 08be
000001d0: 2e12 393d dbfb a7bc 8df3 a93d 485f 4b3d
000001e0: 8521 183e 014b 23be bf4c 1f3e 52d4 803e
000001f0: f530 4e3e eb16 233e fde6 cfbd 4474 713e
00000200: 56ac 7b3d 232b f2bc b67e 4ebd 42cd c23d
00000210: c3af e9bd 2204 b33c 3496 063c 9717 0bbe
00000220: 8efc 2a3d 39ec 653d b945 7c3d 31a6 723d
00000230: 09b5 1a3d 6797 623d 7198 aebc 3355 83bd
00000240: 4079 18bd a6f3 15bc 0edf 82bd dcdc 303d
00000250: f058 963d 6d5b f93d 7435 df3d a98b 50bd
00000260: 245b 71bd 1a6d f13c 7823 1a3c e1e2 c3bc
00000270: 8baf f6bd 6a40 f4bd a78e 503d c286 cebd
00000280: abd3 fe3d f7e1 d7bb 2669 7f3d c0f0 aa3d
00000290: 7652 8f3c 69f3 273d 0222 d93c 3b8e a13d
000002a0: 29e0 133d f42e 943c 4443 c2bd 4fac c9bd
000002b0: 562f e8bd 56c0 e83d dd68 3f3d 5bdd 7e3c
000002c0: fedd c2bd f7cb b7bc d1dd 783c a37c 6dbd
000002d0: d986 98bd cd2c 203d ec5e 5cbd faf8 c1bd
000002e0: 6667 8fbd 570a 7c3d f206 d5bd 9f47 153d
000002f0: e571 513d f77c 0a3d c2ca a4bd 9847 bb3d
-0.03726755 -0.07390356 -0.021112256 0.072217174 0.07293006 0.0872601 -0.059661966 0.15135747
-0.046073254 0.007526936 0.02867161 -0.002005821 0.0073897075 -0.06384987 -0.13703749 0.023509013
0.09837851 0.042213418 0.001682064 -0.0043464163 -0.053301714 0.047867395 0.11411424 -0.023662124
0.106315576 0.062330652 0.06285071 -0.13780367 0.09742014 0.05734523 -0.14652705 -0.012512944
-0.016883222 -0.0484555 0.119908124 -0.03850058 -0.043339904 -0.12925865 0.047424916 -0.13004066
-0.053857457 0.0525874 -0.045706827 -0.031058665 -0.12814637 -0.006492084 -0.047255002 -0.0783072
-0.09798084 -0.074650906 -0.025058826 -0.014905076 -0.05744264 0.00020880971 0.091728956 -0.09741856
-0.015720624 -0.00562155 0.01609439 -0.08966144 -0.049997494 -0.10169357 -0.1042901 -0.05347922
0.0010418759 -0.05661127 0.28964275 -0.04427058 0.12107473 0.14934221 0.12442037 0.024490384
-0.051342245 -0.1997876 -0.030718178 0.11521302 0.27317286 0.09154797 0.0014683235 -0.2299607
-0.13666806 0.15207593 0.14695983 -0.21140073 0.15091953 -0.2040435 0.2238289 -0.12865062
0.22847523 0.053899188 -0.1094995 0.21234797 0.01339391 0.053041656 -0.035912227 0.008298829
0.14381798 0.13574731 0.014366072 -0.098190434 0.09820027 0.028406741 0.15546983 0.07517704
-0.0360101 0.059056506 0.12080816 -0.072512954 0.04429765 0.16250525 0.10398338 0.0072613847
-0.11341482 -0.024651725 -0.061322868 -0.13325901 0.045183353 -0.020505836 0.08298407 0.049651414
0.14856537 -0.1594658 0.1555662 0.25161988 0.20135863 0.15926711 -0.101514794 0.23579508
0.06144365 -0.029561585 -0.05041381 0.09511806 -0.11410477 0.021852557 0.008214522 -0.13583218
0.04174476 0.056133483 0.06158993 0.059240524 0.037770305 0.05532017 -0.021312924 -0.06412735
-0.037225008 -0.009152329 -0.063902006 0.043179378 0.07341182 0.12175641 0.10898867 -0.05091444
-0.05892481 0.029470969 0.0094078705 -0.023911895 -0.12045201 -0.119263485 0.050917294 -0.10084297
0.12442716 -0.0065882164 0.062356137 0.08346701 0.017495375 0.04100362 0.026505474 0.078884564
0.036102448 0.018088795 -0.09485486 -0.098473184 -0.113371536 0.1136481 0.046730865 0.015555705
-0.09514998 -0.022436125 0.015189604 -0.05798019 -0.07447595 0.039105225 -0.053801462 -0.09471317
-0.070021436 0.0615333 -0.10401715 0.036445256 0.05113401 0.033810582 -0.080464855 0.09144515

linear.weight f4 [1, 64]
00000000: cba7 103d c6fb 6a3d 4595 633d 08b0 c93c
00000010: 0126 d1bd 4fc9 ce3c 7320 47bd e465 14bd
00000020: 7955 a43d 5f56 f0bd 023b b9bd c39a 0a3b
00000030: cdea adbc ec3c d13c ad93 1ebc 37d0 3bbd
00000040: 183c 59bc 9666 bc3d 2440 d0bd 4c15 843d
00000050: 4968 58bd f96b d53d f156 ee3c e6ef 0abe
00000060: 0e5d 453d 93a1 52bd 3392 1a3d f152 b0bc
00000070: fa6c 823c 6a40 dd3d b329 ae3d dcbf 1e3e
00000080: 8e6e 2abd b307 f6bc 5f6a df3b 2f9f 723d
00000090: b23a e2bc ca24 ab3d a8a6 b93d 51d1 c43d
000000a0: 5675 a23d d792 2a3c 0e5c e83d 7adb b3bc
000000b0: 7892 a03d 73c0 c7bd e0c5 143d ff8e a0bd
000000c0: 948e 39bd cf12 d2bd 9297 52bc 5df1 8ebd
000000d0: 1647 aa3c 3618 b33d 31c0 e33d d25c 103e
000000e0: 4d13 823b befb 35bd de0e 5ebc dce7 a53c
000000f0: 02a6 623c f875 69bc 9fba 283d bf1b 90bd
0.03531627 0.057369016 0.055562276 0.024620071 -0.10212327 0.025242476 -0.04861493 -0.036229983
0.08024115 -0.11735224 -0.09044458 0.0021149374 -0.021230126 0.025541745 -0.009678763 -0.045852866
-0.013258956 0.09199254 -0.10168484 0.064493746 -0.05283383 0.10420985 0.029094191 -0.13568076
0.048184447 -0.05142362 0.037737083 -0.021523925 0.015921105 0.10803302 0.08504047 0.15502876
-0.04160934 -0.030032968 0.0068181003 0.05923384 -0.027615879 0.08356626 0.0906499 0.096102364
0.07932536 0.010410986 0.11345683 -0.02195524 0.07840437 -0.09753504 0.03632152 -0.07839774
-0.04530199 -0.10257494 -0.01285352 -0.0697963 0.02078585 0.08744852 0.11120642 0.14097908
0.003969586 -0.044429533 -0.013553349 0.02025216 0.013833525 -0.014249317 0.0411936 -0.07036542
