checkpoints/gru/sh-h64-l2-lr0.001-d0.3-ep200.pth (torch, 160588 bytes, 9 tensors)

rnn.weight_ih_l0 f4 [192, 10]
00000000: e4b8 f13d c5cd 513e 8227 08be 82d9 2ebd
00000010: 931d 6fbd f900 863d d9e8 a03c 4b0b c13d
00000020: c264 dabd 6c14 b2be eac9 1e3e c979 8c3d
00000030: 9a91 103d 2ed4 a8bd 2761 363d 7bbc e13c
00000040: 35d6 3a3e 0cfe 76bd 41b7 23be 203f a53c
00000050: 92ac 2dbd 60f0 1d3c e6e0 b1bd edc9 64bd
00000060: e52c c23c 7181 b6bd 1f72 80bd 9126 e7bc
00000070: 5c2a 4ebe 468a 86be 258e 083e 3106 b5bc
00000080: 87d2 833b 0cd2 c4bd 28fc e4bb aca3 f03d
00000090: cd8c e1bc 8361 c83d ff0f 0dbe 54e0 27be
000000a0: fb93 5ebd fc83 c03d ecd4 fe3d e25d 963d
000000b0: 40b6 993d 1bd3 51bd ccbf 0e3e 3b8c d13d
000000c0: 6151 b43d e141 bcbe 2953 9ebd d281 353d
000000d0: 7291 a4be b356 a73d 660f 883d 3e5b 913d
000000e0: 3c66 88bd e4e9 23bd dd4d c83d 881a 703e
000000f0: 6bf2 6d3b 68b3 aabd af72 5b3d 2b79 a03d
00000100: e959 013d 4393 91bd 7dcb 8b3d 4084 ccbb
00000110: e0b6 d7bc 31a5 ffbd 7bdf 843d 5dd4 e83d
00000120: 4f44 863c 89f7 61be 2883 3cbd aa42 8ebd
00000130: 66b6 4abe 1401 283d 3e8a a6bc 84ad e5b9
00000140: ab49 6cbd ab6a f0bd 6e55 e03d 7868 5fbd
00000150: 8fd8 173e 3351 a5bd 74ca d33d ae4d f33d
00000160: 7ad3 983d 2320 febd d150 823d 0789 d5bd
00000170: ce50 e8bc 637e d33d 688c 8bbd 2799 7ebd
00000180: b0da 0f3e 5c4f 5a3d 7352 0abe 224c d0bd
00000190: 7945 82bd 2e47 92bc 02f2 433c 2376 3bbe
000001a0: 1cbd 26bc c29e 25be b626 0dbb 7fa0 943d
000001b0: 1504 893d 4cbb 26be 7f42 f63d 26f8 a93d
000001c0: 78fe d7bd f78b b3be 5d2d adbd 3963 343d
000001d0: 7bd2 d53d b999 11be 6f35 acbd e2ee b53d
000001e0: 01cd 6f3d 3aec afbc d6b0 5dbc 4334 4abd
000001f0: 1b84 a9bd 843d 80bd 474a c23d 73ab 803d
00000200: d373 0b3e d482 933c 552a f43d 571a 543d
00000210: 3e81 debd e5b7 5d3d b98d 253d 92d5 0b3d
00000220: c4c4 d1bd 4a04 c6bd 6076 853c be3f 183d
00000230: 0dbd 303d 61f7 18be f069 d93d 216d 0abe
00000240: 6ab5 2b3e 9506 fabb e495 4d3e 7655 123c
00000250: 9968 c03d e8c8 89bd c53f ad3d 111b a5bc
00000260: 2f43 bdbd 6fc5 e6bd db85 703e 59f3 2dbe
00000270: 6972 cdbd 8338 10bd efb2 913d 9a3f 59bd
00000280: 83d5 033e d3bf 053e 8094 c9bd 8f9e 8abd
00000290: 1b74 81bd ab5d 4a3d 2e90 51be 1bdb 2c3e
000002a0: cfaa 51bd 5201 243d 6f9e 82bd 1c96 c33d
000002b0: 37b8 383e 1bff 493e df2e d7bc 711c cabc
000002c0: 709a 14be 22ee 93bd 2fc6 703d b6e1 9ebd
000002d0: 0e6b 613c 0dd6 243d 1e36 a1bc f763 39bd
000002e0: 1f8a 123c 6b8b 813d b1a8 e83c c729 7e3d
000002f0: b2af 14be e797 c2b9 8759 aabd 7be2 7abd
00000300: d3d6 253e f40c 063e 64e3 b2bd a776 47be
00000310: e423 553d cb0d 763c ad23 9a3e be40 a63d
00000320: 06fd 00be da15 debd 47a1 923e c87c 0e3e
00000330: ee15 c9bd 5e1e a1bc bedc 323e 17e9 f6bd
00000340: a611 6d3d d4e3 1c3e 6380 2e3e d79f 4cbd
00000350: 0ec4 25be 846a 40be d2fc 5abd 6e22 403e
00000360: f2e1 6dbc aeb3 233d 45df d1bd 10a8 f9bb
00000370: 4cd6 fabc 9710 3b3e 0650 aabc e386 4abd
00000380: 2607 61be 867d 2e3c 36bd e03d 0cd4 023e
00000390: f951 0fbe a884 ffbd 95f2 a7bd 55b7 bb3d
000003a0: d355 d73d acac f13d 78b7 383c 47f7 e7bd
000003b0: f193 283d 1b37 fa3c fb0d 213d f6e8 d7bd
000003c0: d2c4 b73d 68e8 6ebd 80e3 4dbe 80bc 42be
000003d0: ba50 a5bc c4b0 503e 9314 913d bc6b b13c
000003e0: 343d a2be 57e1 3f3c 6d3e 5bbc f225 12be
000003f0: b714 7abd 92a8 0abe 1746 1ebe 7d5d 323c
0.11802843 0.20488651 -0.13296321 -0.0426879 -0.058377814 0.06543154 0.01964228 0.09425982
-0.10663749 -0.34781206 0.15506712 0.06859166 0.035295106 -0.08243595 0.044526245 0.027555695
0.18245776 -0.06030087 -0.15987875 0.020171702 -0.042400904 0.009639829 -0.08685474 -0.055856634
0.023703048 -0.08911408 -0.06271767 -0.028216632 -0.20133346 -0.2627737 0.13335474 -0.022097679
0.0040228995 -0.09610376 -0.006988067 0.11749968 -0.02753296 0.09784224 -0.13775633 -0.16394168
-0.054340344 0.09400174 0.124429554 0.073421255 0.075054646 -0.051226716 0.13940352 0.10231825
0.08804584 -0.36769012 -0.07730705 0.04431326 -0.32142216 0.081708334 0.06643562 0.07097481
-0.06660125 -0.040017977 0.09780476 0.23447621 0.0036307822 -0.08335 0.053576168 0.07835611
0.031579886 -0.07108166 0.06825922 -0.0062413514 -0.026332319 -0.1248268 0.06487938 0.1136863
0.016389994 -0.22067083 -0.046023518 -0.06946309 -0.19796142 0.041016653 -0.02032959 -0.00043807563
-0.057687443 -0.11739095 0.109537944 -0.05454299 0.14828704 -0.08072128 0.10341349 0.118800506
0.07462211 -0.12408473 0.06363071 -0.104265265 -0.028358843 0.10326841 -0.0681389 -0.062157776
0.14048266 0.05329834 -0.13508014 -0.10170771 -0.06360907 -0.017856207 0.011959555 -0.18306784
-0.010176923 -0.16173843 -0.0021537966 0.07257175 0.06690232 -0.16282386 0.12024402 0.08299284
-0.10546583 -0.35067722 -0.08455918 0.04403994 0.104405366 -0.14218797 -0.08408629 0.08883454
0.058545116 -0.021474946 -0.0135309305 -0.049366247 -0.0827715 -0.06261733 0.094868235 0.06282701
0.13618402 0.01800672 0.11922137 0.051782932 -0.10864495 0.054130454 0.04041836 0.034139223
-0.10242608 -0.09668787 0.016291797 0.037170164 0.043149043 -0.14938118 0.10615909 -0.13518192
0.16768423 -0.007630179 0.2007671 0.008931508 0.093949504 -0.06727773 0.08459429 -0.020154508
-0.0924133 -0.11268126 0.23488562 -0.16987361 -0.10031588 -0.035210144 0.07114207 -0.05303917
0.12874417 0.13061456 -0.09842777 -0.06768524 -0.063209735 0.049405735 -0.20465156 0.16880457
-0.051188286 0.04004032 -0.06377875 0.095501155 0.18039022 0.19726221 -0.026267467 -0.024671765
-0.14512038 -0.072231546 0.058782753 -0.07757895 0.013758434 0.040243197 -0.019679125 -0.04526135
0.008944063 0.0632542 0.02840075 0.06205156 -0.14520147 -0.0003711574 -0.08317857 -0.061251145
0.1619523 0.13090879 -0.087347776 -0.19478856 0.05203618 0.015017937 0.30105343 0.08117817
-0.12596521 -0.108440116 0.2863867 0.13914788 -0.09818636 -0.0196678 0.17467019 -0.12056177
0.05787816 0.15321285 0.17041163 -0.049957123 -0.1618807 -0.18790632 -0.053463764 0.18763134
-0.014519202 0.039966278 -0.102476634 -0.0076189116 -0.030619763 0.18268047 -0.020790111 -0.049445044
-0.21975383 0.010650044 0.10973589 0.12776202 -0.13996114 -0.12476474 -0.08200566 0.09165827
0.105144165 0.11800513 0.011274211 -0.11326461 0.041156713 0.030543854 0.039319973 -0.10542481
0.08973087 -0.05832711 -0.20106316 -0.1901722 -0.020180095 0.2037993 0.07084002 0.021657817
-0.3168732 0.01171144 -0.013381583 -0.14272287 -0.06105491 -0.13540867 -0.15456425 0.010886547

rnn.weight_hh_l0 f4 [192, 64]
00000000: 6b9f 19bc 9203 14be d934 5cbd 78df d23c
00000010: e7bd 823d fdc3 a6bd f296 583d b1a6 e6bd
00000020: 99e3 8ebc b3e3 5c3e b567 babd 9efc 623d
00000030: 6d68 15be 8407 1b3e 1b08 cf3d 041b 48bd
00000040: 6682 9b3e 4873 6dbe 710e 8a3c 84c2 5fbd
00000050: 4de3 6c3e e582 83bd 6583 6b3d 07f9 26bd
00000060: a128 0bbe fa88 7e3e 9eb3 e6bd 864e e5bd
00000070: 3da1 bb3d d9c6 2f3d 6ab5 8bbd 4fb6 bb3d
00000080: bbfd 253b fa99 29bd ba45 85be 54a2 68bc
00000090: d834 b3bd a0a4 3bbc b27e 90bd ab1d 7d3c
000000a0: 7d4b 8abc 1d92 c4bd ed3c ebbd 91ad 293d
000000b0: 5958 f53d ffa0 bcbd 915b 58bd 64a9 b43d
000000c0: 56a9 98bd 68f2 eb3d 612e 823e e4f5 79bd
000000d0: 1345 1fbe 9227 42be 2b2d c3bd f595 e03d
000000e0: 675c 02bd a9c1 59bc ca87 a7bc caaf 1d3e
000000f0: 0550 cfbd bbfc 323e 8347 b93d 511f afbb
00000100: de4c d73d e951 bebd f42c aabd b920 bcbd
00000110: dfee f6bc ddb2 71bd c3fa 7c3b 0930 273d
00000120: 0b10 e93d bc1d 5fbc d6e6 09be e9a7 2fbe
00000130: 9b95 85bd 9eac 953d 4179 15bd e653 13bd
00000140: aec5 1dbd d545 41be 9007 743d bf6f 1bbe
00000150: 488a bd3d ac4c 2dbd 48bf b1bc 0454 b3bd
00000160: cb00 39be 1e69 5cbb 9784 9ebc dae9 90bd
00000170: 78d4 02be b0ef ddbd 7a88 88bd 8985 d8bd
00000180: 46c0 e83d 2c78 67bc b6d0 eebd 32da acba
00000190: 537b 163c 7ff9 57bc 7f34 adbc 3736 febd
000001a0: dfd7 08bb a68f 3dbd 94f8 f0bd 6d24 56bd
000001b0: ad5a b03d 35af 9bb9 945b b53d 4fa9 8d3d
000001c0: d4bc e3bd fb0d e5bb 726c ad3c 1f35 69bd
000001d0: 574d 78bd 2749 a1bd 26b5 8fbc 1c18 e23d
000001e0: 8819 0ebd d3ff 27bd 7369 00be 4825 02be
000001f0: 147c 80bc 660a 16bc 5f2b aa3d 4123 e23d
00000200: 19bf 993c ad9a 053c 4bb8 bfbd 371e fa3d
00000210: 7ed4 b23c 89a0 32be 3b0f e2bd 9115 d93b
00000220: 4a9d 59bd 5478 293e 929d 38bd c53c a2bd
00000230: c597 34bd 8bae 86bd 3233 d03d deda 6f3b
00000240: 1e26 2b3e e9f8 97bd 1f6e 373d 924d 23be
00000250: 9a2f e13d a496 ebbd 61e5 15be bbbe 603d
00000260: caf7 e9bd b484 3e3e f3ff 753d 2ae8 c13d
00000270: 06fa db3d 5ba4 5a3d eb0b 843d 903d 663d
00000280: 7d31 0ebe 5a4c 4f3e f3a7 77bd d00b 72bd
00000290: 3c66 dc3d 94c4 ca3d 7d83 85be 2dbe c3bd
000002a0: 4aa9 e33b 8c77 d2bd e0e3 f13d 35bb bc3c
000002b0: db10 0a3e a73d c73d bbbc d2bd f98b 48bd
000002c0: 1d00 53bd b9df 8b3d 784c cf3d 35e0 37be
000002d0: 6c86 323d 3bfd 9cbd 09b5 123c 2bf1 743b
000002e0: 14c5 31bd f6ee 063d 5762 08be 3e68 dbbd
000002f0: ef14 52bd 650d 8a3b 0df3 263d 635f 39bd
00000300: 859c 7f3d 0d32 123d 7a82 d73d 980a 543d
00000310: f5a7 bb3d 894c a33c 924f cebb c83d 833d
00000320: cf1a 0b3d d6ef 933d 6c52 c53d ed14 eb3c
00000330: f3cd 853b 9425 3cbb 8438 893e a794 b3bd
00000340: 6f17 823e 3219 6bbd ace0 0d3d 7ee4 36bd
00000350: 93e3 8c3d 4d00 2c3d 184d 0ebe 4671 bbbc
00000360: 76fc 4cbd 38bd 73bd 048b c03c 5409 9abd
00000370: 0a87 653d 5c3e d3bd 654b 963d 2b65 7c3d
00000380: 949e 0a3e 5727 183e cb9f 29bd bc18 0cbe
00000390: bc95 033e d26b 2bbd ae3c 06be dc3e 35be
000003a0: 59f4 66bd 56a8 2abe 6fa7 843d ffec ba3d
000003b0: 1680 233e c619 0d3e 91dc f2bc e73f 30bd
000003c0: 98c0 b5bd f5a1 aa3c dc91 233e 4129 163d
000003d0: 5cf2 213d c694 cfbc 94ce cdbd 3c17 10bd
000003e0: 312c 533d d414 243e be2d eebc 37b0 09be
000003f0: e921 4cbe 2a9a 32bd bc99 a43d 9f11 cabd
-0.009376387 -0.14454487 -0.053761337 0.025741324 0.06383877 -0.081428505 0.052878328 -0.112622626
-0.017442511 0.21571235 -0.09101812 0.055416696 -0.14590617 0.15139586 0.10108968 -0.04885389
0.30372924 -0.23188508 0.01685259 -0.054628864 0.23133583 -0.064214505 0.057498354 -0.040764835
-0.13589717 0.2485694 -0.11264728 -0.11196618 0.09161613 0.042914245 -0.06821711 0.09165632
0.0025328237 -0.04140661 -0.2602976 -0.014198858 -0.087503135 -0.011452824 -0.07055415 0.015448968
-0.016881699 -0.095981814 -0.1148623 0.04142529 0.119797416 -0.09210395 -0.0528217 0.08821371
-0.07454173 0.11520845 0.2542601 -0.061025515 -0.15553693 -0.18960407 -0.095300995 0.10966102
-0.031826403 -0.013290801 -0.020450491 0.1539909 -0.101226844 0.17479222 0.09046843 -0.0053443094
0.10512708 -0.09292967 -0.083093554 -0.09185929 -0.0301432 -0.059008468 0.0038601614 0.040817294
0.11380013 -0.013617929 -0.13466963 -0.17153896 -0.065226756 0.07308315 -0.03649259 -0.035968684
-0.0385186 -0.18874295 0.059577525 -0.15179347 0.09254891 -0.042309448 -0.021697655 -0.08756259
-0.18066709 -0.003363199 -0.019350333 -0.07075854 -0.12776363 -0.108367324 -0.06666656 -0.10572345
0.11364798 -0.014127772 -0.11660902 -0.0013187586 0.009184676 -0.013182043 -0.021143196 -0.124126844
-0.0020880622 -0.046279572 -0.117661625 -0.052280832 0.08611045 -0.00029694443 0.08855358 0.06917059
-0.111200005 -0.006990192 0.021169875 -0.056935426 -0.060620632 -0.07875281 -0.017542433 0.11039755
-0.034692317 -0.041015457 -0.12540226 -0.12709534 -0.015684165 -0.009157753 0.08309054 0.110418804
0.01876788 0.008154553 -0.09361323 0.12212794 0.02182984 -0.17444052 -0.11038061 0.0066248854
-0.05312852 0.16549808 -0.045072146 -0.07921747 -0.04409005 -0.0657626 0.10166015 0.003659896
0.1671376 -0.07420523 0.044782754 -0.1594756 0.109954074 -0.11503342 -0.14638282 0.054869395
-0.11424215 0.1860531 0.060058545 0.0946811 0.107410476 0.053379398 0.06447586 0.056211054
-0.13886066 0.2024397 -0.060462903 -0.059093297 0.10761687 0.099007756 -0.2607688 -0.095577575
0.006947671 -0.10276708 0.11811042 0.023038486 0.13482992 0.09728556 -0.10289904 -0.048961613
-0.05151378 0.06829781 0.10122007 -0.17956622 0.043585226 -0.076654874 0.008954295 0.0037375193
-0.04340084 0.032942735 -0.13318764 -0.10713242 -0.051289495 0.0042130225 0.040759135 -0.045256983
0.062405128 0.035692263 0.10522933 0.051767915 0.09162895 0.019933956 -0.0062961066 0.06408268
0.033961114 0.072234794 0.09634861 0.028696502 0.004083389 -0.0028708922 0.2680093 -0.087685876
0.25408503 -0.057397075 0.034638092 -0.0446515 0.06879344 0.041992474 -0.13896596 -0.022881161
-0.050045453 -0.059506625 0.023503788 -0.075213104 0.056036986 -0.103146285 0.07338599 0.06161992
0.13537055 0.14858757 -0.041412156 -0.1368131 0.12850088 -0.041850872 -0.13109085 -0.1769976
-0.05638537 -0.16665778 0.06477248 0.09127235 0.1596683 0.13779363 -0.02964619 -0.043029692
-0.08874625 0.02082918 0.1597361 0.036660437 0.039537773 -0.025339495 -0.10049167 -0.035178408
0.051555816 0.1602357 -0.029074546 -0.13446127 -0.1993481 -0.043604054 0.08037135 -0.09866642

rnn.bias_ih_l0 f4 [192]
00000000: 561c 4e3d e76d aabd 41f4 35bd 139e 823d
00000010: 46af 01be 335a b83c 95df 883d c578 d2bd
00000020: fc1e 193d 29a7 d3bc e729 20bd d7ad 5b3d
00000030: b50c 823d b8d0 063d eaae a4bd ed63 af3d
00000040: 556e 9fbb 48b7 41bd a8a5 093e 6f29 37bc
00000050: 1c32 1dbc 113b f03d d963 ad3c 50fb 143e
00000060: 7d0c a83d 1610 353d 7c92 0b3e 5e74 7f3d
00000070: 8c80 933b feaf 1a3d cad1 bb3d dfeb de3d
00000080: 1e6e b4bc 930f 243d d48f 2cbd f2d5 503e
00000090: 80df a13d 6cad f4bb 0acf dcbd 2396 363d
000000a0: 2e8b 163e 142d b4bd f1ce 3fbc 366d 50bd
000000b0: 1fef 05be 1a5d 063e c013 59bd 07f4 9d3d
000000c0: cd13 afbd e7e3 0abe ffc8 563e 1d96 4d3d
000000d0: 8d04 f5bc bc2b 5a3d 50e7 1d3e 57d0 9f3d
000000e0: 0283 5e3e b02a 013e b1c3 9f3d 0865 863d
000000f0: f896 e43b 3bdf 0b3d b24f 97bd 395d 4d3e
00000100: 7f5d 9b3d 019e b9be 9bc4 23bf 039f 05bf
00000110: ddb2 78be a3a5 f83d dbe1 08bf bff8 02be
00000120: 9cdf bdbe b975 92be 07e4 7d3e 07e6 543e
00000130: 4650 2ebf a6c8 a3bd d7d1 fc3c 731c 143d
00000140: 00f7 a53d 84a5 13be a1f1 2fbc b79e aabe
00000150: 8547 f8bd c0a6 17bf f175 dcbd 353c 2bbf
00000160: bd45 fabe 084b 6ebd 94ef 0ebf 3815 a5bd
00000170: 288a 4abf 38f7 743e 8588 35bd c4d4 13be
00000180: d074 123d 6268 30be 4a92 313e 178c b1bd
00000190: f6df cfbe c6e7 56be e179 64be 0203 c4be
000001a0: 0989 cbbe b65b 6dbe afa0 99be ca24 05bf
000001b0: cb20 8dbe 5f27 e83d 6c4e 223d 5af5 e3be
000001c0: c5b3 bdbe b9f7 2dbe 2a5e 2dbc 6429 14bf
000001d0: 7215 fcbe 4c10 bdbe 3f90 dabe 89b3 cabe
000001e0: ef6d 15bf 5876 4e3e 3129 4b3c 261e 51be
000001f0: a64f f4bd 7b8c 1fbf c3b7 ecbe bb09 393d
00000200: d487 14bd 4686 943c 70d2 633d 0b21 213d
00000210: 0224 863d cc9c e7bb acd9 afbd eceb 643d
00000220: 9711 db3d 648b 673d 749e dd3d 4c56 05be
00000230: d843 993d 568d 7a3d f653 993d 4f62 b3bd
00000240: 6316 023e d01c d0bd 1bf7 a6bd 6664 633d
00000250: 245b ae3d 11fd a93d 1e26 17bd 9736 cfbd
00000260: 54c2 773d c3e4 d1bd 531c 833d 10ae f3bc
00000270: ef17 a63d 250e 12bd bb0a 42bd 8a6a acbd
00000280: 0b1c efbc 875c 56bc bda3 96bd c37a 2a3d
00000290: 9b89 ae3c 2c18 06be 62f8 4abd c674 08be
000002a0: 80dc 3bbb 6292 bbbd a079 f93d 3dd9 c3bd
000002b0: a0ac 94bc 9dd6 123e 9036 183d 3730 d53d
000002c0: 90fd 92bd 8d77 9a3d 5aa3 06be 7d73 55bb
000002d0: 839a 05be 49a9 d33d b471 643d 3ab0 03bd
000002e0: ca3f 223d f8b1 0a3d 40ca 97b9 bcaa 3dbd
000002f0: ca1b 353d b00d d33d b6da a6bc 6146 2b3e
0.050319992 -0.083217435 -0.04442239 0.063778065 -0.12664518 0.022503948 0.0668327 -0.10276941
0.037383065 -0.025836544 -0.03910246 0.053632583 0.0635008 0.032913893 -0.08041175 0.08563981
-0.0048654475 -0.04729393 0.13442099 -0.011179312 -0.009594467 0.11730016 0.021165775 0.14548993
0.08205507 0.044204794 0.13630098 0.062366836 0.004501408 0.037765495 0.091708735 0.108848326
-0.022025164 0.040053915 -0.042129353 0.20394114 0.07903957 -0.0074669626 -0.10781677 0.044576775
0.1470153 -0.087976605 -0.0117070535 -0.0508854 -0.13079499 0.13121453 -0.05299735 0.0771256
-0.085486986 -0.135635 0.20975111 0.050191987 -0.029909397 0.053264365 0.1542027 0.078034095
0.21729663 0.1261394 0.07800997 0.06562239 0.0069760047 0.034148436 -0.073882475 0.20055093
0.07586192 -0.3625336 -0.6397187 -0.5219576 -0.24286981 0.12140968 -0.5346963 -0.12790202
-0.37084663 -0.2860544 0.24794017 0.20790873 -0.6809124 -0.07997255 0.030861778 0.036159944
0.08103752 -0.14418608 -0.010738761 -0.33324215 -0.12123016 -0.59238815 -0.10764683 -0.66888744
-0.4888133 -0.058177024 -0.5583432 -0.08060688 -0.7911706 0.23922431 -0.04431965 -0.14436632
0.035755932 -0.17227319 0.17340961 -0.08669298 -0.40600556 -0.20986852 -0.22312118 -0.38283545
-0.39752987 -0.23179516 -0.30005404 -0.5200926 -0.27564082 0.113356344 0.03962557 -0.44523126
-0.37051216 -0.1698903 -0.0105815325 -0.5787566 -0.4923511 -0.36926496 -0.42688176 -0.395901
-0.5837087 0.20162332 0.0123999575 -0.20421657 -0.11929254 -0.6232373 -0.4623395 0.045175295
-0.03626235 0.018130433 0.05562061 0.039338153 0.06549837 -0.007068252 -0.085864395 0.055889055
0.10696714 0.056529418 0.10821238 -0.13021201 0.07483643 0.061169945 0.074867174 -0.08758985
0.12703852 -0.101617455 -0.081526004 0.05551567 0.085134774 0.08300222 -0.036901586 -0.10117834
0.06048806 -0.10248711 0.06401887 -0.029746085 0.08110034 -0.03565802 -0.047373515 -0.08418758
-0.029188177 -0.013083584 -0.07355449 0.04162098 0.02130585 -0.13095158 -0.049553283 -0.13325796
-0.0028665364 -0.0915878 0.12181401 -0.09562919 -0.01814872 0.14339681 0.03716141 0.10409587
-0.071772695 0.07542334 -0.13148251 -0.0032570057 -0.13047223 0.10335023 0.0557725 -0.032150485
0.039611615 0.03386113 -0.00028951652 -0.046305403 0.044215955 0.10305345 -0.020367961 0.16726066

rnn.bias_hh_l0 f4 [192]
00000000: 75d7 a2bd e5d6 cf3d 66d5 ba3d df1b 533e
00000010: 5b3c 59bb a0c2 853d 1d90 e13d 81e7 a8bd
00000020: 02f3 d1bd 3982 3bbd 0d6f bb3d d16b fb3d
00000030: 3885 0e3e a4e3 073d 4a7a 9bbd e273 9e3c
00000040: 8982 c6bd e1de 3d3d e76d 8f3a 2a68 71bc
00000050: 0907 cb3d 1974 02bd 6bf0 a93d 3858 6b3d
00000060: 4a5b 3ebd 000d 88bd ee40 d33b 8758 333d
00000070: 6765 ef3d 422b 56bd ea7f 0b3e 6c61 7fbc
00000080: a382 dd3d 00ed 4bbd 254c e13d 54a8 4b3e
00000090: ec7c b0bd 37e0 c33c 65b4 15bc 06f0 123d
000000a0: ba0e 3bbd 2f22 88bd 96b2 563d bbf0 bd3c
000000b0: 99f2 f43c fa8b b83c 93f7 0abc 21a6 0f3e
000000c0: 9d35 8cbd 11b1 acbd b1bc 3b3e 2d21 be3d
000000d0: 6934 013e e3be 383e 1ae0 4dbd 66a1 773d
000000e0: ea8b 0e3e 2191 d03d f2e5 303d 2c32 e83d
000000f0: e27c f1bc 1397 0f3e a7aa debc a7d0 1a3e
00000100: 0298 3a3d a4f8 8ebe 0981 29bf a5d9 32bf
00000110: 0d50 14be 9197 323d 1327 11bf f8b1 20bd
00000120: 466c 21be a145 febe d387 ee3d fa17 5f3d
00000130: adf5 25bf 4a3e 923d fe92 0dbe 0960 d13c
00000140: 945d c83c 19ae 3ebe 04ef f33d a6f8 5dbe
00000150: 747c 4dbe f61c f9be 1d77 abbd f14c 46bf
00000160: 24eb c4be f611 2abe ef22 16bf bb75 bebd
00000170: 7e51 48bf dbfd 823e e4a5 a03c 87d5 45be
00000180: f80e f63d 08a8 9abe 5169 463e 7428 243d
00000190: 1896 aebe 1d83 3abe 9556 b9be d6d2 b4be
000001a0: 991c afbe cfc5 05be 485e 81be 6e2d a9be
000001b0: 2307 c1be 02af c5bc 3606 2fbd c3fb 1bbf
000001c0: 24ae b3be a076 99be 87c3 f8ba a103 febe
000001d0: 1f26 d1be 8336 c9be dbdb 71be dfec dabe
000001e0: b7b5 e2be 48b8 483e abf8 fb3d bf9c babe
000001f0: 5b20 84bc f525 29bf 5bcd 03bf d38b 743d
00000200: eb81 efbb db84 d23c 4aad 66bd 20dc 24bd
00000210: 8217 cbbd 96bc b43b 06be 033e 9318 4a3d
00000220: 0f6b 91bd c08c e5bd aab0 d73d 571d e0bd
00000230: 1360 e2bd 69cf a7bd e20b 313d 713b 1bbc
00000240: 19bb d7bc 4951 553d 3581 d53d 7395 963c
00000250: c756 c4bd 5d2e 32bd eb81 0cbe 4059 b73d
00000260: 190f bcbd 6223 53bd e426 b7bd 4dab 9abc
00000270: b722 abbd 9445 1fbe 14fc f7bd 56d9 d03c
00000280: 58ad 0bbe 06cc ef3d 2021 b93d 74da 943d
00000290: 7710 803d 4f15 c0bc ff6c debc 168c 1cbe
000002a0: 0555 d0bd 1c50 dabd e3f4 d7bd 7c3a 55bd
000002b0: ff03 873d 5ade cf3c 43fe 713c b40c c4bd
000002c0: 4d33 433d d0ec 0dbe 352b d7bb d564 cfbc
000002d0: 04bf ad3d bf3e bfbd f65a f93d e9ce a7bd
000002e0: 7078 7dbd 83a2 0b3c 2e98 f4bc 6b0c 4e3d
000002f0: f80f d7bd be3d d3bc 457c a8bc 4c28 793b
-0.079512514 0.1014841 0.09122734 0.206161 -0.0033147547 0.065312624 0.110138156 -0.08247281
-0.10251428 -0.045778487 0.09152041 0.12276424 0.13918006 0.03317608 -0.07591684 0.019342367
-0.09692866 0.046355132 0.0010942788 -0.014734307 0.09913451 -0.031849 0.08297809 0.05745718
-0.04647378 -0.066431046 0.006446949 0.043785598 0.11689263 -0.052287348 0.13623014 -0.015587192
0.108159326 -0.049786568 0.110008515 0.19888431 -0.08617577 0.023910625 -0.009137248 0.035873435
-0.04566834 -0.06647145 0.052416407 0.023186078 0.029900836 0.022527684 -0.008481878 0.14028217
-0.068461634 -0.0843221 0.18333699 0.092836715 0.12617649 0.18041568 -0.050262548 0.060456656
0.1392056 0.10183931 0.043188043 0.113376945 -0.029478494 0.14022474 -0.027180983 0.15118657
0.045555122 -0.27924073 -0.6621252 -0.6986335 -0.14483662 0.043601576 -0.5670025 -0.039232224
-0.1576396 -0.49662498 0.11647 0.054466225 -0.64827996 0.07140787 -0.13825604 0.025558488
0.024458684 -0.186211 0.11910823 -0.21676883 -0.20067006 -0.48654908 -0.083723284 -0.77461153
-0.38460648 -0.16608414 -0.58647054 -0.09299799 -0.7824935 0.255843 0.019610353 -0.19319735
0.12014574 -0.30206323 0.19376113 0.04007764 -0.34098887 -0.18214078 -0.3619887 -0.35317105
-0.34201506 -0.13063739 -0.25267243 -0.33042473 -0.37700757 -0.024131302 -0.042730533 -0.6093103
-0.35093796 -0.29973316 -0.001897917 -0.49612144 -0.40849397 -0.39299402 -0.23619024 -0.42758843
-0.44279262 0.19601548 0.12303289 -0.36447713 -0.01612871 -0.6607354 -0.5148522 0.05970366
-0.0073091886 0.025698116 -0.056317605 -0.04024899 -0.09916593 0.0055156453 0.12865457 0.049339842
-0.07100498 -0.112084866 0.10531743 -0.10943096 -0.11053481 -0.08193857 0.043224223 -0.009474621
-0.026334332 0.052079473 0.10425035 0.01838181 -0.09586864 -0.043501247 -0.13721435 0.0895257
-0.09182567 -0.051547416 -0.08942965 -0.01888051 -0.08356231 -0.15553886 -0.12108627 0.025494259
-0.13640344 0.11708836 0.09039521 0.07268229 0.062531404 -0.02344766 -0.027151583 -0.15287814
-0.10172466 -0.10659811 -0.10544755 -0.05205773 0.06592559 0.02537458 0.014770093 -0.095727354
0.047656346 -0.13859868 -0.00656643 -0.025316635 0.08483699 -0.0933814 0.121755525 -0.08193762
-0.061882436 0.0085226325 -0.029857721 0.05030481 -0.10501093 -0.025786277 -0.020567069 0.0038018404

rnn.weight_ih_l1 f4 [192, 64]
00000000: a9b4 dcbb 6e51 19be 1f9f a33d b47e 9abd
00000010: 4703 1dbd 0e02 6c3d 201b 203e 9066 2bbc
00000020: 8594 52be 1f46 a0bd b147 bdbd f935 5d3e
00000030: 1c26 e23c 3624 ba3d 9f8f 36bd 611f 52bd
00000040: 3b3a cd3d fe7a 1fbc b644 b43d 3a29 59bc
00000050: 9d20 92bd 570a ba3d fc58 c1bd 4336 2c3d
00000060: 170e ebbd 923c f4bd 3810 ea3d 614b 0c3e
00000070: 06dc 5ebd 6ad0 0abb 2a06 57ba f946 91bd
00000080: 0561 b23c ad32 04bb 169f cd3d e181 a4bd
00000090: 382d e23d 9eaf edba 0c98 89bd a7a8 ce3d
000000a0: f07e 7cbc eb7f 453c a3d4 573c 72b7 883c
000000b0: a510 6abd 35e1 2fbe 8784 b73c 82fc 2cbe
000000c0: 912d 643e 9abe 283d 3455 23bd 8025 cd3d
000000d0: ac63 803d d56f b9bd 208d 5b3d 66f5 aabc
000000e0: 8f53 94bc b921 d2bd f075 e23b e073 94bd
000000f0: f272 523e 4fd6 33bd 2ed0 093e 5a2f 7f3b
00000100: f1b6 1abc 8f06 40bd 74bf 61bc 7449 6c3d
00000110: 53fb 02be 54a4 103e 9825 303c 1f41 2ebe
00000120: aba7 66bd fb3b bf3c baa1 ba3c e2eb 833d
00000130: e646 15be d30c 8dbd 4e31 923d b2ed bd3c
00000140: ad34 9b3d 8988 80bd 6ee9 f73d 6722 c63d
00000150: 7fe9 e4bc f3b5 493d 99a6 833b 515f da3d
00000160: 4f82 7a3d de70 72bb 9ad2 09bd 8f22 5dbd
00000170: e618 1c3e bb47 363e 1aea 96bc 49fa 093e
00000180: 1ed2 98bd a71e 4b3d 2db0 d03c 6ad4 10bd
00000190: e789 af3b 776a dd3c 908d 883d ce11 4d3e
000001a0: 988a 293d 177f f53d 6e37 623e fc67 923d
000001b0: 4428 6d3d 4002 e93c 4967 213d dd5f cc3b
000001c0: de23 0ebe 89be babd 8d69 033d 2e33 46be
000001d0: 9c7f bbbd dc6b 71bd b6a6 9a3d 8982 e13d
000001e0: 8495 9a3d c32f 45be 0847 13be 9e38 a13d
000001f0: e999 7fbc 8201 e53d 2116 ffbd 4105 bb3d
00000200: 746b f8bd a666 c8bd a6ee 1dbe f7c8 893d
00000210: bc4a 4fbd 1d00 4a3d 4f8e 14bc 1f92 c23c
00000220: e25c 703d 477d a2bc 2948 eaba 06be 90bd
00000230: 2e8a 98bd a323 30be 2a71 8cbd 3feb fa3d
00000240: d2d5 54bd 4998 07be 5079 af3c f893 c53d
00000250: a0f0 783d a6d2 963d 82a7 c2bd aa58 083d
00000260: c2c2 a83d 4611 15bd f0a4 b83d 09ae 95bd
00000270: e589 203e 3dab e73d c639 63bd 3c4f 1c3e
00000280: 32d2 c13d 224f e83d 68e8 00be 0347 45bc
00000290: 56b9 4e3d 78ae 923d 0007 5f3e e41a 56bd
000002a0: bd00 6dbd 8958 40bc b024 a83d b096 34bd
000002b0: 2745 d13d bd15 46bd 4b41 afbc 5ba0 1e3b
000002c0: bc7e c13d ea3f dbbd 2d5e 373d 92d4 93bd
000002d0: f8a9 babd ae92 1abe 1627 063e 94a2 1ebd
000002e0: b95f 7bbd 90e5 c6bd c3dd 8cbd 9b28 103e
000002f0: 7ade 46bd ef76 e13c 9942 b6bd 6401 8f3c
00000300: 1793 3f3d 78dc d93d 07ff 963c 2333 c7bd
00000310: 5199 2abd 0c75 2fbb 6a3f b63c 6841 163d
00000320: 2319 a03c 5002 f93b 5418 02be fd19 053d
00000330: 34ab 183d a156 843c 2d05 5b3d 8ed5 c2bd
00000340: f244 e23d e498 99bc c0a0 0c3e 2586 56bd
00000350: 76d8 a3bd 6eb5 abba 1a62 ad3d a911 4fbe
00000360: 9f5c 3fbe 7f6e 24be 6c7c edbd 9ba3 9abd
00000370: 3883 95bc e0cf 99bd 5783 eabc 9354 1dbe
00000380: d02f f93d b707 b9bd 13fb ff3d acaa d63d
00000390: 5125 143d 16fa a0bd dc39 44bb 7ab8 52be
000003a0: d86d 14be 841d bebd c1fc 96bc d205 94be
000003b0: e6c4 eabd f613 2cbe 776c e8bd 5bef cabd
000003c0: fdf6 0ebe 99b8 423d 3806 1abd cc6b 963c
000003d0: 86f1 053e fafe 033e 9cfc 6e3d 6ff0 8c3b
000003e0: 62a8 abbd 5234 c33c be3f de3d ee25 f0bd
000003f0: 641a e23d 6b68 edbd 9b11 403c 12da 80bd
-0.0067354036 -0.14972469 0.07989334 -0.07543698 -0.038333204 0.057619147 0.15635347 -0.0104614645
-0.20564468 -0.078258745 -0.0924219 0.2160262 0.027606063 0.09088938 -0.04457056 -0.051299457
0.10020872 -0.0097339135 0.08802168 -0.013254458 -0.07135127 0.090840034 -0.094408005 0.042043936
-0.11477297 -0.11925615 0.11428875 0.1370063 -0.05440905 -0.0021181353 -0.00082025176 -0.07093615
0.021774778 -0.0020171807 0.10040109 -0.08032585 0.11043781 -0.0018134003 -0.06718454 0.10090762
-0.015411124 0.012054424 0.013173255 0.016689036 -0.05714478 -0.17175753 0.022402061 -0.16893199
0.22283007 0.041197397 -0.039876178 0.10016918 0.06269011 -0.090545334 0.053601384 -0.020868968
-0.01810625 -0.10260338 0.006911032 -0.07248664 0.2055166 -0.043905552 0.1345832 0.0038938136
-0.009443031 -0.046881255 -0.013778556 0.057687238 -0.12791185 0.14125186 0.010751151 -0.17017029
-0.056312244 0.02334403 0.022782195 0.064414755 -0.14577827 -0.06887212 0.071383104 0.023184631
0.075784065 -0.06276042 0.1210507 0.096745305 -0.02794337 0.049245786 0.0040176627 0.106627114
0.06115943 -0.0036993544 -0.03364811 -0.053988036 0.15243873 0.178008 -0.018422175 0.13474382
-0.07461952 0.04958978 0.025474632 -0.035358824 0.0053570154 0.027028305 0.06667626 0.20026323
0.04139194 0.11987131 0.22091457 0.0714874 0.05789973 0.028443456 0.03940514 0.0062370137
-0.1388087 -0.09118373 0.032083083 -0.19355461 -0.09155199 -0.058940753 0.07551329 0.11011226
0.07548049 -0.19256501 -0.14382565 0.07872127 -0.01560066 0.11181928 -0.12455393 0.091318615
-0.1212987 -0.09785204 -0.15423068 0.06727784 -0.05060838 0.049316514 -0.009067132 0.023751317
0.05868233 -0.019835128 -0.0017874289 -0.07067494 -0.07448231 -0.17201094 -0.06857522 0.12251901
-0.051961727 -0.13241686 0.021420151 0.096473634 0.060776353 0.07364397 -0.09504606 0.03328768
0.08240272 -0.036393426 0.09015834 -0.07308585 0.15677603 0.11311958 -0.05547502 0.152646
0.0946392 0.113432184 -0.12588656 -0.012040856 0.05046972 0.071621835 0.21780014 -0.05227174
-0.057862032 -0.011739858 0.082101226 -0.04408902 0.10218268 -0.048360575 -0.021393439 0.0024204466
0.09448001 -0.1070555 0.044767547 -0.07218279 -0.0911445 -0.15095016 0.13100848 -0.038729265
-0.061370585 -0.09711754 -0.06878235 0.1407799 -0.048552014 0.027522532 -0.08899421 0.017456718
0.046771135 0.10637754 0.018432153 -0.097265504 -0.04165012 -0.0026772646 0.022247035 0.03668347
0.019543236 0.0075991526 -0.12704593 0.032495487 0.037272647 0.01615459 0.053471733 -0.095133886
0.110483065 -0.018749662 0.13733196 -0.052374024 -0.08000271 -0.0013100335 0.08465977 -0.2022158
-0.18687676 -0.16057776 -0.11595997 -0.075507365 -0.018251047 -0.07510352 -0.02862708 -0.15364294
0.12167323 -0.090346746 0.124990605 0.10481772 0.0361684 -0.078602 -0.0029941713 -0.20578185
-0.14495027 -0.092829734 -0.01843107 -0.2891069 -0.11463337 -0.1680449 -0.11348813 -0.09908935
-0.13961406 0.047539327 -0.037603587 0.018361948 0.13080415 0.12890235 0.058346376 0.004301123
-0.08381726 0.02382866 0.108520016 -0.117259845 0.1104019 -0.11592182 0.0117229475 -0.062915936

rnn.weight_hh_l1 f4 [192, 64]
00000000: ac04 9d3c 0076 9c3d 5fb5 7abb 9df6 93bd
00000010: 02b2 ba3d 2bb2 b3bd d5cc a2bd 82d7 96bb
00000020: cb50 d1bd ae9f 8dbd 80ed 293d f5ff b6bd
00000030: 7a43 94bd 321b 3f3d 4ae0 d1bd 2edc 14bc
00000040: 4da3 b13c 36ce 933d fac1 babd 2996 84bb
00000050: 8213 b03d 85df 0e3e d1c8 663d d009 a53d
00000060: 6252 303d 9bf4 76bb 8f82 32be 3d05 673d
00000070: 3550 c93c 8b13 db3d 8756 b2bd 2646 033d
00000080: 90d3 d23d 833d ccbd fc94 6b3c 6ad1 e03c
00000090: b94e c63c 85e6 6f3d 6f32 713d 7644 52bd
000000a0: b7d6 c53d ccb3 41be ae07 f73a f7cc f33d
000000b0: 7fcc 0fbd ad61 423e 81a3 383d f17b 9dbd
000000c0: 6fb8 143d 636a 4e3d 11f0 9a3d f1c9 74bd
000000d0: ef91 e4ba 20a6 f5bd 3163 b73d 3926 1bbd
000000e0: 5815 15bd 0e6b ae3d 5955 59bd 0fe4 a03d
000000f0: 343c be3d aa80 85bd 0d99 23bb 0185 223e
00000100: 305c e7bd 7900 0cbc 0a3d cdbc 3f9e 27be
00000110: d256 cc3d 097c f53d b372 ed3d 0f84 b23c
00000120: b000 99bc 723e 7dbd f0a0 8c3d e6e9 423d
00000130: af56 a23d 82a3 84bc 8eb3 f93c 8ee1 59bd
00000140: 5a08 583d a135 943d 8664 70bd 8de0 2eba
00000150: eeae 893d 8323 01bd b280 d03d 2018 893c
00000160: 86cc e53d 3fbc 1c3c ddfa aabb 4270 bebd
00000170: 0f30 323e 1097 a4bb bd82 5d3d a4fe 613d
00000180: ce03 1b3d 5112 e7bc 2362 e9bd 8032 443b
00000190: 21e7 a0bd f706 4e3c a1e9 6a3d 92a0 e1bc
000001a0: 3343 953d 8fd6 04bd 76c0 9cbd b399 29be
000001b0: bdb1 72bd 813d c23c b2c7 02bd f989 183d
000001c0: e396 a33c 7834 0b3e 799b 1dbe 6339 a43d
000001d0: c04d be3d f572 50bd 68c7 15bd 8810 2b3d
000001e0: dcd4 853d 19f0 c43d c9ef 0cbe c5d5 4bbd
000001f0: b67f 21be 6cf8 f3bd 2d5e 66bc 61ad db3c
00000200: 32d0 ae3d bf50 9e3d b212 10be 183f c13c
00000210: 2652 043d b9c0 20bd 7c10 f03d 4fae e53d
00000220: 70f5 bcbd 48a2 09be 50a5 693d 603f 073e
00000230: 310a 2a3d 44c1 ed3d 6b4b 5bbd fd33 4c3d
00000240: 522f 9ebb 8810 54bd 034f 9ebd 67bc df3d
00000250: f8fa 543d e837 a1bd 394b 083d 91be 043e
00000260: 88ed 9dbb 6784 81bd dcf4 1cbd 2742 82bd
00000270: 3146 f23d 3359 b4bd 97f2 44bd 8f7b 1abe
00000280: 4826 12bd 4efb e3bd 861f 47bd b84e 91bd
00000290: 74f2 96bd 3a96 edbd f931 83bd 0cac 713d
000002a0: 5beb 3c3d 173f 1a3c 7122 843c 2ac0 bcbd
000002b0: f111 393d a7fc d33d 288b a6bd f610 bdbc
000002c0: 5976 6ebd 3bb9 bcbc 3272 84bd 7337 e73d
000002d0: 864d a5bd 46ac 19be b372 7bbd 8d5c 51bd
000002e0: 087c b33d c3ea f8bd 59fd 52bd e016 883d
000002f0: 0a55 1e3d 0545 2a3d 9cfa 273d a667 21bc
00000300: df8b 043e c985 203e 91ee d63d c036 c13d
00000310: 4102 06bc 8db1 bebd daa5 823d c2f7 95bc
00000320: 2189 d1bd 6578 89bc 14bb 9d3d bd15 fe3c
00000330: fd0f e6bc 713d ffbb ab10 223e afe8 9ebc
00000340: 8a7f e8bd 9f38 213e 1215 ea3c 3e6f cbbc
00000350: 51bc 5fbd f055 e83c 33a6 f63c 34a7 0c3d
00000360: 5882 ff3d 9fc2 31bd 7a0a e7bc 4c31 efbd
00000370: 08a3 eb3c de2c 403d 13f1 143d c6d1 5dbd
00000380: 0bd4 033d 2284 133e 0462 40bc ac95 343d
00000390: f0af b6bc a824 15bc 0c62 9f3b bf91 30bd
000003a0: 0f9c 48bd 2587 7ebd 34ae a2bd a67e 283d
000003b0: a20b 2bbd d752 a0bc 5665 403d 0cfb 213d
000003c0: 04c8 64bd 632b 843c b9b2 51bd c4d8 293d
000003d0: 2d82 d93d da57 363e c74b aebc 669d fa3d
000003e0: 841b b93d b7df 66bc 1235 3a3e 0f17 f5bd
000003f0: cd4d 9cbd ab1a ee3d c24d b8bc a9fc 203d
0.019167267 0.07639694 -0.0038255078 -0.07224772 0.091159835 -0.08774217 -0.07949225 -0.0046033273
-0.10220488 -0.06915222 0.041486263 -0.08935539 -0.07239433 0.046656795 -0.10247858 -0.009085698
0.021684313 0.07217066 -0.09119029 -0.004046221 0.08597471 0.13952453 0.056343857 0.08058512
0.043047316 -0.0037682417 -0.17432617 0.05640148 0.024574379 0.10697087 -0.0870791 0.03204932
0.102942586 -0.0997267 0.014378782 0.027443606 0.02420746 0.05856945 0.058885988 -0.05133482
0.09660094 -0.18916243 0.0018846893 0.11904328 -0.035107132 0.18982573 0.045077804 -0.076896556
0.036308702 0.050394427 0.0756532 -0.0597629 -0.0017438511 -0.119945765 0.08954466 -0.03787825
-0.036397308 0.08516513 -0.05305991 0.07855999 0.092888266 -0.06518681 -0.0024963052 0.1587105
-0.1129688 -0.008545035 -0.02505352 -0.1636896 0.09977497 0.119865485 0.11594143 0.021791486
-0.018677086 -0.06182713 0.06866634 0.047586344 0.0792669 -0.016191248 0.030481126 -0.05319362
0.05274234 0.072367914 -0.058689617 -0.0006671034 0.06722818 -0.031528007 0.10180797 0.016735137
0.112206504 0.009566366 -0.0052178935 -0.09298755 0.17401145 -0.005022891 0.05407976 0.055174485
0.037845425 -0.028206976 -0.11395671 0.0029937327 -0.07856584 0.012574903 0.057351712 -0.027542386
0.07288208 -0.03243118 -0.076538965 -0.16562538 -0.059251536 0.023710968 -0.031928726 0.037240956
0.01996941 0.13594234 -0.1539134 0.08018758 0.092921734 -0.05089088 -0.03656712 0.041763812
0.0653474 0.096161075 -0.13763346 -0.049764413 -0.15771374 -0.11912617 -0.014060539 0.026816072
0.08535804 0.07730245 -0.14069632 0.023589656 0.032304905 -0.039246295 0.11721894 0.11214887
-0.09226501 -0.13440812 0.05704242 0.1320777 0.041513626 0.11609128 -0.05353872 0.049854267
-0.0048274184 -0.051773578 -0.07729914 0.10924607 0.051997155 -0.078719914 0.033274863 0.1296332
-0.0048195757 -0.06324082 -0.038319454 -0.06360274 0.11829794 -0.08806076 -0.048082914 -0.15086196
-0.03568104 -0.11131917 -0.048614047 -0.070950925 -0.07370463 -0.11600919 -0.06406016 0.059001967
0.04612289 0.009414456 0.016129704 -0.0921634 0.045183126 0.10350924 -0.08132011 -0.023079377
-0.058218334 -0.023037544 -0.064670935 0.11289873 -0.08071427 -0.15007123 -0.061388683 -0.051113654
0.087638915 -0.12154152 -0.051511142 0.06644988 0.03865532 0.04156973 0.041010484 -0.009851372
0.12943982 0.15676035 0.10494722 0.09434271 -0.008179248 -0.09311209 0.0637929 -0.018306617
-0.102312334 -0.016781041 0.07701698 0.031016225 -0.028083796 -0.007789307 0.15826671 -0.019398062
-0.11352451 0.15744255 0.0285745 -0.024833318 -0.054622952 0.02836129 0.030108547 0.034339145
0.12476033 -0.043398496 -0.028203238 -0.116793245 0.028764263 0.04691779 0.03636272 -0.054155134
0.03218464 0.14405873 -0.011742119 0.04408805 -0.02230069 -0.009102978 0.004863983 -0.043107744
-0.048976954 -0.062140603 -0.07943383 0.041136406 -0.04175914 -0.019570751 0.04697164 0.039546058
-0.055854812 0.01613397 -0.051195834 0.04146649 0.10620532 0.1780695 -0.021276368 0.122370526
0.09038451 -0.014091424 0.18184307 -0.11967289 -0.07632027 0.1162618 -0.022498015 0.039303456

rnn.bias_ih_l1 f4 [192]
00000000: 6cc8 dbbd 4bbb ecbd 8a1d b2bd 44d3 d3bd
00000010: 9976 bbbd 23cd 49bd 03a2 d3bd 7458 163c
00000020: 14fc 8abd 02d7 87bd 605a 5f3d 4815 fdbd
00000030: 0c54 edbc 0b6b d2bc 7515 c33d b972 1abc
00000040: cef9 dbbd 5761 1a3d 42da 61bd 8574 a53d
00000050: 785e ce3d 9e09 f63c 0383 1abd e3f7 9a3d
00000060: b722 f7bb 836c ed3b e7e3 c0bb 8032 ca3d
00000070: 0e9f c13d c9f0 dc3d ff40 2abd 52e0 633d
00000080: d7ff 6ebd 8d0b 163d 3e3b e23d 9085 ba3c
00000090: 83dc 6c3d cad6 883d 0fee 9abd 5db9 8e3c
000000a0: 2817 963b 3e72 95bd a978 4c3d 79a8 05bd
000000b0: 2c99 b2bc 16e9 a0bd 086d 2a3d 551e c53d
000000c0: 7358 37bd 3e23 d2bc da4f 83bd 1150 00bd
000000d0: 105f 5c39 1da9 633b 7c6a bdbd ac5c 373c
000000e0: e068 99bd 029f 53bd fe1b d33d 8b41 523b
000000f0: 90b5 1b3e 8c19 9ebd f021 c6bd f18f 08be
00000100: 14f7 b0bd fd80 3cbd 8275 b83e 638e 18be
00000110: e1d1 a2bd 13f7 87bd 5b73 933b d410 5d3e
00000120: 2a61 71bd cefd 083e 8936 e7bc 9b74 463e
00000130: 6b41 a13e e230 2d3b 95f3 f23c 804f 58be
00000140: f19e 9b3d 3c6d 16bd f995 c73d e35a 3bbe
00000150: c068 703c f155 2abe a64d 643e 803c 133d
00000160: d1e2 793e b79e aa3d 5cd3 babb d7f5 213e
00000170: 11f8 fcbc d0eb 0b3e 839c a13d 97f3 8fbc
00000180: bdce 823d de66 293e 389d 8b3e 878b cabd
00000190: c508 84bd de96 8ebb 4d58 de3d 38d1 41bd
000001a0: 7eaa 46bd 621d f53d 75f0 ec3d c4fd a8bd
000001b0: 2a89 993d 6705 923d e45e b0bd df3e bc3d
000001c0: 5ec7 72bd c621 34be 4b03 1d3b b241 e3bd
000001d0: 7869 623e 3073 bd3d 5e4e 833d 59e4 babd
000001e0: 33c5 973d cfda 093d 5c91 113e e5a1 dc3d
000001f0: 8207 aa3e 30df 8b3d d1e9 f9bd 8367 043d
00000200: 8963 783c 264d c2bd 07bf 69bc aea3 81bb
00000210: f85a e0bd 7f94 c8bc 96a3 91bc 9f86 a8bc
00000220: b67a f93d 3d1f 193d a5fa c7bd f927 513d
00000230: a93c c93d dd2f edbd d7c5 a7bd a405 d6bd
00000240: 6972 933d 38e9 7abd 3e1b dd3d ed89 7d3d
00000250: c6df f63c ed8c 5bbd 4598 813c 32c0 bdbd
00000260: 78f0 d4bd afe0 b6bd 2c53 d9bc 30ab a33c
00000270: ff5a ac3d 40bf 233c 8ed2 73bc e6a4 14bd
00000280: aca7 c43d 8467 633d 1e59 d4bd c674 67bd
00000290: 7fd8 c73d 5e14 623c 3c22 ed3d 75e7 873b
000002a0: 80ee 173d 4f39 b3bd ed2a babd e3fa fb3d
000002b0: e245 abbd a37a 8bbd 7dbf 77bc badb 45bb
000002c0: bf4b ddbd 852a af3d a820 dbbd 8879 7fbd
000002d0: 0aa5 f53d d089 ae3d 3f74 463d 614d d13d
000002e0: 39b8 b7bd f1dd d63d 09a5 d83c 028d e13c
000002f0: 98dd b73c d8d5 e03d c74c dfbd 9197 c33d
-0.10731587 -0.11559161 -0.086970404 -0.1034303 -0.0915348 -0.0492679 -0.10333636 0.009176362
-0.06786361 -0.06632806 0.054529548 -0.12357575 -0.02897074 -0.025685808 0.09525577 -0.009426766
-0.10741006 0.037690487 -0.055139787 0.08078865 0.10076612 0.030033883 -0.0377226 0.07566812
-0.00754198 0.0072456016 -0.005886543 0.09872913 0.094541654 0.107881136 -0.04156589 0.05563385
-0.058349457 0.03663211 0.11046456 0.022768766 0.057827484 0.06681593 -0.07564937 0.017422372
0.004580397 -0.072971806 0.049919758 -0.03263137 -0.021801554 -0.078569576 0.041607887 0.09624926
-0.044762086 -0.02565157 -0.06411715 -0.031326357 0.00021016249 0.003473825 -0.09248826 0.011191528
-0.074907064 -0.051665314 0.103080735 0.0032082524 0.1520598 -0.077197164 -0.09674442 -0.1333616
-0.086408764 -0.04602145 0.3602715 -0.14898066 -0.079501875 -0.066389225 0.0044998354 0.2158845
-0.058930553 0.13378069 -0.028224247 0.19380419 0.31495222 0.0026426842 0.029657165 -0.21124077
0.07598675 -0.036725268 0.09745402 -0.1829639 0.014673412 -0.16634347 0.22295246 0.03594637
0.2440293 0.08331054 -0.0057014655 0.15816437 -0.030880006 0.13664174 0.0789118 -0.017572207
0.063870884 0.16543147 0.27268386 -0.09889894 -0.06446985 -0.004351481 0.10856686 -0.047318667
-0.048502438 0.11968495 0.11569301 -0.08251527 0.07496865 0.07129937 -0.08611849 0.09191679
-0.059272163 -0.17591009 0.0023958262 -0.11096515 0.22110546 0.09250486 0.06411432 -0.09125585
0.0741066 0.033655938 0.14215606 0.107730664 0.33208853 0.06829679 -0.122028 0.03232528
0.01516045 -0.09487371 -0.014266736 -0.0039562797 -0.10954851 -0.024484871 -0.0177782 -0.020572005
0.121816084 0.037383307 -0.097646035 0.05106351 0.09826023 -0.11581395 -0.08192032 -0.104502946
0.071995564 -0.06125757 0.10796212 0.061899114 0.030136 -0.053601194 0.015819678 -0.09265174
-0.10397428 -0.08929574 -0.026528917 0.01997909 0.08415794 0.009994328 -0.014881743 -0.036290072
0.09602293 0.055518642 -0.1036856 -0.05650785 0.0975809 0.013798801 0.11578795 0.004147465
0.037092686 -0.08751165 -0.09090219 0.12303712 -0.083629385 -0.068105005 -0.015121338 -0.0030190782
-0.10805463 0.08553032 -0.10699588 -0.06237176 0.11994369 0.085223794 0.048450705 0.10219837
-0.089706846 0.10491551 0.026445882 0.027533058 0.022444531 0.109782875 -0.10903316 0.095503934

rnn.bias_hh_l1 f4 [192]
00000000: dbbd 97bd d139 6bbd b2b9 c73c 801f c43d
00000010: cf07 103d b0ef 0c3e 0a72 bcbd bfef 933d
00000020: 7408 fbbc bca6 843c cd44 9b3c ecb7 dabc
00000030: 4acc 223d 26dc 63bd 1cf5 f4bd 7238 363d
00000040: 948f e13d 6d9f 893d 9b14 a03c 56e6 4bbc
00000050: 30be 49bd 07bb 0e3d df82 f83d 77f8 c23b
00000060: 1bb5 e63d 0561 6f3d 1b4b c43d 0c88 b8bd
00000070: 2680 be3d 02f4 863d 37e0 05be 96b7 09bc
00000080: aebd adbc 9b06 88bd 62a4 b73d 7f90 5dbd
00000090: 38d3 5bbd 58ba e8bd a3d1 253d 4e8a b8bd
000000a0: add4 54bd 0845 bd3d 754d 1bbd 6ac3 273c
000000b0: c2d3 b6bd bc44 77bc 2506 d8bc cbea 95bd
000000c0: 05df adbd 9844 ddbc 6c20 0dbd e358 0bbc
000000d0: a91a 8ebd 19f0 8e3a 7872 d43d 3f11 e6bd
000000e0: d49b d3bc b2f1 493b b371 b53c dd2e 8fbd
000000f0: 6a62 2ebd a9c8 eabd 683e 07be 8ae5 a6bd
00000100: e77b a8bc 4dfc 62bd 6f09 af3e 9f23 0dbe
00000110: 7847 023e 2fbb 003e 1b3b 9bbd ce86 a63d
00000120: 2add 05be 612e c9bd 2430 cfbd 6b24 353e
00000130: a56d 783e c4cc 553d a27a 863c 8ef4 43be
00000140: df0c 8ebd ee4f 143d 43bf bc3d 54bb 47be
00000150: b8d6 a53d a944 1dbe 0f2b 893e 4121 20be
00000160: 4da0 963e 933d 63bd 520a 713d 1cbc 5e3e
00000170: 8611 0bbd 6612 f4bc b85a 843d ae51 993d
00000180: 0d5f 053e 8960 0c3e 3bf6 163e 5ba4 86be
00000190: 683e 383d 5696 8f3c 9707 e63d 84a8 d2bc
000001a0: 021d 58bd fc23 f23d 2520 d13d 7216 d5bc
000001b0: 12db 863c e827 95bc f2cd d03d 3b4e d43d
000001c0: 4777 f3bd 925f 8cbd cd56 b1bd 6453 52be
000001d0: c203 a23c 013e f43c c24b 253d e12f 683d
000001e0: 45f1 273e d36a d8bd 5387 233e 09d5 6e3e
000001f0: 186c 753e d8bb 263e 2280 50be 848f 023e
00000200: 289b a13d 9545 bbbc dec0 65bd b06e d73d
00000210: e9a0 e4bd 6c22 e33c 1777 28bc ff51 0ebe
00000220: 3f4d e93c 7d60 623d 08a8 843d 05b6 793d
00000230: d386 1e3d 7a1a 443d 7e18 b5bc e249 73bd
00000240: 7c4d 35bd 494f f0bb 3894 83bd b288 693d
00000250: 4b57 9a3d de58 f03d 0547 ed3d 7eeb 3abd
00000260: c6d3 73bd 1174 013d dffa 9b3c bad7 f0bc
00000270: 0d79 00be 783a c3bd 1995 023d 1079 cfbd
00000280: e712 023e 2afb 0b3d cc17 0b3d 458a 303e
00000290: 2408 db3b 922e 3c3d e31f ed3c da92 9e3d
000002a0: 5657 043d 5606 ad3c b799 c0bd 00e2 f6bd
000002b0: d64b 05be 609a f03d 116b 163d 8f8c a13b
000002c0: 9cc4 c0bd 2863 0ebd 85ea bb3c 99e2 8abd
000002d0: 259a 77bd dbc8 ff3c 304a 2dbd 25f3 c1bd
000002e0: ddb3 7bbd 7e58 923d fb30 ccbd 8c7d 313d
000002f0: 3415 163d abb9 4e3d bd76 adbd 2047 a33d
-0.07409259 -0.057428185 0.024380539 0.09576321 0.035163697 0.13763309 -0.09201439 0.07223462
-0.03064368 0.016192786 0.018953705 -0.026699029 0.039745606 -0.05562987 -0.119608134 0.044487424
0.110137135 0.06719861 0.019541075 -0.012445053 -0.049253643 0.034846332 0.12134337 0.0059500295
0.11265012 0.058442134 0.09584638 -0.09010324 0.09301786 0.065895095 -0.13073812 -0.008405587
-0.02120861 -0.06641885 0.089669004 -0.05409288 -0.05366823 -0.11363667 0.04048313 -0.090107545
-0.051960636 0.09241682 -0.037915666 0.010239461 -0.08927108 -0.015092071 -0.026370117 -0.07320174
-0.08489803 -0.027010247 -0.034454748 -0.008505079 -0.06938679 0.0010905295 0.10373396 -0.11233758
-0.02583114 0.0030814228 0.022148943 -0.0699136 -0.042574324 -0.11464054 -0.132074 -0.0814925
-0.020566894 -0.055416394 0.34186885 -0.1378312 0.12722576 0.12571405 -0.07579633 0.08131181
-0.13072649 -0.09823299 -0.10116604 0.17689674 0.24260576 0.052197233 0.016415898 -0.19136259
-0.06936049 0.03620904 0.09216168 -0.19505054 0.08097595 -0.15358223 0.26790664 -0.15637685
0.29419175 -0.055478644 0.058847733 0.21751446 -0.03395226 -0.02979393 0.06462616 0.07486282
0.1302454 0.137087 0.14742367 -0.26297268 0.04498139 0.01752774 0.112319164 -0.02571512
-0.05276204 0.1182327 0.10211209 -0.02601168 0.016461883 -0.018207505 0.10195531 0.10366484
-0.11887985 -0.06854166 -0.08659134 -0.20539623 0.019777182 0.029814722 0.04035545 0.056686286
0.16400631 -0.1056725 0.15969591 0.23323454 0.23967016 0.16282594 -0.20361379 0.1275006
0.07890922 -0.022860328 -0.056092136 0.10519159 -0.11163504 0.027726375 -0.0102822995 -0.13898467
0.028479217 0.0552678 0.06477362 0.060964603 0.038702797 0.047876813 -0.022106405 -0.059396632
-0.044263348 -0.0073336703 -0.06424755 0.05701513 0.07536181 0.117357 0.115858115 -0.04563474
-0.059528135 0.03160483 0.019040523 -0.029399741 -0.12546177 -0.095326364 0.03188047 -0.10130513
0.12702523 0.034175076 0.03395824 0.17240246 0.00668432 0.04594285 0.028945869 0.077428535
0.032309853 0.021121185 -0.09404319 -0.12054825 -0.1301721 0.11748195 0.0367232 0.004930086
-0.094125 -0.03476253 0.022938976 -0.06781501 -0.060449738 0.031223705 -0.04230708 -0.09470204
-0.061450828 0.07145785 -0.0997028 0.04333262 0.036641315 0.050470036 -0.08469913 0.079725504

linear.weight f4 [1, 64]
00000000: 441d 3f3d 006a a63d c39e 923d bca4 533d
00000010: e36e adbd 9133 d23c 3fcd 2cbd 8c6b 5a3b
00000020: 5ef4 ca3d bb31 c0bd 756d c6bd fdd0 b43b
00000030: 7bf1 96bb 17e9 0c3d 50ef cf3b 74df 62bd
00000040: 92bf efbb 33e7 db3d 1852 eabd 4a9b 863d
00000050: 1a61 50bd fc33 d73d 1649 243d 196d 14be
00000060: 4ae0 823d 2cff 76bd 4c65 6b3c 8c68 74bc
00000070: 8307 dd3c 8515 eb3d 5a92 a03d 910b 0c3e
00000080: 7f45 2ebd e469 0dbd 2fc4 d33b 9ea7 b93d
00000090: 4bfd 23bd c2c2 de3d 1f6f bd3d 4c71 dc3d
000000a0: 8254 973d 4a6f 063b ef72 f23d e683 f8bc
000000b0: 305a 923d 7c0f b7bd efb9 0f3d 0559 aebd
000000c0: fce4 14bd 4abb c1bd aea9 88bc 587d b9bd
000000d0: 037b 933c eb12 af3d 1636 fb3d d30d 0b3e
000000e0: 4531 4ebc c464 3dbd 1b74 c9bb 1bcd a93c
000000f0: 9105 bb3c 7e8d a1bc 5693 623d aa2e a5bd
0.04665877 0.08125687 0.07159188 0.051670775 -0.084684156 0.025659354 -0.042187925 0.0033328263
0.099098906 -0.09384485 -0.09688846 0.0055180774 -0.0046064234 0.03440198 0.006345667 -0.055388883
-0.007316538 0.10737457 -0.114414394 0.06572588 -0.050873853 0.10507962 0.040108763 -0.14494742
0.06390436 -0.060301945 0.014367413 -0.014917504 0.02698112 0.11478714 0.07840414 0.13676287
-0.042546745 -0.034524813 0.006462596 0.090651736 -0.04003648 0.10876991 0.0924971 0.10763797
0.073891655 0.002051311 0.11838328 -0.030336332 0.07146108 -0.089385 0.03508943 -0.08513073
-0.03635119 -0.09459551 -0.016682472 -0.090571105 0.018002992 0.0854853 0.122661754 0.13579492
-0.012584989 -0.046238676 -0.006147874 0.020727685 0.022829803 -0.019720789 0.05531629 -0.08065541
