checkpoints/lstm/sh-CEEMDAN(1024)-h64-l2-lr0.001-d0.3-ep200.pth (torch, 213458 bytes, 9 tensors)

lstm.weight_ih_l0 f4 [256, 10]
000000 90 3d b4 3d b1 e4 cd 3d be 6d 10 bd 0d 17 d4 3d
       0.088008046 0.10053385 -0.03526091 0.10355959
000010 82 82 22 3d 16 7a f3 3c 02 89 8d bd c4 ba 7e bc
       0.039675243 0.029721301 -0.06910898 -0.015547458
000020 b6 6a 0f 3e e9 1a 22 be 0e 39 7d 3d 30 13 91 bc
       0.1400555 -0.15830578 0.06182199 -0.017709345
000030 25 1d 05 3e 3a f3 ba bd 9e 2f 86 3a 9e c8 10 bd
       0.12999399 -0.09128423 0.001023758 -0.035347573
000040 54 03 a7 bc f5 46 d2 bc 4e d3 95 be 37 1d 71 3d
       -0.02038733 -0.0256686 -0.29262775 0.058865752
000050 98 48 1a bd 2b ee 20 3c 5b c9 b4 bc 1a 4e 87 3d
       -0.037666887 0.009822409 -0.02206867 0.066066936
000060 31 9d 17 bd 0e 49 db bd 51 1b 7b bd b5 fd 96 bd
       -0.037015144 -0.107072935 -0.061305348 -0.073726095
000070 1f 05 71 bc 67 bb 3e be 48 d9 00 3e 84 11 f1 bd
       -0.014710694 -0.18626176 0.12582886 -0.11770919
000080 e4 64 06 3e b0 56 c9 bd 6a 3e 9e 3c 2a d8 c3 3c
       0.13124424 -0.098309875 0.01931687 0.023906786
000090 ae 3a 80 bd 6c 0c de bd ca b7 58 3d b6 18 1b be
       -0.06261192 -0.10842213 0.05290965 -0.15146145
0000a0 37 ba 0a 3d ca 45 22 bd eb 93 21 3e 2a b0 b6 3d
       0.033868995 -0.039617337 0.15779082 0.089203194
0000b0 1d e1 57 3d e6 67 cf bd 7e 5e 19 3e 8f 5b 05 3e
       0.05270492 -0.10127239 0.14977452 0.13023208
0000c0 c9 dc a0 bb 99 33 4a bd e2 58 28 be ca 41 13 3a
       -0.004909132 -0.049365614 -0.16440156 0.00056174083
0000d0 c5 74 b5 bd 2f 64 33 3e b6 59 e1 3b 0f 77 8f bc
       -0.08860163 0.17518686 0.0068771495 -0.017512826
0000e0 7a 83 52 3d cf 45 1f 3d 03 1c 84 bd a0 0e 96 3c
       0.051394917 0.038884934 -0.06450655 0.01831752
0000f0 9e 4e 97 3c db 44 bd bd 73 c8 be 3d 11 26 fc bd
       0.018470105 -0.09241649 0.093155764 -0.12311948
000100 9f a7 c3 3d 12 f1 ef 3c f1 59 2a 3e 78 fa 14 bd
       0.095534556 0.029289756 0.16635872 -0.036371678
000110 e8 b8 c1 bd 8d df a9 bd 2b 11 b7 3d aa c1 40 3d
       -0.09459096 -0.08294592 0.089388214 0.047059692
000120 70 31 cd 3d 5c 1d b0 bd 5c 3c 50 be df ea e4 bb
       0.10019195 -0.0859935 -0.20335525 -0.0069860066
000130 91 f0 0c be 2b cb de 3d 36 67 a1 bd 71 c3 34 3e
       -0.13763644 0.10878595 -0.07881014 0.1765268
000140 2a d6 23 bd 4a 8a 3b be ab 1f f9 3d 5b 4a be bc
       -0.039999165 -0.18314472 0.12164243 -0.023228815
000150 64 2d 28 3c a4 63 e8 3c ec da 64 3d f8 d4 79 bd
       0.010264728 0.028367825 0.055872843 -0.06099412
000160 f6 7d be bd 27 96 80 3c d9 2a 38 3b 7c 4b bc bc
       -0.09301369 0.015696598 0.002810171 -0.022985213
000170 fb f3 0e 3e 21 6c 67 3d 2c 25 c1 bd 0c 9a 39 bd
       0.13960259 0.056499604 -0.09430918 -0.045312926
000180 5a 5d 07 3e 3e b5 75 bd cc 61 d1 bd 36 5c e3 bd
       0.13219205 -0.0599873 -0.102237314 -0.11101572
000190 b5 f2 ae bc 3b 6c 6f 3d fa 43 db 3d c8 dd 1b be
       -0.021355966 0.058452826 0.10706325 -0.15221322
0001a0 64 ce a0 3c 2c d8 cf bb 1b 52 8c bd ba f2 ca bc
       0.019629665 -0.0063429084 -0.06851598 -0.024773944
0001b0 f3 9a 58 bd 56 23 4f be dd b4 1d 3e df 06 a3 3c
       -0.052882146 -0.20228323 0.15401025 0.019900737
0001c0 99 bc 11 bd 4d d4 47 be 4d db 2f bd 62 1c 1b bd
       -0.03558025 -0.1951458 -0.04293375 -0.037868865
0001d0 48 62 b1 3d 31 88 ea bd 4f 6a aa bc a1 f6 a1 bd
       0.08661324 -0.11451758 -0.020802645 -0.07908369
0001e0 3c 8c f6 ba 70 e5 8f bd d7 ea d7 3d c5 22 e5 bd
       -0.0018810104 -0.070261836 0.10542839 -0.111882724
0001f0 e5 22 af bc 59 bd 86 bd 29 99 89 bd 75 06 00 be
       -0.021378944 -0.06579084 -0.06718666 -0.12502463
000200 af 4e 74 bc 5e 48 1d bd 8c b0 28 3d 25 eb 07 bd
       -0.014911338 -0.038399093 0.041183993 -0.033183236
000210 8c ba 22 be a1 c2 cd 3d 02 8b 4d 3c ae b4 c6 bd
       -0.15891474 0.10046888 0.012545349 -0.09702431
000220 e7 db 51 be 38 7b ab be 1d 46 a5 3d a3 11 2a bd
       -0.20494042 -0.33492446 0.08070014 -0.041520726
000230 ca 2c 8c 3d b0 68 b8 bd 52 8a de 3d 74 cc 43 be
       0.0684448 -0.090043426 0.10866226 -0.19120961
000240 07 18 0d 3d 39 80 1d 3c f8 e7 2f bd 36 d6 49 bc
       0.034446742 0.00961309 -0.042945832 -0.012319138
000250 bd 99 b2 3d 39 e5 08 be 34 96 3e 3d 64 e3 9f bd
       0.087207295 -0.13368692 0.046529964 -0.07807043
000260 6d 1e 6c 3d 8c ad 74 bd 75 e2 56 3e 67 86 2d 3d
       0.057646204 -0.05973582 0.20984824 0.042364504
000270 7b 80 0d 3e 01 bc e3 bc 9e c3 8f 3b 08 38 c7 3c
       0.13818543 -0.027799608 0.004387333 0.02431871
000280 6d 6a 1b 3e 17 8f a0 bc 8e 9f ce bc ae 23 24 be
       0.15177317 -0.01959948 -0.025222566 -0.16029236
000290 d0 aa 25 3e ab 85 47 3d 9b 84 8c bd 9c a3 a4 3d
       0.16178441 0.04871146 -0.0686123 0.080390185
0002a0 79 f9 e3 3d 9d f2 3b be 48 3e 3e bd ee 29 9b bd
       0.111315675 -0.18354268 -0.046446115 -0.07576357
0002b0 2a 90 aa 3d cc 66 89 3c 0a c6 09 3c 1b f1 71 3c
       0.08328278 0.01677265 0.008409033 0.014766957
0002c0 e3 f6 e9 bd a1 f7 51 bd a4 51 92 3a c5 6d b3 bd
       -0.11424043 -0.051261548 0.0011163247 -0.08761171
0002d0 fe 14 de 3c f6 74 fd 3d 7e 7a ac 3d 69 fa fb 3c
       0.02710962 0.12375824 0.08421801 0.030759053
0002e0 4e 3f 6a bd 16 4e 0e 3c 5b 85 12 3d 4a 60 86 bd
       -0.05718928 0.008685609 0.03577171 -0.065613344
0002f0 40 08 d1 3b 56 05 4c be 0f 66 50 3b 7d 9c 17 bb
       0.0063791573 -0.1992391 0.0031799113 -0.0023134046
000300 54 db 5e 3e e5 f4 f3 3d 9d a1 1d bd 26 9c 54 bd
       0.21763355 0.11911944 -0.038484205 -0.051906727
000310 23 80 af 3d 60 42 05 3c d4 50 e2 3a 26 a7 70 3d
       0.08569362 0.008133501 0.001726652 0.058753155
000320 49 4e d6 bd 6a 1d 1d bd 76 41 f8 3d e8 2e 25 bd
       -0.104641505 -0.03835813 0.12121861 -0.040327936
000330 ac 61 6c 3d ba 7d 4a bb 0c b3 58 3c 3b b4 04 be
       0.057710335 -0.0030897693 0.013226282 -0.12959377
000340 bf dd 64 3d 17 0a ee 3c 68 ee 27 3e 6a f1 b6 3a
       0.055875536 0.029057546 0.16399539 0.0013957445
000350 2c 63 11 be e9 2f 5d bd 9c dc ba bc 6a 40 5b 3e
       -0.14197987 -0.05400077 -0.022810273 0.21411291
000360 de dd e4 bb c6 d7 5a be f5 d4 a5 3d d1 3c 6d bc
       -0.0069844564 -0.21371374 0.08097259 -0.014479832
000370 22 34 29 bd f2 93 cb 3d 80 9c 73 bd 22 1d e4 bc
       -0.041309483 0.09940328 -0.059475422 -0.027845923
000380 81 5c b2 bd f4 1f 86 3d b5 5f 0d 3e 07 26 01 3e
       -0.0870905 0.06549063 0.1380604 0.12612163
000390 73 2f bb bd 3b 7a 02 be a5 44 dc bd c5 24 53 3e
       -0.091399096 -0.1274194 -0.107552804 0.20619495
0003a0 e3 c6 ef 3d 27 fd 57 3d 4f d1 e5 3d cc 2b b0 3d
       0.117078565 0.05273166 0.11221563 0.086021036
0003b0 ed 76 a5 3d 71 b8 e5 bd 9e 79 8a be 1a 99 14 be
       0.08079324 -0.1121682 -0.27045912 -0.14511529
0003c0 c2 08 28 3c d1 78 f8 bd 02 75 91 3d 94 f7 bd bb
       0.010255994 -0.12132419 0.071023956 -0.005797336
0003d0 b5 97 81 bd 9d fc 3e 3d 56 ce 87 bd ff ce 84 3d
       -0.06327764 0.04662763 -0.06631152 0.06484794
0003e0 8d c2 ad bd b5 eb 15 3e 08 2a 65 bc 56 28 84 bd
       -0.08484373 0.14640696 -0.013987072 -0.06453006
0003f0 8b ad 99 bc c1 3e 4c bd fa de 64 bd 41 79 9d bd
       -0.01875951 -0.049864534 -0.05587671 -0.07689143

lstm.weight_hh_l0 f4 [256, 64]
000000 48 21 2f bc b1 d8 1a 3e 64 05 e5 3d 44 49 0f 3c
       -0.010689087 0.15121724 0.11182669 0.008745495
000010 ec bd c4 bd a5 67 92 3c 0b 3f f9 bc ed 4a 10 3e
       -0.09606537 0.017871687 -0.030425569 0.14091082
000020 a1 20 94 3d b8 80 1d 3b 09 fc 67 bd 4e e6 bd 3d
       0.07232786 0.0024033021 -0.056636844 0.09272443
000030 05 85 19 3b 52 ac 2d 3e d1 dc ac 3d 11 b4 2a be
       0.0023425233 0.16960266 0.08440555 -0.16670252
000040 98 1d 6d bd 92 00 45 bd 4d df b2 bd b4 2a ad 3c
       -0.05788955 -0.048096247 -0.087339975 0.021138526
000050 83 06 4d bd 68 b4 1b bc 02 ec 00 3e d8 ea 94 bd
       -0.05005504 -0.009503461 0.1259003 -0.072713554
000060 14 76 94 bd 5b 82 bc bb b2 c9 a5 3c ab 0a 9a 3c
       -0.07249084 -0.0057528443 0.020237777 0.018803915
000070 24 15 40 3e 13 d8 66 bd 4c 0a 11 be e4 4b 9f 3b
       0.18758065 -0.05635841 -0.14164084 0.004861342
000080 3d 7a ca 3d a5 98 90 3d 36 29 a1 3d 42 05 20 bc
       0.09886596 0.07060365 0.078691885 -0.009766879
000090 5d 28 7b 3d 71 8e b6 3d 8e 06 86 3d 9a cb cd 3c
       0.06131779 0.08913887 0.06544219 0.025121499
0000a0 2d 42 9a bd 86 e7 c1 bd f7 4e 14 3d 86 39 03 3e
       -0.07532153 -0.09467988 0.03620812 0.12814912
0000b0 5f 0d 03 be 9b 02 de 3d 8d fd 0c bd 35 39 26 3c
       -0.1279807 0.10840341 -0.034421492 0.010145475
0000c0 b9 00 82 bc fe 0c 94 bc 84 1c ff 3d 6a 1b 1b 3c
       -0.015869485 -0.018072601 0.12456611 0.009466985
0000d0 19 06 03 3d 1d d2 b8 bd 40 4d c0 bc 53 6c 80 3c
       0.031988237 -0.09024451 -0.023474336 0.015676653
0000e0 7e 15 a8 3d e3 1e a4 3d 9f 02 a5 3c 29 fc ea bd
       0.08207224 0.08013704 0.020142851 -0.11473877
0000f0 4a 7f 17 3d f7 f2 dc bd d1 b2 27 be 2f 39 c8 3c
       0.036986627 -0.10788529 -0.16376807 0.02444133
000100 65 b9 82 bd 84 30 a7 3d e1 8e 37 bd a3 9c 23 3d
       -0.063830175 0.081635505 -0.044813994 0.039944302
000110 74 2f 04 3e c8 0f e5 bd ae 40 e7 3d 53 e7 a9 bd
       0.12908727 -0.11184651 0.112916335 -0.08296075
000120 7b e3 a9 3d 3b e2 e1 3d f9 72 52 bd 4e 36 94 bd
       0.082953416 0.11029478 -0.051379178 -0.0723692
000130 b9 25 19 3e 41 60 14 3e 0e c5 19 bc 03 ea d5 3d
       0.14955796 0.14489843 -0.00938536 0.10445025
000140 dd 4d d1 bd 2f ec b7 3c ec 17 5f 3d f9 0f 83 3d
       -0.10219929 0.022451488 0.054466173 0.06399531
000150 2f 40 6a 3c 51 d7 b8 3d 82 48 21 be fa 18 d3 bd
       0.014297529 0.09025443 -0.15750316 -0.10307498
000160 93 91 ab 3d 3c bf 0a bd 4e 2f f7 bb e0 6f 11 3e
       0.083773755 -0.03387378 -0.007543481 0.14202833
000170 e7 79 15 3e 76 a8 3d be f8 fc ae bd db ed 9d bd
       0.14597283 -0.18521294 -0.08544344 -0.07711383
000180 95 17 8c 3d 9f 82 74 bd 5a 99 54 bc 54 90 0d bd
       0.068404354 -0.059694882 -0.012976015 -0.03456147
000190 71 1b 0a be 4d 1a 93 bd 4c 3e 09 be 32 13 83 bd
       -0.1348703 -0.07182751 -0.1340267 -0.064001456
0001a0 e6 cf a0 3d 7b bb 9d bd 16 96 2c bd f6 46 8d 3d
       0.078521535 -0.07701775 -0.04213532 0.068983
0001b0 77 c6 b4 bd e1 56 3f bc 7b f8 7c bd 64 be 90 3c
       -0.08826917 -0.011678428 -0.061760407 0.01766891
0001c0 46 47 71 bd 26 22 a2 bd e6 de fe bd ee d4 1b bd
       -0.058905862 -0.079166695 -0.12444858 -0.038044862
0001d0 4a 96 7f bb c7 10 c1 bd 8b ad b2 3d 8c f9 26 be
       -0.0038999491 -0.09427028 0.08724507 -0.16306132
0001e0 45 ec d1 3d 8a 8c bb bd 65 17 1b 3b 8c 6e 8b 3c
       0.10250143 -0.09157665 0.0023665067 0.017020486
0001f0 c6 3c b4 bc 67 1c 9b 3d bd 1c fe bd 51 cc a4 3c
       -0.022001635 0.07573777 -0.12407825 0.020116957
000200 8b 30 a6 bd 55 51 79 3d af 21 b5 3d 6f 73 23 3e
       -0.081147276 0.06086858 0.08844315 0.15962003
000210 3d 90 69 bc d5 e0 5c bd f5 a1 d0 3d 17 82 e5 bc
       -0.0142555805 -0.053925354 0.10187141 -0.028016133
000220 6d 7b ee 3d 9d b0 85 bd f8 3a 93 bd 87 35 c5 bd
       0.11644635 -0.06527827 -0.07188982 -0.0962935
000230 c6 33 c6 3d 8a 98 07 3e ae 11 98 bd c9 04 c4 38
       0.09677844 0.13241783 -0.07425247 9.3468996e-05
000240 ce 73 d2 bd ec e2 7a 3d 4b 27 7c 3b 45 44 80 bd
       -0.10275994 0.061251566 0.003847557 -0.062630214
000250 ee 90 56 3d 51 ee 77 bd dc ce f7 3c 06 3e ea bd
       0.05238431 -0.06053001 0.030250005 -0.11437611
000260 88 44 f0 3c ba 6f 01 3e c5 f7 3d 3e 3c eb 70 3d
       0.029329553 0.12640277 0.18551548 0.058818087
000270 43 2f 40 3e 1c 7e 89 3d d4 4b 4f bc 85 67 5d 3d
       0.18768029 0.067135066 -0.012652356 0.054053802
000280 8c 07 e7 3c b2 da 06 3e 08 4a cb 3d 1b ee 64 bd
       0.02820184 0.13169363 0.0992623 -0.055891138
000290 b4 8a c1 bc 11 e4 bb bd f7 68 19 3d cb c6 06 be
       -0.02362571 -0.091743596 0.037453618 -0.13161771
0002a0 6b 48 8d 3d 28 bc 26 bd d2 ae d3 3c dc c0 9d 3d
       0.06898578 -0.040706784 0.025840197 0.07702801
0002b0 91 cf 0a be e5 38 97 3d 07 f6 e2 3c 54 a9 b9 bd
       -0.13555743 0.07383899 0.027705206 -0.090655
0002c0 78 06 d1 3d 61 e2 c4 3d e3 0b bc 3d 30 c1 46 bc
       0.10206312 0.09613491 0.09181955 -0.01213102
0002d0 7c d4 d4 3c dc c7 b2 bd 82 70 8c bd 69 af d7 3d
       0.025980227 -0.087295264 -0.06857397 0.10531504
0002e0 7e 68 3f 3d f0 a9 1e 3d 89 62 20 be be d5 3e 3e
       0.04673051 0.038736284 -0.15662588 0.18636224
0002f0 9d 38 77 bd c6 c0 d6 3d 82 a2 96 3d c5 73 ee 3c
       -0.060356725 0.10485987 0.07355215 0.029107938
000300 29 e8 db 3d 6d c1 d8 3d 42 19 b7 3c 06 07 0a bd
       0.107376404 0.10583768 0.022350911 -0.033698104
000310 6e be 9a 3d e0 c6 03 3c c0 32 0f 3d e3 3e cb 3b
       0.07555853 0.008043021 0.03496051 0.006202565
000320 86 16 f2 3d 97 d6 11 3e 4b 8a 28 be 3e 2a 07 3e
       0.11820702 0.14242016 -0.16459005 0.13199708
000330 56 3f f1 bd bb 4f c1 3c 3e fa a3 bd 83 cb 7f bc
       -0.117796585 0.023597589 -0.08006714 -0.015612486
000340 22 40 18 be 5d 21 3e bc 98 4c 38 be fe d9 7a 3d
       -0.14868215 -0.011604634 -0.17997968 0.06124305
000350 47 1b 3d be 9c d8 97 3b c5 80 82 3d ee 6b 0c bd
       -0.18467437 0.004633976 0.06372217 -0.034282617
000360 fb ae 25 bc 54 25 e4 3c fd 56 41 bd 4d bf 9f bd
       -0.010112519 0.02784983 -0.0472021 -0.078001596
000370 1e a3 c3 3d 54 86 b8 bd 58 c2 a0 bc a3 94 e6 bd
       0.095525965 -0.09009996 -0.01962392 -0.11258819
000380 9a e1 19 bd b6 ca b8 3d 18 eb 07 be dc d2 69 3d
       -0.037568666 0.09023039 -0.13273275 0.057085857
000390 6a 56 f4 bd 28 4f 2c bd 6f 60 b5 bd 66 37 c9 bd
       -0.11930545 -0.042067677 -0.08856284 -0.098250195
0003a0 c1 68 4e bc b7 7f 2a be b5 1a 1c 3d d2 52 ab 3c
       -0.012598217 -0.16650282 0.038111407 0.020913515
0003b0 6d 7d 61 bc a0 e7 70 3d e4 07 08 3d c9 bb 10 3d
       -0.013762814 0.058814645 0.03321065 0.035335336
0003c0 32 96 d7 3c df 14 ee 3d 6f 2a d7 3d 39 85 da bd
       0.026316736 0.116250746 0.105061404 -0.106699415
0003d0 a4 2a d0 bc e3 1e 2f be e1 2f 5b bd 21 eb cc bc
       -0.025410958 -0.17101626 -0.053512458 -0.025014462
0003e0 7a 47 f5 3d 75 48 c7 3c f8 60 23 bc 4b 55 7c bd
       0.11976524 0.024326542 -0.00997185 -0.06160478
0003f0 58 eb 81 bd 2c 57 c6 3c ed b6 a7 bd d4 9c 28 bd
       -0.063437164 0.024211489 -0.08189187 -0.041165188

lstm.bias_ih_l0 f4 [256]
000000 19 7a ab 3b cb b4 d2 bc b0 c4 12 3e a5 fe 2c 3e
       0.005233061 -0.025720974 0.14332843 0.16894014
000010 af 4c f4 bd b3 7a 09 be ef c3 b9 3d 81 78 8e bc
       -0.11928689 -0.13425712 0.090705745 -0.017391445
000020 27 a2 13 3d 0f 06 62 3d 40 24 64 bc f6 cd f6 3d
       0.036043312 0.05518156 -0.013924658 0.12051003
000030 78 b7 89 3e 23 bd 28 3d 70 2a c3 bb e2 bd 28 3d
       0.26897788 0.041196 -0.0059559867 0.04119671
000040 47 71 60 3d 43 65 26 3e 93 77 95 bc 7a c0 a0 bc
       0.05479553 0.16249566 -0.018245494 -0.01962303
000050 a9 19 80 bd e8 cd 3d 3e 4d 32 16 3e 33 04 60 3d
       -0.06254894 0.18535578 0.14667626 0.054691505
000060 8a 67 03 3e e5 87 15 3d dd 62 28 3d bd fe bc bd
       0.12832466 0.036506552 0.04110991 -0.09228275
000070 3f e3 39 3d 74 aa d3 3d 2d a3 c0 3d 81 fc 52 3d
       0.045382734 0.10335246 0.09406123 0.051510338
000080 67 1a 6c 3d f2 38 ee 3d 22 61 4f 3d c7 5a 74 bd
       0.057642367 0.11631955 0.050629742 -0.059656885
000090 64 2b 79 bc b7 52 76 3d a1 43 71 bd 46 be f5 3d
       -0.015208099 0.060137477 -0.058902387 0.119991824
0000a0 62 ae 14 bd dc 3d 2b 3e 92 9d b7 3d ab b6 23 3e
       -0.036299117 0.16722816 0.08965601 0.15987651
0000b0 07 48 73 3d fc 3f b3 bc 9b cf a9 3d e5 f2 cc 3d
       0.059394863 -0.021881096 0.08291551 0.10007266
0000c0 0e d0 8a 3e ee 9a 93 3d a9 ad a8 bc fc 66 53 3e
       0.27111858 0.07207285 -0.02059062 0.20644754
0000d0 2b 3e 2e 3e 1d e7 80 3e 62 4b fe 3d f9 11 b6 ba
       0.17015903 0.25176325 0.12416722 -0.0013890854
0000e0 28 0d 4b bc 3c c9 0b 3c cd 6f 1a bd a3 ea c2 bc
       -0.012393273 0.008531865 -0.037704278 -0.023793524
0000f0 c8 75 07 3d 2f 82 21 3e fe 37 25 3e e5 14 c6 3d
       0.03307131 0.15772317 0.1613464 0.09671954
000100 1d da 06 3d 1d 34 1d be 67 f0 22 bc 36 bb 3f 3d
       0.032922853 -0.15351911 -0.009945012 0.046809398
000110 8b 8c 13 3d 7b 66 22 3c 16 2a c9 3d 1f 82 ad bd
       0.036022704 0.009912129 0.098224804 -0.08472084
000120 36 87 d8 bc 22 8d 67 bd 3e 19 b2 bd 71 ed de 3c
       -0.026431661 -0.05653108 -0.08696221 0.02721283
000130 64 08 f8 bd 78 c0 0c bd d1 73 f2 bd 06 d9 87 bd
       -0.121109754 -0.03436324 -0.118384965 -0.06633191
000140 31 15 85 bd 21 34 12 be 2d bf 28 3d 94 e1 40 bc
       -0.064981826 -0.14277698 0.041197944 -0.011772532
000150 fe c8 ed 3c 65 9d 83 3c 29 b3 07 bd a3 07 cd bd
       0.029026505 0.016066262 -0.033129845 -0.10011222
000160 92 64 35 be c0 3b 92 bd a1 4f 49 bd d5 bd ea 3d
       -0.17714146 -0.07140303 -0.049148206 0.11461989
000170 e8 2b 8f 3d 71 6e be 3d b0 cd e0 bd 7a f6 22 be
       0.06990796 0.09298409 -0.10976732 -0.15914336
000180 72 d6 fd bc 20 bc 0a be 09 44 12 be 3a 54 f1 bd
       -0.030986045 -0.13548326 -0.14283766 -0.11783643
000190 59 cd ac bd 8b 22 0a be 0d fc ac 3d 1a b0 9e 3d
       -0.084376045 -0.1348974 0.08446512 0.077484325
0001a0 b1 41 16 be 33 9a 7a be 5e d2 fb 3d fb ed 81 3d
       -0.14673497 -0.24472885 0.12295984 0.06344219
0001b0 54 39 d6 bd 7e 65 1b bd d2 aa ef bd d0 d0 2e be
       -0.10460153 -0.037938587 -0.11702503 -0.17071843
0001c0 e8 b0 77 be 81 b2 05 bd fc 57 18 3e 3a 07 9c bd
       -0.24188578 -0.032640938 0.14877313 -0.07618566
0001d0 98 c3 28 be 95 a2 39 bd 93 4e c1 3d 25 3a 70 3d
       -0.16480863 -0.045321066 0.09438815 0.0586492
0001e0 6b 7f 8a 3d e0 22 53 bd 2e 24 bd bd ed d2 f8 3c
       0.06762584 -0.05154693 -0.09235416 0.030374015
0001f0 a0 63 12 be c7 d7 86 bd fb b1 ba 3c bf 23 3d bd
       -0.14295816 -0.06584125 0.022789946 -0.04617667
000200 3e 12 a6 bc 2e 30 06 3d 97 d5 38 bd b7 2c 36 bd
       -0.02027237 0.03276079 -0.04512557 -0.044476237
000210 1c d4 17 3d 08 ea 80 bd a4 11 56 3d c8 d1 3c 3d
       0.037067518 -0.06294638 0.052262917 0.0460985
000220 84 b5 56 3d 35 c6 b0 3d 2b d7 fc bb 84 99 eb bc
       0.0524192 0.08631555 -0.0077160797 -0.028759725
000230 12 bb af bd 87 f9 78 bb 26 a5 c2 bd 79 e3 9d 3d
       -0.08580603 -0.0037990527 -0.09504156 0.077094026
000240 7e 0c 64 3c 56 30 32 bd 8e e0 9a bb f1 d6 9b 3d
       0.013918994 -0.043503128 -0.004726476 0.07609356
000250 6a 10 9e bd 33 9e 91 bc d8 41 a4 3c e5 02 43 bd
       -0.077179745 -0.01777563 0.020050928 -0.047610182
000260 79 1f eb bb 2a 60 50 3d 19 95 d3 bc 78 aa bd bd
       -0.0071753827 0.05087296 -0.025827931 -0.0926103
000270 33 bd b3 3d 3e 30 d0 bd c9 ec b0 bc 41 a0 29 3d
       0.08776321 -0.101654515 -0.021597283 0.041412596
000280 dd eb a2 3d b6 63 40 bd 1a a7 49 bd 98 70 a2 3d
       0.079551436 -0.04697009 -0.049231626 0.07931632
000290 8d fd 3a bd 21 e7 8e 3c 3c ed a2 3c 04 d7 a8 bb
       -0.04565196 0.017444195 0.019888513 -0.005152585
0002a0 f8 93 ea bc 53 10 43 bc ca 95 16 bd 73 89 89 3d
       -0.02863501 -0.0119057475 -0.036763944 0.067156695
0002b0 fe 3b da bb 8e ba 16 bd 56 c9 9e bd 2d df 91 3d
       -0.0066599837 -0.036799006 -0.077532455 0.071226455
0002c0 19 6e 36 bd a6 ae 91 3d 0e 59 22 bc 1f e1 b9 bd
       -0.04453859 0.0711339 -0.009908928 -0.090761416
0002d0 58 6e 35 3d b4 32 e9 3d 4e 11 a5 3d a8 6b 89 bd
       0.044294685 0.11386624 0.08059941 -0.06709987
0002e0 b6 f8 06 be a6 ad d7 3d ed 0d 95 bd 03 3d 64 3d
       -0.13180813 0.10531168 -0.07278047 0.055722248
0002f0 15 4d d6 3d 41 48 da bc bb 81 cb bd 4c 05 51 3d
       0.10463921 -0.026645781 -0.099368535 0.051030442
000300 9d 0a 7e bd 6d 9c cc bb a3 63 83 bd 3e 0f 09 3e
       -0.06202184 -0.0062442333 -0.064154886 0.1338472
000310 0f 14 d9 3d e9 fb be bd 9c ee 70 bd a3 fd 05 3e
       0.10599529 -0.09325392 -0.058821306 0.13085036
000320 d7 35 8a 3d bf ea 20 3e 94 5e 8d bd 1a 40 10 3e
       0.067485504 0.15714549 -0.06902805 0.14086953
000330 a4 63 39 3e 4c f0 2c bd 8b 83 1d 3d c8 17 76 3d
       0.18104416 -0.042221352 0.038455527 0.060081273
000340 98 9b c2 3d 1f 5c 48 3d 59 f8 a0 bd 19 a0 10 3e
       0.095023334 0.04891598 -0.078598686 0.14123572
000350 36 03 ff bd 07 f5 14 bd 5b fd 82 3d 7e 99 f4 3d
       -0.12451784 -0.03636649 0.0639598 0.11943339
000360 25 d0 b8 3d 00 6e 49 3e c2 42 4e bd d6 70 b7 bc
       0.090240754 0.19670868 -0.050356634 -0.022392672
000370 4d c3 50 3e fa 44 fd 3d 75 85 3f bc e2 df 3f bd
       0.20387001 0.12366672 -0.0116895335 -0.04684437
000380 95 07 34 3d 75 5e 1b 3e 25 08 7d 3e b6 bc a6 3c
       0.043952543 0.15172751 0.24710138 0.020353656
000390 6a fd 3b bd ef d9 57 3d 43 42 03 bd a8 f2 c7 3b
       -0.04589597 0.052698072 -0.032045614 0.006101925
0003a0 a4 1b bf bd c2 3a 34 3e 23 6b b0 bb 8d 39 0c 3e
       -0.09331444 0.1760054 -0.0053838654 0.13693829
0003b0 b6 42 43 3d 34 d8 b7 bd b7 1e 4d 3d 24 17 bb 3d
       0.047671042 -0.08976784 0.05007812 0.09135273
0003c0 16 a2 9b 3d dd 6e a9 bd e6 b5 92 3c e6 ef fb 3c
       0.07599275 -0.082730986 0.017909002 0.03075404
0003d0 20 ce 3c 3d a7 b5 a5 3d 21 3f f6 bd b5 92 ac bd
       0.046095014 0.08091288 -0.1202376 -0.0842642
0003e0 d2 75 af 3c a5 c1 33 3d 13 6f 85 3d 75 ff b5 bd
       0.021418486 0.043885846 0.06515326 -0.08886615
0003f0 5f 95 f0 3d 5d 61 28 3e d1 22 5d bd d3 20 10 3e
       0.1174724 0.16443391 -0.05398828 0.14075021

lstm.bias_hh_l0 f4 [256]
000000 24 32 20 3e df 16 2f bd c6 43 b0 3d 12 82 0b 3e
       0.15644127 -0.04274642 0.08606677 0.13623837
000010 17 c1 68 3d 2c a2 76 bd 40 7e ab bc 48 8d 34 3d
       0.05682477 -0.060213253 -0.020934224 0.04408005
000020 35 d0 c4 bc 4d 88 f3 3d e6 85 8b bd 15 6c f5 3d
       -0.024025062 0.11891232 -0.068126485 0.11983506
000030 12 91 40 3e f8 22 9a 3d c2 5e 42 3d 61 30 87 3d
       0.1880534 0.07526201 0.04745365 0.066010244
000040 5f a1 74 3c 9c de 86 bc 72 43 d5 3c 2c 16 5d 3e
       0.014931052 -0.01646357 0.026033137 0.21590489
000050 e4 98 b5 bd 97 41 e1 3d 48 48 8c bd 4f 79 83 bc
       -0.08867052 0.109988384 -0.06849724 -0.016049055
000060 06 de 13 3e a5 49 88 bb 15 87 4f 3d 9b 6e b9 3d
       0.14440164 -0.0041591697 0.050665934 0.090542994
000070 88 bf 9d 3d da db c7 3d 13 7f c7 bc 24 bd 94 3d
       0.07702547 0.0975873 -0.024352586 0.07262638
000080 eb 04 4a bd 2d 3e fb ba bd ec 02 3e e3 0b 49 bd
       -0.049321096 -0.001916831 0.12785621 -0.0490836
000090 be 45 01 3e 62 a1 ab 3d c7 ca d2 3d 60 c2 a6 bc
       0.12624261 0.08380391 0.10292583 -0.020356357
0000a0 29 83 27 bd 0e 73 2e 3e 3d 8e 53 bd 16 b9 52 3d
       -0.04089657 0.17036077 -0.05164932 0.051446043
0000b0 7c 09 ae 3d fe fa f9 3d 2b 18 a8 3d f6 e8 60 3b
       0.08497903 0.12206076 0.08207735 0.0034318543
0000c0 3a 38 9b 3e a0 98 c1 bd 6a 52 84 bb 35 9f d3 3d
       0.30316335 -0.09452939 -0.004038145 0.10333101
0000d0 0b 89 b3 3d 06 51 c4 3d 34 c0 43 bd eb e9 3c 3d
       0.08766373 0.095857665 -0.04779072 0.04612152
0000e0 f8 8c 09 bd bc 05 9a 3d 31 93 df 3c a9 78 e6 3d
       -0.033581704 0.07520625 0.027291866 0.11253483
0000f0 9a cc b7 3c 05 53 13 3e a2 6e 31 bd a1 a3 d7 bb
       0.022436429 0.14387138 -0.0433184 -0.0065807854
000100 47 0e 10 be 9c 3e b1 bd da cc 0c be 4e eb a9 3c
       -0.14067946 -0.0865452 -0.1375002 0.020742085
000110 1e b9 82 bd 2e 7f 98 3c 40 db d2 3d 1a 4b d7 bd
       -0.063829646 0.018615332 0.10295725 -0.10512371
000120 42 19 3a bd 53 23 0e be 89 ed b5 3d c3 df 9a bd
       -0.045434244 -0.13880663 0.08883197 -0.075622104
000130 77 3f 50 be 28 8e 6a 3c 0a 76 55 bd a0 f7 96 3c
       -0.2033671 0.014316119 -0.052114524 0.018428624
000140 2c 1c ef 3c 7c ec 06 bd 45 d7 9e bd 78 08 c1 3d
       0.029188238 -0.032940373 -0.07755903 0.094254434
000150 9d 5b 65 bd 23 24 b3 ba 15 fc 9f 3d ae 3a 17 be
       -0.055995572 -0.0013667386 0.07811753 -0.14768478
000160 9a 57 07 be f2 d4 3c bd 04 f9 ff bd fa 58 bb 3d
       -0.13217011 -0.046101518 -0.12498668 0.0914783
000170 f9 39 19 3c 16 ea 51 bc 79 63 40 3d 9c cd 11 3b
       0.009352201 -0.012812158 0.046969865 0.0022247797
000180 ad c4 b5 3d 57 fe 3f be 16 e3 f2 bd a4 bc 1c be
       0.088754036 -0.18749367 -0.118597195 -0.15306336
000190 c2 63 45 bd 24 7e 99 3d 4d f3 3b bd 5c de 64 bd
       -0.04819084 0.074947625 -0.045886327 -0.05587612
0001a0 60 20 c8 3c b9 54 f8 bd 61 8f 02 3d 08 a1 9e 3d
       0.0244295 -0.121255346 0.031875018 0.07745558
0001b0 f6 6e 02 3e 3c 96 61 3d 17 27 1a be 70 70 6b bd
       0.1273764 0.055074915 -0.15053974 -0.057480276
0001c0 63 4d 5a bd a1 17 98 3d b7 e6 99 bd 5c 16 2d bd
       -0.053296458 0.07426382 -0.075147085 -0.04225765
0001d0 dd 66 db bd 25 87 33 be e6 3c b7 bd 38 a0 c4 bd
       -0.10712979 -0.17532022 -0.08947162 -0.09600872
0001e0 3c 0c 8a bd 9e c7 9a 3c da 05 ab bd c0 f8 28 3d
       -0.06740615 0.018894013 -0.083507255 0.04125285
0001f0 c9 22 ee bd 07 9d a5 3d 49 0e 38 be 89 b1 31 bd
       -0.116277285 0.08086591 -0.179742 -0.0433822
000200 76 d7 81 bd a1 a8 b1 bd a4 f1 2f 3d a8 90 94 bb
       -0.06339924 -0.086747415 0.042955056 -0.004533846
000210 6b a6 ac bd 68 e0 23 bc fd a2 ff bd 96 f9 ab bd
       -0.08430179 -0.010002233 -0.124822594 -0.08397214
000220 29 63 4e 3d ee 89 8d 3b 0c c9 70 bd be 99 f0 3d
       0.050387535 0.004319421 -0.058785483 0.11748074
000230 62 a1 0d 3d 0c 82 fb 3d c5 5a 7d 3d 18 71 3a 3c
       0.034577735 0.12280664 0.061854143 0.011379503
000240 df 82 2b bd 5a ab 39 bd ba 6e de 3d e1 bc 4e 3c
       -0.041872855 -0.04532943 0.10860963 0.012618274
000250 11 56 ac 3d 95 6e 06 3d 1e a9 05 bb 17 5e 15 be
       0.08414853 0.032820303 -0.002039499 -0.14586674
000260 90 0e 94 3d bf 06 c2 bc 3f 1f 22 3d db 60 11 bd
       0.0722934 -0.023684857 0.03958058 -0.03549276
000270 9b 8e 21 3e 69 22 bb 3d b1 ac 01 bd c4 c8 05 3c
       0.15777056 0.091374226 -0.031658832 0.008165542
000280 19 cf 96 bd c8 03 4c 3d 2d 8f 84 bd 5d cd 99 bd
       -0.073637195 0.049808294 -0.06472621 -0.07509873
000290 c1 f6 74 bd 37 03 e2 bd bc a4 a5 3d 8c 6a 65 bd
       -0.059805635 -0.110357694 0.08088061 -0.056009814
0002a0 ce 67 a5 3d ba 16 f3 bc 05 7e 76 bb 3a e7 49 bd
       0.0807644 -0.029673923 -0.0037611735 -0.04929278
0002b0 27 6d c6 bd 1b 42 52 3d fe f8 72 bd 3e bc 5a 3d
       -0.09688788 0.051332574 -0.05931949 0.053402178
0002c0 9e 5c 97 bd 00 00 20 3d 86 d5 ba 3d 5d 4e 61 bc
       -0.07390712 0.0390625 0.091227576 -0.013751593
0002d0 d5 41 12 bc 58 c6 70 bd ea 4e be bc 25 6f bd 3d
       -0.008926828 -0.058782905 -0.023230989 0.09249715
0002e0 fe e8 d8 3c 5d cc bc 3d a0 86 a1 3d 4d 4a ee bc
       0.026478287 0.09218667 0.07887006 -0.029088164
0002f0 2e 47 68 bd f3 25 da 3d f9 da 33 bd 62 e5 57 bd
       -0.056708507 0.106517695 -0.04391 -0.05270899
000300 b6 9c 17 bd 1e 1c 06 3e f7 1d 49 bc 90 25 0c 3d
       -0.037014686 0.13096663 -0.012275211 0.03421551
000310 00 97 ad bd 76 4c 81 3c a0 bc ab bd 58 73 0c 3e
       -0.084760666 0.01578353 -0.08385587 0.13715875
000320 14 bb c8 3d b4 bf d0 bc 6a c3 c0 bd a5 3f 68 3d
       0.09801307 -0.025482036 -0.09412272 0.05670132
000330 c4 c2 1b 3e f9 b8 c6 bd e3 87 22 3e 0f 81 a8 3c
       0.15211016 -0.097032495 0.15872149 0.020569352
000340 de 44 44 3d ba 07 c1 3d 4f d9 93 bd 5b 83 74 3d
       0.04791724 0.09425302 -0.07219183 0.059695583
000350 10 ea 20 3d 64 33 41 bd f4 0e a3 3c 77 25 39 bb
       0.03928572 -0.04716815 0.019904591 -0.002825109
000360 8d d3 be 3d b4 62 7f 3e 18 96 aa bd e3 62 b1 bd
       0.09317694 0.24939996 -0.08329409 -0.08661439
000370 82 9b 2b bc 2b 78 24 3e 50 cd 85 bd 97 b7 ae 3d
       -0.010474088 0.16061465 -0.06533301 0.08531111
000380 98 1a 0d 3e bd f1 43 3e 44 0a 8a 3e 51 f0 00 3d
       0.13779676 0.19135185 0.26960957 0.031479184
000390 54 a4 bc bd b2 f8 ab 3c c1 1d fe 3d eb 56 2f 3a
       -0.092110306 0.02099261 0.12408019 0.0006688672
0003a0 26 8b b3 bd 29 d5 97 3e 1e 45 9f 3c db 3c f3 3d
       -0.08766775 0.29654816 0.019442137 0.11876842
0003b0 2e b9 a9 3b 86 de ef bd 1a 0d cb 3d 1b 61 0c bd
       0.005179546 -0.11712365 0.09914608 -0.034272294
0003c0 56 93 87 3d 72 80 0c 3e d8 cd 33 bd d0 8b 2e 3e
       0.06619899 0.13720873 -0.04389748 0.17045522
0003d0 cc 9a 2e 3e ee 67 05 3e 48 28 56 bd 5c a5 55 3d
       0.17051238 0.13027927 -0.05228451 0.052159652
0003e0 fa ba 6f 3c 48 f9 c9 3d ee 08 71 bd 35 b1 60 bd
       0.014631981 0.09862 -0.058846407 -0.054856498
0003f0 e4 30 8c bd 57 1a 9a bd 49 1f ec 3c ab a7 4e 3b
       -0.06845263 -0.07524555 0.028823512 0.0031533043

lstm.weight_ih_l1 f4 [256, 64]
000000 1e 00 72 3c 6e 33 de 3c 59 cb c7 bd 1e dd 92 bd
       0.014770536 0.027124133 -0.09755582 -0.07171081
000010 2e 31 19 bd d0 d8 cd ba ce 47 ae bc 2e c6 38 3c
       -0.037400417 -0.0015704874 -0.021274474 0.0112777185
000020 23 92 49 bd a3 97 f8 bc 38 8f a0 bd 64 72 72 3d
       -0.049211632 -0.030345744 -0.07839817 0.059191123
000030 4b 67 26 be 0e 4f 9a 3d 85 e8 c9 3d ed b2 d6 bd
       -0.1625034 0.0753461 0.09858803 -0.10483346
000040 e0 3a b8 3c 38 86 d8 bc 52 f2 d5 3c ad 59 7b bd
       0.022489011 -0.026431188 0.026116524 -0.06136482
000050 f2 40 ea 3d 1a af b8 bc b7 93 db b9 5a 6f 74 bc
       0.114381686 -0.022544432 -0.0004188099 -0.014919126
000060 41 e5 7d 3c 66 e5 ee 3d dc 33 1d bd 15 23 85 bd
       0.015496553 0.11664848 -0.038379535 -0.06500832
000070 d6 a5 3e bd be 80 7f 3d 66 83 0d be 04 1f 06 3e
       -0.046544872 0.062378637 -0.13819656 0.13097769
000080 41 70 67 3d 10 42 bd 3d 47 57 23 be 50 b8 99 bd
       0.056503538 0.09241116 -0.15951262 -0.07505858
000090 15 0c 34 3d 49 7b d8 3b 8e 64 2a bb 7d cc 78 bd
       0.043956835 0.0066064936 -0.0025999877 -0.06074189
0000a0 8f a9 85 bc a9 d8 cf bd c0 6f 41 3d f1 41 5f bc
       -0.016316203 -0.101487465 0.047225714 -0.0136265615
0000b0 70 64 d2 bb af 44 d9 3d 65 5b b5 bd 1b 08 a1 3c
       -0.0064206645 0.106088035 -0.08855323 0.019657185
0000c0 f6 84 86 3d 42 9c dc 3b e6 92 75 3d 58 6d 8e bd
       0.06568329 0.0067324946 0.059954546 -0.069544494
0000d0 9b ba 9d 3c 58 8d ba bd 93 8f ba 3d ae 69 36 bd
       0.01925402 -0.091089904 0.09109416 -0.044534378
0000e0 bb 6b 7c bd 64 1d 99 bd c7 4d 6f 3d 39 36 d8 3d
       -0.061626177 -0.07476309 0.058423784 0.10557217
0000f0 cc 3a 78 bc 0f 61 db 3d 75 9c 3b bd e3 e5 12 bd
       -0.015150737 0.10711872 -0.045803506 -0.03586377
000100 80 e3 d3 3d e0 97 14 bb a1 e3 81 bb a7 17 f3 3d
       0.103461266 -0.0022673532 -0.003963903 0.11869746
000110 1e a3 7d 3c fd 73 65 3c 92 c5 20 3d 9b 8b dc bc
       0.015480785 0.014004705 0.039250918 -0.026922038
000120 24 a5 21 3c 55 05 cc 3d 42 3f 08 3e 88 de d9 bd
       0.009866033 0.099619545 0.13305381 -0.106381476
000130 a1 3a a7 bc 43 5d da 3b af 46 9a 3d 25 43 39 bd
       -0.020413699 0.0066639497 0.07533013 -0.04523005
000140 09 e6 a2 bc da 1a 41 bd a4 eb 03 be fa 5b f3 bd
       -0.01988508 -0.04714475 -0.12882859 -0.118827775
000150 c9 77 ab bd 7a 99 95 3c 98 d4 19 3d 34 8b 83 3c
       -0.083724566 0.01826166 0.03755626 0.016057588
000160 31 dd bb 3d 77 87 0b bd b5 a2 02 3e dd e6 b1 3c
       0.09173048 -0.034064736 0.1275738 0.02171653
000170 89 c3 9b bc 4e a6 5c bc 21 68 0e be 5b d5 98 3d
       -0.019014137 -0.0134673845 -0.1390691 0.07462569
000180 fd 0e 19 3d 6e c4 80 3d 86 9e a8 3d 15 b3 6d 3d
       0.03736781 0.06287466 0.08233361 0.058032114
000190 cd 59 10 be 11 ea f5 bd 5f 4d 63 3a de 3d 28 bd
       -0.14096756 -0.12007535 0.0008670892 -0.041074626
0001a0 e0 c2 26 bc 2b 8a f7 3d 3b 8b 8b 3c 57 9c 81 3c
       -0.010178298 0.120869 0.017034164 0.015821619
0001b0 c4 54 d5 bd 0d f1 98 bc 05 76 c8 bd 19 be 54 bd
       -0.104165584 -0.01866963 -0.097881354 -0.051939104
0001c0 18 30 d7 3d 9f d5 ba 3b 2f 50 80 3d 97 cc 51 3d
       0.1050722 0.005701735 0.06265294 0.051220503
0001d0 03 90 bd 3d 0f 10 d1 3b fb 71 34 be fc 55 96 3c
       0.09255984 0.006380088 -0.17621605 0.018351547
0001e0 51 f8 c3 3c ef 42 b1 bd 42 7e 0f be d9 9c 9b bd
       0.023922117 -0.08655345 -0.14013007 -0.07598276
0001f0 61 55 9b 3d 60 8a 82 bd a3 cc b6 bb 68 05 53 3d
       0.07584644 -0.06374049 -0.005578594 0.051518828
000200 db 46 41 3e 8e 75 4f bb 42 eb e2 3d 9c 4d 55 3d
       0.18874685 -0.0031655761 0.11080028 0.052075967
000210 9d 00 cc 3d 3f 0a 1a bd b9 d6 36 3e 95 7b c9 3b
       0.099610545 -0.037607428 0.17855348 0.0061487653
000220 2f ca 5f 3e 09 70 37 be 07 db c5 bd c5 fc 5b 3d
       0.2185447 -0.17913832 -0.09660917 0.053707857
000230 d8 84 35 3d e9 30 81 3d 3d 7f 44 be 4b f9 c9 bc
       0.044316143 0.06308157 -0.19189163 -0.024655005
000240 39 13 e9 3d 40 05 e0 3d d3 eb c6 bc 54 60 54 bd
       0.113806196 0.10938501 -0.024282372 -0.05184968
000250 73 5d 8a bd 54 48 2b bd ae 63 51 be 8e 81 9a bb
       -0.06756105 -0.041817024 -0.20448181 -0.004715151
000260 55 a2 18 be 6b 93 32 3c 3f 5d b1 bd fb 14 dd bc
       -0.14905675 0.010899405 -0.086603634 -0.026987543
000270 9d ed 3d bd c4 24 15 bd 69 e0 51 bd 85 bd f2 bd
       -0.046369184 -0.036412016 -0.051239405 -0.11852554
000280 9c 3d ec 3b 22 27 e4 bd dd 51 2b 3e b9 cb 00 bd
       0.007209493 -0.111402765 0.16730447 -0.031444285
000290 d6 e3 15 3d bb e6 d3 bb 26 07 26 be 55 56 c8 3c
       0.036594234 -0.006466714 -0.16213664 0.024455229
0002a0 70 e0 42 bc 1a f3 b6 3d 29 2b 20 3e 1c 1a 0a be
       -0.01189433 0.08933087 0.15641464 -0.13486522
0002b0 47 13 35 be 69 2a 29 3d 56 e2 44 bd 0d 25 61 bb
       -0.17683135 0.04130021 -0.048067413 -0.003435436
0002c0 e3 e0 0c 3e 21 1a b8 3d 0f 22 96 3d 01 1a 03 3d
       0.13757662 0.08989359 0.07330715 0.03200722
0002d0 44 c5 9c bb 93 ff 98 3b af 31 15 3d 2a e9 3d be
       -0.004784258 0.0046691387 0.036424335 -0.18545976
0002e0 80 0f 12 3d 2b 97 8e 3d 73 3a cc bc d4 c5 b1 3c
       0.035659313 0.06962427 -0.024930215 0.021700777
0002f0 a2 05 ce 3d c9 b7 b1 bc 12 cf bb 3d d4 78 70 3d
       0.10059668 -0.02169408 0.09170355 0.05870898
000300 13 73 1b 3d 9c 37 96 3d 33 26 b1 3c bb 7a 08 3e
       0.03795154 0.073348254 0.02162466 0.13328068
000310 62 80 15 3e 92 72 66 bd ad 08 3a 3d 6e a2 39 3d
       0.14599755 -0.056261607 0.04541843 0.04532092
000320 fb ea 88 bd 73 24 ae bd b6 48 11 bd 97 ee eb bd
       -0.06685444 -0.08503046 -0.035469733 -0.11520117
000330 bd e5 78 3d e8 cf 01 3e 16 d8 52 bd 58 b1 dc bd
       0.06076597 0.12676966 -0.051475607 -0.10776013
000340 ec 9c 02 3e 8a 45 b4 bd 69 4f 00 3e 8a 38 b1 bc
       0.12755173 -0.08802326 0.12530293 -0.021633405
000350 da d0 00 bd 9e 5f 51 3c e1 f6 8d 3d 5b ae 66 3d
       -0.031449176 0.012779145 0.06931854 0.056318622
000360 ee 16 0c 3d 1d 52 01 be 09 85 2b bd 86 7f d2 3d
       0.034201555 -0.1262898 -0.04187492 0.102782294
000370 a1 e3 a6 3d 57 c1 8d bc 2b 57 4b 3d 54 cc ba bc
       0.081488855 -0.017304106 0.049643677 -0.02280251
000380 cb 27 c5 3d 13 c6 a1 bc 7e 9f cc 3d ac 8c 7f bc
       0.096267305 -0.01974777 0.09991358 -0.015597504
000390 73 a8 82 bd 5e 5b da 3d 54 a1 83 3d a8 fb a9 bd
       -0.063797854 0.10661958 0.06427255 -0.08299953
0003a0 ce 62 8a bc 6d 39 1a bd e9 f2 1b bc 37 fd a0 bc
       -0.016892817 -0.03765242 -0.0095183635 -0.019651992
0003b0 79 8d 81 bd 88 6f 70 3d 3d 08 9f bd e0 b0 d0 bc
       -0.06325812 0.058700114 -0.07765243 -0.025474966
0003c0 61 e2 b9 bc c1 cf 36 3d e4 08 9c 3d fd 4c 3c be
       -0.022690954 0.044631723 0.07618883 -0.18388744
0003d0 bc d7 1e bd da 1b a9 bd 78 71 d9 bd 95 78 19 be
       -0.03877996 -0.082572654 -0.106173456 -0.14987405
0003e0 fd fa 07 bd c2 26 92 bd ee ba 0f 3e b3 1f a8 bc
       -0.033198345 -0.07136299 0.14036152 -0.020522928
0003f0 1f 67 de 3d 61 93 00 be 94 19 68 bd e6 62 60 3d
       0.108595125 -0.1255622 -0.05666502 0.054781817

lstm.weight_hh_l1 f4 [256, 64]
000000 3a ca 0f be 8e 67 16 bd b0 38 94 3c 82 47 f2 bd
       -0.14041987 -0.03671985 0.018093437 -0.11830045
000010 56 27 1b 3d be 66 93 bd dd 77 b7 3c 33 b5 a9 bd
       0.03787931 -0.07197331 0.022396022 -0.08286514
000020 94 1b d6 bd b7 12 a5 bd 06 6d db bd 59 06 a8 3c
       -0.10454479 -0.0806021 -0.10714154 0.02051084
000030 0e 9d b2 bd c8 23 f7 3c 07 e4 8e bc 43 b3 fb 3d
       -0.08721362 0.030168429 -0.017442716 0.12290051
000040 4a 02 de bd ad db 59 bd 7f a2 40 3d 99 f8 b3 bd
       -0.1084028 -0.053188015 0.04702997 -0.087876506
000050 07 15 c0 bd 04 01 03 3e 1e 58 9b bd 59 c3 59 bd
       -0.09379011 0.12793356 -0.075851664 -0.053164814
000060 f4 fa 02 3d 4e 05 ed bd 5e c0 c4 bd e5 52 28 bc
       0.03197761 -0.115732774 -0.09607004 -0.01027367
000070 33 56 53 bd fb a8 ef 3d c9 c9 0c bd 8f 0a 4e 3d
       -0.051595878 0.11702152 -0.034372125 0.05030304
000080 90 04 ff bd 42 e4 bd bd b0 8a fe bc 82 44 47 3d
       -0.12452042 -0.09272052 -0.03107199 0.04864932
000090 f3 f5 9e 3d a2 16 85 3c 00 c2 ea bd 89 af 77 3d
       0.07761755 0.016246144 -0.11462784 0.060470138
0000a0 f8 5f c1 3d 66 30 5e 3d 0c bd c1 bd db 8f b4 bc
       0.09442133 0.054245375 -0.09459886 -0.022041252
0000b0 64 c7 3c bd e5 92 bc bd d9 ff 3e bd cb 0a 56 3d
       -0.04608859 -0.092077054 -0.046630714 0.052256387
0000c0 c9 6c 04 3e f4 48 e6 3d 0f 54 1e 3c c1 40 12 bd
       0.12932123 0.112443835 0.009663596 -0.035706285
0000d0 94 01 df bd c6 ad 8d bd a3 60 52 3e 4d 79 a4 3d
       -0.10888973 -0.0691791 0.20544676 0.08030949
0000e0 e6 8d 5d bc 9b 4a e8 bc 70 41 09 3d 60 0f 0a be
       -0.013522601 -0.028355887 0.03350967 -0.13482428
0000f0 70 ce bf 3d 02 79 e3 3d be c9 05 be a7 46 f3 bd
       0.09365547 0.11107065 -0.1306524 -0.1187871
000100 32 48 91 bc c1 d1 85 bc 48 08 e9 bd 3c 85 fb 3d
       -0.01773462 -0.01633537 -0.11378533 0.12281272
000110 6a c1 00 bc a2 12 1f be 5c 3f f6 bc 98 75 7f 3d
       -0.0078586135 -0.15534452 -0.030059509 0.062368006
000120 70 72 6a 3d 0c e8 c5 3c 11 14 91 bd f1 3f a7 bb
       0.057238042 0.0241585 -0.070839055 -0.005104058
000130 af a1 8a bc 92 b2 90 bd b0 58 c1 bd c1 d4 2a 3e
       -0.0169228 -0.070653096 -0.09440744 0.16682722
000140 48 4c 20 3d 44 76 d0 3c ed 85 72 bd d9 4f 9f 3d
       0.039135247 0.025447018 -0.059209753 0.077789016
000150 83 88 cc bd c1 cc 0a 3d 70 4e d6 3d 83 61 df 3d
       -0.09986975 0.033886675 0.104641795 0.10907271
000160 ee aa a5 bd 28 05 15 3d d7 52 08 3e 14 e8 d8 3d
       -0.08089243 0.03638187 0.13312851 0.105911404
000170 35 70 a9 3c a1 86 07 be 77 85 92 3d 3b 02 c3 bd
       0.020683387 -0.1323495 0.07154363 -0.0952191
000180 58 4e ce bd f9 cc e1 bc 43 34 09 3e c8 6a 88 bd
       -0.10073537 -0.027563559 0.13398843 -0.06660992
000190 06 9b be bc 09 be 98 bd c8 6b ce bd 71 1b 8d bd
       -0.02326728 -0.07458121 -0.100791514 -0.0689
0001a0 28 4c 9d 3c d5 f5 16 be 6f 3b da 3d e5 1e eb 3d
       0.019201353 -0.14742215 0.10655867 0.11480502
0001b0 c7 4b 10 be 24 a2 12 3d 11 ca d9 3d b7 f0 89 bd
       -0.14091407 0.03579916 0.10634244 -0.06735366
0001c0 2c 57 ef bd 0d 4e b9 3d 4b bc a0 3d a0 69 6d bc
       -0.116865486 0.0904809 0.07848414 -0.014490515
0001d0 52 7e f8 bc 29 4a 87 bd 1e 78 a9 3d c0 3b 84 bc
       -0.030333672 -0.06605942 0.08274864 -0.016141772
0001e0 5c 8d 40 bd 1f 85 80 3d c0 6f e5 bd 54 1c 73 bd
       -0.04700981 0.06275391 -0.11202955 -0.059353188
0001f0 23 d1 9f bd bb 05 ab 3c 38 50 df 3d 7f be b6 bc
       -0.078035615 0.020876756 0.109039724 -0.022307632
000200 ee 33 08 be 7b d4 0d be db 37 de 3c c9 7d 0e 3c
       -0.1330106 -0.13850586 0.027126243 0.008696982
000210 0e 3f 10 be f5 32 0b be 15 5d ff 3d d2 03 e5 bd
       -0.14086553 -0.13593657 0.12468926 -0.11182369
000220 47 16 9c bb 84 ef 22 3e 6d e9 3d 3d b9 da 74 3d
       -0.004763398 0.1591168 0.04636519 0.059778903
000230 e1 5a 85 3d d6 20 12 be 63 3e f1 3d 81 83 8f bd
       0.065114744 -0.14270338 0.117794774 -0.07007504
000240 42 0a 3f 3b be f1 13 3d 27 db 65 3c 0d 40 06 3e
       0.0029150401 0.036119215 0.014029301 0.13110371
000250 6c 55 cd 3a 22 d6 9f bc 46 dc bd bd da fe be 3d
       0.0015665716 -0.019511286 -0.092705294 0.09325953
000260 03 d0 bd 3d c8 5d c4 3d 72 7e 99 3d 79 d2 d8 bc
       0.09268191 0.095882 0.07494821 -0.026467549
000270 5b cb ba bd 82 36 ac bd a4 18 92 bd ec 09 47 bd
       -0.09120818 -0.08408834 -0.07133606 -0.048593447
000280 0c e3 ca bc 6f 76 b8 3c 90 e5 88 bd e8 83 56 bd
       -0.024766468 0.022517411 -0.066844106 -0.05237189
000290 ae e8 33 3d 6d 9d c0 bd 11 2c 75 bc 0a c3 dc 3d
       0.043923073 -0.094050266 -0.0149641195 0.10779388
0002a0 5c 74 b7 bd c6 1f 01 bc b1 5d be 3d 49 f3 c4 3d
       -0.08957741 -0.0078811105 0.09295214 0.096167155
0002b0 3f 45 34 3c 60 8c 20 bd 96 0e 17 bd bd db da 3d
       0.011002838 -0.039196372 -0.036879145 0.10686443
0002c0 a5 d1 0e be 65 89 26 3e 83 05 5d 3d e4 c1 c7 3d
       -0.1394716 0.1626335 0.053960335 0.097537786
0002d0 56 ad 0b 3e cc a9 13 be cf e7 f9 3c 07 a5 fc bd
       0.13640341 -0.14420241 0.030506043 -0.12336164
0002e0 58 43 fa 3d 4d a6 1a 3c da 79 93 3d a9 0e 8c bd
       0.12219876 0.009439063 0.07200976 -0.06838734
0002f0 a3 70 da bd 6b c2 b2 3d da 08 49 bc 99 d1 3d 3d
       -0.10666015 0.087284885 -0.012270177 0.046342466
000300 47 b1 32 3d c5 8a 94 3c 13 3a 2a 3d bc f9 26 3d
       0.043626096 0.018132577 0.04155929 0.04076551
000310 1f 23 24 bd 45 b3 c0 bc 1c 8a 08 3e b3 d7 a8 bd
       -0.040072557 -0.023522982 0.13333935 -0.08244266
000320 4f b5 00 3e ec 33 3b 3c 97 d7 70 bd bd 47 44 bd
       0.12569164 0.011425953 -0.058799352 -0.047919977
000330 31 ca b9 bd 22 fd a1 3d a0 aa a6 bd d9 c5 06 bd
       -0.09071768 0.079096094 -0.08138013 -0.032903526
000340 53 91 ad 3d 16 32 dc 3c c7 d1 1a be d1 57 1c bd
       0.08474984 0.026879352 -0.15119086 -0.038169686
000350 02 48 36 3e b4 e9 f9 3c 90 c0 36 3d a1 4b 38 bd
       0.17800906 0.030506946 0.044617236 -0.044994
000360 22 27 a9 3d 35 6d 9e 3d 50 31 2a 3e 85 a4 08 3e
       0.08259417 0.07735673 0.16620374 0.13344009
000370 8e 7f 9c 3d 98 75 e6 bc 94 33 81 bc 46 26 01 3e
       0.076415166 -0.028132245 -0.015771665 0.12612256
000380 5c 5e af bc 60 d1 9e 3c c2 99 ab 3d ba 03 3b 3d
       -0.021407299 0.019386947 0.08378936 0.04565785
000390 72 bd 0f bd bb 41 b1 bc cc 8d 87 bd aa f1 5b 3d
       -0.03509278 -0.021637788 -0.066188425 0.053697266
0003a0 0c 8b 97 bd 7d 6b 05 bd dc 39 02 3d 97 14 e4 bd
       -0.07399568 -0.032573212 0.03179346 -0.1113674
0003b0 e5 36 79 ba 2f 79 c3 bc f5 82 d5 3c 35 a5 97 3d
       -0.0009506776 -0.023861496 0.026063422 0.074045576
0003c0 db f3 f9 bd 51 81 fa bc 5c b8 1c 3c e1 71 10 3e
       -0.12204715 -0.030579241 0.009565439 0.14105941
0003d0 07 14 11 3e d2 5e 65 3d 94 92 08 3d 55 e8 63 bd
       0.14167796 0.05599863 0.033342913 -0.05564149
0003e0 72 df 05 bd ce 51 46 3d 80 a8 fc bc c6 55 c3 3d
       -0.032683797 0.04841786 -0.030842066 0.09537844
0003f0 68 1e 4d bd da d5 c9 bd b0 7e 0e 3d 16 f4 0e 3e
       -0.050077826 -0.09855242 0.034788787 0.13960299

lstm.bias_ih_l1 f4 [256]
000000 73 11 91 3d eb a4 fc 3d 14 ec 3d 3d 25 e5 b9 3d
       0.07083406 0.12336143 0.04636772 0.09076909
000010 b1 53 7b bd 7f fd f8 3d 4f 41 96 3c 2d 59 92 bd
       -0.06135911 0.121577255 0.018341688 -0.07145915
000020 77 e4 0b 3e 1a 8b ba 3c 65 77 f6 3d ca 52 e2 3c
       0.13661371 0.022771407 0.120344914 0.027627368
000030 c5 c3 3a bd 49 87 e9 3d 53 b3 39 bc d4 81 b6 3c
       -0.045596857 0.11402757 -0.011334258 0.022278704
000040 69 04 01 3e b6 4b 9c 3d 4a 3f d5 3d 4c 13 b5 3e
       0.12599339 0.07631628 0.10412462 0.35366285
000050 4b ee a7 3d 96 bd 18 3e fa d6 80 3d 6d 24 c8 3c
       0.08199748 0.14916071 0.062910035 0.024431432
000060 08 73 28 bd 46 35 80 3e fe ba 41 3e c2 3c 30 ba
       -0.041125327 0.25040644 0.18918988 -0.0006722921
000070 a6 c2 c8 3c 64 65 b4 bd aa 09 9c 3d f8 62 3c 3b
       0.024506878 -0.08808401 0.07619031 0.0028745513
000080 87 0d 28 bb 60 d6 a2 bb 60 fc d2 3d a0 b7 91 bd
       -0.0025642829 -0.004969403 0.10302043 -0.07115102
000090 59 b6 b4 3e 7f 59 45 3d e3 0c f4 bd b0 fa d5 bc
       0.3529537 0.048181053 -0.119165204 -0.026120514
0000a0 6a ee f7 3d b1 01 a8 3d 05 f4 0c 3e 2e 02 4d 3d
       0.12106021 0.082034476 0.13764961 0.050050907
0000b0 c8 4c 4b 3d a0 1a 1c 3e 41 0b 0c bc af 97 34 3e
       0.04963377 0.15244532 -0.008547605 0.17635988
0000c0 21 19 4d 3d e9 73 81 bd 14 ca 9b 3c b4 92 fa 3d
       0.050072793 -0.06320936 0.019017257 0.12235013
0000d0 e1 3c f5 3d 25 54 82 3c 19 0a e1 3c d7 80 38 3d
       0.11974502 0.015909264 0.027470635 0.045044746
0000e0 85 96 b2 3d bc 92 ab bd db c9 cc bd 9c ad 91 bd
       0.087201156 -0.08377597 -0.099994384 -0.071131915
0000f0 77 e0 ff bb 24 af 10 3d c7 7f 98 3c 37 77 a4 bd
       -0.0078087407 0.035323277 0.018615616 -0.08030551
000100 57 4d d3 bd 85 8b 52 3d b4 0c 2d bc 59 b2 9e 3b
       -0.10317486 0.051402587 -0.010562111 0.004843038
000110 b1 c3 f6 3d eb f2 86 bd cc 54 b7 3b 85 13 b0 bd
       0.12049044 -0.06589302 0.0055948254 -0.08597473
000120 15 cb 55 bc 15 9a 67 3d ac 51 ce 3d 64 c8 6c bd
       -0.013048907 0.05654343 0.100741714 -0.057808295
000130 f4 eb 51 bd 1f de db bd de 65 b9 bd 90 3c d8 bb
       -0.051250413 -0.107357256 -0.09052633 -0.0065990165
000140 33 b0 c8 bc 52 a9 95 bd 3d 3b 2a 3d f0 5d 98 bd
       -0.02449808 -0.07307686 0.0415604 -0.07439792
000150 2b 7f fb bc 30 9b 7e 3d 09 7f 06 bd 5c 0f 7b bd
       -0.030700287 0.062159717 -0.032835994 -0.061293945
000160 07 6f 8c bd cf 6a 4f 3d 37 20 98 3c c4 7a dc bd
       -0.06857114 0.05063897 0.018570049 -0.10765603
000170 c6 c8 0c bd 8c fa d0 bd d9 ae 98 3d 2d f1 fa 3d
       -0.03437116 -0.10204038 0.074552245 0.12253032
000180 4c 76 75 bd a6 b1 59 bd 05 9b e4 3c 9e 7f b1 3d
       -0.05992727 -0.053147934 0.02790595 0.08666919
000190 3d 75 2b 3c 22 62 00 3b 6b 7d 12 3c 32 c8 53 3d
       0.0104649635 0.0019589742 0.008941035 0.051704593
0001a0 a3 37 9e bd 2a b8 b4 3c ef 91 e2 3d a3 03 6f 3d
       -0.077254556 0.022060473 0.11062991 0.058353078
0001b0 a5 88 f8 3d 7c 22 b3 bd 16 a4 9f 3c 9d 2c d5 bd
       0.12135438 -0.08746812 0.019487422 -0.104089
0001c0 cb 51 64 3d 00 92 23 3d d1 73 48 3d c0 70 cd bc
       0.055742066 0.03993416 0.048938576 -0.025078177
0001d0 56 71 b3 bd d0 8d 49 bd c2 d1 82 3b 02 36 ac bd
       -0.087618515 -0.04920751 0.0039922902 -0.08408739
0001e0 39 df 19 3d bd 2b 64 3c 62 69 10 3d ef 17 9a 3c
       0.037566397 0.013926444 0.03525675 0.01881024
0001f0 1b 54 aa bd c7 aa 08 3d 0b 88 8b bd 28 8d ae bc
       -0.08316823 0.03336599 -0.068130575 -0.021307543
000200 19 3f 5c 3a b1 0b ba 3d 00 3b d6 bd 3d 47 06 be
       0.0008401736 0.09084261 -0.10460472 -0.13113113
000210 93 d0 d0 bd 0e 7e 98 bd 6b 9d fa bc 7b 53 81 3b
       -0.101960324 -0.07445918 -0.03059264 0.003946719
000220 f7 37 bd bd 73 83 31 bd a9 f6 0a 3d cf e4 dd bc
       -0.0923919 -0.04333825 0.03392664 -0.027086644
000230 23 fa ad bd 90 08 9e bd 6e 60 ae 3c de c4 71 bd
       -0.084949754 -0.07716477 0.021286216 -0.059025638
000240 dd bc 9b bd ed 92 f7 3d 8f ff a8 3d 21 10 0b bd
       -0.07604382 0.12088571 0.08251869 -0.03395093
000250 09 2f b9 bc 97 48 9d 3d d3 5e bf bd 38 13 e5 bd
       -0.022605436 0.07679861 -0.09344258 -0.11185306
000260 b8 a3 93 3d 70 33 6a bb d8 a7 a1 bd 74 54 ae bd
       0.07208961 -0.0035736226 -0.07893342 -0.08512202
000270 a4 85 07 3a 73 d1 a1 bd 37 28 54 bd 32 3a 9a 3c
       0.00051697553 -0.079012774 -0.051796164 0.018826578
000280 6d 81 7c bd 57 9f 8f bd 49 14 88 bb be 1a 13 bd
       -0.061646868 -0.070128135 -0.004152809 -0.035914175
000290 9b db 98 bd 51 ed 41 bd 9c 9b 3b 3d 3a cf 00 3e
       -0.074637614 -0.047345463 0.045802698 0.1257905
0002a0 59 75 cb bc c5 81 43 bd 38 b7 de bd 11 23 01 bd
       -0.02483623 -0.04773118 -0.1087479 -0.031527583
0002b0 c8 bf d2 3d f8 09 1e 3d 18 51 8c 3d 8c ef 49 bc
       0.102904856 0.038583726 0.06851405 -0.012325179
0002c0 3d 2c 7a bd 2b f5 4c 3d 39 19 31 bd 11 47 57 bc
       -0.061077345 0.050038498 -0.043236945 -0.013139502
0002d0 51 9d 88 bd e5 4d 4f bd c9 1c db 3b c3 4a 83 bd
       -0.06670631 -0.050611395 0.006686781 -0.06410744
0002e0 65 01 25 bd 9e 59 85 3a 8f 33 9f 3d 7f 35 e0 bc
       -0.040284533 0.0010173803 0.07773506 -0.027369259
0002f0 37 d8 a3 bd c7 55 f3 3c 74 f3 9b 3b 16 43 6f 3d
       -0.08000224 0.029703988 0.0047592465 0.058413588
000300 0d 0c 0f bd 1d bc 48 bd 3e cb d4 bd 29 6d d1 bd
       -0.034923602 -0.049007524 -0.10390328 -0.10225899
000310 41 37 59 3d 94 28 11 3e 1a bb 07 bd 8c af 17 3c
       0.05303121 0.14175636 -0.03313742 0.009258162
000320 09 fa 94 3d 15 1f ba 3d 00 b4 f5 3c 5c 9a 8f 3c
       0.07274253 0.0908796 0.029993057 0.017529659
000330 7c 22 8a bd 64 74 1a bd e4 1b c1 3d b6 88 56 3b
       -0.067448586 -0.037708655 0.09429148 0.0032735295
000340 32 79 07 3d c4 69 cc bc c8 c7 ed bd 31 2c 4b 3e
       0.033074565 -0.024952777 -0.11610371 0.19841076
000350 a1 20 96 3d e0 21 08 3d 6e 31 04 3e 78 4e ac 3c
       0.07330442 0.03323543 0.12909481 0.02103351
000360 e9 b8 1a 3d e2 04 27 3d 4d 0a 72 3d 91 3f 44 3e
       0.037774 0.04077614 0.059091855 0.19164874
000370 a0 82 bc 3d 05 28 12 bc 5a a1 9c 3a 08 69 2f bd
       0.09204602 -0.008920674 0.0011949942 -0.042824775
000380 1d 5c d2 bd 47 e3 35 3c 4f 0c c8 3d 16 84 fb bd
       -0.102714755 0.01110155 0.09767973 -0.12281053
000390 4b 47 89 3d 9d 19 83 bd eb a4 69 bd 4b 17 44 bd
       0.06703051 -0.0640137 -0.057042044 -0.047873776
0003a0 a7 4f f5 3d 89 2c 21 3d a8 c8 bf bd 9f 71 16 3e
       0.11978083 0.039349113 -0.09364444 0.1469178
0003b0 b1 65 29 bd 19 ee aa bd 7f e4 10 3e 16 e9 a4 bc
       -0.041356746 -0.08346195 0.14149664 -0.020130675
0003c0 f0 6b 4d bd c7 82 5e bc 11 bc 11 3c 69 da d7 3d
       -0.050151765 -0.013580984 0.008894936 0.10539705
0003d0 eb 6a a2 bd 51 cb 22 bd ae 2f 8a bd 18 b9 49 3d
       -0.07930549 -0.03974468 -0.067473754 0.049248785
0003e0 20 a0 e8 3d 1a 7c 67 3d fb a8 a9 3d 35 a0 28 3c
       0.113586664 0.056514837 0.082841836 0.010292103
0003f0 33 2d 47 bd a9 50 64 bc 51 08 07 3e c3 e9 a2 3d
       -0.04862709 -0.0139352465 0.13186766 0.07954743
