checkpoints/lstm/sh-CEEMDAN-h64-l2-lr0.001-d0.3-ep200.pth (torch, 213428 bytes, 9 tensors)

lstm.weight_ih_l0 f4 [256, 10]
00000000: 8be7 b83d 47c5 c73d 9d8b 28bd 29f1 e03d
00000010: 384b 013d 25fd f33c 648e 86bd f621 fdbb
00000020: a1a4 0a3e 7e5d 28be 06a4 8e3d 8674 9fbc
00000030: 7c16 fe3d 1b6c a4bd b303 e93b 9576 0dbd
00000040: 300b c0bc e9e6 e9bc 1ff4 84be 3ec9 363d
00000050: 77f1 07bd a214 ee3b 3de7 efbc 449c 883d
00000060: ecc6 24bd ddee e3bd 22b8 66bd f15e 94bd
00000070: 6804 75bc 991e 41be 176b fc3d fe80 f1bd
00000080: 92ad 033e 40b6 b9bd bd70 6c3c f785 d63c
00000090: c7b0 61bd 917a b5bd 24a8 4f3d 218f 18be
000000a0: b635 133d 7ccf 0cbd 67e0 193e 0fac cb3d
000000b0: 5961 2f3d cc40 c3bd 341a 103e eae7 ed3d
000000c0: 4fbc 1a3c b554 3abd d192 27be e2e9 e53b
000000d0: 7244 b3bd 5a2c 2d3e caa6 c83b 289d fabb
000000e0: 58db 623d 0661 343d e445 83bd ab7f e4b9
000000f0: d6d2 613c bf27 b0bd c821 c83d d4cc d0bd
00000100: 70b5 b63d a9bf 963c 70b6 223e 5e11 2dbd
00000110: 8e9b c1bd a4b1 a8bd bf49 ba3d 2ff3 5d3d
00000120: 352a dc3d 9d38 babd eca4 5dbe 5cda 97bc
00000130: cb8c 10be f989 ce3d 248d 3ebd 9eea 243e
00000140: 2d8e 24bd d40b 30be f43e f63d 9574 adbc
00000150: 00bd aa3c 0dd1 fd3c 9950 593d b5cb 67bd
00000160: 5d95 c6bd 42db 0c3c 27a0 163b cea3 cbbc
00000170: 95ff 093e 1a54 6d3d 947f bbbd cde1 4ebd
00000180: 96d8 063e eb42 53bd 4b15 d0bd 8fc7 efbd
00000190: c6a7 ebbc dd4b 633d a5dd d43d 7df1 f3bd
000001a0: 182e dc3c b758 2ebd 36c6 a1bd 6a26 4abd
000001b0: 6866 19bd 4601 4cbe d518 223e 543d b63c
000001c0: 01a1 fabc ef28 43be e866 4cbd 3bb6 27bd
000001d0: 20e0 b53d af99 f1bd 53d4 a3bc 830b b9bd
000001e0: d76d 16bb 89eb 86bd c763 cf3d de78 d6bd
000001f0: fe1a cabc 545b 8abd 1367 76bd 4a57 f4bd
00000200: e3e4 67bb 8b78 69bd 360a 053d 76f0 6cbd
00000210: cbdb 20be 622f d93d 952a 3c3c e6c7 a8bd
00000220: 17a1 51be b412 9fbe c7d2 cc3d 2db9 3dbc
00000230: 953f 8b3d ddd6 b4bd 27e6 e43d b1bf 40be
00000240: d418 ee3c 1590 403c 0429 3cbd 1081 27bc
00000250: c55e bf3d cccb 09be 3338 473d 8e36 a9bd
00000260: cf99 623d 47a2 61bd af04 523e 56b0 3d3d
00000270: d145 0e3e 914d eabc ee69 5cb8 f551 c23c
00000280: 0683 193e 1a94 abbc 2c33 a4bc fe0d 2ebe
00000290: 9d56 1c3e 4483 333d 1036 89bd 506b c13d
000002a0: b429 ca3d 1cd1 2dbe ac3d 30bd bc6c 86bd
000002b0: fde2 9b3d 56fc 5c3a 2ca1 df3a 8092 9d3b
000002c0: e3a3 e5bd 4820 6dbd 91f9 4d3c e8dc afbd
000002d0: 5482 053d e723 eb3d 738c a53d 320b 273d
000002e0: 7b74 87bd 8cda af3c 99eb b63c 06a6 8cbd
000002f0: b361 c13c 0594 3ebe 4b69 f6bb ec1a 1a3b
00000300: 873a 533e 838e 063e b585 18bd 7a51 82bd
00000310: b971 a53d 8ad2 943c 07eb ec3b 14a0 893d
00000320: 1835 ddbd e2b2 18bd df75 f43d 0e1d ebbc
00000330: 038f 4e3d 9775 9abb b9bd 8bbb f2fd 04be
00000340: 0657 1f3d dfd5 053d c8b5 283e e77b 9bbb
00000350: 5734 04be ebe2 59bd 35fb b7bc 11d7 463e
00000360: 8263 16bb 094b 4bbe e8a9 b43d f06f 9fbb
00000370: d4f7 34bd 59aa d63d aa32 84bd e166 90bc
00000380: f57a cabd 5c98 7e3d 94b6 053e 9a11 f43d
00000390: 68fe acbd 1475 05be 91ba cbbd 20aa 483e
000003a0: 0cd4 f83d d69c 5b3d 1f95 dd3d 579b b63d
000003b0: 2536 b03d b4d5 efbd bee2 94be 386c 30be
000003c0: 9e26 4f3c 6fff ebbd 8992 973d 2b92 debb
000003d0: 476f 71bd 2e95 b93c 111e 9ebd bb50 8d3d
000003e0: fb6c 93bd 240a 063e e545 4cbc 0206 81bd
000003f0: 92b3 34bc ecbb 4cbd 53bb 75bd 90ff aabd
0.09028538 0.097544245 -0.04114877 0.10983498 0.031565875 0.029783795 -0.065701276 -0.0077249957
0.13539363 -0.16441914 0.06964879 -0.019464742 0.12406632 -0.08028432 0.0071110367 -0.034536917
-0.023442835 -0.02855249 -0.259675 0.044625513 -0.033189263 0.007265643 -0.029285068 0.0667043
-0.04022877 -0.11129544 -0.056327946 -0.07244671 -0.014954664 -0.18859328 0.12325113 -0.117921814
0.1285918 -0.090679646 0.014431176 0.026186926 -0.05510023 -0.08861268 0.05069746 -0.1489835
0.035939895 -0.03437756 0.15027009 0.09944927 0.042817447 -0.095338434 0.14072496 0.116165
0.00944431 -0.04549094 -0.163646 0.0070164064 -0.08753289 0.1691145 0.0061233984 -0.007648129
0.055384964 0.04403784 -0.06409815 -0.0004358267 0.013783177 -0.08601331 0.09772068 -0.10195318
0.08921325 0.018401938 0.15889907 -0.04225289 -0.09453498 -0.08237007 0.09096097 0.054186996
0.10750238 -0.090928294 -0.21644944 -0.018536739 -0.14116208 0.1008491 -0.04652132 0.16105124
-0.040174652 -0.17192012 0.12023726 -0.021173755 0.020842075 0.030983472 0.05305538 -0.056590755
-0.096964575 0.008597197 0.0022983642 -0.024858382 0.13476403 0.057941534 -0.09155193 -0.05050831
0.13168558 -0.05157749 -0.10160311 -0.11707985 -0.028766524 0.05549227 0.10393838 -0.119112946
0.026877448 -0.042565074 -0.07899134 -0.04935304 -0.037451178 -0.19922361 0.15829785 0.02224604
-0.03059435 -0.19058584 -0.049902827 -0.040945273 0.08880639 -0.11796891 -0.019998705 -0.09035399
-0.0022953653 -0.065878935 0.10126453 -0.10472272 -0.024671074 -0.06755701 -0.060156893 -0.119307116
-0.003538423 -0.056999724 0.03248044 -0.05784651 -0.15708844 0.10604741 0.011484762 -0.082412526
-0.20471607 -0.31068957 0.1000114 -0.011579794 0.06799237 -0.088300444 0.111767106 -0.18823124
0.029064573 0.011753102 -0.045937553 -0.010223642 0.09344248 -0.13456649 0.04863758 -0.082623586
0.055322465 -0.0550864 0.20509599 0.046310745 0.1389382 -0.02860144 -5.2550742e-05 0.02372072
0.14991388 -0.020944644 -0.020043932 -0.16997525 0.15267415 0.043826357 -0.06699765 0.09444296
0.098712355 -0.169743 -0.043027565 -0.06563708 0.07611654 0.0008429935 0.0017061583 0.004808724
-0.112128995 -0.057892114 0.012571708 -0.085870564 0.032594994 0.11481457 0.08083429 0.04078216
-0.06614014 0.021466516 0.022329139 -0.06867604 0.023606157 -0.18611152 -0.007519876 0.0023514582
0.20627795 0.13140301 -0.037236888 -0.06363197 0.080783315 0.0181668 0.007230166 0.067199856
-0.108011425 -0.03727997 0.119365446 -0.028700378 0.050429355 -0.004713725 -0.00426456 -0.12987497
0.03890135 0.032674666 0.16475594 -0.004744995 -0.12910591 -0.05319492 -0.022458652 0.19417979
-0.0022947495 -0.19852842 0.088214695 -0.004865639 -0.04418166 0.1048171 -0.06454976 -0.017627181
-0.098867334 0.06215702 0.1305793 0.1191742 -0.08446962 -0.13032943 -0.09947694 0.19596148
0.1214982 0.053616367 0.10819458 0.089163475 0.08604077 -0.117106825 -0.2907924 -0.17228782
0.012643484 -0.115233295 0.07400996 -0.006792327 -0.058944013 0.022654142 -0.077205785 0.06900164
-0.07198521 0.13089806 -0.012467836 -0.06299974 -0.011029141 -0.049983904 -0.0599931 -0.08349526

lstm.weight_hh_l0 f4 [256, 64]
00000000: 4383 4ebc 9718 133e 349d e23d a2de 153c
00000010: 2f9b c3bd a140 5f3c 3716 cdbc 8364 0a3e
00000020: d6d9 963d 793c 8dba 2e7e 2ebd 2222 b33d
00000030: 0a33 e73b ba4e 293e 7985 aa3d 9a7d 29be
00000040: fb0e 6cbd 464a 4bbd db71 b5bd c0b0 a03c
00000050: d967 3fbd 8ad7 14bc 1670 fe3d f874 8dbd
00000060: fdd0 97bd f63e cdbb 99b9 ca3c 6d84 b13c
00000070: fcf8 403e 260e 6bbd d73b 0bbe 87db 813b
00000080: 4bee d03d 05a0 913d 3494 a43d 07d8 acbb
00000090: 9dbb 793d 4924 be3d d03b 783d 2bcc af3c
000000a0: 7039 a7bd 9f11 bdbd 2049 133d 3f5a fc3d
000000b0: cd98 02be f363 d23d d4bf f0bc 5429 073c
000000c0: dfe5 43bc 78c0 3bbc 69b7 033e b8b3 633c
000000d0: ab5f 153d 8214 bdbd e0bd cdbc 8a90 4e3c
000000e0: fd1d 9e3d d5fd aa3d 2508 d13c 2b32 f9bd
000000f0: 433e 1c3d ce41 e0bd 7a42 20be 3098 e33c
00000100: a459 86bd 8fa6 b63d 24be 2dbd 2c83 153d
00000110: 7ac9 f43d bbeb e8bd 9318 db3d 7a3f a1bd
00000120: 7fac 933d 19bf de3d 0a58 18bd 32ef 9fbd
00000130: 238d 153e a346 0e3e 8535 c8bb 65b5 db3d
00000140: e6fe c8bd a836 c23c 7bab 613d dc07 7e3d
00000150: 6928 d63b 5e55 ca3d bda1 1dbe abfc c9bd
00000160: 9901 bc3d 4280 0bbd 3c4d 1fbc 14de 083e
00000170: 28b2 0d3e 7d49 38be c386 acbd 3d25 9fbd
00000180: b3f9 673d a384 88bd ffce 88bc d47b e0bc
00000190: ada9 00be e259 8abd 7309 04be 0faa 78bd
000001a0: 623e 943d 435d 9cbd 9e53 6fbd a7f6 953d
000001b0: 6dc0 b1bd 2ed4 dfbc a0fb 87bd 3dfb b63c
000001c0: c7b9 89bd bb79 9ebd fcd9 dbbd abb0 17bd
000001d0: 0f17 14bb 85df c0bd f822 b63d a1c4 23be
000001e0: 67b9 d03d 5d35 b6bd 5f9e 7c3b 5178 d23c
000001f0: 8a87 e7bc e44b a23d fb2c f2bd 7594 853c
00000200: 53ab b1bd ca9e 7f3d 1233 b63d f8c5 1f3e
00000210: 07c4 84bc b64d 83bd 3d61 d23d 2d8f 07bd
00000220: 4178 e63d 96ce 83bd 68d7 84bd d3e2 c7bd
00000230: 8994 c73d 4314 f63d de4b 98bd 14b2 9d3a
00000240: 320e cebd 528c 613d 1794 6e3b 9180 7dbd
00000250: 6efe 383d 6799 76bd 3ebc 093d 546b ecbd
00000260: 10c2 ff3c 7f50 023e 41a8 393e c9fb 5f3d
00000270: f605 393e 9afe 8e3d 5355 42bc 9555 523d
00000280: b23d c43c 6a16 073e 4fce c53d 0358 41bd
00000290: 662e 9fbc 7bcc b8bd 936c 1d3d 20ab 08be
000002a0: bbfb 853d 8d16 34bd 2baf b53c 4ca4 973d
000002b0: beb4 04be c43b 933d c7c7 003d 981b b7bd
000002c0: b001 ce3d 0c28 c63d 44a2 ca3d 0447 60bc
000002d0: 3ca4 d83c 4653 b1bd 24f2 86bd 9af7 d43d
000002e0: 3a63 3e3d 748f 2b3d 972b 1bbe d30a 403e
000002f0: 171b 81bd 5a54 da3d fb02 9a3d 8aed e33c
00000300: 6d6f dd3d 9222 d33d 0870 e63c 151d 18bd
00000310: 445c 9b3d 0240 4f3b 39b7 183d 24f0 0b3c
00000320: 5df9 ee3d 8b4a 133e 3bf9 20be d7fb 073e
00000330: 91ce e2bd 38c5 c43b dcac a5bd af7e 45bc
00000340: 1230 0cbe 40c6 42bc a4f7 39be a8d5 7b3d
00000350: f02a 36be 6168 333a 66c5 763d daf3 eabc
00000360: a090 39bc 6463 f63c 4714 41bd de50 a2bd
00000370: 5eda bf3d cd9d b9bd 6986 61bc e547 debd
00000380: 4967 13bd ce3e aa3d 5f7b 07be 3059 783d
00000390: 7875 f0bd ede2 2cbd 58c0 aebd 3d48 c2bd
000003a0: 329c 3abc de61 26be f894 113d 64a9 b03c
000003b0: cd6c 47bc e017 703d a328 1b3d 0b95 103d
000003c0: cb55 e23c f4c1 e63d 2d22 dd3d 836c e2bd
000003d0: 5748 e0bc cc97 2abe dea2 34bd bfc0 f5bc
000003e0: 302e f03d dda5 ca3c bc16 02bc 3c18 81bd
000003f0: 3edb 88bd e467 b33c 31e1 a9bd 66f3 31bd
-0.012604537 0.14364849 0.1106514 0.009147318 -0.09551083 0.013626249 -0.025035007 0.13514905
0.07365768 -0.0010775469 -0.042600803 0.08746745 0.007055645 0.16533938 0.08326239 -0.1655182
-0.057631474 -0.04963138 -0.08859607 0.019615531 -0.046729896 -0.009084592 0.124237224 -0.06907076
-0.07412908 -0.006263609 0.024746703 0.02166959 0.1884498 -0.05738654 -0.13597046 0.0039629373
0.10201701 0.071105994 0.0803608 -0.005274776 0.060969938 0.092842646 0.060603917 0.02145966
-0.08165252 -0.092318766 0.03595841 0.123219006 -0.12753601 0.1027297 -0.029388346 0.0082495995
-0.011956661 -0.011459462 0.12862934 0.013897829 0.03646819 -0.09232427 -0.025114954 0.012607703
0.077205636 0.08349196 0.025516579 -0.12167772 0.038145315 -0.10950051 -0.15650359 0.02778253
-0.06560066 0.08918487 -0.04241766 0.03650205 0.11952491 -0.11373087 0.106980465 -0.07873435
0.072106354 0.10876293 -0.037193336 -0.07809295 0.1460462 0.13894133 -0.0061098957 0.10727958
-0.09814243 0.023707703 0.055095177 0.062019214 0.006535579 0.09879564 -0.1539373 -0.09862646
0.09179992 -0.034057863 -0.009723004 0.13365966 0.13837492 -0.17996784 -0.08424141 -0.077707745
0.056634616 -0.066659234 -0.016700266 -0.027402796 -0.12564726 -0.06755425 -0.1289423 -0.060709056
0.07238461 -0.07634976 -0.058429353 0.07322436 -0.086792804 -0.027322855 -0.066397905 0.022336597
-0.06724887 -0.07738062 -0.107349366 -0.037033718 -0.0022596752 -0.09417633 0.088933885 -0.15992977
0.10191613 -0.08896897 0.0038546545 0.025692137 -0.028262872 0.07924631 -0.118249856 0.016306141
-0.086752556 0.062407292 0.0889646 0.15602863 -0.016206754 -0.064113066 0.10272453 -0.033095527
0.11253405 -0.064358875 -0.06486398 -0.0976006 0.09745128 0.12015583 -0.074363455 0.0012031221
-0.10061301 0.05506546 0.0036404186 -0.06189019 0.045164518 -0.06020489 0.033626787 -0.11543909
0.031220466 0.1272602 0.1813059 0.05468348 0.1806868 0.06982155 -0.011861163 0.05135115
0.0239552 0.13192144 0.09658491 -0.047203075 -0.019431304 -0.090233766 0.038433623 -0.13346529
0.065421544 -0.04396682 0.022178253 0.07404384 -0.12959573 0.07189134 0.031440523 -0.0894081
0.100589156 0.09675607 0.09894231 -0.013688806 0.0264455 -0.08658461 -0.065891534 0.10398789
0.04648135 0.041884854 -0.15153347 0.18754129 -0.06303995 0.1066062 0.075201 0.027823228
0.108122684 0.10309328 0.028129593 -0.03713711 0.07585958 0.0031623845 0.03728411 0.008541141
0.11668656 0.14383905 -0.15720074 0.13279663 -0.11074556 0.0060049556 -0.08089611 -0.0120541295
-0.13690212 -0.011888087 -0.18160874 0.061483055 -0.17789817 0.0006843862 0.060246848 -0.02868073
-0.011325985 0.03007669 -0.04713848 -0.079255804 0.09367822 -0.09063301 -0.013764956 -0.108535565
-0.035987172 0.0831276 -0.13230656 0.06063193 -0.117411554 -0.0422086 -0.085327804 -0.094864346
-0.011389779 -0.16248271 0.03554246 0.021565147 -0.012171936 0.05861652 0.03788055 0.03529839
0.0276288 0.112674624 0.10797534 -0.11055853 -0.027378244 -0.16659468 -0.044100635 -0.029999135
0.117275596 0.024737293 -0.007939991 -0.063034505 -0.06682442 0.021900125 -0.08294905 -0.043445013

lstm.bias_ih_l0 f4 [256]
00000000: b81e d73b b2a9 f4bc e866 123e c39c 2f3e
00000010: 20db f8bd 042f 0ebe 0ab5 ae3d 8204 99bc
00000020: c559 263d faec 513d cb42 cfbc 7359 ed3d
00000030: a20a 7e3e adfc 3c3d 0111 cebb 050f 243d
00000040: e474 6e3d cbe8 283e f6df 0bbc a326 a1bc
00000050: d06e 84bd 85ba 463e 235c 113e f715 6f3d
00000060: 628e f23d 2f56 123d 2442 3f3d fdb9 bbbd
00000070: ff92 273d dc59 ea3d 15fe bf3d 2363 3f3d
00000080: 5733 603d 45f4 fd3d e3a2 293d 4587 5dbd
00000090: 02c0 37bc 16a8 7b3d b36b 79bd 6b2f f53d
000000a0: b82d 1ebd 3c1f 123e e845 b53d 3e0a 1d3e
000000b0: ea8b 6c3d e4d4 cfbc 838d a53d 0462 b93d
000000c0: 0923 8b3e 13d1 8e3d 71c8 89bc 7724 543e
000000d0: 3aaf 253e 89df 753e 66f5 f93d c228 2dba
000000e0: b3ea 86bc 5e1f 9c3b c861 2bbd e607 d9bc
000000f0: 7838 0c3d c512 1e3e c6c6 203e 25e7 c23d
00000100: 5438 f23c 53c5 17be d61f 37bc d2e8 473d
00000110: df4e 093d 550c 45bb ec0a c13d bb83 b8bd
00000120: 5c4d f3bc 72e7 55bd 471f a0bd e193 ac3c
00000130: 5a95 e0bd 9fd2 39bd 0921 efbd 2bde 94bd
00000140: c0de 8fbd 130b 17be 7b81 5d3d b17f 69bc
00000150: 468a b33c 5fa3 a23c a603 06bd 9098 c8bd
00000160: 1538 2fbe 2c9e 8fbd d7b0 51bd 5e49 dc3d
00000170: 7288 853d ad70 b63d c474 e0bd 5c33 1bbe
00000180: c257 23bd 2fbf 05be baec 13be 7a78 f8bd
00000190: de55 afbd 7548 10be bded a93d 04be 9c3d
000001a0: c265 19be 13a7 73be eccf f53d b5a8 723d
000001b0: e16c dcbd 5099 17bd 2757 f3bd 6341 28be
000001c0: e15b 71be b8bf 05bd b5ab 113e d700 96bd
000001d0: aa66 2bbe e83f 28bd c8d7 be3d ef9e 743d
000001e0: f39b 8e3d 3496 5cbd bd76 c6bd 1d16 193d
000001f0: 14b0 10be 8b4a 88bd 5f7d db3c b75b 36bd
00000200: a3a7 8fbc 13be f63c 47b0 36bd c6ae 47bd
00000210: 2e67 273d 1c57 81bd 4314 683d 0a60 433d
00000220: b327 6b3d abf7 b03d 34b4 a4bb a03f e7bc
00000230: 1cbe abbd 1e68 13bc 13c0 c4bd de2c 9a3d
00000240: 31d0 763c d4d5 2cbd d6f2 85bb 73b7 973d
00000250: 5504 9cbd 744d aabc 63a5 ad3c ef44 3dbd
00000260: 20b3 46bc cfa1 3f3d 5911 ccbc df4c c3bd
00000270: 6832 a93d dfd7 d5bd b991 8fbc dd2d 033d
00000280: 0985 9d3d bbf8 32bd b079 4ebd ba10 9e3d
00000290: c382 35bd 2f86 a13c c7e1 af3c 48ac 75bb
000002a0: db4a e4bc 38dc cfbb 3b55 23bd 43d9 8d3d
000002b0: 6380 d6bb c74f 25bd c77d 9cbd 6b2c 943d
000002c0: 3f11 24bd 06c3 9b3d 7f5a 87bc cf59 b5bd
000002d0: 408a 2a3d 71e1 023e 1b76 a53d 636d 85bd
000002e0: 38dd 08be e6fb db3d 52a3 92bd 206d 443d
000002f0: 3ed3 e13d 0434 c6bc b880 c2bd 5536 6d3d
00000300: f1f1 73bd 119c 1abc 98db 85bd 1d8f 063e
00000310: caaa d73d 3d55 c2bd 9236 7abd fef9 053e
00000320: 1396 933d 6c0c 1d3e d54a a0bd 91cd 0c3e
00000330: 2620 243e 4bc0 00bd 190f 1b3d 5d54 893d
00000340: 2e2a c53d e8d7 543d 1661 99bd 7bf2 0d3e
00000350: ec0e febd ce51 e4bc 3402 843d e9df ea3d
00000360: 77b6 aa3d 8949 483e 1ad6 4dbd e03d c6bc
00000370: e9b4 473e 6111 fb3d d39b 60bc 3566 4fbd
00000380: 13f9 203d 8c41 1b3e 28f1 743e d897 d73c
00000390: a5af 2ebd cd44 5e3d 7a06 0abd d81c 883b
000003a0: 1bd2 c3bd b8cc 1e3e 8730 18bc d901 093e
000003b0: 4828 4a3d d1b9 bbbd 99b0 443d 176d ac3d
000003c0: bf2a 9e3d 8f7f a6bd d902 9c3c c2b9 f23c
000003d0: 2b25 223d c32c 8c3d ec5b fbbd 6aac acbd
000003e0: c58c 9e3c 68ba 223d 5724 803d 6f30 b8bd
000003f0: e49e f83d 21e2 223e e067 69bd 5d53 0e3e
0.0065649413 -0.029866073 0.14297068 0.17149644 -0.1215117 -0.13885123 0.08530624 -0.018678907
0.040612955 0.05125139 -0.025300404 0.11589327 0.24808744 0.046139408 -0.006288648 0.040053386
0.058216944 0.16495053 -0.008537283 -0.019671744 -0.06466448 0.19407089 0.14195304 0.058370557
0.118435636 0.035726722 0.046693936 -0.09166334 0.04091167 0.114429206 0.09374634 0.046725404
0.05473646 0.12400106 0.041415107 -0.05408408 -0.011215212 0.061439596 -0.060893726 0.11971935
-0.03861782 0.14269727 0.08851224 0.15335938 0.05775062 -0.025370069 0.08083632 0.09051898
0.27175167 0.069734715 -0.01681921 0.20717035 0.16180125 0.24011053 0.12205009 -0.00066054997
-0.016469335 0.0047644814 -0.0418413 -0.026493024 0.03423354 0.15436848 0.15700826 0.095167436
0.029567875 -0.14821367 -0.011177024 0.04880602 0.033522483 -0.0030067165 0.09425911 -0.090095006
-0.029699974 -0.052222677 -0.07818466 0.021066608 -0.109659865 -0.04536688 -0.11676223 -0.07268938
-0.07024908 -0.14750318 0.05407856 -0.014251635 0.02191652 0.019853292 -0.032718323 -0.09794724
-0.17111237 -0.07012591 -0.05119404 0.10756181 0.065201655 0.0890821 -0.10959771 -0.15156311
-0.039878614 -0.13061212 -0.14445773 -0.12132354 -0.085613 -0.1409014 0.08297298 0.0765343
-0.14980224 -0.23794203 0.120025486 0.059242923 -0.107629545 -0.037011445 -0.11881857 -0.16431193
-0.23570205 -0.03265354 0.14225657 -0.07324379 -0.16738382 -0.04107657 0.09318501 0.059721883
0.06963339 -0.053854182 -0.09690616 0.037374604 -0.14129668 -0.06654843 0.02679318 -0.04452106
-0.01753599 0.030119931 -0.044601705 -0.04875066 0.040869884 -0.06315443 0.056659948 0.04769901
0.057410907 0.08640989 -0.0050263647 -0.028228581 -0.0838587 -0.008996991 -0.09606948 0.07528089
0.015064285 -0.04219611 -0.004087786 0.07408037 -0.07618014 -0.020788886 0.021197027 -0.04620832
-0.012127668 0.046785172 -0.024910616 -0.095361464 0.08261567 -0.10441565 -0.01752554 0.03202616
0.0769139 -0.04369424 -0.05040902 0.07718034 -0.044314157 0.019717304 0.021469964 -0.003748672
-0.027867725 -0.006343391 -0.039876204 0.06926205 -0.0065460666 -0.040359285 -0.076411776 0.072350346
-0.04005551 0.07605557 -0.016522644 -0.0885502 0.04163575 0.12781312 0.080791675 -0.065150045
-0.13365638 0.10741405 -0.07160057 0.047955632 0.110266194 -0.024194725 -0.094972074 0.057913143
-0.059556905 -0.009436623 -0.06536025 0.13140531 0.10530622 -0.09488914 -0.0610872 0.13083646
0.07206359 0.1533677 -0.07826773 0.13750292 0.16027889 -0.031433385 0.037856195 0.06705544
0.09627186 0.051963717 -0.07489221 0.1386203 -0.1240519 -0.027871039 0.06445733 0.11468489
0.08335584 0.19559301 -0.05025301 -0.024199426 0.19502605 0.12259174 -0.013709026 -0.05063458
0.039300036 0.15161723 0.23920119 0.026317522 -0.042647976 0.054264832 -0.033697583 0.004153829
-0.09561559 0.15507782 -0.009288914 0.13379611 0.04935482 -0.09166301 0.04801998 0.08419245
0.07722997 -0.081297986 0.019044327 0.029629592 0.039586227 0.06844475 -0.12273392 -0.08431323
0.019354234 0.039728552 0.06256931 -0.08993613 0.12139681 0.15906574 -0.05698383 0.13898988

lstm.bias_hh_l0 f4 [256]
00000000: 3b8f 213e 4d11 40bd 2288 af3d 2220 0e3e
00000010: 0da4 5f3d b6b9 84bd 6db9 d7bc 5447 2f3d
00000020: ec60 9fbc ce7b eb3d fed1 a2bd 92f7 eb3d
00000030: b82c 2b3e be42 a43d fa01 413d fbd8 843d
00000040: da57 963c d685 65bc 8c65 123d 5609 5d3e
00000050: 0bee b9bd b51a f33d acf4 95bd e6ab 4abc
00000060: a9bd 093e 75d6 a1bb 8166 663d 5bb3 ba3d
00000070: 5297 943d 488b de3d a513 cabc 71f0 8a3d
00000080: 00ec 55bd a5e5 bc3b 7bfa f23d 6338 32bd
00000090: 7e5c 053e 154c ae3d c4b6 ce3d 5afd a8bc
000000a0: 8402 31bd 6e54 153e c53d 58bd 2e07 383d
000000b0: 61ab aa3d b7d5 f23d 13d6 a33d 269a c8bb
000000c0: 398b 9b3e 7862 c6bd 27de 8bb9 5a1a d53d
000000d0: 426b a23d 7073 ac3d fc6b 4cbd 09e6 3f3d
000000e0: 0b3f 1abd 7d4e 923d 23af bd3c 63f1 e03d
000000f0: 1152 c13c 92e3 0f3e ae33 43bd a23f 05bc
00000100: d47d 13be fe60 a6bd d80f 0ebe aa46 ba3c
00000110: ecd7 87bd 4da9 ba3b 0ebc ca3d 934c e2bd
00000120: 377c 47bd fdb9 09be 70e7 c73d 0b76 a7bd
00000130: dd85 44be c516 593b 77d0 4ebd 2ac6 453c
00000140: b0f5 c33c 5b48 1abd 0f76 84bd bbf4 bb3d
00000150: 6c3d 81bd 6f9b 1e3b e6d3 a03d 0503 15be
00000160: 332b 01be b899 37bd cb14 02be 8ae4 ac3d
00000170: d13b 983b d6eb 88bc 5d15 413d 28a5 203c
00000180: 468e a33d 6501 3bbe 7034 f6bd d24e 20be
00000190: 1875 4abd 5b32 8d3d c90f 42bd 7fc2 68bd
000001a0: a3ff ae3c 836e eabd f814 ed3c 6207 963d
000001b0: 63aa fe3d 6c62 653d 54fd 1bbe 9932 51bd
000001c0: 79f9 40bd 0911 983d 163f a7bd 7f09 21bd
000001d0: c9ac e0bd 7f2e 2fbe b2b3 b9bd e16d c2bd
000001e0: b8ef 85bd 1ee1 873c 6858 b4bd 4fa5 453d
000001f0: 8fbb eabd 312a a43d dff4 33be 85e9 2abd
00000200: a479 78bd 4611 b7bd f416 323d e850 10bc
00000210: e9dc a4bd e048 27bc b4a1 f6bd 7fb2 a8bd
00000220: 5cd5 623d e6a1 903b 9dc4 65bd 1ab0 f13d
00000230: 2c9b 153d d2dc f03d fc24 793d fbbb 1c3c
00000240: 20d2 26bd d950 34bd 8cbd df3d 06c1 2d3c
00000250: 2962 ae3d c32d f43c e531 6aba 88ee 13be
00000260: 25ea 893d 6483 e3bc 2ae1 253d 67a5 1cbd
00000270: 4449 1c3e cb7a b53d 58fe e1bc ba00 a0ba
00000280: ec35 9cbd b56e 593d 68f8 86bd 3c2d 9ebd
00000290: 127c 6fbd 5e5b ddbd d6e1 a83d 55aa 5fbd
000002a0: 04fa a63d 9585 c5bc 4a3b e1bb b947 41bd
000002b0: 6331 c6bd e4ac 433d a061 6ebd b756 5f3d
000002c0: 3f2e 8ebd dc28 343d 104a ad3d ba13 3dbc
000002d0: 15d2 3dbc f3a5 37bd 96bb bcbc 6b6d c13d
000002e0: 40c5 c93c 8e1a c13d 36f1 a33d 01f5 16bd
000002f0: b93a 51bd f82a df3d c6d8 21bd 4bb4 3bbd
00000300: fb83 0dbd 4ad7 023e b3dd 5cbc ef24 023d
00000310: 4600 afbd 8fcd 673c 8160 b0bd b66f 0c3e
00000320: 541b d23d f4b1 efbc a5af d3bd 8275 5a3d
00000330: 3f7f 063e 41a1 b0bd c5ea 213e fba2 e13c
00000340: ec61 493d a145 c73d 0c42 8cbd 95cc 693d
00000350: b0d2 223d 3567 1ebd 8822 a73c 3f2a f8bb
00000360: e2b9 b03d 5c3e 7e3e b85f aabd 2216 b5bd
00000370: 4b41 9ebc 615e 233e 27f0 89bd 64f4 a63d
00000380: 1257 083e d8d4 433e d2fe 853e d95d 193d
00000390: 3ffd b5bd 4dce b83c 80bb fa3d 24ab a7ba
000003a0: 9d41 b8bd 261e 8d3e 268f 7e3c 6acd ec3d
000003b0: a7e5 e03b 23c0 f3bd ffd5 c63d 24b5 29bd
000003c0: f71b 8a3d faf7 0d3e 6d27 2fbd 2265 2d3e
000003d0: 88f0 273e fc46 f13d 6661 60bd d771 553d
000003e0: c4e8 4d3c 8e75 c13d 4a9e 7bbd 0713 65bd
000003f0: 5e27 84bd d018 a5bd 9a95 d33c 7c92 b63a
0.15777294 -0.0468915 0.08570887 0.13879445 0.05459981 -0.06480734 -0.026333535 0.042792633
-0.019455396 0.11498223 -0.07950209 0.1152183 0.16716278 0.080205426 0.047121026 0.06486698
0.018352438 -0.01400896 0.035741374 0.21585593 -0.09078606 0.11870328 -0.07322058 -0.012370085
0.13451256 -0.0049388953 0.0562501 0.091162406 0.072554246 0.108664095 -0.02466757 0.06784142
-0.05222702 0.0057646804 0.118641816 -0.043510806 0.13023564 0.08510605 0.100934535 -0.02062862
-0.04321529 0.14582989 -0.052793283 0.044928722 0.08333469 0.11857169 0.07999816 -0.0061218916
0.30379656 -0.0968675 -0.00026677662 0.10405417 0.07930614 0.084204555 -0.04990767 0.046850238
-0.03765778 0.07143877 0.0231548 0.10983541 0.023598703 0.14051655 -0.047656707 -0.008132847
-0.14403468 -0.081239685 -0.13873231 0.022738773 -0.06632981 0.0056964518 0.0989915 -0.110497616
-0.048702445 -0.13449855 0.0976094 -0.08176812 -0.1919169 0.0033125144 -0.050491776 0.012071172
0.023920864 -0.03766666 -0.064678304 0.09177538 -0.063105434 0.0024201532 0.078529164 -0.14551933
-0.12614135 -0.044824332 -0.12703244 0.08442028 0.0046458025 -0.016714018 0.047139514 0.009805001
0.07986121 -0.1826225 -0.120217204 -0.15655068 -0.049428076 0.0689437 -0.047378335 -0.05682611
0.021362131 -0.1144686 0.028940663 0.07325627 0.124348424 0.056002066 -0.15233356 -0.051073644
-0.047112916 0.07425124 -0.081663296 -0.039315697 -0.10970456 -0.1710758 -0.09067477 -0.09493614
-0.06539863 0.016586836 -0.08805925 0.048253354 -0.11461555 0.0801586 -0.1757388 -0.041726608
-0.06066288 -0.089388415 0.04347892 -0.008808352 -0.08049948 -0.010210246 -0.12042561 -0.082371704
0.055379257 0.004413831 -0.05609571 0.11801167 0.036524937 0.11760868 0.060826287 0.009566302
-0.040727735 -0.044022415 0.10924825 0.010605102 0.08514816 0.029806977 -0.00089338265 -0.14446461
0.06734113 -0.027772613 0.040497936 -0.038243677 0.15262324 0.088613115 -0.0275871 -0.0012207248
-0.07627472 0.053084094 -0.065903485 -0.077234715 -0.058467932 -0.108084425 0.082462 -0.0546058
0.081531554 -0.024111548 -0.006873523 -0.04718754 -0.096773885 0.047772303 -0.05819857 0.054526057
-0.069424145 0.04398428 0.08461392 -0.011540348 -0.011585732 -0.044835996 -0.023038667 0.09444698
0.024630189 0.09428893 0.08004992 -0.036854748 -0.051081393 0.108968675 -0.039513372 -0.045826238
-0.034549695 0.12777439 -0.013480592 0.031773504 -0.08544974 0.01414813 -0.08612157 0.1371449
0.10259119 -0.02925966 -0.10336236 0.05333472 0.13134478 -0.08624507 0.15812214 0.027543535
0.04916565 0.097300775 -0.06848535 0.05707987 0.03975171 -0.038672645 0.020402208 -0.0075733955
0.08629204 0.24828476 -0.08319038 -0.08842112 -0.019318243 0.15953971 -0.067352585 0.081520826
0.13314465 0.19124162 0.26170975 0.037443016 -0.088861935 0.02255931 0.12242794 -0.0012792093
-0.0899689 0.27562064 0.015537059 0.11562617 0.006863314 -0.119018815 0.09708785 -0.041432515
0.06743615 0.13864127 -0.04276221 0.1693311 0.16400349 0.11781117 -0.054780386 0.05211052
0.012567703 0.0944625 -0.061430253 -0.05592635 -0.06452821 -0.08061373 0.025828172 0.0013929154

lstm.weight_ih_l1 f4 [256, 64]
00000000: c2d5 403c b8a5 dc3c 04ad c5bd 523c 91bd
00000010: c66b 11bd b42f 0e3b 8810 9dbc 00f5 b03c
00000020: fb93 50bd d29e f6bc 3c7a a0bd fe28 7f3d
00000030: 590a 22be 52d4 ad3d 7645 ca3d 3622 dbbd
00000040: b7bb e33c 7845 7ebc b84b ef3c 0066 73bd
00000050: c6ce f63d 319f 84bc 2e3c cebb ff76 69bc
00000060: 4966 1f3c 5ddb e53d ac61 9dbc d617 78bd
00000070: ecf1 07bd 64c0 653d c3ae 0cbe e2e0 063e
00000080: 1535 733d 77bd b13d 33b5 1ebe 345d 9dbd
00000090: 4611 1e3d 94db 973b a920 883b 3146 71bd
000000a0: 6655 84bc 3d67 c9bd c398 313d e13d 49bc
000000b0: 4729 abbc e579 cd3d cb49 babd 291d 813c
000000c0: c8f2 7f3d d141 173b b04d 683d cb78 8fbd
000000d0: 1b5b a73c 70d7 b7bd c882 b93d ef37 3fbd
000000e0: 391a 76bd 0989 8cbd f796 6e3d d6ea d63d
000000f0: 02f1 23bc 1cad d33d abd2 42bd f576 0cbd
00000100: 7eb4 d53d 6877 88bb 3a63 fd3a c30b e93d
00000110: 5c99 8b3c 9f8b 853c 7338 193d 9055 b3bc
00000120: a3f5 2d3c e03c cb3d 2dae 013e 67a5 d4bd
00000130: 275d b1bc 5df3 de3b eeb8 9e3d e1e7 39bd
00000140: 08ea 70bc 1be2 32bd 8085 04be 30a4 f4bd
00000150: 9b32 a1bd 18f2 b83c 298a 243d 052c 6f3c
00000160: 354f bd3d 4a68 1dbd 5950 ff3d 7a8c bc3c
00000170: 32e3 a7bc 37a4 4fbc 7ff0 0ebe 5242 903d
00000180: a5de 1b3d 22de 823d 4375 a63d fe91 753d
00000190: 95df 11be 92e5 f5bd ed5b 003b 1313 24bd
000001a0: 1033 1dbc f7a1 f03d cb02 913c b10f 4d3c
000001b0: 48f4 dabd 98ca 97bc 373c d4bd 9edb 50bd
000001c0: b2c5 d33d a75c a43a eb59 853d 80ba 523d
000001d0: 4789 b83d acde f83b 6620 31be 0fc8 873c
000001e0: 059b b23c 23aa adbd 48d3 12be 9668 94bd
000001f0: f5b9 973d 8d5b 82bd a0f8 c6bb 03d5 443d
00000200: 09b0 413e bf84 f4ba 0366 e03d ee09 693d
00000210: 073a c63d f746 1ebd 26ab 2e3e 6770 763c
00000220: ee33 603e 2bdf 34be 5933 c5bd 48a4 673d
00000230: 42fe 103d 1cc5 7f3d cbfa 3ebe b27b c3bc
00000240: 0de2 f13d 95aa db3d c490 d4bc 1065 4fbd
00000250: 2b2a 7fbd 5f8b 2fbd aecf 48be 240f 2fbc
00000260: 31a0 14be 7ec8 453c 2be9 afbd f105 0cbd
00000270: cee0 4cbd e499 2abd a86f 83bd 7c27 e0bd
00000280: f16e c73b 86da e7bd 7da6 2b3e b2e8 2cbd
00000290: fcbe 1c3d b0df 44bc a4e2 23be fd1c a23c
000002a0: 66d0 01bc b2d1 b13d 638c 243e c376 0cbe
000002b0: 1986 36be 1407 343d 4a77 2ebd 72b1 4db9
000002c0: 7dff 033e e328 b13d 2d6c a13d f670 c83c
000002d0: 627c 02bc 1313 e1ba 6011 0b3d 6c27 39be
000002e0: 1b86 173d 9c05 843d a8c0 01bd 7e77 b93c
000002f0: 331a d53d 8c26 8cbc ac01 bf3d 8db6 603d
00000300: 7923 fa3c 6832 8f3d d54d 943c a2cf 0a3e
00000310: 2714 0f3e bf15 57bd cff0 1e3d 3d7c 643d
00000320: 8fad 8bbd 78ac b0bd 6c6e 32bd 2ac5 e0bd
00000330: 9e49 793d d35e fb3d be4f 40bd d383 eebd
00000340: 2a60 073e 87ae bcbd 116c f23d 1042 c7bc
00000350: 770b c8bc 372f c83b 8baa 973d 3d60 583d
00000360: 4e58 063d ddb0 00be 0763 e7bc 8619 d43d
00000370: 3106 9b3d 27f1 d3bb 22c3 2a3d e018 bbbc
00000380: a22f b23d f40f 91bc 1f90 ca3d efac 9dbc
00000390: d95b 6bbd dfaa ce3d 5f92 883d 2b4d a8bd
000003a0: a53d 9abc 9efb 1bbd 0b2a 64bc 0e36 9abc
000003b0: 439b 89bd ba71 853d c23f a3bd 5942 dfbc
000003c0: 784f f0bc eca8 4a3d b6a6 b63d 316d 3abe
000003d0: e288 1cbd 45f0 acbd 4a91 e5bd 7ebb 15be
000003e0: 824d 0bbd caff 86bd 666b 093e 4efa b4bc
000003f0: 29cb e13d 6d8f fabd 0719 68bd 45ca 5f3d
0.011769714 0.02693449 -0.09652141 -0.07091583 -0.03550317 0.0021695914 -0.019172922 0.0216012
-0.050922375 -0.030105028 -0.07835814 0.062294953 -0.1582426 0.084877625 0.0987653 -0.106998846
0.02779947 -0.015519492 0.02921091 -0.059423447 0.12051158 -0.01618919 -0.006293795 -0.014249562
0.0097289765 0.11223481 -0.019211613 -0.060569607 -0.0331897 0.05609168 -0.13738541 0.13171723
0.059376795 0.08678716 -0.1549881 -0.07683793 0.038590692 0.00463433 0.004154284 -0.05890483
-0.016154002 -0.09834144 0.043358576 -0.0122828195 -0.020893706 0.10033015 -0.09096106 0.015760975
0.062487394 0.002308 0.056714714 -0.07005461 0.020429185 -0.08976638 0.09058148 -0.0466842
-0.0600836 -0.06862075 0.05824944 0.1049401 -0.010006191 0.10335752 -0.04756419 -0.034293134
0.10434817 -0.004164625 0.001933194 0.113791965 0.0170409 0.016301928 0.03740735 -0.021891385
0.010617646 0.0992372 0.12664099 -0.103831105 -0.021650864 0.0068039135 0.07750116 -0.045387153
-0.014704235 -0.043672662 -0.12941551 -0.11945379 -0.0787098 0.022576377 0.040170822 0.014597897
0.09243623 -0.038429536 0.12466497 0.023016203 -0.020494077 -0.012673429 -0.1395893 0.070438996
0.038054127 0.06390025 0.08127835 0.059953682 -0.14245446 -0.12006678 0.0019586042 -0.040057253
-0.009594694 0.11749642 0.017701527 0.012515948 -0.10691124 -0.018529221 -0.103630476 -0.050990693
0.10340442 0.001253982 0.06511291 0.05144739 0.090105586 0.007594904 -0.17297515 0.016574888
0.021802435 -0.08479717 -0.1433841 -0.07246511 0.07408515 -0.06365118 -0.006072119 0.048054706
0.18914808 -0.0018655284 0.10956957 0.056894235 0.096790366 -0.038641896 0.17057475 0.015041447
0.2189481 -0.17663257 -0.096289344 0.056553155 0.03539873 0.062443838 -0.18650357 -0.023862693
0.11810694 0.10725895 -0.025947936 -0.05063349 -0.062296074 -0.042857524 -0.19610474 -0.010684762
-0.14514233 0.012071727 -0.08589395 -0.034185354 -0.050019078 -0.041650668 -0.06417781 -0.10945031
0.0060862233 -0.11320977 0.16762729 -0.042214103 0.038268074 -0.012016222 -0.16004425 0.019789213
-0.007923221 0.08682574 0.16069178 -0.13717179 -0.17824592 0.043952063 -0.04259423 -0.00019616427
0.1289043 0.08650377 0.07881961 0.024467926 -0.0079642255 -0.0017171822 0.033952117 -0.18081445
0.036993127 0.064463824 -0.031677872 0.022639986 0.10405388 -0.017108224 0.09326491 0.054861594
0.030534493 0.06992036 0.01810352 0.13555768 0.13972531 -0.052510973 0.03880387 0.055782545
-0.06820213 -0.08626646 -0.043562338 -0.10975106 0.060861222 0.12273946 -0.046951048 -0.11646237
0.13220277 -0.09212976 0.11837018 -0.024323493 -0.02441953 0.006109144 0.07405575 0.052826155
0.032799058 -0.12567468 -0.028245462 0.10356431 0.0756954 -0.0064679566 0.04169 -0.02283901
0.087004915 -0.017707802 0.0989077 -0.0192475 -0.05746064 0.10091185 0.06668543 -0.082178436
-0.018828223 -0.038081758 -0.013926039 -0.018824603 -0.06719067 0.06515832 -0.07971145 -0.027253317
-0.029334769 0.049477503 0.08918516 -0.18205716 -0.03821648 -0.08444265 -0.11209352 -0.14622304
-0.034009464 -0.06591757 0.13419876 -0.02209201 0.11025078 -0.122343875 -0.056664493 0.05463626

lstm.weight_hh_l1 f4 [256, 64]
00000000: 9894 10be a68a 1dbd a2fe 583c 48c2 f1bd
00000010: 11ab 1b3d 1ff4 98bd 6d35 ff3c fc11 bcbd
00000020: 713d dbbd 09e3 a5bd 750d dbbd bd2f 9e3c
00000030: bf45 b9bd e7c9 f23c e059 97bc 7144 003e
00000040: ea6d e7bd b473 50bd 21a3 403d 295f b6bd
00000050: 7183 bfbd a940 043e 884b 9abd 67fe 5fbd
00000060: 2b3a 103d 086c e6bd e0ab c4bd 8a79 7abc
00000070: d37a 55bd 737e f23d 745d 0fbd 8ee5 493d
00000080: 4c67 ffbd 829e babd 9e5b 00bd 6bbb 4e3d
00000090: f160 9e3d 42cb 5f3c ce26 ebbd fcfb 813d
000000a0: a989 c43d 7729 2b3d 0c2b c3bd 8072 a8bc
000000b0: 6238 3dbd fbc6 c2bd 70e9 3fbd a495 5a3d
000000c0: feba 033e e76a e73d 358c 483c d1d6 10bd
000000d0: a44d dfbd fe32 8cbd a692 553e 6b54 a03d
000000e0: c660 57bc 9724 01bd f398 093d 8171 08be
000000f0: c19b c03d f246 e83d ae83 07be 8ece f3bd
00000100: 9a1d a6bc d05c 58bc 51d5 e8bd db60 fe3d
00000110: f87c fbbb f939 1ebe a668 e3bc ad76 813d
00000120: db72 753d 3626 cf3c e079 92bd 2e8e bbbb
00000130: f1b0 87bc ba45 8cbd 38fe c1bd b178 283e
00000140: 2c5c 243d e60d d33c bfae 76bd b06e a53d
00000150: 1ed3 ccbd 4d19 0f3d 05c5 d63d 95a2 de3d
00000160: c9d8 a6bd 0357 253d f9c2 063e 3524 cf3d
00000170: cef7 aa3c 82ef 07be 17f8 923d 57ee c3bd
00000180: d317 d1bd 1890 e1bc 69d4 073e 501d 8bbd
00000190: 298b dbbc c661 9bbd bbc3 d0bd b11e 8abd
000001a0: 8040 9c3c 0f17 19be df91 d83d 3eda e93d
000001b0: 5c52 10be 0520 183d 2de4 d23d 9ca4 8abd
000001c0: 1c91 ecbd ec6a b43d b94d a73d 6c1c 69bc
000001d0: a4f4 fcbc ed13 86bd ab0e a33d a2e0 8abc
000001e0: 3550 41bd 0fcf 7c3d 5024 e7bd 4021 72bd
000001f0: 8b9a 9ebd 0623 b13c 0d63 dd3d e730 bebc
00000200: fa5a 0cbe 5809 09be 6f2d e63c 6391 2f3c
00000210: 0970 0cbe 8c7a 09be 235f 053e b22c e6bd
00000220: 439a 1bbb bfc5 223e 8b92 2e3d 5d9a 6f3d
00000230: 5695 863d 60fb 0fbe 485c ed3d 1d19 96bd
00000240: f1bd 8a3b f631 103d e665 563c 0cc7 093e
00000250: 6d30 9c3a 8c6e acbc 648a bfbd b5e9 b93d
00000260: 2a96 bd3d 12f9 bc3d 821f 8f3d f576 f4bc
00000270: 16f0 b8bd 9464 b0bd 1558 8cbd 85d2 3fbd
00000280: e76f d5bc 6901 ca3c 32c7 8bbd 72b3 68bd
00000290: b02b 2a3d eaca c6bd 0505 71bc 60a3 db3d
000002a0: ed94 b2bd d6fb fabb 3477 b83d 4252 c43d
000002b0: 3337 703b cf11 1ebd 9620 1cbd 3088 d73d
000002c0: b7f1 0bbe 39c9 233e 4b69 743d 079d c03d
000002d0: 4eaa 083e c113 0fbe 030a f13c e81f fabd
000002e0: 276f f63d 7121 d53b 64c4 923d 07b6 8abd
000002f0: 5997 d8bd 5285 b93d f58d 69bc c8da 3a3d
00000300: b9c0 333d c098 c23c d97c 4e3d 5ff9 2a3d
00000310: 3a31 1bbd 23c3 61bc deab 053e e0c3 99bd
00000320: dfa9 f93d c970 203c c20f 83bd 6748 3fbd
00000330: 1a3c a2bd ab0d b83d dbb2 a7bd dfc6 38bd
00000340: 1acd c43d fbe5 b03c 5e38 1ebe 0763 32bd
00000350: bab1 333e a303 033d c75f 393d ca71 44bd
00000360: 1c7c 9a3d d936 ac3d 51de 273e 6dd3 053e
00000370: 63b7 a03d 577a eebc 37c1 76bc 8b40 013e
00000380: b40c d3bc e3b4 9f3c f9c5 9a3d ce75 4c3d
00000390: 3f5b 38bd f592 b3bc b4a1 89bd 19d2 4f3d
000003a0: f64d aabd a23d ebbc 082b c53c adab e7bd
000003b0: d4d6 8ebb 1c22 c6bc 56cb 503c 528e 903d
000003c0: 4b6b efbd 0aca 2cbd 1117 8a3c d888 0d3e
000003d0: 1f8f 0a3e 4abc 7e3d c0e6 e73c 1f6c 56bd
000003e0: f960 18bd 42e3 2d3d c2eb f8bc c8cc c43d
000003f0: 1de3 40bd 5a47 babd 9625 fe3c d5ce 093e
-0.14119184 -0.038462304 0.013244303 -0.11804634 0.03800494 -0.074684374 0.031153405 -0.09183118
-0.107050784 -0.08099944 -0.10695926 0.019309873 -0.09046506 0.02963729 -0.018475473 0.12526108
-0.11300261 -0.050891593 0.04703057 -0.08904869 -0.09351242 0.12915291 -0.07533938 -0.054685976
0.035211723 -0.11251074 -0.09603095 -0.015287766 -0.052119087 0.118405245 -0.035001233 0.049291186
-0.12470874 -0.09112264 -0.031337373 0.050471704 0.07733334 0.0136593 -0.11482011 0.0634689
0.09596569 0.04178759 -0.09529695 -0.02056241 -0.04619635 -0.09510609 -0.046853483 0.053365365
0.128643 0.11299687 0.012240459 -0.035361115 -0.10903481 -0.068456635 0.20856723 0.078286014
-0.013145631 -0.031529035 0.03359313 -0.13324548 0.09404708 0.11341657 -0.13233826 -0.119046316
-0.020277787 -0.013205722 -0.11368812 0.124208175 -0.0076748095 -0.15451802 -0.027759861 0.06321464
0.059923988 0.025286775 -0.07152152 -0.0057237362 -0.016563864 -0.06849237 -0.094723165 0.1645229
0.040126964 0.025763463 -0.060225245 0.080777526 -0.10001205 0.034936238 0.10486797 0.10870854
-0.08146817 0.040366184 0.13160314 0.10114328 0.020870116 -0.13274959 0.07176226 -0.09566944
-0.10209622 -0.02753453 0.13264622 -0.067927 -0.026799755 -0.07587008 -0.101935826 -0.06744135
0.019073725 -0.14950202 0.10574698 0.114185795 -0.14093918 0.03713991 0.10297427 -0.06769678
-0.11551115 0.08809456 0.08169121 -0.014227968 -0.030878372 -0.06546769 0.07961782 -0.016952816
-0.047195632 0.061720904 -0.11286223 -0.05911374 -0.077443205 0.021623146 0.10809908 -0.023216678
-0.1370658 -0.1338247 0.028097836 0.010715815 -0.13714613 -0.13425654 0.13024573 -0.11238994
-0.002374307 0.15895747 0.042620223 0.05849682 0.06571452 -0.14060736 0.11589867 -0.07329009
0.0042340686 0.035203896 0.013085818 0.13454837 0.0011916287 -0.021048807 -0.09352568 0.09077779
0.09257157 0.09227194 0.069884315 -0.02984188 -0.09030168 -0.08612934 -0.06852738 -0.046831626
-0.026054336 0.024658876 -0.06825103 -0.056811757 0.04154557 -0.097066715 -0.014710669 0.10724521
-0.087198116 -0.0076594157 0.09007111 0.09586002 0.0036653995 -0.038591202 -0.038117014 0.105240226
-0.13666426 0.15994729 0.059670728 0.094049506 0.13346216 -0.1397238 0.02942372 -0.12213117
0.120329194 0.0065042307 0.07166365 -0.06773 -0.10575742 0.09058632 -0.014255037 0.045618802
0.043884967 0.023754478 0.050412033 0.041741725 -0.037888743 -0.013779434 0.13053843 -0.07508063
0.121906035 0.009792515 -0.0639949 -0.046699908 -0.0792162 0.08986982 -0.08188411 -0.045111533
0.096094325 0.021594038 -0.1545119 -0.04355147 0.17548266 0.03198589 0.045257356 -0.04796008
0.07543203 0.08408899 0.163934 0.13068934 0.07847478 -0.02911107 -0.015060714 0.12622277
-0.025762893 0.019495433 0.075572915 0.049917035 -0.045008894 -0.02192066 -0.067202955 0.050737474
-0.08315651 -0.028715912 0.02406837 -0.113120414 -0.0043591056 -0.024186186 0.012743792 0.070583954
-0.116903864 -0.042184867 0.016856702 0.13821733 0.13531159 0.062191285 0.028308272 -0.052349206
-0.037201855 0.042453058 -0.030385856 0.096093714 -0.047091592 -0.090956405 0.031023782 0.13457806

lstm.bias_ih_l1 f4 [256]
00000000: e5fa 943d 849b fa3d 7499 383d f084 b03d
00000010: 74db 7ebd be29 f13d ff24 7c3c b348 99bd
00000020: bed8 0b3e 7197 933c 7663 f33d 9ece c83c
00000030: 59b3 41bd 6884 e93d edc4 17bc 56d2 a43c
00000040: b629 003e ee05 9b3d 901c cb3d 5557 ae3e
00000050: 6be8 a43d 0389 193e 850d 793d baf5 d93c
00000060: fb2c 25bd bfab 7e3e ecb7 403e cead 0b3b
00000070: cc1b cb3c ad14 b1bd 4ed3 973d 589e 663a
00000080: 6b58 00bb d11a 11bc ddca d13d a988 9bbd
00000090: d8be b23e 2752 483d 724d f2bd 53df d5bc
000000a0: 4d0e 013e 625e a83d d107 0d3e c728 493d
000000b0: a86d 2b3d b533 183e 1528 f5bb ad07 333e
000000c0: c862 483d 5bde 82bd 3a5e 9a3c 0944 f33d
000000d0: b3d7 ee3d a29d 823c 9398 ba3c 81b3 363d
000000e0: 5624 ac3d a8d7 abbd 9ad9 cabd 286c 93bd
000000f0: b9aa 1abc feeb 173d 7482 aa3c 073e a1bd
00000100: c756 d5bd 544c 503d b7c8 25bc a71d 683b
00000110: 3329 f43d 8603 8bbd e345 943b 5b0c b7bd
00000120: 4fa7 75bc 3203 523d e36f ca3d 9826 78bd
00000130: bd16 5abd a025 ddbd fd61 b8bd d33e 10bc
00000140: 875c cbbc 73df 95bd 95cf 2a3d 9ca6 a7bd
00000150: 6d86 01bd 1150 7c3d 80c8 17bd 53e4 80bd
00000160: b87d 8cbd 70a7 413d 070b 983c eb04 d1bd
00000170: 18d0 10bd bbc9 d3bd 59cd 943d 3629 fc3d
00000180: 8cc3 6dbd db30 65bd 310c df3c a45c a83d
00000190: 2aa8 2d3c 79d2 053b 0034 3a3c 736c 533d
000001a0: 413a 9dbd bd27 a13c bd8e e13d ee72 763d
000001b0: f2ea f23d f2d6 b8bd 7a15 a93c 86e1 d6bd
000001c0: e6e4 5d3d f16c 1b3d d542 443d 8cdb f7bc
000001d0: d21d b6bd 1d46 4bbd 1280 82b8 b331 abbd
000001e0: 3a0b 0c3d 0ff4 413c 2e29 113d 7705 9b3c
000001f0: aa6a aabd e23d 0b3d 816f 88bd fbe8 a9bc
00000200: 8ec9 403b a8dd b83d 7bde d7bd 0793 05be
00000210: 33e7 d3bd 7ef5 99bd 04af f5bc 7a15 563b
00000220: f3d7 bdbd c587 36bd 3f89 113d 4b46 e4bc
00000230: c294 abbd a3c7 9fbd dea9 a53c ad86 6bbd
00000240: 7a49 9dbd 41d4 f73d 8b6f af3d ad45 e1bc
00000250: 8d4b b2bc 6604 9b3d 2d1d bfbd 819e e0bd
00000260: 71b5 963d 0315 5d3a dcfc a1bd 5e48 a5bd
00000270: 3fb3 c33a a3e8 a3bd 0b92 54bd a31f a03c
00000280: c37c 7bbd 2a40 8bbd f47f 84bb 937a 11bd
00000290: f16b 8fbd 267e 39bd 7fb0 3b3d 4d07 033e
000002a0: 32b2 afbc 754a 45bd 9d3b ddbd 5e2a ffbc
000002b0: 4e9d d33d b298 1f3d 0d7b 8e3d 66f4 4dbc
000002c0: a09f 79bd a872 503d 89a1 36bd 937c 3fbc
000002d0: c34d 87bd 69ed 4fbd d1af 923b 0f86 85bd
000002e0: 2f7f 24bd 44e9 ae3a 6e03 9e3d 0ea5 dcbc
000002f0: fb18 a5bd d178 f33c 8abf af3b 518c 723d
00000300: 5421 06bd 5d76 49bd 9e5c d5bd 86b3 d9bd
00000310: ca5d 5b3d aa6c 0f3e 81ac 2fbd 9e73 ee3b
00000320: a6c8 923d 339f b23d 7033 ed3c 7154 853c
00000330: b535 8dbd a207 18bd 7810 c53d 82c6 aa3a
00000340: 8e6d 043d 9d96 ccbc 7d04 f5bd 9266 3d3e
00000350: f5e6 933d 04fa 0b3d 5b69 023e 367a b43c
00000360: 0955 203d 4123 313d c62d 6d3d 2d97 453e
00000370: a98b bc3d ecc5 0dbc 0fda 9cb9 d568 36bd
00000380: 58a2 d1bd e5aa 173c b7fc c83d cc0c 01be
00000390: ca39 883d d035 80bd 8017 67bd 8cbc 46bd
000003a0: 5d4c fa3d 1172 203d 4680 bfbd ee32 153e
000003b0: 632c 2dbd ffd3 adbd a717 113e 9eb0 b1bc
000003c0: d054 4ebd 6c6e 5dbc 0484 1d3c b052 d53d
000003d0: 4898 a6bd f87e 26bd 1814 90bd 24a5 483d
000003e0: e9cf e43d 44aa 673d 6fbe a83d a1a1 173c
000003f0: 6088 49bd 7843 3fbc 0232 093e 6752 a33d
0.07274417 0.122366935 0.04506822 0.08619106 -0.062221006 0.1177554 0.01538968 -0.074845694
0.136569 0.018016549 0.11884205 0.024512585 -0.04729018 0.114022076 -0.009263259 0.020119827
0.12515911 0.075694904 0.09917557 0.34051004 0.08052143 0.14993672 0.06080391 0.02660643
-0.0403261 0.24870203 0.1882016 0.0021313312 0.024793528 -0.08646522 0.0741335 0.0008797399
-0.0019583951 -0.008856491 0.10243771 -0.07594425 0.34911227 0.04890647 -0.11831178 -0.026107466
0.12603112 0.08221127 0.13772513 0.049111154 0.041852623 0.14863475 -0.007481585 0.17483397
0.04892233 -0.06390067 0.018843759 0.11878211 0.11662235 0.015944306 0.022777831 0.044604782
0.08405368 -0.083907425 -0.099047855 -0.071983635 -0.0094401175 0.037090294 0.020814158 -0.07873159
-0.10416942 0.050854042 -0.010118655 0.0035418065 0.119219206 -0.067877814 0.0045249327 -0.089379035
-0.014993503 0.05127258 0.09884622 -0.06058368 -0.05324434 -0.10798192 -0.09003065 -0.008804041
-0.024824394 -0.0731801 0.041701872 -0.08186075 -0.03162234 0.061599795 -0.037056446 -0.062935494
-0.068599164 0.04727882 0.018559946 -0.10206016 -0.035354704 -0.103412114 0.072657295 0.12312548
-0.058047816 -0.055954795 0.027227493 0.08220795 0.0105991755 0.002041964 0.011364937 0.051617097
-0.07677127 0.019672269 0.11013553 0.0601682 0.118612185 -0.090253726 0.020640124 -0.10492234
0.054173373 0.03794569 0.0479153 -0.030256055 -0.088924065 -0.049627412 -6.222738e-05 -0.08359089
0.034190394 0.011837973 0.035439663 0.018923504 -0.08321126 0.033994563 -0.06661893 -0.020740977
0.002941701 0.090266526 -0.10540482 -0.13044368 -0.10346832 -0.07517527 -0.02999068 0.003266661
-0.09269705 -0.044563074 0.03553128 -0.02786555 -0.08377983 -0.078017496 0.0202226 -0.057501484
-0.0768003 0.12101031 0.08566197 -0.027499044 -0.021764541 0.07569198 -0.09331737 -0.10967732
0.07358826 0.0008433612 -0.07909557 -0.080704436 0.0014930739 -0.08003356 -0.05189709 0.019546336
-0.06139828 -0.06799348 -0.0040435735 -0.035517287 -0.0700301 -0.04528632 0.045822617 0.12795754
-0.021447275 -0.04816671 -0.10802386 -0.031148132 0.10332738 0.03896398 0.06957064 -0.012570476
-0.060943246 0.050890595 -0.044587646 -0.011687416 -0.06606629 -0.05076352 0.0044765254 -0.0651971
-0.040160354 0.0013344665 0.07715498 -0.026934173 -0.08061405 0.029720696 0.0053634094 0.059215847
-0.032746628 -0.049185146 -0.10418056 -0.106299445 0.05355624 0.14006296 -0.042889122 0.0072769662
0.07167177 0.08721771 0.028955191 0.016275616 -0.068950094 -0.037116654 0.09622282 0.0013029131
0.032331042 -0.024974162 -0.11963747 0.18496159 0.07221786 0.03417398 0.12735502 0.022030931
0.039143596 0.04324651 0.05790498 0.1929595 0.092063256 -0.008653145 -0.00029917105 -0.04453357
-0.10236043 0.009257053 0.098138265 -0.12602538 0.066516474 -0.06260264 -0.056418896 -0.048519656
0.122215964 0.039171282 -0.09350638 0.1457021 -0.04227866 -0.08487701 0.14169179 -0.021690663
-0.050373852 -0.013515096 0.0096139945 0.10416162 -0.08134514 -0.04064843 -0.070350826 0.048985615
0.11172468 0.056558862 0.08239447 0.009254844 -0.049202323 -0.011673801 0.13397983 0.079747014
