checkpoints/lstm/sh-EMD-h64-l2-lr0.0001-d0.3-ep200.pth (torch, 213413 bytes, 9 tensors)

lstm.weight_ih_l0 f4 [256, 10]
00000000: 1d59 db3d e50e cf3d bbb3 17bd d33c f33d
00000010: 5807 263d d447 b03c 4292 50bd 46e5 2d3b
00000020: 57a4 2a3e fd2c 25be 1ffe 983d ecff 413c
00000030: 57a9 123e 537e 11bd 2ffe 3b3d 59d7 75bd
00000040: e0dd 1b3d 6309 053d d28f 18be 554c df3c
00000050: abd7 69bd 1da7 a13c 1b62 febc bd9e 993d
00000060: a136 54bd b1bd cfbd 47df 03bd 44d3 2fbd
00000070: 8069 873b 61d6 1ebe f7b6 f03d 30e4 f3bd
00000080: 8982 fb3d a837 17bd 743f ea3c 851a 453d
00000090: 9540 dbbc 0969 7ebc fd7c 843c c468 85bd
000000a0: d09b 7b3d 04b0 17bd ed7d ba3d e53f b43d
000000b0: d3b4 943d ce87 7fbd 0ba5 003e 4fac 6f3d
000000c0: cded a93d 2c7d 81bd 94d9 f1bd 8926 8bbd
000000d0: 57a7 0abe 64d7 113e 351b 55bc 410d 153d
000000e0: ba9a 0f3d 4a14 263c d9ec 463e 640e 9ebd
000000f0: 433c ea3a 3c60 94bd 91ae ab3d 6a61 82bd
00000100: 8862 923d 8012 2d3c a1ce c13d 541f 953b
00000110: cf42 d0bd 9a01 6bbd da10 e63d 3be1 913c
00000120: d176 ef3d 4bc8 0fbe 4fe5 44be f791 89bd
00000130: 87af 67bd 7f59 cd3c 255e 3e3b d7ab 5f3e
00000140: 76b9 18bd 3a8e 0fbe 1759 d13d 609b eabc
00000150: 5ed0 873d 2f32 a23c a63d 383d 389f 96bd
00000160: 5e67 98bd 3aee dd3b 94cd 063c ffaa 09bd
00000170: 5bd2 e13d ddbb 3d3d f001 8ebd 5e98 afbd
00000180: abf1 d73d 638c 2abd 0484 dbbd 28df b5bd
00000190: 753c b4bd 2522 e33c f4dc 5a3d 0825 e7bd
000001a0: 50ce e53c c94e 4cbd 3d1c 6abd db7b 1ebc
000001b0: a085 2abd ec36 12be 221f 1e3e 7cd0 733c
000001c0: 5aad ebbc 3bfc 48be 44af 52bd f73c 24bd
000001d0: f580 303d bb1e c6bd 85cf df39 3d0b d7bd
000001e0: f33c bebc 8d5d a8bd 028f d83d 9730 08be
000001f0: 9c18 80bd af94 54bd 9877 9cbd 298f 9fbd
00000200: 2af6 c93c 56c7 b8bc 2eb0 033e c6d5 dcbc
00000210: 05a7 0abe 3639 973d 38fc 47bd 02fa abbd
00000220: 2ed8 1dbe abf1 6fbe 4ea9 be3d df18 dabd
00000230: 0470 7b3d 6ef5 bebd 0713 db3d 807b 1abe
00000240: 7aed 2c3a 27c4 323b 4d4e ab3c 9401 ed3d
00000250: 50c4 c43d 94da e1bd 33b8 e33c d24b 94bd
00000260: afa7 3a3d 72b2 9fbd 2fa3 463e da26 b3bc
00000270: 504c 9d3d f839 33b9 21ee f83c 6c3f b1bc
00000280: 450c 1c3e 6c63 5d3b a926 9bbb 3d6b 23be
00000290: c273 f63d e760 c13c 28b9 41bd 3dff 813d
000002a0: 6168 933d ac78 08be 6b9b afbc df62 7bbd
000002b0: fcaf c83d 89a0 1fbd 4a3a b3bb 75c1 efbc
000002c0: 7653 dbbd 5525 9ebd 929a 843b f07d 77bd
000002d0: a2ae a43d 170b ad3d 129f 023d d50e 58bd
000002e0: 16c5 f83c 871d d93c 19d9 aa3c 3d56 4abc
000002f0: 273c 023d 928e 95bd 94bc 9f3c 23eb 4cbc
00000300: 35c0 243e 6767 cc3d ef8c 05bd 4be4 8fbc
00000310: ee30 c33d 6d6f 9dbc f229 d23c d0a3 0b3d
00000320: a651 c4bd 9d68 34bd 8a4a d43d 0bef 9b3c
00000330: 2d80 673c dbc0 bdbc 9db2 4a3a 1f7c 15be
00000340: 62de 9cbb f079 6f3d d398 193e ef4e 07bc
00000350: 6c7d 97bd b37c 81bd 2486 4abc 4482 273e
00000360: c4f9 b3bc 24f0 45be 81de a63d b41d 5c3c
00000370: 8219 7cbd 012b e73d c402 40bd 1b51 3cbd
00000380: ba42 08be 15bf 1f3d 46bc fc3d cf02 ee3d
00000390: d88c 90bd 243b 36be 4c27 c7bd d322 253e
000003a0: 6fc0 cb3d 2aa3 983d 0333 973d a7d8 b23b
000003b0: 73fe 613d c8e7 06be cdaa 84be 3d8d 17be
000003c0: d840 423d 919e 8dbd 6d6d 2e3c cc2b a9bc
000003d0: 3bcf 99bd 3c3a 3dbd e68e c2bd 8737 ee3d
000003e0: 487f bbbc 903a b03d 06be 44bc c28a adbd
000003f0: fb3e 50bd ce05 95bd d788 04bd 6d24 26be
0.107103564 0.10110263 -0.03703664 0.11876836 0.040534347 0.021518625 -0.050920732 0.0026534363
0.16664253 -0.16130443 0.07470345 0.011840802 0.1432241 -0.035520863 0.045896705 -0.060019825
0.038053393 0.032479655 -0.14898613 0.027258078 -0.057090443 0.019733006 -0.03105264 0.0750098
-0.05180991 -0.10143603 -0.032195356 -0.042926088 0.0041324496 -0.15511467 0.11753648 -0.11908758
0.12280757 -0.036918312 0.02859471 0.048120994 -0.026764194 -0.015527972 0.01617288 -0.06514123
0.06142789 -0.037033096 0.0910605 0.088012494 0.07261052 -0.062385373 0.12562959 0.058513936
0.0829731 -0.06322703 -0.11809078 -0.067944594 -0.13540398 0.14242321 -0.013006975 0.036389593
0.035059668 0.010136673 0.19426288 -0.077175885 0.0017870743 -0.07244918 0.08382905 -0.063662365
0.071476996 0.010563493 0.094632395 0.0045508537 -0.10168993 -0.057374574 0.11233683 0.017807594
0.11692584 -0.1404125 -0.192281 -0.06717294 -0.05656388 0.02506709 0.0029047814 0.21842895
-0.037286244 -0.14019099 0.10222071 -0.028638542 0.0663154 0.01979932 0.044980668 -0.07354587
-0.07441591 0.0067727836 0.008227725 -0.03361034 0.1102645 0.04632174 -0.06933963 -0.085739836
0.105441414 -0.04163779 -0.10718539 -0.08880454 -0.08800594 0.027726242 0.053433374 -0.1128636
0.028052479 -0.049879823 -0.057155836 -0.009673084 -0.04163134 -0.14278764 0.15441564 0.0148812495
-0.028769184 -0.19627468 -0.051436678 -0.040097203 0.043091733 -0.0967383 0.0004268849 -0.105001904
-0.023222422 -0.082209684 0.105741516 -0.13299786 -0.06254694 -0.05189961 -0.07639998 -0.077909775
0.024653513 -0.022555988 0.12860176 -0.026957404 -0.13540275 0.07383959 -0.04882452 -0.083972946
-0.15414497 -0.23432033 0.09309636 -0.10649275 0.061386123 -0.09324156 0.106969886 -0.15086174
0.0006596666 0.002727756 0.02091136 0.11572567 0.09607756 -0.110280186 0.027797794 -0.07241024
0.04557007 -0.077977076 0.19398187 -0.021869112 0.07680571 -0.00017092365 0.030386986 -0.021636687
0.15239055 0.0033781184 -0.0047348333 -0.15958877 0.12033798 0.023605777 -0.04729572 0.06347511
0.07197643 -0.13327283 -0.021436414 -0.061373588 0.09799191 -0.038971458 -0.005469595 -0.029267052
-0.10709278 -0.07721964 0.0040467465 -0.060422838 0.08041121 0.08449381 0.031889983 -0.05274852
0.030367415 0.026503338 0.020855473 -0.012349662 0.031795647 -0.07302584 0.0194991 -0.012507233
0.16088946 0.0998066 -0.032605108 -0.017564913 0.09530817 -0.019218171 0.025654767 0.03409177
-0.09585886 -0.04404508 0.1036578 0.019034883 0.014129681 -0.02316325 0.0007732304 -0.1459813
-0.0047872523 0.058465898 0.14999704 -0.008258565 -0.07396969 -0.063226126 -0.012361083 0.16358286
-0.021969683 -0.19329888 0.08147908 0.013434816 -0.061547764 0.11287499 -0.046877638 -0.045975786
-0.13306704 0.03900059 0.12340598 0.116216294 -0.07058114 -0.17795998 -0.09724292 0.16126566
0.09948813 0.07452996 0.073827766 0.005457956 0.055174302 -0.13174355 -0.2591156 -0.14799972
0.04742512 -0.0691501 0.010646206 -0.020650767 -0.07510229 -0.046198115 -0.09499912 0.11631685
-0.02288784 0.0860492 -0.012008196 -0.084737316 -0.050841313 -0.07276498 -0.032357063 -0.16224833

lstm.weight_hh_l0 f4 [256, 64]
00000000: 851c dbbc 516d 1d3e 9eea ab3d 3cf4 9f3b
00000010: a65c eebd cfe7 fe3c 558f dabc b853 d13d
00000020: bf3f 3b3d 53b3 97bc 85b9 01bc bbfc a83d
00000030: 2e9d 003d f232 3d3e 8dd7 f33d f838 17be
00000040: d25e a8bd 8b9d 67bd f307 eabd 5185 0fbb
00000050: 78fb 8dbd f28e 9ebb 2880 133e e69f 3bbd
00000060: 7a15 2fbd e634 f0bc fcc9 d23c 22b0 18bd
00000070: 809c 353e e583 cabd a394 1fbe 465d 00bd
00000080: e550 a33d d4a5 bb3d 1b14 983d 8389 2ebb
00000090: b09a 803d ee8c f83d 5a12 e83c b565 643d
000000a0: 9350 e2bd f7b1 84bd eeff d83c 4089 fd3d
000000b0: 603a d9bd f268 be3d 861e 69bd 8578 30bb
000000c0: 946c 03bd 5015 eebb 4f3b 103e d58c 503d
000000d0: 810c 4c3d 6381 b1bd 3316 6dbd 922e 3d3d
000000e0: c7e2 9a3d ea43 a83d cff9 993c 6aa8 d0bd
000000f0: 89e2 0b3d 6607 d7bd 1675 fcbd 66f9 5d3c
00000100: 1a3a a7bd e288 d33d 6419 68bd b92c f03c
00000110: 65a7 d73d 3ca6 a6bd 21dc b43d 383a 8fbc
00000120: d617 733d c7ec f53d 3238 7cbd 8ea9 73bd
00000130: 2d5e f83d 4e5a db3d 588c febc 4c31 e33d
00000140: 243a 6abd b6e5 863c 740c f43d 943b ae3d
00000150: 9ed0 25bd 894c 9d3d c64b 1abe 4d0a 83bd
00000160: 1024 b73d d4eb 19bd f7ab 983a eea0 913d
00000170: 65c5 ae3d 9ab4 03be 893d adbd 73ea a7bd
00000180: eae3 a53c 12c6 aabd f9af b9ba ee44 f4bc
00000190: 8ee2 f2bd 557c 71bd 2693 50bd e105 b1bd
000001a0: ba11 533d 6f12 88bd 39f7 9fbd 0cdc ac3d
000001b0: 21b0 8cbd 1ad6 19bd 756b c5bc 0e8c f03c
000001c0: 8fe4 83bd 2036 f5bd 2bca c8bd 598c 40bd
000001d0: dba9 603c ef30 14be 9585 fa3d c8a9 0abe
000001e0: ed08 123e cd94 dabd 2bef 77bb ba29 9b3d
000001f0: 9047 04bd 97ee ba3d c7ef d7bd 44f6 1a3d
00000200: 311e 05be 41a7 463d d9c2 b73d d696 143e
00000210: f98a 1ebb e14a 82bd bb64 e53d 6a53 8ebc
00000220: e061 c73d 2586 5cbd dad9 b4bd 314b 8fbd
00000230: 94f0 be3d f5c0 8d3d 56c9 81bd 751b 8d3a
00000240: 5acb 72bd 6d01 2d3c 0c57 0a3d 6740 56bd
00000250: 6693 113d bc6c 85bd 9591 ed3c 7ab4 dbbd
00000260: 4371 183d a6a0 0a3e e1e5 213e e778 193d
00000270: ac02 fd3d 4a1f 0a3e 8b9b c33b 50e1 6d3d
00000280: fcf6 bc3c 38b8 fa3d d362 bd3d 84f6 57bd
00000290: ddc2 e4bb 5e0e abbd 900b 4a3d a91b 04be
000002a0: 0cb3 5f3d cd7b 27bd b962 193d f760 873d
000002b0: 91c8 abbd cbdc a23d 75cc 6b3d d5dd babd
000002c0: 17b4 b93d 8630 a73d 691d 9a3d 4430 bdbc
000002d0: f22e 093d 450f babd 5245 44bd f555 b43d
000002e0: 4016 843d ea79 a13c ba33 27be 15cb 323e
000002f0: e118 7ebd 1f33 f83d 96d4 bb3d 0116 e33c
00000300: 23dd e93d 9569 c13d 6359 563d d07e 64bd
00000310: 47bb 8a3d ae86 f9bb 10de 4a3d 0b79 56bc
00000320: 9c13 ee3d 4b9e fa3d 6a6d 03be 591f f23d
00000330: 88e1 c8bd f4e8 4cbc 0430 bebd 4629 a93c
00000340: 413d 12be 7d2c a8bc 156d e3bd 230b 4a3d
00000350: 94f8 39be 5674 88bb 7f63 0c3d cf12 0b3a
00000360: 85fc bdbc 6605 bf3c ec44 52bd 939e d7bd
00000370: a0be 613d 2fd5 92bd 93b2 e73b dae0 0bbe
00000380: 4858 2bbd 36d6 963d 0768 f2bd c2f2 953d
00000390: 17e1 00be c75e cebc 5f7a 97bd 94e5 62bd
000003a0: 78c5 64bc ade5 f3bd 7300 da3c 4436 7d3b
000003b0: b596 f23b edb4 443d b3a1 1d3d 5f53 0d3d
000003c0: 8cf6 123d 87c9 c73d 9590 0d3e 2968 edbd
000003d0: 91dd 8dbc 9bc6 13be ac1d 273c a056 2bbd
000003e0: 674f cc3d 2736 723d 5c93 003d ee7d 8abd
000003f0: 0d95 a6bd b4c2 aa3b 5275 a7bd 20ab 17bd
-0.026746998 0.15373732 0.08394359 0.00488141 -0.11638765 0.031116394 -0.026679674 0.10221046
0.04571509 -0.018518126 -0.007917766 0.082513295 0.0313999 0.18476465 0.119063474 -0.14767826
-0.082212105 -0.05654673 -0.114272974 -0.002189953 -0.069327295 -0.0048388178 0.14404356 -0.045806788
-0.04274509 -0.029322099 0.02573108 -0.03727735 0.17735481 -0.09888438 -0.15584044 -0.031338952
0.07974414 0.091624886 0.0742571 -0.0026632256 0.06279504 0.12136255 0.028329063 0.055761058
-0.110505246 -0.064792566 0.026489224 0.12379694 -0.10606837 0.092973605 -0.056913875 -0.0026927304
-0.03208597 -0.0072657242 0.14085124 0.050915558 0.049816612 -0.08667257 -0.0578825 0.04618699
0.075627856 0.082160786 0.018795876 -0.101883724 0.034151588 -0.10499458 -0.1232702 0.013548231
-0.08165379 0.10328843 -0.05666484 0.0293182 0.10529975 -0.081371754 0.08831049 -0.017483816
0.059348904 0.12008052 -0.06157703 -0.05948787 0.121273376 0.107105836 -0.03107278 0.11093387
-0.057184353 0.016466957 0.11916438 0.085074574 -0.040482156 0.076806135 -0.15067968 -0.06398449
0.08942425 -0.03757842 0.0011647929 0.07110773 0.08533744 -0.12861863 -0.084590025 -0.081990145
0.02025028 -0.0833856 -0.0014166824 -0.029818024 -0.11859618 -0.058956463 -0.05092158 -0.086436994
0.051530577 -0.06644141 -0.07810826 0.08440408 -0.068695314 -0.0375577 -0.024099091 0.029363658
-0.064400785 -0.11973214 -0.098041855 -0.047008846 0.013712372 -0.14471792 0.1223251 -0.13541329
0.14261217 -0.10672913 -0.0037831764 0.07576318 -0.03229481 0.09127539 -0.10543781 0.037832513
-0.12999798 0.04849935 0.08972711 0.14510664 -0.002419172 -0.06361938 0.112008534 -0.01737376
0.09735465 -0.053838868 -0.088306144 -0.069967635 0.093232304 0.06921569 -0.0633723 0.0010765629
-0.059275962 0.010559422 0.03377442 -0.052307513 0.03554096 -0.0651488 0.029000083 -0.107277825
0.03721739 0.13537845 0.15810348 0.037468817 0.12354025 0.13488498 0.00596947 0.058076203
0.02306699 0.12242168 0.09247365 -0.05272533 -0.0069812373 -0.0835235 0.049327433 -0.12901177
0.05461411 -0.04088955 0.037447665 0.066102915 -0.083878644 0.07952269 0.057568032 -0.09124342
0.090675525 0.08163552 0.07525141 -0.023094304 0.033492036 -0.09084944 -0.04791767 0.088054575
0.06449556 0.019711453 -0.16328326 0.17460282 -0.062035445 0.121191256 0.09171407 0.027720453
0.114191316 0.09443966 0.05233134 -0.055785 0.067740016 -0.007614932 0.04952818 -0.013090382
0.11624834 0.12237223 -0.12834707 0.11822385 -0.09808642 -0.012506712 -0.09286502 0.020649564
-0.14281179 -0.020529026 -0.1110479 0.049327027 -0.18161231 -0.004164259 0.034274574 0.0005305232
-0.0231917 0.023318004 -0.05133526 -0.105282925 0.055113435 -0.07169568 0.0070708483 -0.13659993
-0.04183224 0.07365076 -0.11836248 0.07321693 -0.12585865 -0.025191678 -0.07396387 -0.055394724
-0.013963096 -0.119090416 0.026611542 0.003863708 0.0074032196 0.048024107 0.038484287 0.034503337
0.035879657 0.09755235 0.13824685 -0.115921326 -0.017317565 -0.1443123 0.010199945 -0.04183066
0.09976082 0.059133675 0.031390533 -0.067623004 -0.08133898 0.0052111987 -0.08176674 -0.037028432

lstm.bias_ih_l0 f4 [256]
00000000: e6fe f6bc e3d2 35bd 4ed2 063e 04a7 223e
00000010: c07b dabd 0fd5 bbbd d4ad c63d 83ff a23c
00000020: 4700 773d 19ee 8a3d e977 4cbc 84f4 fb3d
00000030: e2ae 503e 8404 8a3d deb2 13bd 4d5c 793c
00000040: 16da 9a3d 9135 403e 4a95 f73c 2a02 1bbd
00000050: 9445 44bd e307 7c3e 3a15 f93d bb3c 983d
00000060: 6e1a 033c 9dfa 1e3c cd5b 8b3d bda6 a4bd
00000070: 3a09 ec3c aed8 013e 2963 a73d 3e35 9e3d
00000080: 662b 4f3d 779d e43d 004b 28ba e0f3 35bd
00000090: e0b4 5abc 2ec2 8c3d b068 94bd be26 e23d
000000a0: 6d12 42bd 5afd 3c3d 2cf7 ec3d 0fb9 193e
000000b0: 2fa5 a33d c065 52bc 2c8b ce3d dd93 8d3d
000000c0: 9ba8 533e 5ae9 ba3d c437 0a3d 52de 823e
000000d0: f4be 1b3e 3c65 8d3e 2ab3 033e 3d59 de3c
000000e0: b75a 09bc 2211 273d f500 17bb 8b4a 80bb
000000f0: 1b41 c93c 7d6c 243e 25fd 0b3e 08b7 823d
00000100: a9d1 ba3d 044e b0bd 45a8 3c3d 3c4f 8e3d
00000110: 913f 6c3d 0657 d63c b026 b03d 0be9 9dbd
00000120: d916 29bc 1b00 87bd 42b6 98bd 21e0 343d
00000130: a10e c1bd ac14 ed3c a658 9dbd bb9c 51bd
00000140: 160b 6bbd 6e0a 28be 3bc1 cf3d b953 fe3c
00000150: 170f 263d bba9 b53c b543 5fbc ed84 82bd
00000160: ec43 aebd e34b 83bd cb2f 07bd ae01 ae3d
00000170: 588b 533d 8062 bf3d 576a 8ebd bb7e e1bd
00000180: f33e 38bc 21fa a4bd 2bbd 88bd f2c0 c2bd
00000190: a0e9 71bd af05 08be 0d29 e73d 1fb6 883d
000001a0: 504e d0bd 29c8 13be 872b 083e 8791 f73d
000001b0: 1cef b4bd b733 87bc 65c0 a0bd d4f8 1cbe
000001c0: 44ec 4ebe e4ff 4cbc a4ad 1f3e 7373 72bd
000001d0: cfdc 26be aec1 423b f19e eb3d 2a8e c63d
000001e0: 95b9 b93d 0350 ddbc a882 60bd 89ae 903d
000001f0: 93e7 01be 9f97 8abd f23a 313d 5d34 223c
00000200: 2256 41bc a4ce 0c3d 7e34 1ebd f1b5 6dbd
00000210: 808c a73c e904 d8bd 71c0 823d dbb8 a33d
00000220: 4165 7c3d cf8a ae3d 2b92 9cbc c7c3 26bd
00000230: dff4 c6bd b033 b7bc bf00 e6bd 61af 973d
00000240: 5dff 403c c2c7 5fbd b7fc 17bc 36db ad3d
00000250: 80d4 83bd 47e3 7fbc 5fff 0e3c 3df2 54bd
00000260: a703 f1bc 7381 623d 8c29 07bd 96a6 cabd
00000270: 1dfc d63d 4dc0 b5bd df22 d7bc cb41 e2ba
00000280: 7a0a 943d 5ad3 d6bc 3bdd 7fbd e51c 923d
00000290: d9d8 95bd 4e0c c63c 2833 d53c a1e0 193a
000002a0: 18e4 12bd e1a0 5bbb cf44 85bd 26b0 743d
000002b0: eb78 84bc e382 80bd 90e5 9dbd f16d 9d3d
000002c0: 879b 6ebd 6b03 8b3d 0580 5d3c 3f63 adbd
000002d0: f606 343d cf36 8b3d 7025 793d 1e95 86bd
000002e0: 63b9 00be c1b2 b33d 8e45 9dbd c982 5e3d
000002f0: 4ad0 df3d 7e13 ddbc 3005 c7bd def2 a73d
00000300: 1c94 b5bd 2724 b3bc 5b86 8cbd 6850 073e
00000310: 80d8 f23d fdd0 0dbd fba4 15bd 6e25 283e
00000320: 6646 ba3d 5307 2a3e c093 85bd 51b3 163e
00000330: b756 ef3d 47d5 abbb e5b8 683c b229 4b3d
00000340: d906 e33d c7cd 8c3d bb2f 6bbd 79b8 ea3d
00000350: 328f d2bd 47d4 063d 01e6 723d a2a2 f43d
00000360: f238 86ba a20d 203e 9572 39bd 62b6 90bc
00000370: 5337 323e 5202 f53d 1b4d 93bc 49df 04bc
00000380: 277a 6f3d 0512 043e bc08 553e 079f 223d
00000390: e685 29bd 1917 7a3d c9ab 28bd 8fdc 023c
000003a0: 889d b3bd 3895 9a3d 493e 063d d573 0f3e
000003b0: 6394 903d 3dc0 9fbd 9db9 803d 09de a93d
000003c0: 9c89 2e3d c7da 84bd 4f6e 823d 5d0d a73d
000003d0: 586e 2e3d d5a4 d73d f2e9 c9bd 1be4 87bd
000003e0: ad77 083d 9b5d 8d3d e9e8 ce3d 3488 94bd
000003f0: ac50 f23d ceec 2c3e b443 95bd 3773 f53d
-0.030150842 -0.04439057 0.13166162 0.15884024 -0.10668135 -0.09171497 0.09701124 0.019897228
0.060303 0.06783695 -0.012479761 0.12302497 0.20379212 0.067391425 -0.036059253 0.01521976
0.07561128 0.18770434 0.030222554 -0.03784386 -0.047917917 0.24612384 0.12162252 0.074334584
0.008001907 0.009703306 0.06804619 -0.08039615 0.028812993 0.12680313 0.0817321 0.07724999
0.050578497 0.111628465 -0.0006419867 -0.04442203 -0.013348788 0.06872974 -0.0724653 0.11042546
-0.047380853 0.046140052 0.11570582 0.15012 0.07990491 -0.012841642 0.10085139 0.06912968
0.20669787 0.091265395 0.03374459 0.25560242 0.15209562 0.27616298 0.12861314 0.027142162
-0.0083834445 0.040787823 -0.0023041342 -0.003915136 0.024567178 0.1605701 0.13670786 0.06382567
0.09122021 -0.0860863 0.04605891 0.069487065 0.05767781 0.026164543 0.08601129 -0.07710465
-0.010320389 -0.06591817 -0.07456638 0.04415906 -0.09426618 0.028940521 -0.07682924 -0.05117486
-0.05738362 -0.16410229 0.10144278 0.031045781 0.040541735 0.02217566 -0.013626982 -0.0637301
-0.08509049 -0.064109586 -0.033004563 0.08496414 0.05164656 0.09344959 -0.069538765 -0.110105
-0.011245477 -0.08055521 -0.06676706 -0.09509458 -0.059060693 -0.13283418 0.11287127 0.06675362
-0.10171187 -0.14431824 0.13297854 0.12088304 -0.08834669 -0.016504152 -0.07849196 -0.15329295
-0.20207316 -0.012512181 0.15593582 -0.059192132 -0.1629517 0.0029717493 0.11504925 0.096950844
0.090686 -0.027015692 -0.054812104 0.0706454 -0.12685995 -0.06767201 0.043269105 0.00990018
-0.011800321 0.034376755 -0.03862428 -0.05803484 0.020452738 -0.105478115 0.063843615 0.07994243
0.06162 0.085225694 -0.019112667 -0.04071405 -0.09714674 -0.022363514 -0.11230611 0.07406498
0.011779633 -0.054633863 -0.0092765605 0.08489077 -0.064370155 -0.015618152 0.008727877 -0.05198883
-0.029420687 0.055299234 -0.032998607 -0.09895055 0.104973055 -0.08874569 -0.026261745 -0.001726204
0.07228561 -0.026223827 -0.06246684 0.071344174 -0.07316751 0.02417579 0.02602537 0.0005869959
-0.03586206 -0.003351264 -0.06507265 0.0597383 -0.01617094 -0.06274965 -0.07709801 0.07686985
-0.05825379 0.06787761 0.013519292 -0.08466195 0.04395195 0.06797563 0.06082672 -0.065714106
-0.1257072 0.08774329 -0.07679282 0.054323945 0.109284 -0.026986834 -0.09717786 0.0820062
-0.0886614 -0.021867825 -0.06861564 0.13214266 0.118577 -0.034623135 -0.03653429 0.16420528
0.09095459 0.16604356 -0.06522322 0.14716841 0.116864614 -0.0052439305 0.014204239 0.04960031
0.110852905 0.068751864 -0.057418566 0.114609666 -0.102812186 0.032917287 0.05930138 0.11945082
-0.001024036 0.156302 -0.04527529 -0.017665092 0.17403917 0.11963333 -0.017981103 -0.008109876
0.058466103 0.12897499 0.20804113 0.03970244 -0.04138746 0.061057184 -0.041179452 0.007987156
-0.08770281 0.075479925 0.032774244 0.1400903 0.070595525 -0.078003384 0.06285403 0.08294303
0.042611703 -0.06487041 0.06368696 0.08156846 0.0425857 0.10529486 -0.09859075 -0.066353045
0.033317257 0.069026195 0.10103018 -0.07252541 0.11831793 0.16887209 -0.07288304 0.11984866

lstm.bias_hh_l0 f4 [256]
00000000: 86ec f73d 438f 7bbd d95e 983d 6b2a 013e
00000010: 6e31 8e3d a2c3 90bc 0cad 6fbc 8fa4 a63d
00000020: 9f03 7639 9cb9 063e 8190 88bd a392 fa3d
00000030: 0ba2 fb3d ebc8 cf3d 3a22 8e3c 0ffa 233d
00000040: 396b 123d c246 0f3c 1994 983d a76d 4a3e
00000050: a1a1 97bd a3da 2e3e b097 bfbd 0784 6b3b
00000060: 3741 c53c 66a4 fdbc f9ed 9e3d 9bc6 d13d
00000070: 6ca0 773d bde2 f73d 9d3f 16bd 2174 c93d
00000080: e3f3 66bd 8087 d8bb 5cd8 9c3d 08a5 0abd
00000090: 282d 033e 363a bd3d ee03 b73d 9e20 f5bc
000000a0: 2be7 54bd 11d2 493d 00b6 d1bc b4c1 2a3d
000000b0: a00a d83d 023f 063e bcd3 cc3d 625f e1bc
000000c0: f278 743e 324a 9abd a104 4e3d 3725 1c3e
000000d0: ea8a 8e3d 5749 f63d 2f8a 31bd a3e3 983d
000000e0: 8640 f2bc 5215 dc3d b964 803d 6b97 073e
000000f0: c144 643c 593d 163e e92c 8bbd 31b0 21bd
00000100: 03b8 a8bd d690 9cbc bde7 a6bd b4d8 313d
00000110: 2fbf 2cbd 97d1 0e3d d2d7 b93d 02b2 c7bd
00000120: 1037 f0bc 23c0 17be 9850 cf3d d155 70bd
00000130: abc2 34be 1df7 9e3d 65fe 2cbc 3591 093d
00000140: bfad 163d b245 5ebd 5fd6 8dbc cd5c 0c3e
00000150: f930 36bd 416a 9b3b 5aed c73d 62f2 e3bd
00000160: 3b54 24bd 29f5 1ebd 56e9 debd d239 7d3d
00000170: b3f7 11bc a049 4abc e294 b23d 1cf9 513d
00000180: 5e32 de3d 4abf 07be 3f30 2ebd 1073 05be
00000190: c765 bbbc e8b7 9d3d 5932 8fbc 5469 88bd
000001a0: 223d 8e3d 61c4 aabc 0c99 2b3d 2b22 0a3e
000001b0: 3314 133e f3b0 9c3d e963 e5bd 2e10 24bd
000001c0: f1ea 5cbc f450 c13d 953a 8bbd a1f6 cebc
000001d0: 7d99 d7bd 7513 02be 91ec 8cbd 125e 6cbd
000001e0: 4fa4 35bd c4de 313d 0446 3cbd 3bf6 a63d
000001f0: ab2a cdbd 39dd a13d b415 23be 10fd 4f3c
00000200: 6dfb 60bd 9a59 aebd b992 4a3d a837 94bc
00000210: 54ad cebd a82d 57bd 5feb e7bd 7a53 4dbd
00000220: 0d13 743d f7a8 533b 76bb 8fbd 001e d83d
00000230: 895b be3c fd7c d53d 1aa3 363d afd0 083c
00000240: 2746 34bd c642 67bd da1c d53d 7c6f af3c
00000250: fc91 c63d be44 0f3d 6aee 5abc e7d9 19be
00000260: 41ff 4c3d 38c4 9dbc 34c0 043d 1d59 2bbd
00000270: 062e 333e 6192 d53d aec7 14bd f63f 0fbd
00000280: 7ab0 a5bd d77e 903d 38aa 9fbd ff20 aabd
00000290: 6bd5 b2bd d039 d4bd 3e36 b23d 39e8 4dbd
000002a0: b89a 963d ee02 adbc 505b 03bd 0a4a 68bd
000002b0: 87e7 d9bd 93ed cf3c 1131 71bd 8cd9 713d
000002c0: 9173 b3bd 36a9 123d acd0 ea3d 6cbd fabb
000002d0: 2adf 17bc 085f d6bd ac24 30bd aa45 c03d
000002e0: bb71 053d 5ad1 983d 044f 993d b2be f9bc
000002f0: 7f40 55bd 2f73 d93d 43e1 2abd 050a b2bc
00000300: 1c5d 82bd fe38 ec3d 1c1a 89bc 022a 053d
00000310: 8cd2 93bd 6866 983d f32e 7cbd 2b9b 2e3e
00000320: 8bcb f83d f7d9 87bc 94f8 b8bd ef05 813d
00000330: f214 b43d c2fc 75bd 9cb2 093e 6a49 253c
00000340: af8d 823d 7da7 e93d a6f1 50bd b873 073d
00000350: 15d2 793d 032c b53c 5acb 793c fa01 38bb
00000360: 9ba1 fa3a 7a02 563e 162e a0bd 52b4 a7bd
00000370: 0117 25bd b256 203e d3af 92bd 8e0b fe3d
00000380: 50f7 1b3e 32a5 2c3e 2b15 6c3e 0831 503d
00000390: 8968 b3bd e472 f03c 1469 eb3d 2363 273b
000003a0: 0a0d a8bd 44ba 483e 30ee 6b3d 5db1 f93d
000003b0: d83a e63c 8fc6 d7bd 6f37 e53d 60d3 2ebd
000003c0: 2a6c 063d 5dca 1e3e a67b f63a 9494 623e
000003d0: cc02 2b3e 645f 1e3e 76fb fabc 3981 8f3d
000003e0: f756 d93c e075 fd3d d72a bcbc aac2 1dbd
000003f0: a375 8abd 4c03 91bd 97ab 223c 5e64 91bc
0.1210566 -0.061415922 0.07439966 0.12613837 0.06943022 -0.01767141 -0.01462866 0.08136856
0.00023461737 0.13156742 -0.06668187 0.12235 0.122867666 0.10145744 0.017350305 0.040033396
0.035746787 0.008744897 0.074501224 0.19768392 -0.07403875 0.17075591 -0.09355104 0.0035936849
0.024078948 -0.03096218 0.077602334 0.10242959 0.060455725 0.12103794 -0.03668176 0.09836603
-0.056384932 -0.0066079497 0.07658455 -0.033848792 0.12810194 0.092396185 0.089362964 -0.02992278
-0.05197827 0.0492726 -0.02559948 0.041688636 0.105489016 0.13109973 0.100013226 -0.027511302
0.23874262 -0.07533683 0.050297383 0.15248571 0.069600895 0.12025707 -0.043344673 0.07465293
-0.029571783 0.10746254 0.06269211 0.13241355 0.013932408 0.1467184 -0.06795675 -0.03947467
-0.082382225 -0.019112032 -0.08149669 0.043419555 -0.042174514 0.03486785 0.090743676 -0.09750749
-0.02932313 -0.14819388 0.10122794 -0.05867559 -0.17652385 0.07761977 -0.010558699 0.033585746
0.03678679 -0.054265685 -0.017314134 0.13707276 -0.044480298 0.004742891 0.09762068 -0.11130215
-0.04011939 -0.03880802 -0.10884349 0.06182272 -0.008909154 -0.012346655 0.087198034 0.05126296
0.108494505 -0.13256565 -0.04252648 -0.13032174 -0.02287568 0.07701093 -0.017480062 -0.06660715
0.06945254 -0.020845594 0.041894004 0.13489597 0.14363174 0.07650938 -0.11200697 -0.040054493
-0.013483749 0.09439269 -0.06798283 -0.025264086 -0.105273224 -0.12702735 -0.06881059 -0.0577069
-0.04434615 0.043425336 -0.04596521 0.081524335 -0.10017904 0.07903523 -0.15926248 0.012694612
-0.05492728 -0.08513184 0.049456332 -0.018092945 -0.100916535 -0.052533776 -0.1132419 -0.050128438
0.05958848 0.0032296756 -0.07018177 0.10552597 0.023237007 0.1042423 0.04458914 0.008350535
-0.044012215 -0.056460164 0.104058936 0.021415465 0.09695813 0.034977667 -0.013362506 -0.1502453
0.050048117 -0.019258603 0.03240986 -0.041833032 0.17498025 0.1042831 -0.036323242 -0.034973107
-0.08090301 0.07055443 -0.077961385 -0.08307075 -0.087321125 -0.10362589 0.08701752 -0.050270293
0.07353729 -0.021119561 -0.032069504 -0.056711234 -0.106398635 0.025381839 -0.058884684 0.05904536
-0.08762277 0.035805903 0.11465582 -0.0076519754 -0.009269515 -0.104673445 -0.043003723 0.09388287
0.032579165 0.07461806 0.07485774 -0.030486438 -0.05206346 0.10617673 -0.041718733 -0.021733293
-0.063654155 0.11534308 -0.016736083 0.032510765 -0.07217893 0.074414074 -0.06156821 0.1705138
0.12148198 -0.016583426 -0.090317875 0.0629996 0.087930575 -0.0600555 0.1344704 0.010088304
0.0637468 0.11408899 -0.051011704 0.033069342 0.060991365 0.022115713 0.015246237 -0.002807735
0.0019121649 0.20899382 -0.0782129 -0.0818869 -0.04030514 0.15658072 -0.07162442 0.12404548
0.15231061 0.16859892 0.2305495 0.05082801 -0.08760173 0.02935166 0.114946514 0.0025541268
-0.08205612 0.19602305 0.0576002 0.121920325 0.02810423 -0.10535919 0.11192214 -0.04268205
0.032817997 0.15506883 0.0018805161 0.2212699 0.16700286 0.15466076 -0.030637484 0.07007069
0.026530726 0.123759985 -0.022969646 -0.038515724 -0.06760719 -0.07080707 0.0099286055 -0.017748054

lstm.weight_ih_l1 f4 [256, 64]
00000000: c7a6 c03c 8887 a8bb 1a8b dabd 6b9c bdbd
00000010: 77d1 d5bc 21f6 263d b3e0 46bc 1b57 273d
00000020: 162f afbd e047 49bd 7a9c 5fbd 5194 973d
00000030: ac27 0cbe 8169 e43d 2dea c73d 0471 f8bd
00000040: 9656 6c3d d15a 453d bbca c43c da18 79bd
00000050: 4360 d73d f29d dbbc 6192 4fbd 934c db3c
00000060: 6643 38bc 626d 943d 45d2 003c 23a5 d0bd
00000070: 10e4 debc 8e25 c73c 6a4b fcbd 810c b13d
00000080: 84ec b63d 5e82 a53d 7ebb d6bd 7b79 84bd
00000090: 8328 40bb f536 333c 6b0a b5ba 6858 dabc
000000a0: 8e52 45bd 8d8e 4dbd 0efb 5c3d 0357 06bd
000000b0: 56c6 8cbd 88b6 703d e45f a2bd 72dd 3cbc
000000c0: 71ea c23d ef94 13bc 92c1 be3d e8a0 58bd
000000d0: 91ee 543d e9e6 a6bd d939 ae3d 6aa3 49bc
000000e0: c13d 93bd 1ea2 6dbd 9e94 4f3d c950 c83d
000000f0: 83a1 a33c 078a a23d 9357 22bd c03b ebbb
00000100: e4ef b53d 5af7 0bbd 28d8 f23b 61df b53d
00000110: cac6 2f3c d6ca 4abd 8e8e 033d b10f cdba
00000120: e764 913c cdd8 cb3d 2280 983d 608a 87bd
00000130: 932c b4bc a570 953c b3df 963d d3a3 5abd
00000140: eba8 853c b071 b3bc 7d9b d8bd e3cb d9bd
00000150: 5de5 a1bd c94a 253d 9433 343d 81f5 abbb
00000160: ede7 d43d 6a6b 45bd 8cb7 ec3d 651a b939
00000170: d204 6bbd 02ec a13c 70f2 06be 031e 593d
00000180: 82fc 5a3d 8519 ad3d c0e4 963d 34b4 ae3d
00000190: 91d1 04be 1cba e5bd 8f64 993c 7450 30bd
000001a0: b9ac 0abc c51f ea3d af46 3d3c d615 dc3b
000001b0: 409e e3bd 21eb 32bc 5b91 adbd 3210 41bd
000001c0: de25 d93d 5cff b8bc df47 5d3d 96dd 8f3d
000001d0: 02dc c13d bae0 d63c 1c4d 07be 4b8d 303c
000001e0: 6c00 0b3d 6637 b9bd a409 26be 0eb7 88bd
000001f0: 211a ab3d 1366 58bd bfcb 383b cfa3 463d
00000200: 1441 0a3e cd7d 613c b444 bd3d 8b2b 543d
00000210: 402d 323d df83 44bd ba8b 0c3e e64e 15bd
00000220: 564f 353e e3be 33be b00a 9ebd 37ac 423d
00000230: 81a6 eb3c b49d 6c3d f20e 4ebe b8f4 143c
00000240: dd39 b33d e623 e93d 2ad2 46bd 487c 60bb
00000250: 78f6 48bd 829f b8bc d2bc 1dbe 68ba 65bd
00000260: 5efd ccbd 1300 ff3c ffb4 b4bd 96e2 a0bd
00000270: 6f5b a9bd d1a7 1fbc b9a4 82bd a213 f2bd
00000280: 5082 8cbb 7aa6 05be 6a4c bc3d 9774 a9bc
00000290: ff24 843d d3c1 41bd 87ea 20be c832 acbc
000002a0: f4d9 98bc c770 193d 6df4 003e adb2 04be
000002b0: 4a84 28be 7ebe 473d c8df 7cbd b370 d53c
000002c0: b45c cf3d a8fc a73d 579e c63d dfb9 743d
000002d0: e814 62bc 2b68 df3c 285c 15bc 43ec 18be
000002e0: 310c 5c3d 115d 7a3d b48a 81bc 3b6d 233d
000002f0: 8bf8 a93d 7772 8f39 cb86 c53d 6f8f 263d
00000300: b74f 9c39 1bb2 d83d 66ab 083d bec3 133e
00000310: ec26 853d e4b0 31bd 10d5 07bd 08d2 fb3d
00000320: bcf7 6cbd b8de 0bbd d2bc 98bd b950 22bd
00000330: 40cf 0c3d 86ec c23d 73ff 72bd e006 65bd
00000340: e759 e53d 4b9f 82bd fcae a03d dab7 cc3d
00000350: cb01 943b 57ef 49bc fa63 933d a7bd ce3b
00000360: e88b e83d a446 a8bd 6546 ab3d 6095 a63d
00000370: 722c ea3d 0562 24bd 6fab 6b3a 71c0 d3bd
00000380: 5ce4 eb3c 9b96 b9bd f9cd 213d e2d6 3ebd
00000390: 1055 31bd d710 763c ab2c 033e c5be a5bd
000003a0: a445 cd3d 24f2 bbbd 7fb6 c1bd 5773 473d
000003b0: 6d3b b5bd 57a4 a53d 442e c5bd 0c40 433c
000003c0: 4220 e3bd 3729 25bd 201e df3d b619 78be
000003d0: 65ea f2bd e5b7 b5bd e8ac e3bd c97a 04be
000003e0: b927 cf3b 6f10 2ebd 6cd3 d13d cb33 ad3d
000003f0: 6dd6 933d e964 dfbd 34f8 13be 9820 8a3b
0.023517026 -0.0051431097 -0.10671063 -0.0925835 -0.026100857 0.04076207 -0.012138533 0.040854555
-0.08553903 -0.04914081 -0.054592587 0.07401336 -0.13687009 0.11152936 0.09761462 -0.12130931
0.057699762 0.048182312 0.02402245 -0.060814716 0.10516407 -0.026808713 -0.050676707 0.026769912
-0.011246538 0.072474256 0.007862632 -0.10187747 -0.027208358 0.0243099 -0.123190716 0.08644963
0.089318305 0.08081506 -0.1048498 -0.06468483 -0.0029321022 0.010938396 -0.0013812309 -0.026653484
-0.048174433 -0.050184775 0.053950362 -0.032797825 -0.06873767 0.058767825 -0.07928446 -0.011527406
0.095173724 -0.0090076765 0.09314264 -0.052887827 0.051985327 -0.08149511 0.08507127 -0.012307027
-0.07189513 -0.058015935 0.05067884 0.097810335 0.019974476 0.07936483 -0.0396343 -0.0071787536
0.08883646 -0.03417144 0.0074110217 0.08880497 0.010728547 -0.049509846 0.032118373 -0.0015644935
0.01774831 0.09953461 0.074463144 -0.0661819 -0.02199391 0.01824219 0.07366886 -0.05337889
0.016315898 -0.021904796 -0.10576532 -0.106345914 -0.07905076 0.040354524 0.0439945 -0.005247772
0.10395799 -0.04819814 0.11558446 0.00035305615 -0.057377644 0.019765858 -0.1317842 0.053007137
0.053463466 0.08452133 0.07367849 0.08530465 -0.12970568 -0.11217138 0.018724708 -0.043045476
-0.008464032 0.11431841 0.011552497 0.0067164702 -0.11114168 -0.010920317 -0.0847499 -0.047134586
0.10602926 -0.022582702 0.05402362 0.07024686 0.09465791 0.026230205 -0.13213009 0.010775874
0.03393595 -0.090437695 -0.16214615 -0.0667554 0.08354593 -0.05283172 0.0028197614 0.048496064
0.13501388 0.013762903 0.0924162 0.05179934 0.043500185 -0.047977325 0.13725176 -0.036452197
0.17706046 -0.17553286 -0.07716882 0.047527518 0.028765919 0.057767585 -0.20122889 0.009091549
0.08751271 0.113838 -0.04854027 -0.0034253765 -0.049063176 -0.022536997 -0.1540406 -0.056085974
-0.100092635 0.031127965 -0.08823585 -0.07855718 -0.08269393 -0.0097446 -0.063790746 -0.11820151
-0.0042879954 -0.13051787 0.09194262 -0.020685477 0.06452369 -0.047303986 -0.15714465 -0.021020308
-0.018658616 0.03746107 0.12593241 -0.12958784 -0.16456714 0.048765652 -0.061736852 0.026054716
0.101251036 0.08202487 0.0969817 0.059747573 -0.01379893 0.02727135 -0.00911621 -0.14933877
0.053722564 0.06112391 -0.01581321 0.039899092 0.08299359 0.00027360368 0.0964485 0.040664133
0.0002981403 0.10580846 0.033366583 0.14430138 0.065015644 -0.043381587 -0.033162177 0.1229592
-0.057853445 -0.034147948 -0.074578896 -0.039627764 0.034377337 0.095177695 -0.059325647 -0.05591476
0.11198788 -0.06378039 0.078458756 0.099960044 0.0045168153 -0.0123251295 0.071968034 0.0063092294
0.1135481 -0.08216599 0.08363036 0.0813396 0.114342585 -0.04013254 0.0008990084 -0.1033944
0.028795414 -0.09061929 0.03950307 -0.046591647 -0.043294013 0.015018663 0.12810008 -0.08093027
0.100230485 -0.09177044 -0.094586365 0.04869398 -0.08849225 0.08087986 -0.09627965 0.011917125
-0.11090137 -0.04032251 0.10894418 -0.24228558 -0.118611135 -0.08872966 -0.111169636 -0.12937464
0.006321874 -0.04249614 0.10245404 0.08457144 0.07218633 -0.10907919 -0.1445015 0.0042153113

lstm.weight_hh_l1 f4 [256, 64]
00000000: 6d24 fcbd 89f2 0dbd 8b3f 08bc 53a0 eabd
00000010: 72b7 863c 0738 a1bd c468 afbd 52a7 10be
00000020: 0b5c dabd f0ee c7bd 9563 b5bd 8298 c0bb
00000030: d33e f1bd cf6e a93c 0ccd 1fbc 4134 293e
00000040: 59de eabd 3998 d0bc 40dd ea3c 1f8c 5fbd
00000050: c5b4 9abd 1bb2 e03d 73e6 48bd bb89 febc
00000060: d35e 833d acf4 a2bd 3d78 9bbd 4a48 debb
00000070: 451c 7abd c6a3 ee3d cdce 9abc 2213 803d
00000080: 0278 e9bd 2fde 8abd d423 7ebc 8ee6 983d
00000090: 01f2 cf3d e643 d33c 55cc d3bd e82e ad3d
000000a0: 7c6b 383e 6fd3 80bd 59af aabd 85a6 4e3b
000000b0: bc96 73bd 3d2b c6bd 387d 2bbc 510b 9e3d
000000c0: ba72 ec3d 01ee 143e d99d 393c cd50 69bc
000000d0: 81e8 abbd 7e03 8ebd 8113 543e 1939 583d
000000e0: 56d2 493c 5424 92bc 2e86 503c 3f41 f3bd
000000f0: 6c52 a33d 9033 df3d b827 e4bd 0971 c7bd
00000100: fd06 76bd 0f8d 123c 090e d5bd dc1c d63d
00000110: 16da c03b fa2d 0ebe e8f1 8cbd 687a 753d
00000120: 9ce2 4b3d 0a43 4e3d 0eb5 9ebd 7bb2 1a3c
00000130: fcf0 50bc a965 70bd 0c0d ebbd b02f 343e
00000140: 814e 543d efd1 713c 137d 1cbd e043 b73d
00000150: 8dd7 e8bd c6df 723d 4800 ac3d ddac be3d
00000160: 3e39 9abd 71cc fc3d db28 eb3d 817f a73d
00000170: afc7 3e3d db1f e5bd 2945 5b3d edab f1bd
00000180: cf86 ebbd eec0 42bd 4b99 fb3d e8dc c8bd
00000190: bcbf 9dbd 6f0f b5bd 61a9 a9bd 9b6e afbd
000001a0: 1ba9 b13c dae0 21be 3e43 d63d 33dd c33d
000001b0: a783 fabd c4cc 7c3d 80a0 d73d 5912 a8bd
000001c0: b829 b0bd 9355 a13d 15d8 d73d 43df cebc
000001d0: 4077 18bd cf67 11bd 85d1 853d a258 9ebb
000001e0: 9aed 4fbd 78d2 543d 8c13 d2bd da4a 97bd
000001f0: 68fa 5dbd 7c37 263d cf05 9d3d cc33 9cbc
00000200: 1f29 09be 9bf7 f5bd b18a e03c f0aa 97bc
00000210: 9c76 00be 7816 12be 21f0 c23d 8e2e fabd
00000220: b4c1 13bc a0d4 2a3e b5bd cf3c 5ee4 a83d
00000230: e608 6e3d 8f21 18be a48b a83d dddb 8dbd
00000240: f4a3 bd3b 8f68 fa3c 4a27 813d 2090 d13d
00000250: aed9 7cbd 93d5 06bc d3f4 e3bd 8e5e b43d
00000260: 1d5d c03d 927a dc3d f84b 573d 2ecf 513b
00000270: 8e8e cdbd 33f5 98bd bbc5 8cbd b4ca b4bd
00000280: beee adbc e94b 5a3c 08ec a8bd 11e7 a0bd
00000290: d252 8b3d 555c d6bd 38a9 57bc 682f d23d
000002a0: b06b 77bd d2b7 e2bb f2bd 9e3d beda 9e3d
000002b0: 7314 5e3d b8bf 42bd 26df d8bc 35a9 cf3d
000002c0: 60dc f1bd 062e 253e 86ee 523d 0f33 803d
000002d0: 8232 013e d00b 0dbe eb45 593d 5286 ccbd
000002e0: d2da dd3d 3f0d 7e3a 563c ea3d 0a0b c9bd
000002f0: 7577 cdbd eb98 ab3d fc6a 0cbd 0e59 213d
00000300: 7445 5cbc e4f9 f53c 643b cbbb b7ff 86bb
00000310: 81bf a1bb da58 36bd 1972 b53c 23f5 34be
00000320: 8e89 dd3d 6137 ae3d f8ba e3bd 71de a73c
00000330: 8783 48be 339f 3c3d b133 21be d16f 453d
00000340: 4d88 263d 9719 1c3d 6271 b7bd c168 3a3d
00000350: e907 bf3d a3c7 dd3d f0c7 27bd 25f8 ffbd
00000360: 5e6b 063e 01cf 213e 3684 c33d 9f6b f23d
00000370: 1f06 113e 7278 933d c1ca babd d64c 353d
00000380: 4006 64bd 4e8d 21bd 3293 a33d c719 b13d
00000390: 53a5 90bd fe5a d2bd 5743 10bd 32d4 fe3b
000003a0: 0b9b 9fbd 106d 1cbe 8b8f dbbb c3a9 04be
000003b0: f7b1 8d3d 23d2 793c 1cb2 f63c 094e 063d
000003c0: 493c eabd 2982 e13c 78a0 223d a6d7 a13d
000003d0: f419 c23d 54f4 853d aac5 df3d 59ec c7bc
000003e0: ce65 a5bd 3bc8 28bd 7ac5 2f3d 472f ac3b
000003f0: 8e44 223c 59ac 2bbd 8dd3 51bc 3719 d83d
-0.12311635 -0.034655128 -0.008315931 -0.11456361 0.016444895 -0.078720145 -0.08564904 -0.14126328
-0.10662087 -0.097623706 -0.088568844 -0.0058775553 -0.11779561 0.02068272 -0.009753477 0.1652384
-0.11468191 -0.02546321 0.028669953 -0.05457699 -0.0755401 0.10971471 -0.0490479 -0.031071534
0.06414571 -0.07956824 -0.07591293 -0.00678352 -0.061062116 0.11652331 -0.018897438 0.06253649
-0.11399843 -0.067806594 -0.015511472 0.0746585 0.101535805 0.025789212 -0.103417076 0.08456212
0.18009752 -0.06290328 -0.08334226 0.003153236 -0.059469923 -0.09676216 -0.010466866 0.07717002
0.1154532 0.14543916 0.011329138 -0.014240456 -0.08393956 -0.0693426 0.20710565 0.052788828
0.012318214 -0.017839588 0.012727303 -0.11877679 0.07974705 0.10898507 -0.11140388 -0.097383566
-0.06006526 0.008944764 -0.104030676 0.10454723 0.005885373 -0.13884726 -0.068820775 0.05993119
0.04977666 0.050356902 -0.07749377 0.009441967 -0.012752768 -0.0586907 -0.11477098 0.17596316
0.05183268 0.014759525 -0.038205218 0.08948493 -0.11369238 0.05929544 0.08398491 0.09310315
-0.07530449 0.123436816 0.11482402 0.08178616 0.046577152 -0.111877166 0.053532753 -0.1180037
-0.11500322 -0.047547273 0.12285098 -0.098077595 -0.07702586 -0.08840834 -0.082842596 -0.08566018
0.021687081 -0.1580843 0.10462044 0.09563675 -0.12232142 0.061718717 0.1052866 -0.082066245
-0.08601707 0.0787765 0.10539261 -0.025252944 -0.0372231 -0.03549939 0.06534103 -0.004832343
-0.050763704 0.05195853 -0.102576345 -0.07387324 -0.054193884 0.040580258 0.076671235 -0.019067667
-0.13394593 -0.120101176 0.027409883 -0.018514127 -0.12545246 -0.14266384 0.09518457 -0.12215911
-0.00901835 0.16682673 0.025359014 0.082466826 0.058113955 -0.14856552 0.08229759 -0.06926701
0.005787367 0.030567436 0.06306322 0.10232568 -0.061731033 -0.008229631 -0.11130681 0.088070974
0.0939276 0.10765566 0.052562684 0.0032014358 -0.10036956 -0.07468643 -0.068736516 -0.08827725
-0.021232005 0.013323762 -0.082481444 -0.078565724 0.06802906 -0.1046683 -0.0131629035 0.10262948
-0.060405433 -0.0069188857 0.07751073 0.077565655 0.05421872 -0.04754612 -0.026473593 0.101396956
-0.11809611 0.16130838 0.051497005 0.06259739 0.12616923 -0.13774037 0.053045195 -0.09986557
0.10832752 0.0009691305 0.114372894 -0.09816559 -0.1003255 0.08378776 -0.034281716 0.03939157
-0.013444293 0.030026384 -0.0062021483 -0.004119839 -0.004936159 -0.04451833 0.022149133 -0.17671637
0.10817252 0.085066564 -0.11119646 0.02049181 -0.19581424 0.04605026 -0.15742375 0.04820234
0.04065733 0.038110342 -0.08957173 0.045510057 0.093276806 0.10829093 -0.04096216 -0.12498502
0.13126895 0.15801622 0.095467016 0.11836933 0.14162491 0.072007075 -0.091207035 0.04426273
-0.055670023 -0.0394414 0.0798706 0.08647495 -0.07062783 -0.10271262 -0.03522047 0.0077767605
-0.07793244 -0.15275979 -0.0067004613 -0.12955384 0.0691871 0.015247854 0.030114226 0.032789264
-0.1143728 0.027527886 0.039703816 0.0790246 0.094776064 0.065407425 0.10926373 -0.024404692
-0.08076058 -0.04120658 0.042912938 0.0052546593 0.00990404 -0.04191241 -0.012806785 0.10551684

lstm.bias_ih_l1 f4 [256]
00000000: cc0c 3e3d b90c fc3d bf9f 3c3d e7bd 163e
00000010: 0dd7 82bd a920 e33d 1d8d b43d 592e 87bd
00000020: 6be9 293e ccf7 1b3d 0477 f63d 49bc 2e3d
00000030: 9a99 6dbd 427c e73d b55c e73b 8fad bfbb
00000040: 05aa fa3d 3c8a a73d b5a3 093e ded1 ee3d
00000050: daa5 c03d 6a00 1a3e 2edd 683d 03c3 b83c
00000060: 07b6 18bd bd8b 353e a3dd 373e 8302 523d
00000070: 94d7 923c d69d 9fbd df93 b63d d3fc 593c
00000080: c613 d8bb 13fb b1ba 48d4 c63d 16d9 73bd
00000090: 14e8 973e ab41 7d3d bb29 cebd 289d fdbc
000000a0: 58a4 133e 66a1 a53d ad87 193e 56ac 613d
000000b0: 6576 863d 6fd0 193e cd42 6ebc 8ce6 2c3e
000000c0: be64 4a3d 771e 79bd 9151 c03c 031e d63d
000000d0: 1ee1 e43d 49df 233d fb74 013d 751b fa3c
000000e0: 3093 9e3d 9328 91bd 9497 b4bd b6c8 99bd
000000f0: c62c 50bc e562 643d bf23 713c 4d15 99bd
00000100: 8244 d7bd cb90 463d a6c1 27bc 5422 8e3d
00000110: 4a34 ed3d 5f37 6fbd da65 3d3d 8519 b3bd
00000120: 642c 13bc 94bc 873d 7676 c63d 6782 6cbd
00000130: bbe9 5dbd ddad d0bd 17e3 88bd da60 9fbb
00000140: 1131 b9bc 18b6 a8bd 1a31 693d 2698 8d3b
00000150: 1d95 01bd 85d7 9e3d 6fe4 37bd 4221 81bd
00000160: af64 88bd 761c 0d3e ada9 043d 2d55 0fbe
00000170: bb6f ddbc 79f5 c5bd 47f7 bf3d faae 0e3e
00000180: 8b47 2dbd 2754 82bd f52d ce3c bb8e 043e
00000190: 963d 523d 936b 4f3c f1bf 363d f63d 643d
000001a0: 8727 83bd be55 5f3c de66 ed3d eea1 473d
000001b0: 4bf0 1d3e 7d3e 81bd 9673 d53c f308 e5bd
000001c0: e3a8 0b3d 758b 213d bfb6 5e3d 46d0 36bd
000001d0: aa79 bebd 13eb dfbc 3d00 183d 3040 c8bd
000001e0: aaa6 1d3d d758 863c 91b0 2a3d 6fe5 e23c
000001f0: bbcf 99bd ae23 663d 0b46 b0bd 8abe cdbc
00000200: 6716 83bc ce50 bf3d cc9c e9bd fcf1 0ebe
00000210: 2734 c4bd 964b 9ebd a902 c4bd eccc c9bb
00000220: f6ab dbbd 5db3 aabc 0087 103d 6067 99bc
00000230: ff41 92bd 809d a4bd 9bdb e43b 679a 84bd
00000240: bb21 9dbd 413f ea3d 1b11 db3d afc9 f43c
00000250: fb1d 11bd c9b6 bf3d fa42 dbbd 8e0d fcbd
00000260: 8fad a43d a28a 043c e2c2 c2bd d71e c8bd
00000270: 2b60 213b 060f a9bd 4b5f 98bd 9ba6 593b
00000280: 1b45 8cbd 48ca b6bd 2b2e 5cbb 3f6b b1bc
00000290: d253 b1bd 925c 87bd 59d0 833d 1969 043e
000002a0: f39c 69bc 8f28 2ebd d7aa d7bd a34c 0dbd
000002b0: bd19 023e c3f5 5b3d 5dbe 893d 4f38 8bbc
000002c0: 2e81 4ebd a9e8 693d dc86 18bd a2cd 21bc
000002d0: 6d59 8abd 9340 47bd 4f5c d03c 8688 8fbd
000002e0: 4196 2fbd e167 6bbc aa28 b43d 27b7 f0bc
000002f0: de12 a2bd 797d 003d a9f8 ab3b 41ec 553d
00000300: 37b6 16bd d728 49bd 7d9b c0bd 31a5 54bd
00000310: c4ca 603d 5984 103e d031 d13c add4 8a3c
00000320: 7c1b d63d 7814 f03d 08e7 c53c 0cde bf3c
00000330: aa56 97bd c026 14bd 6b5f f83d 3ffb 6ebc
00000340: bdeb fc3c aff8 cfbc 62ec b3bd 9625 85bd
00000350: d2af a83d cff3 213d 1750 fa3d d7f2 7c3c
00000360: 01d8 4e3d e6b9 53bd 01dd 6e3d 50fd 6b3e
00000370: f7ac b73d ce19 d93b e3a8 233c d426 0bbd
00000380: b421 c7bd 720e b53c 885b c83d 9cfb cabd
00000390: 3bfb bc3c e37a 52bd ef1c 11bd 075a 3fbd
000003a0: d794 0a3e c6e8 3b3d 2584 9dbd d55a 253e
000003b0: cfc8 063c 4782 9cbd 1982 163e f7fc f0bc
000003c0: 5fe2 49bd b832 febb 5dcf 8e3c ce8e c23d
000003d0: 2e3a a3bd badb 27bc 9d3b 4fbd aea4 313d
000003e0: 2206 df3d 014f 8a3d 17ed a93d 58fa 483c
000003f0: 0cc3 32bd 14a9 703c 748a 0c3e 0712 983d
0.046398923 0.12307114 0.046050783 0.1472088 -0.06388674 0.11090214 0.08815978 -0.06600637
0.16592948 0.038078114 0.12034419 0.04266003 -0.058007814 0.11302997 0.007060612 -0.005849547
0.1223946 0.08180663 0.13441356 0.11661123 0.09406634 0.1503922 0.05685156 0.022553926
-0.03728297 0.17729087 0.17955641 0.051271927 0.017925061 -0.07793777 0.08914923 0.013304907
-0.006594154 -0.0013578854 0.09708458 -0.0595332 0.2966925 0.061830204 -0.10066553 -0.030958727
0.14418161 0.08087425 0.14993162 0.055095993 0.06565551 0.15020917 -0.014542294 0.16884822
0.04941248 -0.06082007 0.023476394 0.10454943 0.1117575 0.040007863 0.031605702 0.03053067
0.077429175 -0.07087817 -0.08817974 -0.07508986 -0.012705987 0.055758376 0.014717995 -0.07474766
-0.10511114 0.04847793 -0.0102390405 0.06940141 0.11582239 -0.058402415 0.04623971 -0.08745102
-0.0089827515 0.06627765 0.096905634 -0.05774155 -0.05417798 -0.10189412 -0.06683939 -0.0048638405
-0.022606404 -0.082378566 0.056931593 0.004321116 -0.031636346 0.07755951 -0.044895586 -0.063051715
-0.06659829 0.13780388 0.032388378 -0.13997336 -0.027030816 -0.09665961 0.09373336 0.13933936
-0.042304557 -0.06363707 0.025168398 0.12945072 0.051328264 0.012659925 0.044616643 0.055723153
-0.064040236 0.013631282 0.11591886 0.048738413 0.15423696 -0.06310747 0.026056092 -0.111833476
0.03409661 0.039439637 0.0543735 -0.04463222 -0.09300549 -0.027333772 0.037109602 -0.09777868
0.03848902 0.016399784 0.041672293 0.027697293 -0.075103246 0.05618637 -0.0860711 -0.02511527
-0.016001893 0.09341584 -0.1140686 -0.13959497 -0.0958026 -0.077292606 -0.0957082 -0.006158462
-0.10726158 -0.02083748 0.035284996 -0.01872605 -0.07141494 -0.08037853 0.006984187 -0.064747624
-0.07672449 0.11437846 0.10696622 0.029881326 -0.035428982 0.093610354 -0.10706134 -0.12307273
0.08040916 0.008089693 -0.09509827 -0.09771507 0.002462397 -0.082548186 -0.07440051 0.0033210877
-0.06849118 -0.08925301 -0.0033596854 -0.021657584 -0.086585656 -0.06609453 0.064362235 0.12930717
-0.014258611 -0.04251915 -0.10530632 -0.034496915 0.12705131 0.053701174 0.06725762 -0.016994623
-0.050416164 0.057106648 -0.037237987 -0.009875687 -0.06755338 -0.048645567 0.025434641 -0.07008462
-0.042867903 -0.014368028 0.087968186 -0.029384209 -0.07913755 0.03136966 0.0052481485 0.052227262
-0.036794867 -0.049111214 -0.09404657 -0.05191535 0.054880872 0.14112987 0.025536448 0.016947115
0.10454461 0.11722654 0.024158016 0.02342131 -0.07389577 -0.036169767 0.121275745 -0.014586269
0.030874128 -0.025387136 -0.08785321 -0.065013096 0.0823666 0.039539155 0.12222307 0.015438757
0.050498966 -0.05169096 0.058316234 0.2304585 0.08968537 0.0066253906 0.009988996 -0.033972576
-0.09723225 0.022101615 0.09783083 -0.09911272 0.023069015 -0.051386725 -0.035427984 -0.046716716
0.1353334 0.045876287 -0.0769122 0.16147931 0.008226587 -0.07642036 0.14698066 -0.029417498
-0.04928815 -0.007757511 0.017432863 0.09499894 -0.07970081 -0.010245258 -0.05059396 0.04336994
0.108898416 0.0675335 0.082971744 0.012266718 -0.043643042 0.014688749 0.1372469 0.074253134

lstm.bias_hh_l1 f4 [256]
00000000: 889c d13d c4cb 0d3e c6a8 57bd e9fe 953d
00000010: fb4e bf3d 398a de3c 5474 423c d583 db3d
00000020: 71d8 9f3d 5a4f a1bd 2454 5dbd 45fd b13d
00000030: 4dc8 5cbc 3275 f83d 1a95 d4bd 479e 5e3d
00000040: b87c 373d 3349 94bd efbd 8abc 549a cd3d
00000050: bd5d d83d 2ee1 0abc 2048 8b3c dd8a 7d3d
00000060: e879 b5bd 5d56 063e f517 043e 7148 b33d
00000070: 448d 123c 7396 7fbd 0462 063e d7db dc3c
00000080: 57ab bcbd 92f4 803d 173d 2c3c 51c6 8cbd
00000090: 69ee 763e bda6 20bd 6057 563b c2ea c33d
000000a0: 651c a43d a93c 0f3e 6bd0 acbd 4039 293d
000000b0: 4293 433b a588 c33d 54dd 90bd 9698 1a3e
000000c0: 8e89 a83d 7f88 efbc 9519 0bbd 3c85 9cbc
000000d0: 9def 9f3d 682c 42bd d5c3 f93d 0a5f 043e
000000e0: ed31 eb3c c0d3 953c 59ef 0f3d ec9c 8bbc
000000f0: b709 8f3d e362 a0bd 00a4 18bd 0dab 783b
00000100: 3a90 2b3d 30f6 c1bc 38be 3dbd 7ea6 c2bd
00000110: 08d9 ba3d 6ae9 183e 3356 febc 4928 eb3c
00000120: c046 543d d244 b0bd 20ee 133e e1c9 653d
00000130: 062a dd3d 7421 263d b98c dd3d f284 dbbd
00000140: 1819 953c 91b2 72bd b3e9 b2bc d4c1 d53d
00000150: 1f19 04bc 4801 0cbd 24bb e03d 873f 36bd
00000160: 999a d33d 22ee 9abd 8872 b9bd ea4e a6bc
00000170: 16b7 c7bd 631a cf3d 89c9 9fbd a6fc d03d
00000180: b519 5ebc 6923 183d 7e7b 9dbd 4c62 84bd
00000190: 6a43 9cbd 1bcc 38bd f5df ae3d 7955 95bc
000001a0: 7482 93bb 4b1d fa3d 756a 61bd f795 61bd
000001b0: 4a95 b1bd 98d1 04bd b06a ba3d 5d19 c3bd
000001c0: 6018 05be e6a2 0b3e d089 f93d 6757 093e
000001d0: 11d3 1d3d f0ae d73c 5ee2 40bd cc7b ef3d
000001e0: cb6b e8bc 4d65 143e 12bc 7dbd 3f0a c3bd
000001f0: da4c 0f3e a774 673d 21f4 43bd fa7f ddbd
00000200: ddc9 f3bd 32a9 673c a7de 12be 3643 f5bc
00000210: 9fbd aa3c c275 abbd c47f 04be 7eaf aabd
00000220: 1465 9ebd d8c1 c73d f325 e43d 2b37 2f3c
00000230: 02dd aebd af20 03be 0bb0 debd 4db1 c03d
00000240: 690e 06be bdac 8e3d 3c53 ad3d 05fe d8bd
00000250: 4808 debd 6b90 eb3d 9df1 a3bc 56ba 8c3d
00000260: fa24 823d 9993 c53d 26a1 49bd cf78 993b
00000270: 97ea 22bd b0fa 943d 8859 9abd d392 02be
00000280: 2130 c83d a3de afbb e66b d83d 9d55 f03d
00000290: 6bd9 8f3d 071f d2bd dccf 173c ef4e d13d
000002a0: 0c0f 2fbc 4ab9 e63c d4c8 003e 1c91 9dbd
000002b0: 6baa e53d d329 b2bd 46e7 883c 992f 8e3d
000002c0: 4013 bdbd d8eb da3d f607 a73d c855 9dbc
000002d0: fd2f 98bd 444e 173c 288d c33d 8f89 b9bc
000002e0: 23e6 8a3c 9cdf 803d 2a52 a23d 4638 093d
000002f0: 0fd2 83bd 0724 32bd d736 dabd a9da e9bc
00000300: 2375 1a3e 3358 96bd 8ab0 f6bc 30e2 c13d
00000310: 5634 163d 52ad 84bb ce69 81bd 7523 16bd
00000320: 05c3 9b3d 0cfd e83d 513b 833d 16f3 0b3e
00000330: ec92 44bd f562 e63d 745b 3dbd cde7 083e
00000340: 67fc 57bc ddc0 173e cd0e 34bd 98b1 97bd
00000350: b5ad 21bd 809d 013e 3fb4 7c3c 1b8a 053d
00000360: d5d6 c1bb 5b76 c33c bcd0 aa3b d8cf 973c
00000370: 2f2c 113e 06ac 19bd 4a80 43bb 40fc b63d
00000380: 1b97 143e d0bf d63d f2da bd3d 5a8e a6bd
00000390: 0482 153e 6492 e43d f695 d03c be8a 41bd
000003a0: db88 e63d 3df5 013d f029 253d d723 c63d
000003b0: 0f1a 4ebd 7813 133e c43b e33c 57d6 203e
000003c0: c262 0c3c d230 0c3e f6de db3d 686b babd
000003d0: 2ec6 aabd 96b4 ed3d 3206 a23b b431 913d
000003e0: 6740 8a3d d2c4 943d 008d 883d 4411 6cbd
000003f0: a433 213d be3c 9a3d 6ef8 6c3d 4624 9abd
0.10234934 0.13847262 -0.05265119 0.07324011 0.09341236 0.02716552 0.011868555 0.10718504
0.07804955 -0.07876463 -0.05403532 0.086908855 -0.01347549 0.12131728 -0.10380001 0.054350164
0.044796675 -0.07240524 -0.01693627 0.100392014 0.10564754 -0.008476539 0.017002165 0.06190001
-0.088611424 0.13118882 0.12899764 0.087540515 0.008944813 -0.06239934 0.13123327 0.026960297
-0.09212368 0.06296648 0.010512612 -0.06873763 0.24114384 -0.039221514 0.0032705888 0.09566261
0.08013228 0.13987984 -0.0843819 0.041314363 0.0029842411 0.09547547 -0.07073465 0.1509727
0.082293615 -0.029239891 -0.033959944 -0.0191065 0.078093745 -0.04740563 0.12195555 0.1292688
0.02871033 0.018289447 0.03514037 -0.0170426 0.06984275 -0.07831361 -0.037265778 0.003794375
0.041885592 -0.023676962 -0.046323985 -0.09504412 0.09123427 0.1493279 -0.031046962 0.028705733
0.051825285 -0.086068764 0.14446306 0.05610073 0.10799031 0.040559247 0.10817856 -0.10718717
0.018200442 -0.059252325 -0.021839952 0.104373604 -0.00806263 -0.03418091 0.10973194 -0.04449418
0.103322215 -0.075649515 -0.09055048 -0.020301301 -0.09751718 0.10112455 -0.07802112 0.10204439
-0.013555934 0.037143145 -0.0768957 -0.06464061 -0.07630046 -0.045116525 0.0853881 -0.018229233
-0.004501635 0.122126184 -0.055033166 -0.05507466 -0.08671053 -0.032426447 0.0910238 -0.09526322
-0.1299758 0.1363636 0.12184489 0.13412248 0.038531367 0.026328534 -0.04709088 0.11693534
-0.028371712 0.14491768 -0.061946936 -0.09523439 0.1399416 0.056507733 -0.04784024 -0.10815425
-0.11903737 0.01413946 -0.14342748 -0.029939275 0.020842372 -0.0837207 -0.12939364 -0.08334254
-0.07734123 0.0975377 0.11140051 0.010694305 -0.08538248 -0.12805437 -0.10873421 0.094088174
-0.13091435 0.06966541 0.08463141 -0.105953254 -0.10841423 0.11502155 -0.020012671 0.06871478
0.06354709 0.09647293 -0.04922595 0.004683591 -0.039774504 0.07274377 -0.07536608 -0.12751321
0.09774805 -0.0053671165 0.10567455 0.117350794 0.07023891 -0.10259824 0.009265866 0.102201335
-0.01068474 0.028164525 0.1257661 -0.07693693 0.11214145 -0.086993836 0.016711842 0.06942672
-0.09232187 0.10689515 0.08155815 -0.019205943 -0.07431028 0.009234969 0.09548408 -0.0226486
0.01695544 0.0629265 0.07925828 0.033500932 -0.0643655 -0.04349139 -0.10654991 -0.028546648
0.15083747 -0.073410414 -0.030113477 0.0946697 0.036671005 -0.0040489817 -0.06319009 -0.03665491
0.076055564 0.1137639 0.06407798 0.13666949 -0.047991678 0.11249343 -0.046229795 0.13369675
-0.013182736 0.14819665 -0.043959428 -0.0740692 -0.0394723 0.12657738 0.015423833 0.03260241
-0.0059155026 0.023860147 0.0052128714 0.018531725 0.14177011 -0.03751757 -0.0029831105 0.089348316
0.14510767 0.10485804 0.09270276 -0.0813262 0.14600378 0.11160734 0.025462132 -0.047251455
0.11256572 0.031728018 0.040323198 0.09674805 -0.05031782 0.14362895 0.02773846 0.15706764
0.008568468 0.13690498 0.10735886 -0.09102517 -0.08338581 0.1160671 0.004944586 0.07089558
0.06750565 0.07264103 0.066675186 -0.057633653 0.03935589 0.07531117 0.05785411 -0.0752645
