checkpoints/lstm/sh-EEMD-h64-l2-lr0.001-d0.3-ep200.pth (torch, 213413 bytes, 9 tensors)

lstm.weight_ih_l0 f4 [256, 10]
0	0x3da81265	0.082066335
1	0x3ddf5767	0.109053425
2	0xbcd57b83	-0.026059872
3	0x3dd0d2ac	0.101964325
4	0x3ce8651f	0.02836853
5	0x3c4adf7f	0.012382387
6	0xbdc20572	-0.09473695
7	0xbcba581f	-0.022747098
8	0x3df2ca29	0.11854965
9	0xbe104989	-0.14090551
10	0x3d6da278	0.05801627
11	0xbc1b463a	-0.009477193
12	0x3e13ff32	0.14452818
13	0xbdca8488	-0.098885596
14	0xbc2a1941	-0.010381998
15	0xbd660274	-0.056154683
16	0x3d3ab960	0.045586944
17	0x3d820a92	0.063496724
18	0xbec3e6f4	-0.3826214
19	0x3dce5f9d	0.100768305
20	0xbd1fb33a	-0.038989283
21	0x3bf13d77	0.0073620635
22	0xbc8864e9	-0.01664968
23	0x3d78c29c	0.06073247
24	0xbd086baf	-0.03330582
25	0xbde4b3d5	-0.11167113
26	0xbd5ab908	-0.053399116
27	0xbd8bbc43	-0.068230174
28	0xbd19d49b	-0.037556272
29	0xbe2f3cb1	-0.17112996
30	0x3e03c345	0.12867458
31	0xbde89cfa	-0.11358066
32	0x3e0f9a66	0.14023742
33	0xbde69501	-0.11258889
34	0x3cf4958d	0.029856468
35	0xbb99074b	-0.004670059
36	0xbdb3e42f	-0.08783757
37	0xbe0229e6	-0.12711295
38	0xbb19c6e2	-0.002346449
39	0xbe17028e	-0.14747068
40	0x3d0f59d3	0.034997772
41	0xbd28d419	-0.041217897
42	0x3e2dae43	0.16961007
43	0x3dc583c5	0.09644274
44	0x3d8f01cd	0.06982765
45	0xbdb8b45b	-0.09018775
46	0x3e20c1ec	0.15698975
47	0x3e0fc9fc	0.14041895
48	0xbc34b158	-0.01102861
49	0xbcfaa0d2	-0.030594263
50	0xbe332ae5	-0.17496832
51	0xbc87faf8	-0.016599163
52	0xbdb4c60e	-0.088268384
53	0x3e42a457	0.19008003
54	0xbb96886a	-0.0045938985
55	0xbd2fe6a0	-0.04294455
56	0x3d366f74	0.044539884
57	0x3d108ecb	0.035292428
58	0xbd41df77	-0.047332253
59	0x3d0e985a	0.034813263
60	0x3cb88f04	0.022529133
61	0xbdd4a629	-0.10383255
62	0x3dc1842c	0.09449038
63	0xbe0dd254	-0.13849765
64	0x3dd239aa	0.10264905
65	0x3d57186b	0.05251352
66	0x3e35ac1b	0.17741434
67	0xbd0447ba	-0.032294966
68	0xbdbf69bc	-0.09346339
69	0xbd91d462	-0.07120587
70	0x3dc78e8d	0.09743986
71	0x3ca9e9d7	0.020741386
72	0x3dbc2684	0.09187034
73	0xbdbbc99b	-0.091693126
74	0xbe3096ed	-0.17245074
75	0x3cdac773	0.026706433
76	0xbdcd79c8	-0.100329936
77	0x3e056b98	0.13029325
78	0xbdf78b18	-0.12087077
79	0x3e4f0a57	0.20218788
80	0xbd30c1a6	-0.043153428
81	0xbe32a877	-0.17447077
82	0x3de749dd	0.11293385
83	0xbcca6116	-0.024704497
84	0x3c1eee13	0.009700316
85	0x3c69a059	0.014259421
86	0x3d659ef7	0.056059804
87	0xbdb9eaab	-0.090779625
88	0xbdba97e1	-0.09111
89	0x3bbe9c85	0.0058169984
90	0x3c9544dc	0.018221311
91	0xbcf5a81d	-0.02998739
92	0x3e09a222	0.13440755
93	0x3d37be7e	0.044859402
94	0xbde0d190	-0.10977471
95	0xbd30e8ff	-0.043190952
96	0x3e0d4d77	0.13799082
97	0xbda16c95	-0.078820385
98	0xbdd262a1	-0.10272718
99	0xbdcfe1e7	-0.10150509
100	0xbb775bfb	-0.0037744034
101	0x3d92e398	0.07172316
102	0x3dcc3e83	0.09972861
103	0xbe06bd28	-0.13158095
104	0x3c7c06ca	0.015382478
105	0x3d8aaea9	0.06771595
106	0xbd8b5aad	-0.068044044
107	0x3ac03c2c	0.001466637
108	0xbdb0c742	-0.086317554
109	0xbe3c0018	-0.18359411
110	0x3e144b33	0.14481811
111	0x3c15248d	0.009102953
112	0xbc8e19af	-0.017346231
113	0xbe3f2b23	-0.18668799
114	0xbd5cb4b7	-0.05388328
115	0xbd309c7b	-0.04311798
116	0x3dbc9213	0.09207549
117	0xbdf04eab	-0.11733755
118	0xbcded45e	-0.027200874
119	0xbd554329	-0.052066002
120	0x3c374b08	0.011187322
121	0xbd9395f7	-0.07206338
122	0x3deb3758	0.11485165
123	0xbddeb172	-0.10873689
124	0xbca8a4ce	-0.020586397
125	0xbd64f2b2	-0.055895515
126	0xbd458165	-0.048219103
127	0xbdf90a63	-0.12160184
128	0xbd1d4396	-0.038394533
129	0xbc0d7929	-0.008634844
130	0x3c8d6eaf	0.017264692
131	0xbd49fa65	-0.04931106
132	0xbe122cd7	-0.14274918
133	0x3da6d642	0.08146335
134	0xbccf9e40	-0.025344014
135	0xbdb00727	-0.08595114
136	0xbe534c2e	-0.20634529
137	0xbe9062db	-0.2820042
138	0x3d7d90d6	0.061905704
139	0xbccb04eb	-0.024782619
140	0x3d94a0b5	0.07257215
141	0xbdb3f22b	-0.08786424
142	0x3dcf1bfd	0.1011276
143	0xbe48530f	-0.19562934
144	0x3ceff004	0.029289253
145	0x3a66a86a	0.00087988994
146	0xbcf7dc37	-0.030256374
147	0x3c1d7391	0.009610073
148	0x3d4b87c5	0.049690027
149	0xbded01d7	-0.115726165
150	0x3d5424b3	0.05179281
151	0xbda6a275	-0.08136455
152	0x3d834ae7	0.06410771
153	0xbd74dda8	-0.0597817
154	0x3e4acfeb	0.19805877
155	0x3c9f0e9c	0.019416146
156	0x3e12069f	0.14260338
157	0xbcf3ac4d	-0.029745245
158	0x3ca63880	0.020290613
159	0x3d384633	0.044988822
160	0x3e1da58c	0.15395182
161	0xbb89e385	-0.0042080306
162	0xbd12c395	-0.035831053
163	0xbe1a49fa	-0.15067282
164	0x3e370044	0.17871195
165	0x3d5f7b8a	0.054561175
166	0xbdd8bcd9	-0.10582895
167	0x3c2c2668	0.010507204
168	0x3dd0b160	0.101900816
169	0xbe4eb555	-0.2018636
170	0xbd5806be	-0.052740805
171	0xbdb159c0	-0.086596966
172	0x3dcc5d56	0.0997874
173	0x3d0e617c	0.034760937
174	0x3d749db1	0.0597207
175	0x3c0a557a	0.008443231
176	0xbdc47e98	-0.09594458
177	0xbc7d2768	-0.01545129
178	0xbd3c11b2	-0.045915313
179	0xbdaa1b59	-0.083059974
180	0x3cec6578	0.028856978
181	0x3e05a407	0.13050853
182	0x3db44cb5	0.08803693
183	0x3aeb4c19	0.0017951756
184	0xbbc8b256	-0.006124775
185	0x3a7a8635	0.00095567416
186	0x3d7044a3	0.058659207
187	0xbd5f9ae9	-0.054591093
188	0xbd82f8b3	-0.06395092
189	0xbe51fc77	-0.20506464
190	0x3cb1e77e	0.02171683
191	0xbc3cf416	-0.011532804
192	0x3e629656	0.22127661
193	0x3dba518c	0.09097585
194	0xbd10e657	-0.03537592
195	0xbd2b82dc	-0.041872844
196	0x3dda18c1	0.10649253
197	0x3ba8fbeb	0.005156984
198	0xbb6fc67e	-0.0036586816
199	0x3d399da2	0.045316346
200	0xbdc9f878	-0.09861845
201	0xbd1c297e	-0.038125508
202	0x3df5e1a4	0.12005928
203	0xbd49266e	-0.049108915
204	0x3d44228a	0.0478845
205	0xbb8baede	-0.004262789
206	0xbacc3b53	-0.0015581645
207	0xbe1d6900	-0.15372086
208	0x3dcd1b5a	0.100149825
209	0x3cfe503b	0.031044116
210	0x3e10ddae	0.14147064
211	0x3cb96c3e	0.022634622
212	0xbe151d3c	-0.14561933
213	0xbd72994e	-0.059228234
214	0xbc7170c9	-0.014736363
215	0x3e80e4f8	0.2517469
216	0xbced862b	-0.02899464
217	0xbe7817b0	-0.24227786
218	0x3d7bf29d	0.06151067
219	0xbd72fd0d	-0.05932336
220	0xbd08b908	-0.033379585
221	0x3daf19ff	0.0854988
222	0xbd4eee8d	-0.05052047
223	0xbce42dc1	-0.027853848
224	0xbda7ccf4	-0.081933886
225	0x3d49de72	0.049284406
226	0x3e1187c1	0.14211942
227	0x3e0690d8	0.13141191
228	0xbde1acbc	-0.110192746
229	0xbe0520f5	-0.13000853
230	0xbddbabc8	-0.10726124
231	0x3e6fa7d5	0.23403867
232	0x3deaf3db	0.11472293
233	0x3d85291c	0.065019816
234	0x3da47257	0.08029621
235	0x3df197ea	0.117965534
236	0x3de1cc30	0.11025274
237	0xbd9b2d16	-0.07576959
238	0xbe453198	-0.192572
239	0xbd62db35	-0.055384833
240	0xba676693	-0.00088272354
241	0xbe03becd	-0.12865753
242	0x3dabf327	0.08395987
243	0x3c57c79c	0.013170149
244	0xbd4d6593	-0.050145697
245	0x3d8c02d5	0.06836478
246	0xbd659d1c	-0.056058034
247	0x3d443f97	0.047912207
248	0xbd9d842f	-0.07691228
249	0x3e3b985e	0.18319842
250	0xbbdb278a	-0.006688063
251	0xbd7efa84	-0.06225063
252	0xbce67c1b	-0.02813535
253	0xbd9678a8	-0.07347232
254	0xbd0c6c8c	-0.034283206
255	0xbd9f173f	-0.07768106

lstm.weight_hh_l0 f4 [256, 64]
0	0xbcc1999c	-0.023632817
1	0x3e17d239	0.14826287
2	0x3de6c3a3	0.112677835
3	0x3c5d49b2	0.01350634
4	0xbda5ed3d	-0.0810189
5	0x3d002e3c	0.031294093
6	0xbccf0c84	-0.025274523
7	0x3e0d9180	0.13825035
8	0x3d9c16d9	0.07621545
9	0x3c33a278	0.010964029
10	0xbdb284f0	-0.08716762
11	0x3dd03239	0.10165829
12	0xbab6d1af	-0.0013947989
13	0x3e33af74	0.17547399
14	0x3dca4b42	0.098776355
15	0xbe20f179	-0.15717115
16	0xbd62edaa	-0.055402435
17	0xbd6066c8	-0.05478552
18	0xbd9e96a4	-0.07743576
19	0x3d2044a3	0.039127957
20	0xbd0db047	-0.03459194
21	0xbc0b5f6f	-0.00850664
22	0x3e016bd2	0.12638786
23	0xbdc61701	-0.096723564
24	0xbd936fb7	-0.07199042
25	0x39a41853	0.0003129864
26	0x3cb16772	0.021655772
27	0x3cefb003	0.029258734
28	0x3e3a3c1b	0.18186991
29	0xbd78a3d1	-0.060703102
30	0xbe19a3ef	-0.15003942
31	0x3c1ec407	0.009690291
32	0x3dbc2ee5	0.09188632
33	0x3d7f7820	0.06237042
34	0x3d7d9459	0.061909053
35	0xbca083b9	-0.01959406
36	0x3d7c7131	0.061631385
37	0x3d754249	0.059877668
38	0x3da23fa4	0.07922295
39	0x3cc78c97	0.02435903
40	0xbd4e43e5	-0.050357718
41	0xbdbdd01e	-0.09268211
42	0x3d0b7060	0.034042716
43	0x3e0a646c	0.1351487
44	0xbe1655de	-0.14681193
45	0x3deb2c41	0.1148305
46	0xbd26c72f	-0.0407173
47	0x3c5265fd	0.012841699
48	0xbcdf7d5a	-0.027281452
49	0xbcf4ed47	-0.029898299
50	0x3df5dbae	0.12004791
51	0xbc344b78	-0.011004321
52	0x3ceac626	0.028658938
53	0xbdd09e99	-0.101865
54	0xbd101409	-0.035175357
55	0x3b2de543	0.0026534356
56	0x3dbe3b3f	0.09288644
57	0x3d82de3e	0.063900456
58	0x3c111d43	0.008857074
59	0xbdafcab1	-0.08583582
60	0x3d2c79bf	0.042108294
61	0xbdc50a0b	-0.09621056
62	0xbe35d1b8	-0.17755783
63	0x3ca7510d	0.02042439
64	0xbd88115f	-0.06643938
65	0x3d772b61	0.060344104
66	0xbd546e68	-0.051863104
67	0x3d862350	0.06549704
68	0x3e174f04	0.14776236
69	0xbdc095dd	-0.09403584
70	0x3e04f461	0.12983848
71	0xbdc677d5	-0.09690825
72	0x3d9e65ae	0.077342376
73	0x3dd706b9	0.10499329
74	0xbd80b230	-0.062839866
75	0xbd8e7ca3	-0.06957366
76	0x3e1759a1	0.14780284
77	0x3e10425e	0.14087817
78	0xbc9e4a1c	-0.019322447
79	0x3df10e31	0.11770285
80	0xbda93f41	-0.08264018
81	0x3d3db672	0.04631657
82	0x3d8c179c	0.06840441
83	0x3d8d6f17	0.06905954
84	0x3d4d7ad5	0.05016597
85	0x3d4e6d6c	0.05039732
86	0xbe2ff652	-0.17183807
87	0xbdc17b81	-0.094473846
88	0x3daba3ff	0.08380889
89	0xbce8e7ed	-0.028430903
90	0x3abf47b7	0.0014593516
91	0x3e1f36e8	0.15548289
92	0x3e0d1967	0.13779221
93	0xbe4ea880	-0.20181465
94	0xbd9b1a58	-0.07573384
95	0xbd25a554	-0.040440872
96	0x3d8d1b9b	0.06890031
97	0xbd82cab1	-0.063863166
98	0xbc100db5	-0.0087923305
99	0xbd1cb1f0	-0.038255632
100	0xbe009824	-0.12558037
101	0xbdbce35f	-0.09223055
102	0xbe0a024c	-0.13477439
103	0xbd87cb66	-0.06630592
104	0x3d9bda48	0.07609993
105	0xbd98061c	-0.0742304
106	0xbd144a2d	-0.036203552
107	0x3d78c274	0.06073232
108	0xbdbfa9a5	-0.09358529
109	0x3cae9e42	0.021315698
110	0xbc788df0	-0.015170559
111	0x3ba4c934	0.005028868
112	0xbd412113	-0.047150683
113	0xbdd59e3d	-0.10430572
114	0xbde46326	-0.111517236
115	0xbd361bc1	-0.044460062
116	0x3bea2f3c	0.007146744
117	0xbdf82cbc	-0.121179074
118	0x3db96a93	0.090535305
119	0xbe28927d	-0.16462131
120	0x3dd9b01f	0.106292956
121	0xbe076ee6	-0.13225898
122	0xbbf6bdfd	-0.0075299726
123	0x3c983d76	0.018583994
124	0xbcfe93eb	-0.031076392
125	0x3d9d1fe5	0.07672099
126	0xbe069a21	-0.13144733
127	0x3cd31d5b	0.025770834
128	0xbd8eb21f	-0.06967568
129	0x3d6451a8	0.055741936
130	0x3dbfc7cf	0.09364282
131	0x3e21a882	0.15786937
132	0xbc7245c6	-0.014787143
133	0xbd59704f	-0.05308562
134	0x3dd0511d	0.10171721
135	0xbd09c210	-0.033632338
136	0x3de2d863	0.11076429
137	0xbd8476df	-0.06467985
138	0xbda91154	-0.08255258
139	0xbdc4fd0e	-0.09618579
140	0x3dc20dd0	0.09475291
141	0x3e0f7c16	0.14012179
142	0xbda0b860	-0.07847667
143	0x3aefb7b0	0.0018288996
144	0xbddb9b1e	-0.10722946
145	0x3d810111	0.062990315
146	0x3bdf7280	0.0068190694
147	0xbd6ac03f	-0.057312246
148	0x3d48bc17	0.0490075
149	0xbd873435	-0.066017546
150	0x3cf28b2e	0.029607382
151	0xbdf73ebc	-0.120725125
152	0x3cbb0d52	0.0228335
153	0x3e039255	0.1284879
154	0x3e3a5e02	0.18199924
155	0x3d8e5984	0.069506675
156	0x3e4ee091	0.20202853
157	0x3d81af44	0.063322574
158	0xbc4ad1be	-0.012379108
159	0x3d65f0e2	0.056137927
160	0x3cf2f1b0	0.029656261
161	0x3e08a95c	0.13345855
162	0x3dcd3b7b	0.100211106
163	0xbd7b5862	-0.061363585
164	0xbcfe2e36	-0.031027894
165	0xbdc73d8a	-0.097285345
166	0x3d1b68b4	0.03794165
167	0xbe06dbe7	-0.13169824
168	0x3d9a2fa0	0.07528615
169	0xbd1ee800	-0.03879547
170	0x3cffa263	0.031205362
171	0x3da311de	0.07962392
172	0xbe1755d6	-0.14778838
173	0x3d92db93	0.07170787
174	0x3c308d85	0.010775928
175	0xbdbda5d6	-0.09260146
176	0x3dda0f88	0.106474936
177	0x3db983fc	0.09058377
178	0x3d8839c0	0.0665164
179	0xbc5f6a66	-0.013636207
180	0x3cb61d7a	0.022230852
181	0xbdb53b17	-0.08849161
182	0xbd872255	-0.06598345
183	0x3dce9c1d	0.1008837
184	0x3d3dde24	0.046354428
185	0x3d139239	0.03602812
186	0xbe1933b5	-0.14961131
187	0x3e3979c2	0.18112853
188	0xbd629078	-0.055313557
189	0x3dd39961	0.10331989
190	0x3d8a3cb9	0.06749863
191	0x3cea7434	0.028619863
192	0x3dcf29ff	0.10115432
193	0x3de9f093	0.11422839
194	0x3c85f34c	0.016351365
195	0xbcf33e4d	-0.029692793
196	0x3da28ca2	0.0793698
197	0x3c9faf6f	0.019492833
198	0x3d00a7c9	0.031410012
199	0xbbb083d9	-0.005386811
200	0x3debaf2a	0.11508019
201	0x3e0c782b	0.13717715
202	0xbe37b959	-0.17941798
203	0x3e0d0f8d	0.13775463
204	0xbe00d30d	-0.1258051
205	0x3b6fd04c	0.003659266
206	0xbd8b17f7	-0.0679168
207	0xbc476e20	-0.012172252
208	0xbe1dcd83	-0.15410428
209	0xbce5441b	-0.027986577
210	0xbe34d9e1	-0.17661239
211	0x3d837117	0.064180546
212	0xbe438148	-0.19092286
213	0xb93ab7bb	-0.00017806787
214	0x3d950803	0.07276919
215	0xbd410905	-0.047127742
216	0xbb8c3a4a	-0.0042794095
217	0x3d01c96c	0.03168623
218	0xbd53b3af	-0.05168503
219	0xbd950cc3	-0.07277825
220	0x3d9e0e64	0.077175885
221	0xbd9ccc54	-0.0765616
222	0xbd0d9478	-0.03456542
223	0xbdd63907	-0.10460096
224	0xbd4f5801	-0.050621036
225	0x3dcf2794	0.10114971
226	0xbe0caa64	-0.13736874
227	0x3d5088f0	0.050911844
228	0xbdee4f63	-0.116362356
229	0xbd2a36f4	-0.041556314
230	0xbdb4dfea	-0.08831771
231	0xbddafcde	-0.10692762
232	0xbc1bb6ee	-0.009504063
233	0xbe34a512	-0.17641094
234	0x3d15b436	0.036548816
235	0x3cc01857	0.023449106
236	0xbc813d6a	-0.015776355
237	0x3d59d7c5	0.05318429
238	0x3d283cac	0.041073486
239	0x3d008bb4	0.03138323
240	0x3c9bf16e	0.019036021
241	0x3def9b5c	0.11699554
242	0x3dd0a469	0.10187609
243	0xbdd575cb	-0.10422858
244	0xbcf4139f	-0.029794512
245	0xbe3ab653	-0.18233614
246	0xbd4b040a	-0.0495644
247	0xbce9a14a	-0.028519291
248	0x3dfff866	0.1249855
249	0x3ba982b0	0.00517305
250	0xbb93fc70	-0.004516177
251	0xbd73e0e6	-0.05954065
252	0xbd649d4c	-0.055814072
253	0x3d043750	0.032279313
254	0xbd9e7eec	-0.07739052
255	0xbd2c0130	-0.04199332

lstm.bias_ih_l0 f4 [256]
0	0x3c3b26ca	0.011422822
1	0xbd2db39f	-0.04240763
2	0x3e19572b	0.14974658
3	0x3e1d54d9	0.15364398
4	0xbdf50c3b	-0.119652234
5	0xbe05414a	-0.13013187
6	0x3dcfb97a	0.10142799
7	0xbce4a2ad	-0.027909601
8	0x3cf0b9a5	0.029385397
9	0x3d960cdf	0.07326674
10	0x3ca0f00e	0.019645717
11	0x3e033efa	0.12816992
12	0x3e9b51af	0.30335757
13	0x3d5ec9ec	0.054391786
14	0xbbc561bd	-0.006023614
15	0x3d2d78cb	0.042351525
16	0x3d2a35bc	0.04155515
17	0x3e236a40	0.159585
18	0xbd5e770c	-0.05431275
19	0xbcd1236e	-0.02552959
20	0xbd873c8e	-0.06603347
21	0x3e2b02c7	0.16700278
22	0x3e1e6705	0.15468986
23	0x3d703dda	0.058652736
24	0x3e15e194	0.14636832
25	0x3d208da3	0.039197575
26	0x3cf8dd0e	0.030378845
27	0xbdc1387e	-0.09434603
28	0x3d374c52	0.04475052
29	0x3d2d1bf4	0.042262986
30	0x3db8ba0c	0.090198606
31	0x3d14b503	0.03630544
32	0x3d6ee638	0.058325022
33	0x3dc5e756	0.096632645
34	0x3d49b2c2	0.049242742
35	0xbd83209b	-0.064027034
36	0xbc8a28fb	-0.016865244
37	0x3d77529e	0.060381524
38	0xbd92aa64	-0.07161406
39	0x3df6b566	0.12046318
40	0xbcf233e4	-0.029565759
41	0x3e53761e	0.20650527
42	0x3dc22804	0.094802886
43	0x3e284d92	0.1643584
44	0x3d8acb6b	0.0677708
45	0xbcbf19fa	-0.023327816
46	0x3da5f8ce	0.08104096
47	0x3e0d41a4	0.13794571
48	0x3e89efce	0.2694077
49	0x3da1c098	0.078980625
50	0xbc163ab8	-0.009169273
51	0x3e5c8eb0	0.21538806
52	0x3e28153e	0.16414353
53	0x3e8e4fc2	0.27795225
54	0x3de36465	0.11103133
55	0xba9ecdc8	-0.0012115771
56	0xbbae2b90	-0.0053152516
57	0x3ca4026e	0.02002069
58	0xbd3210c8	-0.043473035
59	0xbc96ed21	-0.018423619
60	0x3cb45fe5	0.022018382
61	0x3e2f8a54	0.17142612
62	0x3e371605	0.17879494
63	0x3dbb824b	0.09155711
64	0x3d23a769	0.039954577
65	0xbe16134b	-0.14655797
66	0xbb5a9341	-0.003335193
67	0x3d4adcdf	0.049527045
68	0x3d1b6d20	0.037945867
69	0x3c516b9d	0.012782005
70	0x3dd017a8	0.10160762
71	0xbd877ccf	-0.06615602
72	0xbb5d844a	-0.0033800774
73	0xbd8b31e2	-0.06796624
74	0xbdf32b1e	-0.11873458
75	0x3d1d1526	0.038350247
76	0xbe07f0aa	-0.132754
77	0xbd1f2979	-0.03885791
78	0xbdf3f5df	-0.119121306
79	0xbd81fcef	-0.063470714
80	0xbd4f7404	-0.05064775
81	0xbe04e4fb	-0.12977974
82	0x3c727bfc	0.014800068
83	0xbc027482	-0.007962348
84	0x3ce11290	0.027474672
85	0x3be2a263	0.0069163307
86	0xbd0e8e32	-0.034803577
87	0xbdae9bce	-0.08525811
88	0xbe473930	-0.19455409
89	0xbd9edf96	-0.077574894
90	0xbd30af98	-0.04313621
91	0x3deae024	0.11468533
92	0x3d9a505a	0.07534857
93	0x3df26d47	0.11837249
94	0xbde376e9	-0.11106665
95	0xbe1d7217	-0.15375553
96	0xbc672c93	-0.014109748
97	0xbe05cd14	-0.13066512
98	0xbe0692ce	-0.13141939
99	0xbdf0ac86	-0.11751656
100	0xbdb7bb1e	-0.08971237
101	0xbde3d361	-0.11124302
102	0x3db6632c	0.08905634
103	0x3db390fa	0.087678865
104	0xbe078c41	-0.13237096
105	0xbe85f7fb	-0.26165757
106	0x3e04be21	0.12963153
107	0x3d60fa00	0.05492592
108	0xbdbe3c4e	-0.09288846
109	0xbd22fde4	-0.03979291
110	0xbdf4c4eb	-0.119516216
111	0xbe49d2d2	-0.19709328
112	0xbe77c09f	-0.24194573
113	0xbd2891f9	-0.041154835
114	0x3e266304	0.16248709
115	0xbda1ff80	-0.07910061
116	0xbe32d5f4	-0.17464429
117	0xbd7d6b25	-0.06186976
118	0x3dba58cc	0.09098968
119	0x3d6e73ed	0.058216024
120	0x3d730bae	0.05933731
121	0xbd1e6581	-0.03867102
122	0xbdabc817	-0.083877735
123	0x3cbf7aea	0.02337404
124	0xbe144962	-0.14481118
125	0xbda914c8	-0.08255917
126	0x3c472d91	0.01215686
127	0xbd2f90c5	-0.042862672
128	0xbcb4638e	-0.022020128
129	0x3d22c43a	0.039737917
130	0xbd59e7b4	-0.053199485
131	0xbd3399c5	-0.043847818
132	0x3d18c044	0.037292734
133	0xbd410d67	-0.047131922
134	0x3d50df71	0.05099434
135	0x3d409160	0.04701364
136	0x3d5e18f1	0.054223005
137	0x3daec8b9	0.085343786
138	0xbc0b0955	-0.008486112
139	0xbd045466	-0.03230705
140	0xbdc0c08d	-0.09411726
141	0xbb992e43	-0.0046747043
142	0xbdb69821	-0.08915735
143	0x3d9b96ea	0.07597144
144	0x3c896a07	0.01677419
145	0xbd37ac86	-0.044842266
146	0x3bc8506d	0.006113103
147	0x3d96353b	0.07334372
148	0xbd93524d	-0.07193432
149	0xbcc081b5	-0.02349935
150	0x3c8fc395	0.017549315
151	0xbd28ad7a	-0.041181065
152	0x3c27e2b5	0.010246922
153	0x3d5ac0f3	0.053406667
154	0xbcca884a	-0.02472319
155	0xbdbd8906	-0.09254651
156	0x3db7d5ef	0.089763515
157	0xbdcd1993	-0.100146435
158	0xbd25be21	-0.040464524
159	0x3d30c043	0.043152105
160	0x3da663c8	0.081245005
161	0xbd489938	-0.048974246
162	0xbd5570e8	-0.05210963
163	0x3d9a5c84	0.07537177
164	0xbcff28c6	-0.031147372
165	0x3c3ab705	0.011396174
166	0x3cbeddf1	0.02329919
167	0xbbab2270	-0.005222611
168	0xbcf668d2	-0.03007928
169	0xbc4adb34	-0.012381364
170	0xbcf44b8e	-0.029821184
171	0x3d8a6f01	0.067594536
172	0xbbe3633c	-0.00693932
173	0xbd08af3b	-0.033370238
174	0xbd842430	-0.06452215
175	0x3d9c9972	0.07646455
176	0xbd3361a3	-0.043794286
177	0x3d87bed4	0.066281945
178	0xbc9c5c5c	-0.01908701
179	0xbdc014e4	-0.093789846
180	0x3d469f51	0.04849178
181	0x3dcea563	0.10090139
182	0x3d9fac3b	0.07796522
183	0xbd877d78	-0.06615728
184	0xbe055473	-0.13020496
185	0x3dd2fca4	0.103020936
186	0xbd938f7e	-0.07205103
187	0x3d7a6533	0.061131667
188	0x3dd050e9	0.101716824
189	0xbce80c15	-0.028326074
190	0xbdd84c9e	-0.105614886
191	0x3d5ceab3	0.053934764
192	0xbd6c3dbb	-0.05767606
193	0xbc4db052	-0.012554245
194	0xbd77213a	-0.06033442
195	0x3dfb694b	0.122759424
196	0x3dd88b85	0.10573486
197	0xbdd0b4c6	-0.1019073
198	0xbd52b291	-0.051439825
199	0x3e01d7de	0.12680003
200	0x3d76db32	0.060267635
201	0x3e2e695a	0.17032376
202	0xbd27a99a	-0.04093323
203	0x3e152d3c	0.14568037
204	0x3e595d85	0.21227081
205	0xbd37e07a	-0.044891812
206	0x3d1e8b18	0.03870687
207	0x3d749fbe	0.059722655
208	0x3d9f4277	0.07776349
209	0x3d36182d	0.04445665
210	0xbdd99169	-0.10623438
211	0x3e07f31f	0.13276337
212	0xbe00bc81	-0.12571909
213	0xbd548f1b	-0.05189429
214	0x3d83c48d	0.064339735
215	0x3e0e6ce5	0.13908727
216	0x3dd3c469	0.10340197
217	0x3e4a8dd3	0.19780664
218	0xbd4d067b	-0.05005501
219	0xbc864e95	-0.016394893
220	0x3e57b36c	0.21064538
221	0x3de41b49	0.11138017
222	0xbc43253e	-0.011910735
223	0xbd739e14	-0.059476927
224	0x3d46eb86	0.048564456
225	0x3e0a2d31	0.13493802
226	0x3e783e27	0.24242459
227	0x3c8a791d	0.016903454
228	0xbd352636	-0.044225894
229	0x3d3b97d0	0.045799077
230	0xbd222dcf	-0.039594468
231	0x3c082982	0.0083106775
232	0xbdb36b41	-0.087606914
233	0x3e581e5c	0.21105331
234	0x3b70923c	0.0036708256
235	0x3e103577	0.14082895
236	0x3d458f51	0.04823238
237	0xbdc63eb9	-0.09679932
238	0x3d564d36	0.052319728
239	0x3dff24dd	0.12458203
240	0x3d99c15a	0.07507582
241	0xbda4c674	-0.080456644
242	0x3ca7f775	0.020503739
243	0x3d286b0e	0.04111772
244	0x3d2551fc	0.04036139
245	0x3de7c045	0.113159694
246	0xbe0e9cde	-0.13927028
247	0xbdb42f5d	-0.08798096
248	0x3ce29ac5	0.02766169
249	0x3d434cac	0.047680542
250	0x3d700f71	0.058608476
251	0xbdb391ad	-0.0876802
252	0x3de07efc	0.1096172
253	0x3e355e77	0.17711817
254	0xbd262b7a	-0.040568806
255	0x3e0b72ff	0.13618086

lstm.bias_hh_l0 f4 [256]
0	0x3e2688c1	0.16263105
1	0xbd737027	-0.05943313
2	0x3dbd68bb	0.092484914
3	0x3df7b06b	0.12094196
4	0x3d6741ed	0.056459356
5	0xbd65bd18	-0.056088537
6	0xbc274e89	-0.010211595
7	0x3d09780e	0.03356176
8	0xbcfb5aef	-0.030683009
9	0x3e0c492a	0.13699785
10	0xbd0d8aad	-0.03455608
11	0x3e028e07	0.12749492
12	0x3e63c596	0.22243342
13	0x3db52959	0.08845777
14	0x3d4217ef	0.047386106
15	0x3d898dcf	0.06716501
16	0x3add9ba0	0.0016907342
17	0xbc9eb6a0	-0.019374192
18	0xbc24663b	-0.010034139
19	0x3e5709bc	0.20999807
20	0xbdbcbbbe	-0.092154965
21	0x3dbbab94	0.09163585
22	0xbd77be0a	-0.06048397
23	0xbc460c1a	-0.012087846
24	0x3e265804	0.16244513
25	0xbac06796	-0.0014679309
26	0x3d2392dc	0.039934978
27	0x3db534da	0.08847971
28	0x3d9c740d	0.076393224
29	0x3d157ead	0.03649776
30	0xbce72319	-0.028214978
31	0x3d6b32b4	0.0574214
32	0xbd473920	-0.048638463
33	0xbcb0fa29	-0.02160366
34	0x3e018129	0.12646927
35	0xbd5af252	-0.05345375
36	0x3dff26b2	0.124585524
37	0x3dac2158	0.08404797
38	0x3db8c239	0.0902142
39	0xbca2e63c	-0.019885175
40	0xbd0beeaa	-0.034163155
41	0x3e56ab4c	0.20963782
42	0xbd3e796a	-0.04650251
43	0x3d651481	0.055927757
44	0x3dbf30be	0.09335469
45	0x3df70467	0.120613866
46	0x3da4415e	0.0802028
47	0x3d292f51	0.04130489
48	0x3e9a57fa	0.30145246
49	0xbdb372f5	-0.08762161
50	0x3bf1ee8b	0.007383173
51	0x3de5eeba	0.11227174
52	0x3da73722	0.081648126
53	0x3df9f369	0.1220463
54	0xbd798df9	-0.06092641
55	0x3d3da44d	0.046299268
56	0xbcd91e4d	-0.026503706
57	0x3db18d2a	0.08669503
58	0x3cb0514c	0.02152314
59	0x3df17816	0.11790483
60	0x3c3a821d	0.0113835605
61	0x3e215b25	0.15757425
62	0xbcd3edab	-0.025870165
63	0xbc406665	-0.011743163
64	0xbe08daf7	-0.13364778
65	0xbda2fd0d	-0.07958422
66	0xbe060831	-0.13089062
67	0x3cc02e68	0.023459628
68	0xbd7d919d	-0.061906446
69	0x3cb001ba	0.021485198
70	0x3dd9c8cb	0.10634001
71	0xbdb14603	-0.08655932
72	0xbcb75b87	-0.02238251
73	0xbe19d911	-0.1502421
74	0x3d69b74c	0.05705957
75	0xbd841085	-0.06448463
76	0xbe5c2bea	-0.21501127
77	0x3c20e9b3	0.009821343
78	0xbd587a38	-0.052850932
79	0x3cae67d2	0.02128974
80	0x3d32445d	0.043522228
81	0xbca36044	-0.019943364
82	0xbdd4e745	-0.10395674
83	0x3dc8d626	0.098064706
84	0xbd6bb6d7	-0.057547417
85	0xbc2c4e92	-0.0105167795
86	0x3d9c8ebe	0.076444134
87	0xbe0804a4	-0.1328302
88	0xbe192c3a	-0.14958277
89	0xbd561c97	-0.05227336
90	0xbdf3a90a	-0.11897476
91	0x3dbb7b50	0.09154379
92	0x3c725d07	0.014792687
93	0x3c4e0cdc	0.012576308
94	0x3d3b10fb	0.04567049
95	0x3bf97259	0.0076125083
96	0x3dd854a5	0.1056302
97	0xbe3b0f49	-0.1826755
98	0xbddb8087	-0.10717874
99	0xbe1c68c0	-0.15274334
100	0xbd5b3f9a	-0.053527452
101	0x3dc9efe0	0.09860206
102	0xbd2924fe	-0.041295044
103	0xbd3b1cc8	-0.045681745
104	0x3d1ee60a	0.0387936
105	0xbe0d7ff9	-0.13818349
106	0x3d1de33b	0.038546782
107	0x3d8d3003	0.06893923
108	0x3e0e6da2	0.13909009
109	0x3d59fdc7	0.053220537
110	0xbe1cb41b	-0.1530308
111	0xbdabbc66	-0.083855435
112	0xbd5a8c95	-0.053356726
113	0x3d86a7f9	0.06575007
114	0xbd7ba0e0	-0.06143272
115	0xbd3906fe	-0.045172684
116	0xbdef8b75	-0.11696521
117	0xbe447952	-0.19186905
118	0xbdbe32ac	-0.09287009
119	0xbdc58367	-0.09644204
120	0xbd9b05cd	-0.07569466
121	0x3d02211a	0.03176985
122	0xbd99a9c9	-0.07503087
123	0x3d0c4cd4	0.034252957
124	0xbdf1ee3b	-0.11813017
125	0x3d835ff6	0.064147875
126	0xbe42f1ad	-0.19037504
127	0xbd241e94	-0.040068224
128	0xbd856bc6	-0.06514697
129	0xbda35ea0	-0.07977033
130	0x3d0edf86	0.034881137
131	0xbb7ff1a8	-0.003905395
132	0xbdac3041	-0.08407641
133	0x3bbe7420	0.005812183
134	0xbe011e0d	-0.1260912
135	0xbdaa19ab	-0.08305677
136	0x3d55c698	0.052191347
137	0x3b5b636a	0.0033476003
138	0xbd73f05a	-0.05955539
139	0x3de955ff	0.113933556
140	0x3cd72c9b	0.026266387
141	0x3df9b6f1	0.121930964
142	0x3d8aba56	0.06773822
143	0x3c280bff	0.010256766
144	0xbd1fd123	-0.039017808
145	0xbd3f2789	-0.046668563
146	0x3df4a1ca	0.11944921
147	0x3c21ae6f	0.009868248
148	0x3db7142b	0.089393936
149	0x3cddf992	0.027096543
150	0xbb94cd3d	-0.004541068
151	0xbe0ec8bc	-0.13943762
152	0x3db7bcde	0.089715704
153	0xbcad4517	-0.021151109
154	0x3d26a5cc	0.04068546
155	0xbd111e1c	-0.035429105
156	0x3e239b05	0.15977104
157	0x3dbe390d	0.09288225
158	0xbd4ef469	-0.050526056
159	0x3c224917	0.009905121
160	0xbd93572d	-0.07194362
161	0x3d43ce21	0.047804
162	0xbd8a73e8	-0.067603886
163	0xbda1e171	-0.07904328
164	0xbd398d83	-0.04530097
165	0xbdee6611	-0.11640561
166	0x3daca0d4	0.08429113
167	0xbd65b3d4	-0.0560797
168	0x3da2728b	0.079320036
169	0xbcf6fc2a	-0.030149538
170	0x3b50823c	0.0031815907
171	0xbd481c47	-0.048855092
172	0xbdc6ff93	-0.09716716
173	0x3d604d87	0.054761436
174	0xbd3dae4a	-0.046308793
175	0x3d7030bd	0.05864023
176	0xbd95d674	-0.07316294
177	0x3d0c208e	0.034210734
178	0x3da80993	0.08204951
179	0xbc897691	-0.01678017
180	0xbb9afc70	-0.0047298
181	0xbd92f073	-0.07174768
182	0xbcd3e313	-0.025865113
183	0x3dbf5d47	0.09343963
184	0x3ce60ac4	0.028081305
185	0x3db81b4a	0.0898958
186	0x3da30510	0.0795995
187	0xbcc1f9fa	-0.023678768
188	0xbd743f81	-0.059630875
189	0x3dd6b4ff	0.10483741
190	0xbd4d70b5	-0.050156314
191	0xbd4c0026	-0.04980483
192	0xbd05cff1	-0.03266901
193	0x3dff4bff	0.12465667
194	0xbc0a86b0	-0.008454964
195	0x3cbd7622	0.02312762
196	0xbdae1f8b	-0.0850211
197	0x3be9a467	0.007130194
198	0xbd9c9e8c	-0.07647428
199	0x3e084d94	0.13310844
200	0x3db9f2da	0.090795234
201	0xbc499573	-0.012303698
202	0xbd8739ab	-0.06602796
203	0x3d7bf443	0.061512243
204	0x3e3bbc9e	0.1833367
205	0xbdcc313f	-0.099703304
206	0x3e22c9b1	0.15897252
207	0x3ca59120	0.020210803
208	0x3cfb257e	0.030657526
209	0x3db7e5d4	0.08979383
210	0xbdcc725f	-0.09982752
211	0x3d51cf3d	0.05122303
212	0x3d1bfeb2	0.038084693
213	0xbd8066c2	-0.062695995
214	0x3ca62c05	0.020284662
215	0x3c89dc55	0.016828695
216	0x3dd9c7e1	0.10633827
217	0x3e80414e	0.25049824
218	0xbda9f7d0	-0.082992196
219	0xbda51a64	-0.08061674
220	0xbb726bc5	-0.0036990505
221	0x3e17e373	0.14832859
222	0xbd86414b	-0.065554224
223	0x3d94d879	0.072678514
224	0x3e11d3b2	0.14240912
225	0x3e32c06f	0.1745622
226	0x3e87a548	0.26493287
227	0x3ce59d05	0.028028974
228	0xbdb9389f	-0.09044003
229	0x3c66e8be	0.014093576
230	0x3deea7e3	0.116531156
231	0x3b3c9715	0.0028776575
232	0xbda7dac3	-0.08196022
233	0x3ea9c6f9	0.33159617
234	0x3ce97214	0.02849678
235	0x3dfb34b0	0.12265909
236	0x3bbc1e61	0.005740926
237	0xbdfe450f	-0.12415516
238	0x3dcfa457	0.10138767
239	0xba88ac93	-0.0010427408
240	0x3d85b297	0.06528204
241	0x3e0ed494	0.1394828
242	0xbd292d10	-0.04130274
243	0x3e39289c	0.18081897
244	0x3e28bbbe	0.16477868
245	0x3e266d3c	0.16252607
246	0xbd920eb7	-0.07131713
247	0x3d466bba	0.04844258
248	0x3cab0269	0.020875173
249	0x3dd1bec2	0.10241462
250	0xbd85ebdf	-0.065391295
251	0xbd5bd5ac	-0.05367057
252	0xbd9c474e	-0.07630788
253	0xbd802007	-0.06256109
254	0x3d2d0735	0.0422432
255	0xbab99628	-0.001415913

lstm.weight_ih_l1 f4 [256, 64]
0	0x3cc955ef	0.02457711
1	0x3c98af2e	0.01863822
2	0xbdc23fae	-0.09484802
3	0xbda47d31	-0.08031691
4	0xbd28efa5	-0.041244168
5	0xb9a900f3	-0.000322349
6	0xbce2e710	-0.02769807
7	0x3cd5948e	0.026071813
8	0xbd82d527	-0.06388312
9	0xbd0f625c	-0.035005912
10	0xbd9903f0	-0.07471454
11	0x3d4dc894	0.050240114
12	0xbe1d1cd8	-0.15343034
13	0x3d88e31f	0.06683945
14	0x3dc4ee82	0.09615804
15	0xbdd3dd99	-0.10345001
16	0x3b6d527a	0.003621249
17	0xbc17ea25	-0.009272133
18	0x3c9984c5	0.018740067
19	0xbd8c5db9	-0.06853814
20	0x3dd141f7	0.1021766
21	0xbd1ba9be	-0.038003676
22	0x3b90c022	0.0044174353
23	0xbbe38ff3	-0.0069446503
24	0x3c92a619	0.017901467
25	0x3de6ed2f	0.11275708
26	0xbd696d27	-0.05698886
27	0xbd8b3309	-0.067968436
28	0xbd61335e	-0.05498063
29	0x3d874a52	0.06605972
30	0xbe0deeb3	-0.13860588
31	0x3df5e0e3	0.12005784
32	0x3d7f3208	0.062303573
33	0x3de233c9	0.110450335
34	0xbe1ef3cc	-0.15522689
35	0xbd8e6c89	-0.06954295
36	0x3d59187c	0.053001866
37	0x3c8c0c64	0.017095752
38	0xbc9259ba	-0.01786505
39	0xbd63be25	-0.055601258
40	0xbc96b713	-0.018397843
41	0xbdc726f0	-0.097242236
42	0x3d51b97e	0.05120229
43	0xbc964f1e	-0.018348273
44	0x3bcddd6b	0.0062824986
45	0x3dc905d1	0.098155625
46	0xbd88c453	-0.06678071
47	0x3cd18a51	0.02557865
48	0x3d8b1b58	0.06792325
49	0x3c78253b	0.015145595
50	0x3d7a83e5	0.06116094
51	0xbd78d532	-0.060750194
52	0x3ccaefad	0.02477249
53	0xbdba0e5b	-0.09084769
54	0x3db3f2e2	0.087865606
55	0xbd215aff	-0.03939342
56	0xbd8f8739	-0.070082135
57	0xbda8eb79	-0.08248038
58	0x3d89331e	0.06699203
59	0x3dd989ce	0.10621987
60	0xbc84e0d2	-0.016220484
61	0x3dd41487	0.10355478
62	0xbd003b5e	-0.031306617
63	0xbcd5fa7b	-0.026120415
64	0x3dd0c054	0.10192934
65	0xbb4933e1	-0.0030701088
66	0x3982caad	0.00024946537
67	0x3dfff979	0.12498755
68	0x3c0ffbca	0.0087880585
69	0x3b9730e6	0.0046139834
70	0x3d27839f	0.040897008
71	0xbd15a888	-0.036537677
72	0xbb16ce88	-0.0023011286
73	0x3dccaee5	0.09994296
74	0x3e0a355e	0.1349692
75	0xbdeaf0bd	-0.114716984
76	0xbcac09c1	-0.021000745
77	0x3c8d6c0b	0.017263433
78	0x3d90bd01	0.070673
79	0xbd2d47c9	-0.042304788
80	0xbcf41757	-0.029796286
81	0xbd5690bc	-0.052384123
82	0xbe0e3fed	-0.13891573
83	0xbdeb987a	-0.11503692
84	0xbdbba8bf	-0.09163045
85	0x3bb4e2bc	0.005520193
86	0x3d23e8e1	0.040017013
87	0x3c917df6	0.017760258
88	0x3dbbc6d3	0.09168782
89	0xbcebb19f	-0.02877122
90	0x3e041431	0.12898327
91	0x3cf5c16f	0.029999463
92	0xbc7a3b34	-0.015272904
93	0xbc6b654b	-0.014367412
94	0xbe0c842f	-0.13722299
95	0x3d8b3953	0.06798043
96	0x3d0ff27a	0.035143353
97	0x3d85c82c	0.065323204
98	0x3dad5511	0.08463491
99	0x3d7a8cc9	0.06116942
100	0xbe100620	-0.14064837
101	0xbdf1198f	-0.11772453
102	0xba8fb9ed	-0.0010965444
103	0xbd396873	-0.045265626
104	0xbbdb8632	-0.006699347
105	0x3dff5b4b	0.124685846
106	0x3c7ee19f	0.015556722
107	0x3c917d54	0.017759956
108	0xbdc4088f	-0.09571945
109	0xbcadf0f2	-0.021233056
110	0xbda9efd0	-0.08297694
111	0xbd588ccd	-0.052868653
112	0x3dcf880b	0.1013337
113	0x3ba7b5fb	0.0051181293
114	0x3d4c2b55	0.049846012
115	0x3d6298f8	0.055321664
116	0x3db80451	0.08985198
117	0x3bc3b1af	0.0059721093
118	0xbe22f21f	-0.15912674
119	0x3c4a75cf	0.012357189
120	0x3cef484e	0.029209282
121	0xbdaf253a	-0.08552022
122	0xbe0471af	-0.12933992
123	0xbdafc2c8	-0.085820735
124	0x3d9c012f	0.07617413
125	0xbd873e26	-0.06603651
126	0xbba0abb6	-0.004903282
127	0x3d44a73a	0.048011042
128	0x3e3f4e03	0.18682103
129	0x3c2172a4	0.009853993
130	0x3ded22a6	0.11578874
131	0x3d5c50fd	0.053788174
132	0x3dc4292b	0.09578165
133	0xbd32118d	-0.04347377
134	0x3e44df01	0.19225694
135	0xbc92fead	-0.017943705
136	0x3e5882e8	0.21143687
137	0xbe41afb4	-0.18914682
138	0xbda1a9f7	-0.07893746
139	0x3d398c22	0.045299657
140	0x3d520744	0.05127646
141	0x3da5f55a	0.08103438
142	0xbe45cb1d	-0.19315763
143	0xbce7efec	-0.028312646
144	0x3dcf1f24	0.101133615
145	0x3de097d2	0.109664574
146	0xbc8dbf71	-0.0173032
147	0xbd532571	-0.05154938
148	0xbd9c8f7a	-0.076445535
149	0xbd200204	-0.039064422
150	0xbe5c4176	-0.21509346
151	0x3ba6c817	0.0050897705
152	0xbe20a8f0	-0.15689445
153	0x3c424f9f	0.011859803
154	0xbdc1fdb5	-0.09472219
155	0xbcbd5fd6	-0.023116987
156	0xbd10fe1e	-0.035398595
157	0xbd08c6aa	-0.033392586
158	0xbcf495ad	-0.029856527
159	0xbde75d9d	-0.11297152
160	0x3c6787e4	0.01413152
161	0xbde7062d	-0.11280475
162	0x3e2bd0fe	0.16778943
163	0xbcb3175c	-0.021861725
164	0x3d0d80eb	0.034546774
165	0xbbdd1348	-0.0067466833
166	0xbe275462	-0.16340783
167	0x3cac37ad	0.021022642
168	0xbbc955ac	-0.006144246
169	0x3dced5dd	0.10099385
170	0x3e1cd553	0.15315752
171	0xbe0903e9	-0.13380398
172	0xbe3648e3	-0.17801242
173	0x3d206052	0.03915436
174	0xbd6b23ed	-0.05740731
175	0xbc464667	-0.012101746
176	0x3e0deab3	0.13859062
177	0x3db1b68e	0.08677398
178	0x3d706a93	0.058695387
179	0x3d210baa	0.039317764
180	0xbb46d4ec	-0.0030339314
181	0x3c1d0075	0.0095826285
182	0x3ce69627	0.02814777
183	0xbe3b9765	-0.18319471
184	0x3d175555	0.036946613
185	0x3dadf524	0.084940225
186	0xbcb209c8	-0.02173318
187	0x3caca7d6	0.021076124
188	0x3dbe5bae	0.0929483
189	0xbcbdf377	-0.023187382
190	0x3db5e9bb	0.08882471
191	0x3d6f310a	0.058396377
192	0x3d36df9d	0.044646848
193	0x3da57dfb	0.080806695
194	0x3c8a3658	0.016871616
195	0x3e064275	0.13111289
196	0x3e10a8a9	0.14126839
197	0xbd1be73c	-0.03806232
198	0x3d23a600	0.03995323
199	0x3d3c3b0a	0.04595474
200	0xbd7dfec3	-0.062010538
201	0xbd8b3d0d	-0.06798754
202	0xbd5e4616	-0.054266058
203	0xbdf53a56	-0.11974017
204	0x3d5a8b63	0.053355586
205	0x3e0ac6bc	0.13552374
206	0xbd7eb34d	-0.062182713
207	0xbdc183b9	-0.09448952
208	0x3dea3995	0.11436764
209	0xbdc7a37c	-0.09747979
210	0x3df9cb5c	0.12196991
211	0xbc7bc345	-0.01536638
212	0xbcb66874	-0.022266604
213	0x3cf0a028	0.029373243
214	0x3d94b380	0.072607994
215	0x3d8ce624	0.06879833
216	0x3d1c0db0	0.03809899
217	0xbe02255b	-0.12709562
218	0xbd3b6f1c	-0.04576026
219	0x3db3f764	0.087874204
220	0x3da038d9	0.07823343
221	0xbc8355c7	-0.016032113
222	0x3d81b8ad	0.06334052
223	0xbccb7339	-0.024835216
224	0x3dc6afb6	0.09701483
225	0xbc5d834f	-0.013520076
226	0x3dd7547c	0.10514161
227	0xbcd7c08b	-0.026336929
228	0xbd9f7dc5	-0.077876605
229	0x3df519bc	0.11967799
230	0x3d7142f1	0.05890173
231	0xbdb259f4	-0.087085634
232	0xbaf48940	-0.0018656626
233	0xbd2408a5	-0.040047307
234	0xbbcbed65	-0.006223368
235	0xbcb0f80d	-0.021602655
236	0xbd3f678b	-0.046729606
237	0x3d86cce0	0.065820456
238	0xbd76de50	-0.060270607
239	0xbc8dff85	-0.017333755
240	0xbc9ea5dd	-0.0193662
241	0x3cccfa59	0.025021719
242	0x3d8120b9	0.063050695
243	0xbe328ff3	-0.17437725
244	0xbd2c97f2	-0.042137094
245	0xbdbb4f4b	-0.09145983
246	0xbdcfff8a	-0.10156162
247	0xbe1984ad	-0.14992018
248	0xbc9b34d2	-0.018946085
249	0xbda01bfa	-0.07817836
250	0x3e14de4e	0.14537928
251	0xbc59049a	-0.013245726
252	0x3ddd7d88	0.10814959
253	0xbe019405	-0.12654121
254	0xbd83609a	-0.0641491
255	0x3d5aba68	0.053400427

lstm.weight_hh_l1 f4 [256, 64]
0	0xbe096bc1	-0.13420011
1	0xbd1c60e4	-0.03817834
2	0x3ced65e3	0.028979247
3	0xbdf132a7	-0.11777239
4	0x3d1a542d	0.037677933
5	0xbd80ca29	-0.06288559
6	0xbd210c97	-0.039318647
7	0xbd86b52d	-0.06577525
8	0xbdc9c764	-0.09852484
9	0xbdac69ee	-0.08418642
10	0xbddbe160	-0.10736346
11	0x3ca14253	0.019684946
12	0xbdacc897	-0.08436697
13	0x3cd15b6a	0.025556285
14	0xbc785ffa	-0.015159601
15	0x3de4fc29	0.11180908
16	0xbdd9f8bd	-0.10643146
17	0xbd6931b2	-0.05693216
18	0x3d358d1f	0.044324037
19	0xbda9fef4	-0.083005816
20	0xbdbe152a	-0.092813805
21	0x3dfbe3cd	0.12299309
22	0xbd95e05b	-0.07318183
23	0xbd4b786e	-0.049675398
24	0x3cb52ae9	0.022115188
25	0xbe03d106	-0.12872705
26	0xbdc44911	-0.09584249
27	0xb9fe7e4f	-0.00048540763
28	0xbd61f882	-0.055168636
29	0x3dedec0f	0.1161729
30	0xbcf75a57	-0.030194445
31	0x3d5a999e	0.053369157
32	0xbdfe8859	-0.1242835
33	0xbdbd5249	-0.0924421
34	0xbcf8f4c5	-0.030390153
35	0x3d3ae182	0.045625217
36	0x3dab6860	0.08369517
37	0x3c707647	0.014676637
38	0xbdeeb6a4	-0.1165593
39	0x3d67ddc5	0.05660798
40	0x3de161c7	0.11004978
41	0x3d6f72f2	0.05845923
42	0xbdc0bef3	-0.09411421
43	0xbca2b9e9	-0.01986404
44	0xbd40b634	-0.047048762
45	0xbdc0b45f	-0.09409403
46	0xbd280344	-0.04101874
47	0x3d5139f8	0.051080674
48	0x3e079851	0.13241698
49	0x3de63b23	0.11241748
50	0x3bfa2c84	0.007634701
51	0xbd0b187d	-0.0339589
52	0xbddafa78	-0.106923044
53	0xbd9639e6	-0.07335262
54	0x3e507452	0.20356873
55	0x3dabae92	0.08382906
56	0xbc389fce	-0.011268569
57	0xbcc79cd1	-0.024366768
58	0x3cfcdaf5	0.030866126
59	0xbe0a5bde	-0.13511607
60	0x3dbc8fe2	0.09207131
61	0x3dda323a	0.10654111
62	0xbdfa65e0	-0.12226462
63	0xbdec489c	-0.11537287
64	0xbc5dcf73	-0.013538229
65	0xbca61ed6	-0.020278376
66	0xbdf799b3	-0.12089863
67	0x3df7f942	0.12108089
68	0xbbfc99f6	-0.0077087833
69	0xbe2044c9	-0.1565124
70	0xbd2a602a	-0.041595615
71	0x3d7a5113	0.061112475
72	0x3d699944	0.05703093
73	0x3caf9c3f	0.021436809
74	0xbd8de560	-0.069285154
75	0xbba8497e	-0.005135714
76	0xbcd48b7c	-0.025945418
77	0xbda2cacf	-0.07948839
78	0xbdc01681	-0.09379292
79	0x3e349f1c	0.1763882
80	0x3d0ea2c3	0.03482319
81	0x3cdf67d6	0.027271193
82	0xbd6a0232	-0.057131
83	0x3d8ef84e	0.06980954
84	0xbdcd4d32	-0.100244895
85	0x3d0a8ba5	0.03382458
86	0x3dd46a76	0.10371868
87	0x3ddd28a5	0.10798768
88	0xbd9e6830	-0.07734716
89	0x3d25e07f	0.0404973
90	0x3e0a13b5	0.1348408
91	0x3de32f6b	0.11093029
92	0x3c9264b9	0.017870294
93	0xbe0671bd	-0.13129325
94	0x3d905b29	0.070486374
95	0xbdc1e3a5	-0.09467248
96	0xbdc67ab5	-0.09691373
97	0xbce9098d	-0.028446937
98	0x3e0e2a3d	0.138833
99	0xbd99d932	-0.0751213
100	0xbc689334	-0.014195252
101	0xbd908b2a	-0.070577934
102	0xbdcbd7bf	-0.0995326
103	0xbd89d7de	-0.067306265
104	0x3cc28376	0.023744326
105	0xbe15f4fc	-0.14644235
106	0x3de011ff	0.109409325
107	0x3ded985f	0.11601328
108	0xbe0e9e8e	-0.13927671
109	0x3cef9e51	0.029250296
110	0x3dea5253	0.11441483
111	0xbd8a08e5	-0.06739978
112	0xbdf4a603	-0.11945727
113	0x3dc96d26	0.098352715
114	0x3d9329dd	0.07185719
115	0xbc6aed71	-0.014338837
116	0xbcf17cea	-0.029478509
117	0xbd874e28	-0.06606704
118	0x3dc761f4	0.0973548
119	0xbc76aeea	-0.015056351
120	0xbd43a9ee	-0.04776948
121	0x3d826d6c	0.06368527
122	0xbde35915	-0.111009754
123	0xbd6bce0c	-0.05756955
124	0xbda10b52	-0.07863487
125	0x3c99a478	0.018755183
126	0x3ddf7521	0.109110124
127	0xbca1c39d	-0.019746596
128	0xbe06efd4	-0.13177425
129	0xbe136e8d	-0.1439764
130	0x3cac06b7	0.020999296
131	0x3c0be9b3	0.008539605
132	0xbe15cd27	-0.1462904
133	0xbe0e8b78	-0.1392039
134	0x3e0fad6c	0.14030999
135	0xbde42ba0	-0.11141133
136	0xbc4c12c1	-0.012455643
137	0x3e207373	0.1566904
138	0x3d55c0d1	0.052185837
139	0x3d788e84	0.06068279
140	0x3d7632cc	0.060107037
141	0xbe1773c9	-0.14790262
142	0x3df43816	0.1192476
143	0xbd8366f9	-0.06416125
144	0x3a95b11e	0.0011420583
145	0x3d237398	0.03990516
146	0x3caafb3c	0.020871751
147	0x3deffd8f	0.11718284
148	0xb9d03ba0	-0.00039717276
149	0xbc3b84ca	-0.011445234
150	0xbdb3da9d	-0.087819315
151	0x3dc07a5e	0.0939834
152	0x3dc36c71	0.09542168
153	0x3dde1818	0.10844439
154	0x3d96b5f5	0.07358924
155	0xbcffc223	-0.031220501
156	0xbdb03bcb	-0.086051546
157	0xbdb49499	-0.08817405
158	0xbda9e247	-0.08295112
159	0xbd694e37	-0.056959357
160	0xbcaac8ea	-0.020847756
161	0x3c75da76	0.015005698
162	0xbd823c31	-0.06359137
163	0xbd22b99f	-0.039727803
164	0x3d4b915f	0.049699184
165	0xbdadab96	-0.08479993
166	0xbc5419e6	-0.012945628
167	0x3de64c2a	0.11244996
168	0xbdc5cc47	-0.096581034
169	0xbc76e046	-0.015068119
170	0x3dc4a3e2	0.09601571
171	0x3dc7f919	0.097643085
172	0x3cb90ceb	0.022589168
173	0xbd16656b	-0.036717813
174	0xbd02ec05	-0.031963367
175	0x3de16b53	0.110067986
176	0xbe1286e9	-0.14309277
177	0x3e2db89c	0.16964954
178	0x3d495457	0.0491527
179	0x3dd35575	0.10319034
180	0x3e0ca3f6	0.13734421
181	0xbe15fb61	-0.14646675
182	0x3d0ccede	0.03437697
183	0xbdff40da	-0.12463541
184	0x3df80edc	0.12112209
185	0x3c446558	0.011987053
186	0x3d996dbc	0.07491633
187	0xbd8ba998	-0.06819457
188	0xbdd6671c	-0.10468885
189	0x3da57264	0.08078459
190	0xbc255b79	-0.01009261
191	0x3d375064	0.0447544
192	0x3d10e60b	0.035375636
193	0x3ca548ab	0.020176252
194	0x3d2a3e41	0.041563276
195	0x3d1ac4c0	0.03778529
196	0xbd0c12b7	-0.034197535
197	0xbcef210a	-0.029190559
198	0x3e223024	0.15838677
199	0xbd9f23b5	-0.077704825
200	0x3e009a98	0.12558973
201	0x3cc99d5f	0.024611173
202	0xbd808ef5	-0.06277267
203	0xbd3a4495	-0.04547556
204	0xbdcc4c62	-0.09975506
205	0x3d98cecb	0.07461318
206	0xbdb6ec9c	-0.089318484
207	0xbcdb21b6	-0.026749473
208	0x3d9d801b	0.0769045
209	0x3cdcb94e	0.026943829
210	0xbe122f16	-0.14275774
211	0xbcd9e878	-0.026600108
212	0x3e3476f9	0.1762351
213	0x3d17b621	0.037038926
214	0x3d0b3623	0.033987176
215	0xbd479d15	-0.04873379
216	0x3da9bc9b	0.08287927
217	0x3d9aff27	0.07568198
218	0x3e23d1f1	0.15998055
219	0x3e02f719	0.12789573
220	0x3dac89c6	0.08424716
221	0xbc93fac8	-0.018063918
222	0xbca54b07	-0.020177377
223	0x3df62650	0.12019026
224	0xbc85eeab	-0.016349157
225	0x3c3dc16a	0.011581758
226	0x3dafc94a	0.08583315
227	0x3d19f8e6	0.037590884
228	0xbd1b2c65	-0.037884135
229	0xbcc40827	-0.023929669
230	0xbd70c12d	-0.058777977
231	0x3d505c6f	0.0508694
232	0xbd80db6d	-0.06291852
233	0xbccaca04	-0.024754532
234	0x3d04cba5	0.032420773
235	0xbdfb5d84	-0.12273696
236	0x3bde43c4	0.0067829806
237	0xbca1648d	-0.019701267
238	0x3d0941d0	0.03351003
239	0x3d8738c6	0.066026255
240	0xbdf12b31	-0.11775816
241	0xbcd79667	-0.026316835
242	0x3c3c3dd3	0.011489349
243	0x3e0f42be	0.13990304
244	0x3e115f38	0.1419648
245	0x3d81269e	0.06306194
246	0x3d1f3f94	0.038878992
247	0xbd442e4b	-0.04789571
248	0xbd140c1e	-0.03614437
249	0x3d1c7dea	0.03820602
250	0xbcc678de	-0.024227556
251	0x3db2a3a3	0.087226175
252	0xbd2f64f2	-0.04282088
253	0xbdc8f556	-0.09812419
254	0x3d01ce69	0.03169099
255	0x3e0c2728	0.13686812

lstm.bias_ih_l1 f4 [256]
0	0x3d861541	0.065470226
1	0x3e01f59c	0.12691349
2	0x3d55454f	0.05206805
3	0x3dc259db	0.09489795
4	0xbd839fb3	-0.064269446
5	0x3e01a224	0.12659508
6	0x3d83d63b	0.064373456
7	0xbd8c3c77	-0.0684747
8	0x3e0f6a94	0.140055
9	0x3cdc3ca7	0.02688439
10	0x3df36c63	0.118859075
11	0x3d0541f1	0.03253359
12	0xbd502520	-0.050816655
13	0x3de62822	0.112381235
14	0xbc8050fe	-0.01566362
15	0x3cc816b8	0.024424896
16	0x3df7166a	0.12064822
17	0x3da5e0e9	0.08099539
18	0x3dda8a31	0.10670889
19	0x3eb3a319	0.3508537
20	0x3dac5c70	0.084160686
21	0x3e1298d1	0.14316107
22	0x3d7bb0d8	0.06144795
23	0x3c990323	0.018678254
24	0xbd3766ef	-0.0447759
25	0x3e8cace6	0.2747566
26	0x3e43c70f	0.19118904
27	0xbbf0cbf3	-0.0073485314
28	0x3cc0abd7	0.02351944
29	0xbdba28d3	-0.09089818
30	0x3da4c129	0.08044655
31	0x3b237eae	0.0024947333
32	0xbbd9f016	-0.006650935
33	0x390418e3	0.00012597772
34	0x3dcb52c0	0.09927893
35	0xbd9dd5bc	-0.07706782
36	0x3eb40121	0.3515711
37	0x3d57c799	0.052680586
38	0xbdeef2a2	-0.11667372
39	0xbcd71ad7	-0.026257915
40	0x3de6d458	0.1127097
41	0x3db95fb4	0.09051457
42	0x3e0d004b	0.13769643
43	0x3d5affc1	0.053466562
44	0x3d7f536a	0.06233541
45	0x3e27ce9f	0.16387413
46	0xbc510818	-0.012758277
47	0x3e3ae544	0.1825152
48	0x3d5141ef	0.05108827
49	0xbd81b6bb	-0.06333681
50	0x3ca543f3	0.020174002
51	0x3e04c035	0.12963946
52	0x3dfdf2fc	0.12399861
53	0x3c584883	0.013200882
54	0x3cc871f2	0.024468396
55	0x3d3204be	0.043461554
56	0x3db305a6	0.08741312
57	0xbdb527e8	-0.08845502
58	0xbdcc4e9c	-0.09975931
59	0xbd8e6e81	-0.06954671
60	0xbc23a2f4	-0.0099875815
61	0x3d06714c	0.032822892
62	0x3c6438c2	0.013929548
63	0xbda86d51	-0.082239754
64	0xbdd645a5	-0.104625024
65	0x3d53ea15	0.05173691
66	0xbbceb0be	-0.0063076904
67	0x3c586d67	0.013209677
68	0x3df4e661	0.11958004
69	0xbd890ca7	-0.06691866
70	0x3da86e67	0.082241826
71	0xbd9ff390	-0.07810128
72	0xbc7f1d97	-0.01557102
73	0x3d7ae66e	0.06125491
74	0x3dcccc2d	0.09999881
75	0xbd6b436a	-0.057437338
76	0xbd3932c6	-0.045214437
77	0xbdd8faf6	-0.10594742
78	0xbdb6da08	-0.08928305
79	0xbbaad53a	-0.005213407
80	0xbce6b8f3	-0.028164363
81	0xbd967200	-0.073459625
82	0x3d28b713	0.04119022
83	0xbd7c4233	-0.06158657
84	0xbd02ccc4	-0.03193356
85	0x3d7aa863	0.061195742
86	0xbd05a369	-0.032626543
87	0xbd7cadc2	-0.061689146
88	0xbd927068	-0.07150346
89	0x3d515881	0.051109795
90	0x3c9258f9	0.017864691
91	0xbde18d4c	-0.11013278
92	0xbd06bdd2	-0.03289587
93	0xbdd09a3f	-0.1018567
94	0x3d9b6d54	0.07589212
95	0x3dfcaf07	0.12338071
96	0xbd78d397	-0.060748663
97	0xbd537b77	-0.051631417
98	0x3cefd3ef	0.029275863
99	0x3da4b199	0.080416866
100	0x3bd3ae45	0.0064599835
101	0x3c09893c	0.008394536
102	0x3c07c4c6	0.008286661
103	0x3d40f2b3	0.047106456
104	0xbda181cd	-0.07886086
105	0x3d1ba420	0.03799832
106	0x3de524f4	0.11188689
107	0x3d6b9811	0.05751807
108	0x3e0bb10d	0.13641758
109	0xbdae573e	-0.08512734
110	0x3cb79f52	0.022414837
111	0xbdd2cd5c	-0.102930754
112	0x3d754ed5	0.059889633
113	0x3d2c6945	0.04209258
114	0x3d53bbbb	0.051692706
115	0xbc94c8be	-0.018162128
116	0xbdb245dc	-0.08704731
117	0xbd4a3d68	-0.049374968
118	0x3bcc4f78	0.0062350594
119	0xbdb5bc80	-0.08873844
120	0x3d16d1f4	0.03682132
121	0x3c475234	0.012165595
122	0x3d0b506c	0.034012243
123	0x3c8310bf	0.015999196
124	0xbdb37500	-0.0876255
125	0x3d132103	0.035920154
126	0xbd955207	-0.07291036
127	0xbca8e7b9	-0.020618306
128	0xbad83499	-0.0016495168
129	0x3db8c061	0.09021068
130	0xbdd385cd	-0.10328255
131	0xbe05b164	-0.1305595
132	0xbdd1290c	-0.10212907
133	0xbd92a0da	-0.07159586
134	0xbcb6d6d3	-0.022319233
135	0x3bb10b7a	0.0054029794
136	0xbdb757d6	-0.089523
137	0xbd3da1df	-0.04629695
138	0x3d0d0dd0	0.034437
139	0xbcee415a	-0.029083896
140	0xbdb517ed	-0.08842454
141	0xbd97c153	-0.074099205
142	0x3ccbfc03	0.024900442
143	0xbd827a84	-0.06371024
144	0xbd9b727d	-0.07590196
145	0x3df34a36	0.11879389
146	0x3d9dd01a	0.07705708
147	0xbcd58da7	-0.026068522
148	0xbcb85cfb	-0.022505274
149	0x3d9a16f0	0.07523906
150	0xbdbb7960	-0.0915401
151	0xbde42614	-0.11140075
152	0x3d8ab155	0.06772105
153	0x3b9466c2	0.0045288512
154	0xbda21d9b	-0.07915803
155	0xbda9dcb5	-0.0829405
156	0x3b003f7b	0.0019569087
157	0xbda1b80c	-0.07896432
158	0xbd4878a2	-0.04894317
159	0x3ca67ba9	0.020322638
160	0xbd83833a	-0.06421514
161	0xbd8b40a9	-0.06799442
162	0xbba2ddf0	-0.0049703047
163	0xbcfe413f	-0.031036971
164	0xbd9d4155	-0.07678477
165	0xbd334a13	-0.043771815
166	0x3d22e514	0.039769247
167	0x3df970fe	0.12179755
168	0xbd0c647f	-0.034275528
169	0xbd39e0b8	-0.045380324
170	0xbde142ed	-0.10999093
171	0xbceb4b99	-0.028722571
172	0x3dc5791a	0.09642239
173	0x3d18db08	0.03731826
174	0x3d8338aa	0.06407292
175	0xbc29799d	-0.010343936
176	0xbd7e5e7b	-0.062101822
177	0x3d40ee28	0.047102123
178	0xbd2ca208	-0.042146713
179	0xbc51a6cb	-0.012796114
180	0xbd875527	-0.066080384
181	0xbd482655	-0.04886468
182	0xb982d72c	-0.00024955848
183	0xbd8577d1	-0.06516994
184	0xbd22193c	-0.039574847
185	0x3a893cc5	0.0010470381
186	0x3da0ad73	0.07845583
187	0xbcdcc0ac	-0.026947342
188	0xbda447c6	-0.08021502
189	0x3cf14d04	0.02945567
190	0x3baecc42	0.005334408
191	0x3d7028f7	0.058632817
192	0xbd227628	-0.039663464
193	0xbd40e597	-0.047093954
194	0xbdd1697b	-0.10225197
195	0xbdd1747f	-0.10227298
196	0x3d4e1cee	0.05032056
197	0x3e12697d	0.14298053
198	0xbc7c01a2	-0.015381249
199	0x3c2c1750	0.010503605
200	0x3d9ab79e	0.075545534
201	0x3dc13f54	0.09435907
202	0x3ce5f5e2	0.028071348
203	0x3c9ad0ae	0.018898334
204	0xbd96bf6b	-0.07360729
205	0xbd1fcde9	-0.03901473
206	0x3db6fb2c	0.08934626
207	0x3b8a6a6a	0.0042241113
208	0x3ced932c	0.029000841
209	0xbcc66c69	-0.024221616
210	0xbdeabf9c	-0.11462328
211	0x3e404085	0.18774612
212	0x3d941696	0.072308704
213	0x3cf32332	0.029679868
214	0x3e036cac	0.12834424
215	0x3c93e3e5	0.018053005
216	0x3d100a8d	0.035166312
217	0x3d427b31	0.047480766
218	0x3d7cc5f9	0.06171224
219	0x3e41acfa	0.18913642
220	0x3db87ff8	0.09008783
221	0xbc2852f3	-0.010273683
222	0x3b1318e8	0.0022445265
223	0xbd2cf231	-0.04222316
224	0xbdd9e892	-0.106400624
225	0x3c48ead0	0.012263015
226	0x3dbd7536	0.09250872
227	0xbe023fc0	-0.12719631
228	0x3d87db17	0.06633585
229	0xbd8bb638	-0.06821865
230	0xbd61ab9d	-0.055095304
231	0xbd482cf6	-0.048871003
232	0x3df9fdad	0.12206588
233	0x3d3c7f26	0.046019696
234	0xbdbf2945	-0.093340434
235	0x3e17cef7	0.14825045
236	0xbd16c731	-0.036811057
237	0xbda02c50	-0.07820952
238	0x3e0ec304	0.1394158
239	0xbc89c0ed	-0.016815627
240	0xbd5047ce	-0.05084973
241	0xbc6871b7	-0.014187268
242	0x3bcefeba	0.006316987
243	0x3dd93e2c	0.106075615
244	0xbd9e4e16	-0.077297375
245	0xbd22f05f	-0.039780017
246	0xbd93f501	-0.07224465
247	0x3d42e1ac	0.0475785
248	0x3de5f86b	0.112290226
249	0x3d578f77	0.052627053
250	0x3da8e65b	0.08247062
251	0x3c3332f7	0.010937444
252	0xbd52ae88	-0.051435977
253	0xbc853f25	-0.016265461
254	0x3e01d065	0.12677152
255	0x3d9f88bd	0.07789753
