checkpoints/lstm/sh-h64-l2-lr0.001-d0.3-ep200.pth (torch, 213388 bytes, 9 tensors)

lstm.weight_ih_l0 f4 [256, 10]
0.040471505 0.108618885 0.033448894 0.09964487 -0.019019295 0.05781731 -0.050832715 0.044836897
0.05081314 -0.11653079 0.11996903 -0.022305395 0.12668593 -0.090530366 0.05455358 0.010678628
-0.07712389 -0.11012294 0.099013604 0.040202662 -0.017557003 0.016002927 0.010950781 0.016209742
-0.08112566 0.0060779722 -0.110935405 -0.16615899 0.12339069 -0.20151019 0.13862033 -0.15839092
0.17296308 -0.04878655 0.01222097 0.08118515 -0.051727653 0.050308898 0.017248446 -0.19533369
0.040558875 -0.027730653 0.1729994 0.11785379 0.06282621 0.018687574 0.1198549 0.13675433
0.18989378 -0.0018746719 -0.1267449 -0.06521286 -0.2389111 0.18860692 0.06264921 0.26836675
0.053266045 -0.19022213 -0.04535304 0.0025351434 -0.018914588 -0.07067962 0.121848874 -0.034102853
0.08342653 0.12620634 0.078231536 -0.14862804 0.0056172935 -0.010257093 0.11922308 -0.029416677
-0.017274547 -0.19721656 -0.25005433 -0.19384238 -0.07477243 -0.058371495 0.10786458 0.1645254
-0.09727532 -0.2016197 0.15069021 -0.035904523 0.10663893 0.00054969365 0.10925649 -0.02955715
-0.07082837 -0.13280599 0.07496348 -0.045273103 0.1417129 -0.032695215 -0.078700535 -0.11157418
0.13809146 -0.25275192 0.0063355137 -0.09983766 0.00038232133 0.0741912 -0.004205753 -0.08762956
0.07173489 0.07682986 -0.08593323 -0.11884076 -0.10237085 -0.11717514 0.15634136 0.0060704355
0.08197852 -0.14255817 -0.0720553 -0.1298648 0.07195179 -0.0686317 -0.14315857 0.059838414
0.019583613 -0.03346363 0.08112056 -0.07427169 0.049407925 -0.010211578 -0.025504412 -0.2808806
0.13908854 -0.090778485 0.18960221 -0.028603604 0.00088254485 0.09926616 -0.12343957 -0.096346825
-0.21847312 -0.22486307 0.09956681 -0.22139324 0.06165122 -0.09464813 0.13021222 -0.17516088
0.029152641 0.048897497 -0.05965776 0.061556507 0.15641639 -0.14967054 0.035474755 -0.09159839
0.06104815 -0.006905031 0.20535405 0.018338017 0.1971232 0.20279945 0.1377753 -0.048192598
0.1103035 0.027118322 0.064936 -0.07125676 -0.07498832 -0.054187074 -0.19824816 0.09267046
0.07844255 0.071798936 -0.07695017 -0.09590502 0.06364716 0.0648666 -0.06597991 -0.09589178
0.037447453 -0.059519477 0.17135201 -0.2326948 0.09514044 0.17354752 -0.03212627 -0.019659813
-0.06858251 0.20858184 0.06497673 -0.09425036 -0.23748182 -0.08991155 0.023398297 -0.0006441874
0.21863079 0.1342007 0.002643014 -0.118913725 0.08049463 -0.012992343 0.08950015 0.038127854
-0.103480965 -0.072332315 0.0865194 -0.06112258 0.10688773 0.018509662 -0.07631913 -0.13213782
-0.19058469 0.033443715 0.10271351 -0.052854534 -0.073734395 0.0547599 0.1779125 0.13357815
0.0871389 -0.17478104 -0.15653984 -0.097610876 -0.024036912 0.10237584 -0.06717731 -0.017570475
-0.11515635 0.098070815 0.08975329 0.15298794 -0.052601617 -0.24054626 -0.10081648 0.23974463
0.15819241 0.035223823 -0.10454439 0.16894951 0.11035625 -0.29586968 -0.18414395 -0.040412877
0.014036972 -0.13696839 0.106749475 -0.028769221 -0.047815982 0.085234426 -0.03310279 0.1005025
0.06321905 0.160474 -0.011213688 -0.05931831 -0.01842511 -0.03231488 -0.0026536142 -0.048500057
00000000: 73c5 253d 9473 de3d b501 093d 9c12 cc3d
00000010: 5ace 9bbc d8d1 6c3d f735 50bd e5a6 373d
00000020: 7021 503d b2a7 eebd 53b2 f53d ceb9 b6bc
00000030: f5b9 013e fc67 b9bd 9373 5f3d 6af5 2e3c
00000040: 21f3 9dbd 2388 e1bd a5c7 ca3d 8cab 243d
00000050: b4d3 8fbc 9218 833c e86a 333c 4bca 843c
00000060: 3625 a6bd ba29 c73b 1a32 e3bd 9525 2abe
00000070: 42b4 fc3d b058 4ebe 7df2 0d3e 3b31 22be
00000080: 3c1d 313e 68d4 47bd 773a 483c 6644 a63d
00000090: 60e0 53bd b410 4e3d 9d4c 8d3c 8e05 48be
000000a0: 1021 263d 652b e3bc c126 313e 545d f13d
000000b0: 07ab 803d af16 993c 7c76 f53d 5409 0c3e
000000c0: 8473 423e 8db7 f5ba 6ac9 01be 528e 85bd
000000d0: 1da5 74be 2c22 413e 3b4e 803d 5e67 893e
000000e0: 7f2d 5a3d 97c9 42be 1cc4 39bd a624 263b
000000f0: c4f2 9abc 7ac0 90bd e78b f93d 6faf 0bbd
00000100: 87db aa3d 3c3c 013e db37 a03d f331 18be
00000110: 4611 b83b 5e0d 28bc 3b2b f43d 3efb f0bc
00000120: 5a83 8dbc 23f3 49be 1f07 80be 9e7e 46be
00000130: 4a22 99bd f316 6fbd 1be8 dc3d 5979 283e
00000140: 4838 c7bd 6575 4ebe 894e 1a3e 9f10 13bd
00000150: 8365 da3d 5119 103a dec1 df3d d621 f2bc
00000160: 770e 91bd 4bfe 07be 7486 993d 4a70 39bd
00000170: 301d 113e 6beb 05bd bf2d a1bd 0181 e4bd
00000180: d967 0d3e b368 81be 249a cf3b b077 ccbd
00000190: 4d72 c839 8ef1 973d 6ad0 89bb 2077 b3bd
000001a0: bee9 923d f958 9d3d c3fd afbd c962 f3bd
000001b0: cfa7 d1bd 85f9 efbd f317 203e 81ea c63b
000001c0: 5be4 a73d c5fa 11be bb91 93bd 47fb 04be
000001d0: 765b 933d c78e 8cbd 2998 12be 2019 753d
000001e0: d06d a03c 2911 09bd 8922 a63d c11b 98bd
000001f0: f75f 4a3d 764e 27bc a1ee d0bc 95cf 8fbe
00000200: 3a6d 0e3e 12ea b9bd 1527 423e 1b52 eabc
00000210: 955a 673a 0e4c cb3d e3cd fcbd 7c51 c5bd
00000220: 6bb7 5fbe 8142 66be afe9 cb3d e9b4 62be
00000230: fd85 7c3d e1d6 c1bd 5a56 053e 605d 33be
00000240: 85d1 ee3c be48 483d b25b 74bd ad22 7c3d
00000250: 9e2b 203e 3c43 19be fa4d 113d f097 bbbd
00000260: a00d 7a3d 9943 e2bb 5548 523e 9c39 963c
00000270: aada 493e a9aa 4f3e f814 0d3e 9a65 45bd
00000280: cde6 e13d 3e27 de3c 2afd 843d 10ef 91bd
00000290: 7a93 99bd 44f3 5dbd 9101 4bbe 03ca bd3d
000002a0: 7da6 a03d 520b 933d 0d98 9dbd da69 c4bd
000002b0: 7159 823d c8d8 843d 7a20 87bd e962 c4bd
000002c0: 8062 193d b2ca 73bd e776 2f3e 8c47 6ebe
000002d0: fed8 c23d 71b6 313e d696 03bd 9e0d a1bc
000002e0: fd74 8cbd 7a96 553e 8512 853d 5506 c1bd
000002f0: 6f2e 73be 8c23 b8bd c9ad bf3c afde 28ba
00000300: c0e0 5f3e e96b 093e 6b36 2d3b 0a89 f3bd
00000310: 5eda a43d d6dd 54bc db4b b73d f42b 1c3d
00000320: d4ed d3bd f722 94bd 1531 b13d ac5b 7abd
00000330: f4e7 da3d 93a1 973c 344d 9cbd 234f 07be
00000340: a228 43be 47fc 083d 765b d23d ff7d 58bd
00000350: 0f02 97bd eb4b 603d b22e 363e b6c8 083e
00000360: e175 b23d cdf9 32be fb4b 20be 36e8 c7bd
00000370: 0fe9 c4bc 6daa d13d 4294 89bd f5ef 8fbc
00000380: 18d7 ebbd 5ad9 c83d 93d0 b73d dfa8 1c3e
00000390: cb74 57bd c251 76be df78 cebd 9e7f 753e
000003a0: 31fd 213e db46 103d 5f1b d6bd 1a01 2d3e
000003b0: 7502 e23d 3b7c 97be 3b90 3cbe f987 25bd
000003c0: 54fb 653c 7141 0cbe 789f da3d 6ead ebbc
000003d0: b1da 43bd 638f ae3d cb96 07bd 41d4 cd3d
000003e0: fd78 813d 4c53 243e 9eb9 37bc c2f7 72bd
000003f0: 42f0 96bc 9c5c 04bd 42e8 2dbb ffa7 46bd

lstm.weight_hh_l0 f4 [256, 64]
-0.023615943 0.08375889 0.09930563 0.0011121971 -0.046805125 -0.013193903 0.010228079 0.03185555
0.17021875 0.0076905084 -0.052291524 0.11103402 0.021803174 0.12907772 0.063582666 -0.16688202
-0.013410604 0.0065244082 -0.083349936 0.047747582 -0.019089999 0.049734432 0.08264998 -0.054297257
-0.09473128 -0.0329552 0.057103258 0.093852855 0.30365497 -0.17619623 -0.10186667 0.10658171
0.14028604 -0.0017771779 0.0632776 -0.08915297 0.012625428 0.010959805 0.0796596 0.044872597
-0.038107708 -0.03747815 0.06957698 0.0648084 -0.23608072 0.13305861 -0.07115814 -0.025086176
0.009091009 -0.055636875 0.12980954 -0.008397687 0.09141629 -0.051070828 0.0377652 -0.0084123155
0.08973766 0.104053766 0.018141828 -0.061197177 0.038283795 -0.1324434 -0.12972157 0.09767978
-0.07309478 0.11455949 -0.08945317 0.03776989 0.041580934 -0.09877257 0.064941384 -0.043543905
0.11777487 0.11599611 -0.1015489 -0.038412903 0.120190136 0.027765578 -0.029094998 0.08321544
-0.16515017 0.09757738 0.10568807 0.09296103 -0.06583086 0.09709918 -0.12051454 -0.043222483
0.1292674 -0.0529728 -0.018921588 0.0802214 0.16102213 -0.25172237 -0.11084222 -0.07833333
0.053018216 -0.068758994 0.01793253 -0.02062708 -0.16021635 -0.14853832 -0.11160198 -0.059944253
0.04517778 -0.1263434 -0.06607938 0.12658839 -0.123571105 0.016266065 0.011060388 0.08200602
-0.12132614 -0.06116826 -0.07205149 -0.09601752 0.005100584 -0.11022749 0.03588466 -0.094300054
0.13347551 -0.05328134 0.04643548 0.08780447 -0.024827806 0.09995947 -0.100603156 0.05777461
-0.09327462 0.08388923 0.086880326 0.12636937 -0.039610308 -0.05927344 0.10200911 -0.051304404
0.1420549 -0.04794195 -0.09339289 -0.06850118 0.088513404 0.090550385 -0.07110446 0.038199715
-0.13211657 0.069834486 -0.0028919731 0.0058320933 0.034686554 -0.04109566 0.043453373 -0.16829854
0.027364172 0.11932477 0.14067629 0.11567881 0.30788988 -0.018725231 -0.02450074 0.0706729
0.03752674 0.060226295 0.058243796 -0.13619396 -0.07483388 -0.1935738 0.068904415 -0.14333732
0.10370263 -0.062213775 0.025999332 0.06465512 -0.1767317 0.08283113 0.024261013 -0.07468147
0.08339921 0.07081619 0.07419622 -0.04170029 0.0058671525 -0.10850537 -0.15627009 0.11397826
0.06930684 0.056254357 -0.13008626 0.20423663 -0.093357086 0.10989795 0.048494227 0.058025688
0.08753661 0.09971645 0.017195608 -0.035527926 0.06250733 0.055261858 0.042056795 -0.022177305
0.17054659 0.13474815 -0.1126497 0.13077557 -0.1170605 -0.0017425956 -0.080524035 0.0042016543
-0.18260954 0.07250248 -0.18830875 0.085648276 -0.19665883 -0.01018913 0.039568435 -0.014045988
0.0104561085 0.047747612 0.0043857424 0.0018287475 0.14705977 -0.07798173 5.5864337e-05 -0.11073831
-0.05258813 0.1101806 -0.1391221 0.05581439 -0.13587384 -0.0737214 -0.0627143 -0.07703554
-0.041044462 -0.17015693 0.03613439 0.03403539 -0.022393622 0.03240028 0.01613727 0.02197467
0.016405215 0.101285994 0.14357178 -0.119786546 0.0031039645 -0.2122671 -0.07961009 -0.011891636
0.114724986 0.031854033 0.039017867 -0.036434792 -0.07588597 0.03005258 -0.08008146 0.0031023729
00000000: 3976 c1bc c889 ab3d c060 cb3d 24c7 913a
00000010: bbb6 3fbd 3d2b 58bc ac93 273c f77a 023d
00000020: d34d 2e3e a900 fc3b a32f 56bd ce65 e33d
00000030: 929c b23c f32c 043e a137 823d 1fe3 2abe
00000040: 26b8 5bbc b4ca d53b 5fb3 aabd f892 433d
00000050: a162 9cbc 55b6 4b3d 6544 a93d cd66 5ebd
00000060: 7902 c2bd 08fc 06bd 1be5 693d ed35 c03d
00000070: aa78 9b3e c96c 34be 799f d0bd 8347 da3d
00000080: 25a7 0f3e 32f0 e8ba b097 813d d595 b6bd
00000090: e2da 4e3c c190 333c 9324 a33d 54cc 373d
000000a0: d416 1cbd b082 19bd 607e 8e3d 44ba 843d
000000b0: 25bf 71be 8440 083e 5cbb 91bd 8681 cdbc
000000c0: 75f2 143c 7ee3 63bd cbec 043e 7496 09bc
000000d0: 7738 bb3d a52f 51bd afaf 1a3d cfd3 09bc
000000e0: 61c8 b73d 241a d53d 2c9e 943c e4a9 7abd
000000f0: 78cf 1c3d 3e9f 07be bbd5 04be 560c c83d
00000100: b7b2 95bd 2a9e ea3d 3933 b7bd 9ab4 1a3d
00000110: c550 2a3d 4649 cabd fdff 843d 185b 32bd
00000120: f333 f13d 5e8f ed3d dff8 cfbd d956 1dbd
00000130: 3f26 f63d a374 e33c a258 eebc db6c aa3d
00000140: 201d 29be a6d6 c73d fd72 d83d 5a62 be3d
00000150: 54d2 86bd efdb c63d 54d0 f6bd 0f0a 31bd
00000160: ac5e 043e 02fa 58bd 7201 9bbc 1e4b a43d
00000170: fce2 243e c1e1 80be 3f01 e3bd 3a6d a0bd
00000180: a129 593d 84d1 8cbd 3ee7 923c 1ffa a8bc
00000190: c10f 24be 6e1a 18be 948f e4bd 1b88 75bd
000001a0: 560c 393d 2a60 01be a054 87bd 63a0 013e
000001b0: d912 fdbd 6940 853c a136 353c c6f2 a73d
000001c0: d779 f8bd 928b 7abd bb8f 93bd d5a4 c4bd
000001d0: cd22 a73b f3be e1bd cbfb 123d 6320 c1bd
000001e0: cead 083e 893d 5abd 2133 3e3d d4d2 b33d
000001f0: af63 cbbc 8db7 cc3d 0709 cebd 12a5 6c3d
00000200: c406 bfbd 1ece ab3d 50ee b13d f966 013e
00000210: 6b3e 22bd b5c8 72bd 27ea d03d 9124 52bd
00000220: d776 113e c75e 44bd c644 bfbd 594a 8cbd
00000230: 8446 b53d 7b72 b93d 379f 91bd 4e77 1c3d
00000240: 9149 07be 6205 8f3d 4287 3dbb 251b bf3b
00000250: 7d13 0e3d ec53 28bd 2afc 313d 7456 2cbe
00000260: d42a e03c 8c60 f43d 720d 103e 03e9 ec3d
00000270: bea3 9d3e a865 99bc c7b5 c8bc f4bc 903d
00000280: a4b5 193d d9af 763d 0c91 6e3d 6e76 0bbe
00000290: 8142 99bd 3638 46be c21d 8d3d 05c7 12be
000002a0: 0b62 d43d dfd3 7ebd 8dfc d43c e769 843d
000002b0: 28f9 34be 5ea3 a93d 08bf c63c 99f2 98bd
000002c0: 34cd aa3d 1408 913d 30f4 973d eccd 2abd
000002d0: 3e41 c03b 1038 debd 4405 20be 6f6d e93d
000002e0: bff0 8d3d f86a 663d 5535 05be 6823 513e
000002f0: 0032 bfbd 2d12 e13d e2a1 463d 58ac 6d3d
00000300: 6546 b33d 2338 cc3d cedd 8c3c bb85 11bd
00000310: d803 803d 425a 623d bf43 2c3d 2ead b5bc
00000320: c4a3 2e3e 6bfb 093e e3b4 e6bd 08ea 053e
00000330: 6abd efbd ce67 e4ba c9e9 a4bd 08ae 893b
00000340: fffd 3abe 2e7c 943d 02d4 40be 5d68 af3d
00000350: ef60 49be 4ff0 26bc 8312 223d 2521 66bc
00000360: 1950 2b3c 0093 433d 46b6 8f3b 95b2 ef3a
00000370: d696 163e e3b4 9fbd e04f 6a38 c4ca e2bd
00000380: a766 57bd 5ea6 e13d 0676 0ebe a19d 643d
00000390: 8322 0bbe 3ffb 96bd 5b70 80bd cfc4 9dbd
000003a0: 3d1e 28bd 9e3d 2ebe a701 143d b168 0b3d
000003b0: d472 b7bc 28b6 043d 4f32 843c 3904 b43c
000003c0: 3b64 863c 086f cf3d 7b04 133e a652 f5bd
000003d0: e26b 4b3b 8c5c 59be 9d0a a3bd 23d5 42bc
000003e0: eff4 ea3d 6079 023d 33d1 1f3d a63c 15bd
000003f0: 1a6a 9bbd d430 f63c c001 a4bd 2e51 4b3b

lstm.bias_ih_l0 f4 [256]
0.10639684 -0.017458705 0.2086846 0.16966975 -0.10740156 -0.14070745 0.11665392 -0.022264391
-0.01050112 0.11232366 -0.027623836 0.24412914 0.26692724 -0.07653111 -0.041013297 -0.021823023
0.11448879 0.105445504 -0.04988121 -0.08905616 -0.069532275 0.22361687 0.16304974 0.04121849
0.20844989 0.016094554 0.0117574325 -0.045601506 0.038190115 0.09895479 0.07109668 0.16629189
0.053490035 0.24393731 -0.008010143 -0.1162222 -0.035467394 0.06562678 -0.10944213 0.14028198
0.13096392 0.31607842 0.080187134 0.22075365 0.08739194 -0.056310803 0.056121744 0.260757
0.2752776 0.054247152 -0.033931114 0.24225211 0.120628685 0.22169766 0.0998258 0.04855652
-0.029938148 0.0017707923 -0.07076036 0.029053565 0.030532863 0.22423366 0.15041442 0.1249123
-0.032523017 -0.14375159 -0.07188817 0.013951538 0.031909477 0.00041845118 0.043677725 -0.03836558
0.034907296 -0.10579124 -0.3039825 0.21067326 -0.17290343 -0.11996271 -0.12818328 -0.07423515
0.09642952 -0.09469006 0.067620955 -0.047489196 -0.0059859636 0.0007513423 -0.041514173 -0.06619493
-0.28461355 -0.08215241 -0.04144273 0.0557197 0.080660775 0.12030861 -0.1202259 -0.1687664
-0.059321277 -0.24277458 -0.12081104 -0.089123465 -0.101090126 -0.08246711 0.046316426 0.08735126
-0.34708032 -0.36405155 0.105062306 0.013958991 -0.08848815 -0.021377232 -0.135584 -0.2854966
-0.28484303 -0.045935947 0.09309864 -0.106432475 -0.14320447 -0.065054305 0.06872097 0.0130624855
0.03010565 -0.10475623 -0.06410553 -0.04363614 -0.15394577 -0.15528129 -0.024575252 -0.06541433
-0.036648836 0.03868492 -0.06878707 -0.038804233 0.07505167 -0.040335752 0.071556054 0.058925513
0.06654727 0.066880494 0.02164335 -0.055524953 -0.08064726 -0.07372576 -0.0920696 0.08619117
-0.014412765 -0.057184357 0.015616348 0.07605476 -0.065215535 0.00012747875 0.039861973 -0.021522578
0.0027135753 0.05527201 -0.045905102 -0.12663323 0.07183711 -0.12189965 -0.048278347 0.025635388
0.06328997 -0.046946533 -0.05759054 0.08730596 -0.032486245 0.032462627 0.05447281 -0.015559356
-0.07642963 -0.016928917 -0.0618274 0.07976215 0.013142908 -0.06495983 -0.05715676 0.05199176
-0.030732071 0.05840968 -0.00575217 -0.06851606 0.055381183 0.086750105 0.07427309 -0.057897944
-0.10205979 0.102644205 -0.079237066 0.052738026 0.096657924 -0.03498525 -0.116133444 0.03739653
0.010230224 0.0015988452 -0.0043632877 0.13366786 0.10510674 -0.089612894 -0.0037401621 0.16114672
0.029774172 0.20114632 -0.08780822 0.21479525 0.1884086 -0.13160615 0.01190821 0.0069444766
0.0992094 0.03111773 -0.13067 0.05660296 -0.11339762 -0.020552797 0.06361862 0.11257555
0.15490803 0.17220625 -0.073316075 -0.009819825 0.18172318 0.097254656 -0.03729144 0.05863862
0.0395781 0.24849607 0.18109548 -0.03539357 -0.058429744 0.05337736 -0.069279365 0.0033966799
0.102223866 0.32952684 -0.017511733 0.18030895 0.048842825 -0.13047671 0.020834789 0.24433959
0.09400835 -0.10273768 0.017958269 0.040703982 0.014290435 0.066829585 -0.16740288 -0.03977711
0.02800497 0.050861143 0.033359956 -0.03488995 0.13024062 0.22567676 -0.06284618 0.16356169
00000000: 96e6 d93d 8f05 8fbc 6ab1 553e e8bd 2d3e
00000010: 59f5 dbbd 9d15 10be 40e8 ee3d d063 b6bc
00000020: e40c 2cbc f209 e63d 624b e2bc fdfc 793e
00000030: b0aa 883e 58bc 9cbd 8ffd 27bd 32c6 b2bc
00000040: 1979 ea3d d0f3 d73d 3d50 4cbd 1363 b6bd
00000050: f066 8ebd d2fb 643e 83f6 263e b8d4 283d
00000060: e373 553e bad8 833c 3fa2 403c a5c8 3abd
00000070: 3d6d 1c3d cfa8 ca3d 239b 913d 6c48 2a3e
00000080: 5e18 5b3d b4ca 793e fa3c 03bc e805 eebd
00000090: 4246 11bd 5567 863d 3223 e0bd 14a6 0f3e
000000a0: 681b 063e 08d5 a13e 2739 a43d 3f0d 623e
000000b0: 8cfa b23d 28a6 66bd eadf 653d f181 853e
000000c0: 30f1 8c3e 4332 5e3d 5afb 0abd f010 783e
000000d0: 2c0c f73d b604 633e 7871 cc3d 34e3 463d
000000e0: d940 f5bc ee19 e83a cfea 90bd be01 ee3c
000000f0: 0e20 fa3c 829d 653e 3d06 1a3e 05d2 ff3d
00000100: db36 05bd 9e33 13be 1b3a 93bd fe94 643c
00000110: 83b3 023d 9163 db39 6ae7 323d 3a25 1dbd
00000120: f4fa 0e3d 14a9 d8bd 98a3 9bbe bbba 573e
00000130: 990d 31be 02af f5bd 7a42 03be 9908 98bd
00000140: d77c c53d ddec c1bd db7c 8a3d 0884 42bd
00000150: e725 c4bb baf5 443a c40a 2abd 3591 87bd
00000160: deb8 91be 863f a8bd dabf 29bd 573a 643d
00000170: 7a31 a53d 5c64 f63d ff38 f6bd 19d1 2cbe
00000180: defa 72bd e699 78be c76b f7bd 5d86 b6bd
00000190: 5708 cfbd 84e4 a8bd 4bb6 3d3d 38e5 b23d
000001a0: 83b4 b1be f764 babe e82a d73d 40b4 643c
000001b0: 4639 b5bd 4e1f afbc 88d6 0abe 9c2c 92be
000001c0: f2d6 91be 5527 3cbd 80aa be3d 45f9 d9bd
000001d0: 31a4 12be 313b 85bd 94bd 8c3d 0904 563c
000001e0: 20a0 f63c 6f8a d6bd c349 83bd cfbb 32bd
000001f0: f6a3 1dbe 0f02 1fbe 0a52 c9bc f3f7 85bd
00000200: 171d 16bd 1474 1e3d 3ce0 8cbd 30f1 1ebd
00000210: b1b4 993d 1a37 25bd fb8b 923d e15b 713d
00000220: ef49 883d a4f8 883d 654d b13c 226e 63bd
00000230: 642a a5bd 88fd 96bd fd8e bcbd ff84 b03d
00000240: 8523 6cbc 253a 6abd b6db 7f3c 99c2 9b3d
00000250: b98f 85bd d1ab 0539 4f46 233d 1e50 b0bc
00000260: 3dd6 313b e764 623d fd06 3cbd 24ac 01be
00000270: 561f 933d 86a6 f9bd 84bf 45bd 4e01 d23c
00000280: 2c9e 813d 024b 40bd 0fe4 6bbd 78cd b23d
00000290: 4c10 05bd 88f7 043d e21e 5f3d abec 7ebc
000002a0: 2387 9cbd 83ae 8abc ba3e 7dbd 575a a33d
000002b0: 5a55 573c a909 85bd 351d 6abd 50f5 543d
000002c0: d3c1 fbbc fd3e 6f3d b37c bcbb 2652 8cbd
000002d0: 61d7 623d 0aaa b13d 7d1c 983d 6526 6dbd
000002e0: b904 d1bd 2037 d23d 0b47 a2bd d403 583d
000002f0: 97f4 c53d b24c 0fbd 5fd7 edbd 1b2d 193d
00000300: ab9c 273c 5890 d13a e9f9 8ebb 3ae0 083e
00000310: 3442 d73d f786 b7bd 821d 75bb a503 253e
00000320: f7e8 f33c 4df9 4d3e ccd4 b3bd 49f3 5b3e
00000330: 2fee 403e c3c3 06be a71a 433c 7e8e e33b
00000340: 4c2e cb3d 9cea fe3c 5bce 05be 81d8 673d
00000350: 033d e8bd 575e a8bc 7b4a 823d 038e e63d
00000360: 36a0 1e3e d656 303e bd26 96bd 55e3 20bc
00000370: a415 3a3e 732d c73d e9be 18bd 0d2f 703d
00000380: a51c 223d c175 7e3e 1871 393e d9f8 10bd
00000390: 0754 6fbd 38a2 5a3d 57e2 8dbd d59a 5e3b
000003a0: bf5a d13d beb7 a83e c474 8fbc e9a2 383e
000003b0: 6a0f 483d b09b 05be b8ad aa3c 2834 7a3e
000003c0: 7387 c03d 2268 d2bd 381d 933c 38b9 263d
000003d0: 6e22 6a3c f3dd 883d a96b 2bbe 53ed 22bd
000003e0: ae6a e53c c653 503d 73a4 083d c4e8 0ebd
000003f0: cc5d 053e cf17 673e 7fb5 80bd b77c 273e

lstm.bias_hh_l0 f4 [256]
0.25760537 -0.034484144 0.15142286 0.13696778 0.06871001 -0.06666417 0.005014173 0.039207242
-0.07056943 0.17605466 -0.08182586 0.24345416 0.18600336 -0.0424651 0.0123963645 0.0029905366
0.07462452 -0.07351379 -0.0056026164 0.14647174 -0.09565367 0.14825018 -0.052123856 -0.02952212
0.22452675 -0.024570994 0.021313604 0.13722427 0.069832824 0.093189634 -0.047317144 0.18740791
-0.053473372 0.12570104 0.06921644 -0.10564894 0.10598354 0.08929316 0.052386176 -6.6563334e-05
0.12636662 0.319211 -0.0611181 0.11232267 0.1129761 0.08763101 0.055283606 0.16411608
0.3073225 -0.1123551 -0.01737864 0.13913533 0.03813387 0.06579182 -0.07213208 0.09606727
-0.051126514 0.06844517 -0.0057641487 0.16538225 0.019897945 0.2103818 -0.054250255 0.021612108
-0.20612521 -0.07677776 -0.1994436 -0.0121156 -0.06794288 0.009121639 0.04841026 -0.058768384
0.015904821 -0.18806663 -0.12818806 0.10783848 -0.2551605 -0.07128338 -0.061912883 0.010525399
0.19059938 0.015146394 -0.051136166 0.058537904 -0.09100804 -0.016681802 0.0697337 -0.113767095
-0.23964244 -0.05685084 -0.117281385 0.032578193 0.020105118 0.0145123005 0.036511347 -0.007398625
0.060418893 -0.29478493 -0.09657036 -0.12435078 -0.06490508 0.12737773 -0.08403519 -0.04600927
-0.17591478 -0.2405776 0.013977689 0.02797231 0.1434901 0.071636096 -0.16909933 -0.17225848
-0.09625353 0.06096899 -0.13082144 -0.07250465 -0.08552522 -0.19505337 -0.1151388 -0.14159568
-0.10492631 -0.034315445 -0.055258837 -0.032757193 -0.12726453 -0.0085741505 -0.22710711 -0.0626199
-0.0797758 -0.08082352 0.019293504 0.0011380316 -0.046317596 0.012608377 -0.105529465 -0.071145214
0.06451559 -0.015115742 -0.029426029 0.0907152 0.03973636 0.05287992 0.06482611 0.020476531
-0.070204675 -0.059010662 0.12895225 0.012579303 0.09611274 0.050723203 0.017771414 -0.119778916
0.08218231 -0.019285794 0.01950343 -0.06951571 0.14184485 0.07112908 -0.058339894 -0.007611517
-0.08989867 0.04983178 -0.07308516 -0.06710908 -0.046639808 -0.09533915 0.11546508 -0.0664165
0.03296987 -0.03469709 -0.028824935 -0.036687505 -0.07708507 0.023171686 -0.038943637 0.03416757
-0.06010056 0.026338208 0.095384315 0.00849384 0.002159857 -0.08589895 -0.02955747 0.10169925
0.056226686 0.08951902 0.07241342 -0.03207252 -0.06469009 0.09817822 -0.06067463 -0.06634278
0.035237577 0.13880992 0.047516104 0.034036342 -0.0856494 0.01942425 -0.028774714 0.16745518
0.060301777 0.01851836 -0.11290281 0.13062695 0.15947466 -0.1864175 0.13217412 -0.03256744
0.052103195 0.07645495 -0.124262966 -0.024937384 0.050405663 -0.0313546 0.019563576 -0.009682874
0.15784426 0.22489779 -0.10625322 -0.07404162 -0.03262087 0.13420238 -0.090934776 0.19079447
0.13342279 0.28811988 0.20360394 -0.024267992 -0.104644164 0.021671794 0.08684645 -0.002036371
0.10787056 0.4500704 0.0073142345 0.16213906 0.00635127 -0.1578323 0.06990269 0.1187143
0.08421461 0.117201604 -0.04384827 0.1804053 0.13870774 0.11619581 -0.09944987 0.096646704
0.021218445 0.10559519 -0.090639986 -0.0008803501 -0.055684593 -0.014002162 0.019965831 0.025965044
00000000: dae4 833e 3f3f 0dbd 980e 1b3e 4841 0c3e
00000010: d5b7 8c3d 3987 88bd ef4d a43b c697 203d
00000020: b586 90bd ac47 343e 5194 a7bd 0c4c 793e
00000030: aa77 3e3e e2ef 2dbd 1f1a 4b3c e1fc 433b
00000040: bed4 983d 668e 96bd 2796 b7bb b0fc 153e
00000050: 12e6 c3bd e5ce 173e d37f 55bd 5fd8 f1bc
00000060: 57ea 653e 1c49 c9bc de99 ae3c 8584 0c3e
00000070: 8304 8f3d 35da be3d 9fcf 41bd dce7 3f3e
00000080: e506 5bbd c6b7 003e 59c1 8d3d 795e d8bd
00000090: e60d d93d 55df b63d e392 563d eb97 8bb8
000000a0: 4066 013e a06f a33e f956 7abd 6e09 e63d
000000b0: 0360 e73d e377 b33d 1071 623d 0c0e 283e
000000c0: 6059 9d3e 6e1a e6bd a65d 8ebc 7e79 0e3e
000000d0: 4332 1c3d ddbd 863d fcb9 93bd ebbe c43d
000000e0: 096a 51bd fb2c 8c3d 2fe1 bcbb f759 293e
000000f0: 0401 a33c 546e 573e 8435 5ebd e00b b13c
00000100: 7d12 53be a93d 9dbd f13a 4cbe 8280 46bc
00000110: a325 8bbd ed72 153c d649 463d 1eb7 70bd
00000120: d44a 823c 8a94 40be bb43 03be 6cda dc3d
00000130: 66a4 82be 05fd 91bd 5d98 7dbd b972 2c3c
00000140: 7c2c 433e 9528 783c 2874 51bd 71c5 6f3d
00000150: 6c62 babd 46a8 88bc 8bd0 8e3d b9fe e8bd
00000160: d464 75be 6ddc 68bd 3931 f0bd b670 053d
00000170: 7db3 a43c 00c5 6d3c ec8c 153d 2a70 f2bb
00000180: cd79 773d 0dee 96be aec6 c5bd 9fab febd
00000190: f4ec 84bd 4f6f 023e a41a acbd 3774 3cbd
000001a0: 0123 34be f959 76be ad02 653c 3026 e53c
000001b0: 12ef 123e f2b5 923d 6028 2dbe 8764 30be
000001c0: 9220 c5bd 9fba 793d 0ef6 05be 517d 94bd
000001d0: d927 afbd 12bc 47be e4cd ebbd 75fe 10be
000001e0: 9be3 d6bd 5a8e 0cbd 1757 62bd 682c 06bd
000001f0: a251 02be 987a 0cbc c48e 68be dd3e 80bd
00000200: 7f61 a3bd cd86 a5bd 690d 9e3c 012a 953a
00000210: 85b7 3dbd 5e93 4e3c d51f d8bd 95b4 91bd
00000220: c020 843d 04a8 77bc db0e f1bc e4c8 b93d
00000230: 98c2 223d 9d98 583d 8dc3 843d 66be a73c
00000240: 78c7 8fbd 2ab5 71bd 0f0c 043e 6c19 4e3c
00000250: c2d6 c43d 22c3 4f3d 5b95 913c a64e f5bd
00000260: 334f a83d 3efd 9dbc a8c5 9f3c 415e 8ebd
00000270: c73f 113e 20ac 913d d0f5 6ebd 086a f9bb
00000280: cb1c b8bd 691c 4c3d acad 95bd 7c70 89bd
00000290: 6209 3fbd 2c41 c3bd f578 ec3d 6005 88bd
000002a0: 6a0b 073d 891e 0ebd 4522 ecbc a345 16bd
000002b0: c7de 9dbd 8cd2 bd3c 5d83 1fbd 4bf3 0b3d
000002c0: 012c 76bd 3ac3 d73c da58 c33d bf29 0b3c
000002d0: 638c 0d3b caeb afbd 8222 f2bc b247 d03d
000002e0: f44d 663d bf55 b73d 7d4d 943d 7a5e 03bd
000002f0: 3d7c 84bd aa11 c93d f685 78bd b9de 87bd
00000300: 4755 103d 3024 0e3e 3fa0 423d b169 0b3d
00000310: f468 afbd 9b1f 9f3c f3b8 ebbc 5f79 2b3e
00000320: fffe 763d d1b3 973c 9739 e7bd 12c3 053e
00000330: 534d 233e 3be4 3ebe a758 073e 7065 05bd
00000340: 296a 553d 6a94 9c3d 957d febd 7c49 ccbc
00000350: 2b76 4e3d ae6d 00bd cb43 a03c eba4 1ebc
00000360: eda1 213e 9b4b 663e 4a9b d9bd 22a3 97bd
00000370: 769d 05bd 596c 093e 033c babd a05f 433e
00000380: fc9f 083e 7384 933e 8d7d 503e abcd c6bc
00000390: ae4f d6bd 0c89 b13c 8ddc b13d a374 05bb
000003a0: 3deb dc3d a16f e63e 3fac ef3b c807 263e
000003b0: 501e d03b ca9e 21be 2429 8f3d 7c20 f33d
000003c0: b678 ac3d 6507 f03d 3e9a 33bd 2bbc 383e
000003d0: 6709 0e3e 12f8 ed3d 60ac cbbd b5ee c53d
000003e0: 4ed2 ad3c 4a42 d83d 75a1 b9bd 4cc7 66ba
000003f0: 8715 64bd 5369 65bc 628f a33c a5b4 d43c

lstm.weight_ih_l1 f4 [256, 64]
0.042609464 -0.02429207 -0.09796844 -0.07776636 -0.010038861 0.19635339 -0.0064938385 -0.0149001125
-0.060347717 -0.051445037 -0.0041389638 0.022536129 -0.12836252 0.309465 0.056349073 -0.108715266
0.041866332 0.040449828 0.09070034 -0.09099082 0.13096657 -0.013236833 -0.042252127 0.073843636
-0.04257457 0.058231626 0.04982132 -0.0750579 -0.004195151 0.08561937 -0.11783185 0.11881965
0.07343206 0.0050315745 -0.07057111 -0.11666245 0.022150643 0.024402574 -0.055678625 -0.019194743
-0.009465219 -0.068089135 0.07377529 -0.028381282 0.014902298 0.11758528 -0.040802516 -0.0032875668
0.09530009 0.06914868 0.013151489 -0.042906325 0.08850534 -0.08520096 0.109467596 -0.03592474
-0.08817467 -0.023091521 0.036191855 0.05056498 0.035236623 0.07637467 -0.021248557 0.022493787
0.06862668 0.062164575 -0.0006787954 0.10868709 -0.038588587 -0.07260969 0.0034164563 0.012851575
-0.029980887 0.1392624 0.107035026 -0.0964378 -0.07598531 -0.051026043 0.08684168 -0.0013071263
-0.0329534 -0.02676741 -0.1411018 -0.06979988 -0.06273747 0.0077658137 0.05896329 -0.044698436
0.13648514 -0.0036738196 0.07305679 -0.019831676 -0.042064954 0.022773353 -0.14891236 0.01211609
-0.023499124 0.09977622 0.056752987 0.11428303 -0.15309359 -0.13226464 0.03647013 -0.056107115
0.03389797 0.08307338 -0.016278785 0.039339975 -0.050316505 -0.019753743 -0.0699196 -0.010230789
0.07226464 -0.016705064 0.06308892 0.009974506 0.05623891 -0.0015093104 -0.17780763 0.018580671
0.055542313 -0.057980668 -0.05020737 -0.052206237 0.023996904 -0.02454052 -0.035356525 0.0077319467
0.23229249 0.00010127077 0.1693924 0.0066408524 0.09615586 -0.007619433 0.17043999 -0.036808867
0.21068397 -0.20035082 -0.040043913 0.04821747 0.032710567 0.036327064 -0.20451069 -0.056844212
0.08217269 0.09912628 -0.046365477 -0.049866796 -0.090557344 -0.013237136 -0.24350642 -0.0030856922
-0.16045734 -0.0038058257 -0.09170009 -0.043623615 -0.04654483 -0.050335366 -0.018116929 0.0067858393
0.044247247 -0.23351307 0.17575379 -0.049665343 0.049661696 -0.044826373 -0.15855105 0.075930476
0.15387073 0.1135826 0.18179254 -0.1681721 -0.15772462 0.08677865 -0.054658663 -0.04178957
0.14527242 0.104653865 0.0586263 0.06898527 0.018420076 0.09300616 0.03157925 -0.20851573
0.048373993 0.08431205 -0.022279564 -0.046375904 0.12844442 -0.034912765 0.1467929 0.08780134
0.08070605 0.10542355 0.0033418126 0.13930567 0.1552147 0.088604555 0.013860913 0.13164279
-0.066971526 -0.06307223 -0.041643325 -0.11566931 0.018664017 0.1747008 -0.07538076 -0.13913278
0.17495984 -0.16838853 0.13989079 -0.025502268 0.020059885 0.06749602 0.05252225 0.12037767
0.024693538 -0.16980326 -0.028041475 -0.0061859675 0.11597931 0.018285623 0.072928034 -0.0022230707
0.096333556 -0.0006736779 0.13779426 0.0036501319 -0.06823719 0.13530314 0.073058195 -0.07500657
-0.047627524 -0.0626872 0.0024139595 -0.0074731535 0.021193948 0.036621455 -0.0497691 -0.006721263
-0.020580614 0.058360875 -0.0189488 -0.1517046 0.0053644264 -0.10957201 -0.10808789 -0.15997271
-0.024488539 -0.09936126 0.13458769 0.006777844 0.1332172 -0.10391819 -0.052384216 0.054817826
00000000: 4387 2e3d 2a00 c7bc ada3 c8bd f843 9fbd
00000010: 097a 24bc dd10 493e 44ca d4bb 9a1f 74bc
00000020: 2b2f 77bd 08b8 52bd 25a0 87bb b09d b83c
00000030: 7771 03be 3272 9e3e 49ce 663d 1ca6 debd
00000040: 087c 2b3d b8ae 253d 1ac1 b93d 6559 babd
00000050: 1a1c 063e 4ddf 58bc 9110 2dbd 553b 973d
00000060: ac62 2ebd 4984 6e3d 7111 4c3d f5b7 99bd
00000070: 7a77 89bb 3559 af3d d351 f1bd b757 f33d
00000080: 8c63 963d e8df a43b 9687 90bd b9ec eebd
00000090: 4475 b53c e8e7 c73c 450f 64bd 4b3e 9dbc
000000a0: 0214 1bbc 5172 8bbd 8017 973d dd7f e8bc
000000b0: c528 743c 8dd0 f03d 8a20 27bd 3874 57bb
000000c0: b22c c33d d39d 8d3d 5879 573c 8bbe 2fbd
000000d0: 4a42 b53d d77d aebd 8c30 e03d d225 13bd
000000e0: ec94 b4bd 6e2a bdbc e93d 143d 391d 4f3d
000000f0: 4754 103d 536a 9c3d 7411 aebc e444 b83c
00000100: 258c 8c3d 48a0 7e3d 30f1 31ba 5697 de3d
00000110: 110f 1ebd 64b4 94bd a0e6 5f3b 6a8f 523c
00000120: 7a9a f5bc cd9a 0e3e 2e35 db3d 2e81 c5bd
00000130: 309e 9bbd af00 51bd 0dda b13d e153 abba
00000140: 25fa 06bd 5447 dbbc fe7c 10be 3df3 8ebd
00000150: 817c 80bd 5e78 fe3b 7e83 713d b515 37bd
00000160: c3c2 0b3e 77c4 70bb cc9e 953d 0a76 a2bc
00000170: 4d4c 2cbd 2f8f ba3c 7b7c 18be 9182 463c
00000180: 3c81 c0bc 7a57 cc3d d275 683d 390d ea3d
00000190: 91c4 1cbe 6270 07be b461 153d 93d0 65bd
000001a0: 99d8 0a3d 6022 aa3d 165b 85bc f422 213d
000001b0: ae18 4ebd 9ad2 a1bc 0232 8fbd 0a9f 27bc
000001c0: 7cff 933d 0fd9 88bc c434 813d 1c6c 233c
000001d0: c55a 663d 0ed4 c5ba 3413 36be 7e36 983c
000001e0: 5680 633d 237d 6dbd 3ea6 4dbd 35d6 55bd
000001f0: 2895 c43c 3309 c9bc 01d2 10bd 455c fd3b
00000200: 15de 6d3e 5561 d438 3475 2d3e 829b d93b
00000210: 5ded c43d 70ac f9bb d287 2e3e e5c4 16bd
00000220: 8abd 573e c428 4dbe 1605 24bd af7f 453d
00000230: 84fb 053d b0cb 143d 406b 51be 7ad5 68bd
00000240: 284a a83d b802 cb3d bae9 3dbd 2041 4cbd
00000250: 2176 b9bd 93e0 58bc bf59 79be 5339 4abb
00000260: ee4e 24be 296b 79bb 42cd bbbd adae 32bd
00000270: cba5 3ebd 752c 4ebd f469 94bc bf5b de3b
00000280: 9a3c 353d 0d1e 6fbe cdf8 333e e36d 4bbd
00000290: 106a 4b3d dc9b 37bd 355b 22be 7081 9b3d
000002a0: 4a90 1d3e ff9d e83d d327 3a3e 4f35 2cbe
000002b0: 9082 21be 01b9 b13d c3e1 5fbd 8a2b 2bbd
000002c0: 4bc2 143e c454 d63d 2222 703d 2648 8d3d
000002d0: b3e5 963c 037a be3d 3e59 013d 2685 55be
000002e0: cf23 463d ccab ac3d a283 b6bc a9f4 3dbd
000002f0: ef86 033e b000 0fbd e150 163e 30d1 b33d
00000300: 3749 a53d 4de8 d73d 5002 5b3b 25a6 0e3e
00000310: 9af0 1e3e 4e76 b53d e218 633c 5ecd 063e
00000320: 5e28 89bd 032c 81bd 3192 2abd 08e4 ecbd
00000330: 48e5 983c c4e4 323e 3a61 9abd d378 0ebe
00000340: ac28 333e 0b6e 2cbe 883f 0f3e 22ea d0bc
00000350: a154 a43c 5a3b 8a3d 9221 573d 9188 f63d
00000360: 1a4a ca3c e8e0 2dbe 3cb7 e5bc a8b3 cabb
00000370: 8f86 ed3d bbcb 953c 4b5b 953d f0b0 11bb
00000380: 874a c53d c299 30ba f019 0d3e 0d37 6f3b
00000390: f1bf 8bbd e88c 0a3e 899f 953d 0b9d 99bd
000003a0: 1415 43bd 2662 80bd 8533 1e3b 5be1 f4bb
000003b0: ee9e ad3c 6100 163d afda 4bbd 0a3e dcbb
000003c0: ad98 a8bc d00b 6f3d 843a 9bbc 7358 1bbe
000003d0: 12c8 af3b 4a67 e0bd 2f5d ddbd e3cf 23be
000003e0: 309c c8bc eb7d cbbd 5bd1 093e ad18 de3b
000003f0: 176a 083e 0fd3 d4bd d590 56bd a888 603d

lstm.weight_hh_l1 f4 [256, 64]
-0.1218943 -0.06716358 0.05485365 -0.10944111 0.006186487 -0.028777048 0.0109564485 -0.06496913
-0.08025505 -0.13723493 -0.07892825 -0.015034274 -0.09264735 0.034777977 0.013962042 0.053011045
-0.11207706 -0.052206136 0.014739274 -0.070201196 -0.054405592 0.08158642 -0.032120597 -0.0020787152
0.018856026 -0.13321316 -0.06132766 -0.033002805 -0.07704137 0.090986244 0.01679522 0.085213095
-0.030170824 -0.052974325 -0.02955147 0.11541836 0.12340556 0.047432773 -0.17008269 0.09157127
0.08701443 -0.030158058 -0.095574275 0.013543465 -0.08199377 -0.12221811 -0.08629808 0.08727112
0.115102485 0.09501978 -0.012069424 0.004082974 -0.072746366 -0.058211964 0.20975912 0.045596205
0.030224083 -0.0047797714 -0.010851939 -0.108294316 0.08600413 0.1243047 -0.06798462 -0.10859754
-0.03537615 0.010045019 -0.10662571 0.09446583 0.032063715 -0.10829963 -0.06333045 0.061985347
0.06257448 0.028144006 -0.1022697 0.023667786 -0.0061743674 -0.062358093 -0.119594604 0.123295724
0.057171486 0.007982202 -0.017213833 0.0945738 -0.13608925 0.062130667 0.08354968 0.079490766
-0.10718157 0.088158116 0.10182516 0.11312185 0.037702728 -0.11844414 0.0458381 -0.13365553
-0.10802468 -0.059885897 0.12345579 -0.08001214 -0.010358697 -0.096381016 -0.08973136 -0.08721794
-0.0010634831 -0.17128341 0.07708979 0.09202787 -0.105426036 0.037366208 0.07578587 -0.10245149
-0.111099005 0.09321795 0.08050516 -0.034860693 -0.057455644 -0.08259316 0.10371487 0.009998721
-0.099257216 0.029725937 -0.08202239 -0.06814481 -0.07029123 0.047034822 0.09387207 -0.036652204
-0.1514256 -0.139117 -0.0007674297 0.040621445 -0.13278678 -0.15015037 0.15266852 -0.12926604
-0.076751426 0.13904585 0.032962553 0.030858781 0.058100294 -0.15687816 0.115088195 -0.06601273
-0.0068932613 0.04244217 0.05185326 0.12861955 -0.0067657013 -0.028932396 -0.08751554 0.109333605
0.11822166 0.090426475 0.052260317 -0.043747585 -0.05765181 -0.11284219 -0.10949101 -0.059170973
-0.054069888 0.031216366 -0.05773842 -0.078131735 0.048675813 -0.10377661 -0.0018354468 0.12096098
-0.11575044 -0.031100236 0.097877026 0.10839934 0.040459465 -0.021427361 -0.033098996 0.09618462
-0.15370661 0.17595202 0.036887098 0.12612353 0.14990225 -0.14680848 0.030721454 -0.15528817
0.12551957 -0.0057615456 0.108327694 -0.046411704 -0.11199411 0.071953155 -0.020559473 0.03788442
0.059888966 0.00821501 0.110214084 0.04777034 -0.033954643 0.029548986 0.13070232 -0.0066174134
0.12948908 -0.0031533397 -0.07604524 -0.054105897 -0.060610525 0.12355602 -0.08269751 -0.07686156
0.108463496 -0.0073569175 -0.1621972 -0.055971254 0.17524794 0.018439382 0.060773242 -0.027294734
0.031517435 0.03862547 0.1607022 0.12169965 0.06448983 -0.04684857 -0.0035479285 0.11876355
0.013020809 0.041766524 0.043543763 0.026947979 -0.07389764 -0.01120854 -0.080554076 0.057938676
-0.07909691 0.0057643712 -0.00054728636 -0.12309096 -0.026328968 -0.05154707 -0.0075476146 0.08515271
-0.10818562 -0.08933599 0.020215457 0.1301836 0.11739666 0.113253795 0.029601611 -0.046191406
-0.039871365 0.022565015 -0.034426916 0.09318526 0.0028222387 -0.06987031 0.009651875 0.14105147
00000000: b8a3 f9bd 0f8d 89bd 39ae 603d a922 e0bd
00000010: 04b8 ca3b d8bd ebbc ad82 333c 890e 85bd
00000020: c25c a4bd 5087 0cbe 22a5 a1bd 5152 76bc
00000030: e5bd bdbd 5a73 0e3d 0cc1 643c 1c22 593d
00000040: a888 e5bd 1ad6 55bd ff7c 713c a5c5 8fbd
00000050: 66d8 5ebd c816 a73d e390 03bd 0e3b 08bb
00000060: f477 9a3c 0869 08be b632 7bbd f32d 07bd
00000070: dec7 9dbd ff56 ba3d 2196 893c 3484 ae3d
00000080: ce28 f7bc 9bfb 58bd ed15 f2bc 7660 ec3d
00000090: 0ebc fc3d de48 423d 282a 2ebe b889 bb3d
000000a0: 9f34 b23d 080e f7bc 72bc c3bd 69e5 5d3c
000000b0: 5aec a7bd 7d4d fabd 0cbd b0bd 33bb b23d
000000c0: daba eb3d bb99 c23d d5be 45bc 78ca 853b
000000d0: 0cfc 94bd ab6f 6ebd 18cb 563e 16c3 3a3d
000000e0: 7f98 f73c a19f 9cbb 55cc 31bc 69c9 ddbd
000000f0: ef22 b03d 7693 fe3d 853b 8bbd 6368 debd
00000100: 95e6 10bd dd93 243c 955e dabd 4d77 c13d
00000110: 3e55 033d 32cc ddbd 65b3 81bd 59e4 7d3d
00000120: 0d27 803d 428e e63c c772 d1bd f2e2 c13c
00000130: 5952 cabb 336b 7fbd 04ee f4bd 7882 fc3d
00000140: a62c 6a3d c8c7 023c 0604 8dbc e9af c13d
00000150: fb5a 0bbe ba7c 7e3d 181c ab3d 0ecc a23d
00000160: 0382 dbbd 3e8c b43d b689 d03d 6eac e73d
00000170: 2d6e 1a3d d792 f2bd bbc0 3b3d ffdc 08be
00000180: 0b3c ddbd ea4a 75bd 64d6 fc3d 68dd a3bd
00000190: 86b7 29bc 6963 c5bd 13c5 b7bd 529f b2bd
000001a0: 9264 8bba eb64 2fbe 40e1 9d3d 1c79 bc3d
000001b0: 9be9 d7bd 4f0d 193d 9f35 9b3d 16d2 d1bd
000001c0: e087 e3bd 0de9 be3d e4df a43d 16ca 0ebd
000001d0: 9c56 6bbd 9a26 a9bd 7668 d43d add1 233c
000001e0: 5e47 cbbd cf83 f33c 5bfb a7bd 828f 8bbd
000001f0: d9f4 8fbd 96a7 403d 0040 c03d 9f20 16bd
00000200: 500f 1bbe b074 0ebe 562d 49ba ac62 263d
00000210: 42f9 07be 05c1 19be 2355 1c3e 515e 04be
00000220: da2f 9dbd 0962 0e3e be03 073d 8ecb fc3c
00000230: 93fa 6d3d aba4 20be 5cb3 eb3d af31 87bd
00000240: dee0 e1bb d7d7 2d3d 1564 543d d8b4 033e
00000250: d1b2 ddbb a203 edbc 593b b3bd 4cea df3d
00000260: 331e f23d 8431 b93d ea0e 563d ab30 33bd
00000270: 4e24 6cbd ce19 e7bd d33c e0bd 435d 72bd
00000280: 6378 5dbd 77b9 ff3c 1f7f 6cbd 8803 a0bd
00000290: 4a60 473d d588 d4bd 6093 f0ba 64ba f73d
000002a0: 910e edbd ecc5 febc c073 c83d 7900 de3d
000002b0: d3b8 253d 6f88 afbc d092 07bd 71fc c43d
000002c0: 4465 1dbe c42c 343e ed16 173d 8726 013e
000002d0: fa7f 193e f654 16be 8fab fb3c dd03 1fbe
000002e0: 3488 003e 59cb bcbb e9da dd3d 331a 3ebd
000002f0: 2b5d e5bd 2d5c 933d 576c a8bc b22c 1b3d
00000300: 224e 753d 4098 063c ecb7 e13d d5aa 433d
00000310: 0614 0bbd b710 f23c d4d6 053e e3d6 d8bb
00000320: c998 043e 43a8 4ebb 9bbd 9bbd 259e 5dbd
00000330: be42 78bd f00a fd3d 505d a9bd 9869 9dbd
00000340: 1c22 de3d 4c12 f1bb 0617 26be 1d42 65bd
00000350: 3274 333e 300e 973c 5ded 783d 3599 dfbc
00000360: 6d18 013d be35 1e3d 1e8f 243e ab3d f93d
00000370: 3e13 843d 49e4 3fbd 5d84 68bb 4e3a f33d
00000380: 3b55 553c 6013 2b3d f25a 323d 02c2 dc3c
00000390: a557 97bd 06a4 37bc 89f9 a4bd 1b51 6d3d
000003a0: 90fd a1bd 0de3 bc3b c477 0fba 1d17 fcbd
000003b0: d9af d7bc 0523 53bd fb51 f7bb 8b64 ae3d
000003c0: 6c90 ddbd caf5 b6bd e39a a53c da4e 053e
000003d0: a96d f03d 9bf1 e73d 147f f23c 3333 3dbd
000003e0: 2850 23bd 44da b83c 3d03 0dbd ead7 be3d
000003f0: 4ff5 383b 2a18 8fbd e622 1e3c cc6f 103e

lstm.bias_ih_l1 f4 [256]
0.0191662 0.14382485 0.07025605 0.06242468 -0.07616697 0.13577904 0.0785449 -0.08877192
0.12513481 -0.002488884 0.11468229 0.033233628 -0.07320684 0.1069707 -0.009351391 -0.0055417614
0.11757966 0.07065247 0.10491633 0.14543884 0.07736296 0.12708491 0.046259303 0.01119351
-0.041463315 0.11292161 0.19638255 -0.0308659 0.051365092 -0.10012882 0.08964062 0.0013536135
0.0892864 -0.034230348 0.09399209 -0.09406927 0.47117066 0.07323508 -0.06531211 -0.031263717
0.15209837 0.08227522 0.12594062 0.050524775 0.07810746 0.16016021 0.012334162 0.19410972
0.03672902 -0.065575905 0.020759368 0.13260484 0.13467634 0.012695039 0.014476327 0.057289872
0.100241564 -0.066274144 -0.11385666 -0.060509916 -0.020518808 0.018377798 -0.02110326 -0.10547064
-0.10767362 0.063342035 0.0067739044 0.027040089 0.11820551 -0.07299158 0.12827423 -0.072455324
-0.005327892 0.031684335 0.10122116 -0.054711618 -0.056518517 -0.105728455 -0.06436954 -0.02277808
-0.024758236 -0.08317503 0.053840537 -0.06985475 -0.030086424 0.07524402 -0.035665393 -0.03716775
-0.06171765 0.050632175 0.009413283 -0.12050497 -0.028113987 -0.11315052 0.07406988 0.13124834
-0.08549551 -0.048634022 0.032279186 0.06724861 0.032098375 0.010842099 0.0694094 0.048072115
-0.0378429 0.03490166 0.10275348 0.0527308 0.13296181 -0.06753498 0.07315875 -0.09927141
0.07095987 0.04686566 0.07313803 -0.0097689815 -0.09067437 -0.047064155 -0.022324815 -0.0672927
0.049110737 0.031420004 0.037904 0.017057357 -0.079892576 0.03478962 -0.0994982 -0.025319178
0.014742875 0.073702656 -0.10365224 -0.124928854 -0.116886474 -0.07359406 -0.006718778 0.0047380226
-0.07557446 -0.048855316 0.050429713 -0.029052386 -0.069550864 -0.082997926 0.029155534 -0.0615588
-0.07870931 0.12471424 0.034479413 -0.01573296 -0.013433432 0.07181136 -0.08225155 -0.10311449
0.07249772 0.01423222 -0.06720683 -0.07728519 -0.003924376 -0.07920892 -0.027730096 0.02422655
-0.06529769 -0.068331964 0.00019127071 -0.02106348 -0.008971677 -0.029673776 0.013508405 0.12820426
-0.032055706 -0.048474547 -0.10767266 -0.021571115 0.07440228 0.026002875 0.05348581 0.007544534
-0.06277208 0.047717247 -0.04477772 -0.011226109 -0.05958055 -0.04894263 -0.013699928 -0.0657182
-0.025474839 0.00597255 0.05924278 -0.025420807 -0.08580908 0.023620313 0.01745998 0.067266375
-0.06300538 -0.038877033 -0.089129545 -0.1267913 0.046472326 0.14267859 0.003689823 0.005962901
0.084016845 0.07251139 0.03003481 0.015835216 -0.06602432 -0.04448537 0.09315921 -0.01888493
0.025544485 -0.040164586 -0.098806985 -0.033270553 0.07295965 0.020833708 0.1163972 0.019403206
0.041795515 -0.09731085 0.075041875 0.19673523 0.09769467 -0.023843395 0.00048416527 -0.03122436
-0.02599234 -0.007708092 0.07865158 -0.14230563 0.2021127 -0.06536176 -0.02260446 -0.04967338
0.15188389 0.045596737 -0.09715564 0.14172564 -0.014358952 -0.08288987 0.15797661 3.7441925e-05
-0.070556216 -0.018302053 0.0005168591 0.1085611 -0.07506624 -0.044170935 -0.09342258 0.05796294
0.13172357 0.0574624 0.08293681 0.014078926 -0.061185412 -0.017314393 0.09827614 0.07415798
00000000: 6f02 9d3c d246 133e 67e2 8f3d 05b1 7f3d
00000010: 6efd 9bbd a909 0b3e 26dc a03d 0dce b5bd
00000020: 5723 003e 8b1c 23bb 8cde ea3d fc1f 083d
00000030: 78ed 95bd 7413 db3d 9436 19bc aa97 b5bb
00000040: 9bcd f03d 3eb2 903d 5fde d63d ebed 143e
00000050: 7970 9e3d 8c22 023e 657a 3d3d fc64 373c
00000060: 70d5 29bd 7243 e73d 8218 493e 7cda fcbc
00000070: 3464 523d 5710 cdbd 8095 b73d bb6b b13a
00000080: cadb b63d 1f35 0cbd ed7e c03d 64a7 c0bd
00000090: 483d f13e 46fc 953d 5bc2 85bd 620e 00bd
000000a0: adbf 1b3e e97f a83d 94f6 003e 11f3 4e3d
000000b0: cef6 9f3d 0a01 243e 3a15 4a3c b3c4 463e
000000c0: 2b71 163d a94c 86bd 8d0f aa3c 90c9 073e
000000d0: 98e8 093e dafe 4f3c 1e2e 6d3c c9a8 6a3d
000000e0: 734b cd3d bdba 87bd ae2d e9bd 3fd9 77bd
000000f0: 0f17 a8bc 098d 963c bee0 acbc fe00 d8bd
00000100: fd83 dcbd 78b9 813d a1f7 dd3b 2d83 dd3c
00000110: bb15 f23d 9c7c 95bd 525a 033e 7563 94bd
00000120: 9995 aebb 6fc7 013d 0a4d cf3d 4a19 60bd
00000130: f67f 67bd 2988 d8bd 2dd4 83bd 1999 babc
00000140: c9d1 cabc ac57 aabd e587 5c3d 0210 8fbd
00000150: ce77 f6bc 8919 9a3d e015 12bd 363d 18bd
00000160: a6cb 7cbd af63 4f3d 2c3a 1a3c 4fcb f6bd
00000170: 4e4f e6bc 76bb e7bd f3b1 973d f765 063e
00000180: 4518 afbd 7834 47bd 2e37 043d a4b9 893d
00000190: 9679 033d 0fa3 313c 8426 8e3d 44e7 443d
000001a0: 2801 1bbd 0bf5 0e3d 6b70 d23d 40fc 573d
000001b0: 2427 083e c84f 8abd 41d4 953d cf4e cbbd
000001c0: 6953 913d 35f6 3f3d 64c9 953d 140e 20bc
000001d0: 7cb3 b9bd 58c6 40bd 88e2 b6bc c1d0 89bd
000001e0: 5728 493d 43b2 003d 3a41 1b3d dfbb 8b3c
000001f0: b89e a3bd 907f 0e3d b6c5 cbbd 2a6a cfbc
00000200: 198c 713c 6bf1 963d a047 d4bd b3da ffbd
00000210: 2d62 efbd 7cb8 96bd 3229 dcbb 6a41 9b3b
00000220: c8c6 9abd 831c 48bd 638f 4e3d 45ff edbc
00000230: af70 8ebd d1fa a9bd 96d7 ee3c 1525 7cbd
00000240: 5932 a1bd 2e6a ff3d 493a 0d3d 69e2 80bc
00000250: e617 5cbc d611 933d 8073 a8bd b12d d3bd
00000260: af79 943d 422e 693c bca3 89bd b347 9ebd
00000270: 0d98 80bb 4938 a2bd 3a2a e3bc c276 c63c
00000280: ccba 85bd a1f1 8bbd d78f 4839 528d acbc
00000290: f1fd 12bc 6b16 f3bc 5b52 5d3c fa47 033e
000002a0: d84c 03bd 3f8d 46bd 7c83 dcbd e8b5 b0bc
000002b0: 3960 983d fb03 d53c f013 5b3d 2338 f73b
000002c0: a68e 80bd 2973 433d d868 37bd b7ed 37bc
000002d0: bc0a 74bd 1178 48bd aa75 60bc 4397 86bd
000002e0: 9cb0 d0bc 61b5 c33b 8fa8 723d 4c3f d0bc
000002f0: acbc afbd 637f c13c 3b08 8f3c f4c2 893d
00000300: f708 81bd 863d 1fbd 8d89 b6bd 94d5 01be
00000310: c459 3e3d 561a 123e f5d0 713b 7064 c33b
00000320: 0611 ac3d da80 943d 900b f63c dbb8 813c
00000330: c237 87bd 4b36 36bd 42ca be3d 92b4 9abc
00000340: ab42 d13c 9f83 24bd 515b cabd b446 08bd
00000350: de6b 953d 74ab aa3c a861 ee3d 79f3 9e3c
00000360: c631 2b3d e94a c7bd 8eaf 993d f674 493e
00000370: 2514 c83d 3953 c3bc 90d7 fd39 3bca ffbc
00000380: e3ed d4bc 2a94 fcbb 1414 a13d 91b8 11be
00000390: a2f6 4e3e 63dc 85bd fd2c b9bc 5076 4bbd
000003a0: 7387 1b3e a5c3 3a3d 89f9 c6bd 8720 113e
000003b0: cf41 6bbc 2ac2 a9bd 9fc4 213e f60a 1d38
000003c0: c77f 90bd 30ee 95bc d47d 073a 4855 de3d
000003d0: 54bc 99bd 95ec 34bd 5654 bfbd 8c6a 6d3d
000003e0: 8be2 063e b25d 6b3d c6da a93d 4cab 663c
000003f0: 8e9d 7abd ead6 8dbc 0045 c93d 24e0 973d

lstm.bias_hh_l1 f4 [256]
0.0751164 0.15922552 -0.028445512 -0.011543916 0.081132 0.052042834 0.0022537205 0.0844195
0.03725491 -0.11933178 -0.059697125 0.07748247 -0.028674519 0.11525801 -0.120212 0.054658026
0.039981637 -0.08355939 -0.046433777 0.12921955 0.08894435 -0.031783715 0.0064101294 0.050539624
-0.0927921 0.06681962 0.14582402 0.0054027364 0.042384785 -0.08459039 0.13172461 0.015009019
0.003756686 0.030093974 0.007420248 -0.10327384 0.41562164 -0.02781681 0.03862449 0.095357455
0.08804944 0.14128049 -0.1083726 0.036743317 0.015436153 0.105426274 -0.043858472 0.17623438
0.0696102 -0.03399585 -0.03667682 0.008948352 0.10101275 -0.07471857 0.104826175 0.15602756
0.051522445 0.022893852 0.009463456 -0.0024624611 0.06203011 -0.11569401 -0.073087096 -0.026928728
0.039323166 -0.008812835 -0.029310921 -0.13740548 0.09361739 0.13473834 0.050987557 0.043701436
0.055480335 -0.120662205 0.14877781 0.0591305 0.10564968 0.036724847 0.11064833 -0.12510143
0.016048605 -0.06004874 -0.024930982 0.030197218 -0.00651269 -0.03649665 0.11896167 -0.018610448
0.10820284 -0.16282107 -0.11352552 -0.00083235325 -0.09859991 0.08463363 -0.0976846 0.09395344
-0.056747157 0.052146334 -0.06978519 -0.12684189 -0.095530264 -0.046934415 0.11018093 -0.02588009
0.021695388 0.14339647 -0.068198495 -0.05108225 -0.107984245 -0.036854144 0.13812639 -0.082701154
-0.093112126 0.14379027 0.14060989 0.16898574 0.040862333 0.006598134 -0.10652525 0.1474214
-0.017749686 0.15993737 -0.065714955 -0.1058739 0.13515097 0.03511101 -0.061267607 -0.108357735
-0.088292755 -0.0055735586 -0.13301127 -0.015273191 -0.0002414639 -0.08002212 -0.040403605 -0.072446115
-0.04565414 0.06951981 0.1265456 0.0003679501 -0.083518215 -0.13067427 -0.08656289 0.097277075
-0.13289928 0.08000121 0.01214453 -0.15156762 -0.08641853 0.09322256 0.004797291 0.08867301
0.05563524 0.102615744 -0.021334806 0.025113482 -0.046161365 0.07608304 -0.028695649 -0.106608175
0.10094153 0.015553998 0.10922542 0.117944606 0.14785288 -0.0661777 -0.041587908 0.101097874
-0.028481891 0.022209208 0.12339947 -0.06401101 0.05949261 -0.11469201 0.0029404215 0.0939657
-0.10467822 0.09750549 0.07401812 -0.020556299 -0.0663375 0.00893787 0.056349184 -0.018281836
0.034348633 0.08326681 0.050532922 0.037464675 -0.07103729 -0.05124053 -0.09433845 -0.0135075925
0.12462708 -0.06317646 -0.025196305 0.01979364 0.02826245 -0.0025001138 -0.08503632 -0.047638852
0.055527553 0.069048755 0.0699545 0.12908413 -0.040120125 0.10417813 -0.07434567 0.1293984
-0.018512366 0.13341865 -0.054913115 -0.04232674 -0.048878934 0.10787139 0.009598068 0.036566816
-0.01461896 -0.021759778 0.02193862 -0.015190902 0.14977968 -0.06798637 -0.012487958 0.09209644
0.2163479 0.07504856 0.0735235 -0.12451929 0.32504746 0.09763242 0.038285818 -0.05020812
0.12911548 0.03144825 0.02007979 0.0769943 -0.072903164 0.13716018 0.038733304 0.18652259
-0.012699354 0.12635995 0.09044277 -0.077463016 -0.078751236 0.08214115 -0.03788387 0.085488856
0.09033111 0.06256999 0.0666403 -0.055821586 0.021813534 0.043307867 0.018883564 -0.075359635
00000000: a1d6 993d 040c 233e 9006 e9bc b122 3dbc
00000010: 8928 a63d de2a 553d 28b3 133b 21e4 ac3d
00000020: 9b98 183d 3864 f4bd f984 74bd 21af 9e3d
00000030: d3e6 eabc 640c ec3d b631 f6bd 18e1 5f3d
00000040: c9c3 233d 2f21 abbd 5831 3ebd 2152 043e
00000050: 7528 b63d a42f 02bd 100c d23b a302 4f3d
00000060: c909 bebd bad8 883d e452 153e 7009 b13b
00000070: ab9b 2d3d ba3d adbd d1e2 063e 63e8 753c
00000080: bc32 763b a387 f63c 8d25 f33b 3c81 d3bd
00000090: 5ccc d43e 14e0 e3bc b734 1e3d c54a c33d
000000a0: 4453 b43d d5ab 103e 74f2 ddbd 2980 163d
000000b0: ebe7 7c3c bbe9 d73d f1a4 33bd c976 343e
000000c0: cb8f 8e3d 3b3f 0bbd 6f3a 16bd 1c9c 123c
000000d0: c6df ce3d 0d06 99bd 1baf d63d b0c5 1f3e
000000e0: 3309 533d e38b bb3c 9d0c 1b3c 3e61 21bb
000000f0: 4913 7e3d fbf0 ecbd b0ae 95bd a399 dcbc
00000100: 5411 213d b663 10bc 751d f0bc 06b4 0cbe
00000110: 79ba bf3d d9f8 093e 54d8 503d 4700 333d
00000120: 593f 633d bf1d f7bd 3659 183e d332 723d
00000130: dc5e d83d cb6c 163d 979b e23d 971a 00be
00000140: 5d78 833c abf5 75bd 0f3c ccbc 2860 f73c
00000150: 6768 d5bb 837d 15bd 2da2 f33d f074 98bc
00000160: 7399 dd3d 91ba 26be 1180 e8bd 4832 5aba
00000170: c0ee c9bd 6654 ad3d dd0e c8bd a96a c03d
00000180: b56f 68bd 6597 553d 8aeb 8ebd d7e2 01be
00000190: 5fa5 c3bd 4d3e 40bd 8aa6 e13d 7c02 d4bc
000001a0: 87ba b13c 86d6 123e a7ab 8bbd 9f3b 51bd
000001b0: d826 ddbd 5ff4 16bd 0171 0d3e 395f a9bd
000001c0: 92b1 bebd c23d 133e 0afc 0f3e 990a 2d3e
000001d0: 435f 273d 2935 d83b e929 dabd a3f5 163e
000001e0: ca67 91bc 9fc6 233e 9095 86bd 6ad4 d8bd
000001f0: 0465 0a3e 90d0 0f3d bef3 7abd a9ea ddbd
00000200: d5d2 b4bd 66a2 b6bb 1b34 08be 683c 7abc
00000210: 7931 7db9 a3e2 a3bd 407e 25bd a15e 94bd
00000220: d6ff 3abd 6760 8e3d 2b95 013e 6de9 c039
00000230: 990b abbd 7acf 05be e247 b1bd 3439 c73d
00000240: c016 08be add7 a33d daf9 463c 8b34 1bbe
00000250: 33fc b0bd 78eb be3d 9832 9d3b 329a b53d
00000260: c7e1 633d 3428 d23d 55c6 aebc caba cd3c
00000270: b313 3dbd 6dd1 9b3d 2313 ebbc 6355 dabd
00000280: 6fba ce3d 32d6 7e3c 94b1 df3d f18c f13d
00000290: bf66 173e 2d88 87bd 1558 2abd 670c cf3d
000002a0: db52 e9bc 16f0 b53c dcb8 fc3d 3418 83bd
000002b0: 86ae 733d a5e3 eabd 16b4 403b 1771 c03d
000002c0: 8961 d6bd f5b0 c73d d096 973d af65 a8bc
000002d0: f5db 87bd 2570 123c 67ce 663d cac3 95bc
000002e0: 27b1 0c3d ca87 aa3d 9cfb 4e3d 8f74 193d
000002f0: 007c 91bd 97e1 51bd 8434 c1bd f34e 5dbc
00000300: 7c3c ff3d a962 81bd 7b68 cebc 4626 a23c
00000310: a786 e73c f3d8 23bb 8627 aebd f520 43bd
00000320: dc70 633d 6f69 8d3d 4e44 8f3d a12e 043e
00000330: 0055 24bd 585b d53d 8b42 98bd 0481 043e
00000340: 3fa7 97bc e69e 083e 93ec 60bd ce5e 2dbd
00000350: 4735 48bd adeb dc3d 3741 1d3c 16c7 153d
00000360: 5d84 6fbc 9041 b2bc 9fb8 b33c 43e3 78bc
00000370: d85f 193e 703c 8bbd 4b9a 4cbc 0f9d bc3d
00000380: 4e8a 5d3e 0fb3 993d 7d93 963d f803 ffbd
00000390: 9f6c a63e 82f3 c73d 97d1 1c3d 08a7 4dbd
000003a0: d936 043e e1cf 003d 5f7e a43c 30af 9d3d
000003b0: 414e 95bd b873 0c3e d0a6 1e3d c7ff 3e3e
000003c0: f410 50bc 8164 013e 0f3a b93d eea4 9ebd
000003d0: 5448 a1bd 9f39 a83d 1e2c 1bbd c814 af3d
000003e0: 84ff b83d b224 803d b67a 883d 2da5 64bd
000003f0: 4cb2 b23c 9763 313d b4b1 9a3c 2756 9abd
