checkpoints/tae/sh-CEEMDAN-h64-k3-lr0.001-d0.3-ep200.pth (torch, 115955 bytes, 22 tensors)

autoencoder.encoder.0.weight f4 [64, 46, 3]
00000000: 87a9 c23d c529 f03d f59d 833d 29b4 dd3d
00000010: 1b7d 2f3d 1aa4 183e 9ceb 90bb eaf8 d73d
00000020: 3eb6 3e3e 5d87 dcbc d95c 103e 4a1a 363e
00000030: 0be5 663d 812f 873c ab16 273d 42b6 9bbc
00000040: 4e28 943d c62b a73c f278 63bd 895b 373c
00000050: 4c9a 26bd 23d9 2bbc 397a e6bc 2d58 8d3d
00000060: aa87 89bd 20c2 26bd 80c8 d6bc b3b1 08bd
00000070: 18ca f83c 866a 78bd 2347 cd3d f7d7 44bd
00000080: a7f0 893d 13ab 0d3d b377 b2bb 578e 8c3d
00000090: 753e fdb8 dadc 823d 285e 3d3c b1fd 8dbc
000000a0: 9fe5 0d3d a51b 06bc fa9f 383d 1d28 b73d
000000b0: 2f45 523d 6ca5 30bd ba89 403d 2b96 df3c
000000c0: 7c8b 373d c87f 17bd 7adb 82bd 124d b8bc
000000d0: 41a2 49bd ff73 b83d b7ef ef3b 6436 a73b
000000e0: 91bc 4fbc cf81 cf3b 4f8b b13d 2fb5 ecbc
000000f0: cc14 bf3c cc3b 02bd 8a38 543d 6f5f 913b
00000100: 2367 263d 3728 adbc b875 6a3d 9608 4fbd
00000110: f1c9 2abd f79e 81bd 3c4e 813d ef03 c13c
00000120: 281d 9a3d 6d92 c0bd e9aa cfbd d06c acbd
00000130: 7776 a3bd 9e65 bc3c 08d0 a33b 2c61 203d
00000140: 6107 8ebd 7876 9fbd 9b67 8e3c 9956 6cbd
00000150: 06c1 683d 2c93 92bc 139f 423d ce90 3fbd
00000160: 8fee 58bd 4004 e83d aedc c73c 82f6 fa3c
00000170: b4c5 333d ef78 bb3d 1db1 473c 5db6 ab3c
00000180: fc5b 623d fa9e 04bd b62f cfbc 5f1c f2bd
00000190: 7e05 343c 801c a7bc 4b4d d6bc d000 8bbd
000001a0: 3809 0cb9 3ef3 b7bd bc08 c2bd 2240 84bd
000001b0: d521 92bd 8dbe 77bd 0c73 a63d a547 2a3d
000001c0: d931 643d 91b0 93bd 8347 f2bc 08b1 60be
000001d0: 70fa 7b3e 5e1f 37be 3a96 c1bd d614 153e
000001e0: af28 23be 9d89 30bd 3a50 623e aa4b 4ebe
000001f0: 2414 09bd cd78 123e 6bdd 773d d55b 403d
00000200: fc71 553e bf3c 8f3d ab23 253e cc0d ed3d
00000210: 39cb 3abd b0e7 ae3d 0dc6 493b 1b14 f1bb
00000220: 6764 3abd 3639 74bd 56e3 cd3c c28d 1fb8
00000230: 62dc 4c3d 0d2f 85bd 9394 8d3d aee4 83bd
00000240: d0c9 d4bc 74d5 e03c 8741 523d ce0d 8f3d
00000250: 664b 9e3d 191b 9abd 04ee 343d 2917 b2bc
00000260: 0f2e daba 4ca0 913c 9a5a 073e 10c5 87bc
00000270: 2fd9 6e3d 07b2 3b3d e7a8 223d 81f4 1abb
00000280: c3f0 fb3d 4b72 843d fbb5 9f3c 4437 88bd
00000290: 574f 3d3d dea7 e7bc 8577 63bd 3323 6a3d
000002a0: e6c9 9ebc 9bb0 91bd 2f48 86bd 3bba 11bd
000002b0: d9b2 c73c 0f9e 30bd 2c13 bcbd 7162 9bbd
000002c0: 053c dbbd d30c 9abb 0370 1c3d cb74 c1bd
000002d0: 1f3b 963a 5d63 a63c 83c2 8a3a 4270 04bd
000002e0: 6d25 093d 74c3 e03c 3c0b a83b 6551 26bd
000002f0: 9ac4 4cbd 62d8 90bc d55c 38bd 8cd3 76bd
00000300: 856d 763d d961 af3d 78ea e23a 9cb1 b73c
00000310: a539 253d 047e 083d 9d2e 573d 7650 653d
00000320: c11b 24bd 787b a9bc 2394 b33d 76c3 7e3d
00000330: c46c 0b3d 8d16 fdbc 59a9 f1bc b608 31bd
00000340: ba8d cf3b bdc0 633d c013 283d 810d fc3c
00000350: 4b41 b4bd 87d9 67bd bc6e 8cbc 15dc 9a3d
00000360: 0d77 2a3d 9568 153c af76 773d 1b81 633c
00000370: 3db8 1cbb a6c1 e33d eeed b03a 6beb a83c
00000380: b14d 3fbd 2569 f03d 5d79 453d f5c1 7b3c
00000390: acd6 86bc 73c9 a7bd fc47 8dbd 1b70 a63b
000003a0: ceb7 aabd d827 adbb ba52 943d 06b3 9b3c
000003b0: a0ce 15bc 494f 18bc 656b babd 9788 acbd
000003c0: 2d5e 0d3d 58b4 1dbd 441b 63bd 99c5 87bd
000003d0: a6d0 edbc ee6c 81bd 813e 6ebd 18f3 7f3d
000003e0: 2a1a d83a 0166 e73b 5286 80bd 5b86 75bd
000003f0: 88c8 5dbe c306 95bc c3c5 fc3d 3925 df3d
0.09504991 0.11726717 0.06426612 0.108253784 0.04284392 0.1490635 -0.004422618 0.105455235
0.18624207 -0.026920015 0.14097919 0.17783466 0.056370776 0.016502144 0.040793102 -0.019007806
0.0723425 0.020406615 -0.055535264 0.011191257 -0.040674493 -0.010488781 -0.028134452 0.06901584
-0.06715329 -0.040712476 -0.026218653 -0.033372592 0.030369803 -0.060648464 0.10023334 -0.048057523
0.06735354 0.034586977 -0.005446398 0.06863087 -0.000120756136 0.0638978 0.011558093 -0.017332884
0.034642812 -0.008185302 0.04507444 0.08943198 0.05133551 -0.04312651 0.047006346 0.027293285
0.044810757 -0.036987096 -0.06389518 -0.022497687 -0.049227003 0.090064995 0.0073222774 0.0051029194
-0.012679235 0.006332613 0.08669149 -0.028894989 0.023325346 -0.031795308 0.051811732 0.0044364254
0.040625703 -0.02113734 0.05724117 -0.050545298 -0.041696493 -0.06329148 0.0631375 0.023561446
0.07525092 -0.094029285 -0.101400204 -0.08419192 -0.0798158 0.022997674 0.0049991645 0.03915517
-0.06935001 -0.07786268 0.017383387 -0.057699773 0.056824706 -0.017892443 0.047514986 -0.046768956
-0.052961882 0.113289356 0.02439722 0.030635122 0.043889716 0.091539256 0.012188223 0.020960981
0.055263504 -0.032378174 -0.025291305 -0.118218176 0.010987638 -0.020399332 -0.026159903 -0.06787264
-0.00013354875 -0.08981942 -0.09474322 -0.06457545 -0.07135359 -0.060484458 0.08127412 0.04157223
0.0557116 -0.07211412 -0.029575115 -0.21942532 0.24607253 -0.1788306 -0.094524816 0.1455873
-0.15933488 -0.04309999 0.22100917 -0.20146051 -0.033466473 0.14303894 0.060513895 0.046962578
0.20844263 0.06994008 0.16126888 0.11574897 -0.045603964 0.08540285 0.0030788213 -0.007357133
-0.045505907 -0.059624873 0.025132816 -3.8040576e-05 0.05001486 -0.06503115 0.06913104 -0.064401016
-0.025975138 0.027445532 0.051332023 0.06985055 0.07729225 -0.075247 0.044172302 -0.02173956
-0.0016645807 0.01777663 0.13218156 -0.016573459 0.05831259 0.045824077 0.03971186 -0.002364427
0.12301781 0.06467112 0.019495955 -0.06651166 0.046218242 -0.028278288 -0.055533905 0.057162475
-0.019383382 -0.07113763 -0.06556737 -0.035577994 0.024377273 -0.043119486 -0.09183344 -0.075871356
-0.10704807 -0.004701236 0.03819276 -0.094461046 0.0011461711 0.020311052 0.0010586533 -0.03233362
0.033482958 0.02743695 0.0051282924 -0.040604968 -0.04999218 -0.017681304 -0.045010407 -0.06026034
0.06016304 0.08563585 0.0017312309 0.022423558 0.040338177 0.033323303 0.05253469 0.055984937
-0.04006553 -0.020688757 0.08768489 0.062198125 0.034039274 -0.030894542 -0.029499697 -0.043221198
0.006334034 0.05560373 0.04103446 0.030768158 -0.08801516 -0.056603935 -0.017142646 0.075615086
0.041617442 0.009119173 0.06041592 0.013885762 -0.0023913526 0.1112092 0.0013498643 0.020620069
-0.04670495 0.11738805 0.048211444 0.015366067 -0.016459785 -0.0819272 -0.068984956 0.005079282
-0.08335839 -0.0052842908 0.07242341 0.019006263 -0.0091435015 -0.009296247 -0.09102515 -0.0842449
0.03451364 -0.038502067 -0.055445924 -0.06629486 -0.029030155 -0.06319605 -0.058165077 0.06248769
0.001648729 0.0070617204 -0.062756196 -0.059942584 -0.21658528 -0.0181917 0.123424076 0.108957715

autoencoder.encoder.0.bias f4 [64]
00000000: cc4d 90bd 0db1 7bbd 2df3 c4bb 6be9 63bd
00000010: 2857 713d a78a 0d3d d57c d13c 3f56 33be
00000020: 2919 c0bd c35f 113d 3f71 853d 9615 2ebc
00000030: ec71 913c 2207 c03d 720c c83c f7ce 6aba
00000040: 145a 963d 52db 083a 44d2 023e bdeb a13c
00000050: d36b c73d d4a7 8a3d ee8a a43d 0a53 1dbe
00000060: c19f a33c 2f91 99bc d527 1dbc 9159 cfbc
00000070: feec c2bc 0585 f63c 95a5 f7bd ec9d 4f3d
00000080: 83a0 933d a8ab 2f3c e01b a5bd 4a45 fcbd
00000090: 2ad7 ac3c aceb 8dbc bafe 253d 34c3 dabc
000000a0: 25d5 38bd 872b af3d e7d6 0e3c bbd2 0dbe
000000b0: 2491 33bd 302e 72bc d447 b83d 89fd 1b3e
000000c0: db12 97bb 599b 153d f3fe 083d e813 e93d
000000d0: 28e3 2c3d 9cff 9c3c b0ce 0ebe 47fc a5bd
000000e0: 59ac 883d 43c8 fe3c adba 5dbd e72e 9f3d
000000f0: a0e7 c03c 6c89 acbc 02aa a43c f4e1 293d
-0.070460886 -0.061448146 -0.006010434 -0.055642527 0.05892101 0.034556057 0.02557222 -0.17513369
-0.09379799 0.035491716 0.065157406 -0.010625264 0.017754517 0.093763605 0.024419997 -0.0008957232
0.073414 0.00052206696 0.12775522 0.01976573 0.09737363 0.06770292 0.08034311 -0.15363708
0.019973638 -0.018745987 -0.009592016 -0.025311263 -0.023794647 0.030092726 -0.12092129 0.050687715
0.072083496 0.010722078 -0.08061957 -0.12317903 0.021098692 -0.017324291 0.04052613 -0.026704408
-0.045125145 0.08553224 0.008718229 -0.13849919 -0.04383959 -0.01478152 0.08998075 0.15233435
-0.004610402 0.036525104 0.033446264 0.1138075 0.04220882 0.019164853 -0.13946033 -0.08104759
0.06673498 0.031101352 -0.054133106 0.07772618 0.023547947 -0.021061622 0.020100597 0.04147525

autoencoder.encoder.2.weight f4 [8, 64, 3]
00000000: 651d b63c 5574 f13c 89e0 6ebc 3a19 663b
00000010: e490 4cbd 117d 9cbd 066d 6dbd 2338 cfbc
00000020: 91f6 b7bd f950 d83c 0811 743d 849f 193c
00000030: 169a a43c 8b41 f43c 435c 353c bd3d 02be
00000040: 6888 8cbd 9dc8 753d e953 25bc e856 9c3c
00000050: a61a 44bd 147b 37bd badc 6cbd 85c6 c3bc
00000060: 8504 2fbc 77d9 b63c 535c e2ba 5abb 513d
00000070: 14b8 6dbc 0447 82bd 1b4c 8fbd e2d2 413d
00000080: 49c4 c3bd a5f7 913d 8744 de3c df75 9d3d
00000090: 4edd 05be 846c d6bc dbf9 4cbd 9a0d 573c
000000a0: d010 c8bd 4c31 42bd d677 20bc 9aae 91bb
000000b0: 6688 edbc 2870 b4bc 0d9c c1bb adbd 6dbd
000000c0: 2d20 9dbc 961e ec3c aecc 1d3d 0984 1bbd
000000d0: 1a66 aabd 299e bcbd 7f81 7b3b c2d3 0abc
000000e0: 8fbf ffbd b014 cc3b 7e20 a63b b1b6 b9bd
000000f0: 1483 66bd b35f c43c 9b58 ac3c 4149 213c
00000100: c01b d039 fa53 8ebd 536f 9a3c 77c0 d63c
00000110: 58f2 91bb 866e efbc 1417 cb3c 72e1 13bb
00000120: b3de 5a3d 5d6c 5b3d ef20 a3bc 27f2 943d
00000130: 66fc c93c e1ad 6bbd 918e 2ebd d0ae edbd
00000140: ae04 b33b 9170 80bd 54e2 fdbc 1455 51bd
00000150: d0ed 75bc 9caa 02bd 9c8f 17bd 630a 8dbc
00000160: 8546 b3bc b50b ab3c 0962 2d3d 30c4 20bd
00000170: e9c0 36bc 6d78 0cbe 3844 1ebd 9b80 2f3e
00000180: 02ba 383d 4178 783c 93d0 abbd 3b4e 82bc
00000190: b906 bf3d 7dde cb3c 9628 abbc 5b0d 373d
000001a0: 1957 0a3d 4ad4 ccba 0e98 6b3c a577 c9bc
000001b0: 8720 a53c dd37 a83c 9eb3 6c3d b2cf d4bc
000001c0: fe19 14bd c328 9c3d ba05 d23b e3a6 0a3c
000001d0: dd88 8fbc 82de e639 5060 d1bc 26a5 1f3d
000001e0: 619a 363c 8b6c 9f3c 3437 b2bd 4251 2b3d
000001f0: 7361 5ebb c5b0 803c 7f21 bebd 4b56 abbd
00000200: ac88 1fbd 404c 533d fb93 0fbd a863 b13d
00000210: dbb2 7b3d 6b81 633b d1ce 94bd a6af a9bd
00000220: 8150 37bd 753f 3ebd d608 d6bd 01dd 00be
00000230: e6c1 00be 42f0 f03c cb6b 7b3d 4242 c23b
00000240: 97f2 3c3d 6d23 78ba e456 d33d 3847 013d
00000250: 7148 19bd b93d acbd 77d8 7f3d f0f2 c83c
00000260: d808 b23b 3f62 8f3d 1959 973d 1a68 cf3c
00000270: 5d55 8a3d 96db 823d c9c4 5fbd cdd2 dbbc
00000280: 63b5 24bd fd04 3e3b e570 cf3c 9c09 cc3c
00000290: a29b 053e 5142 91bb 4bc7 413d 0734 a23c
000002a0: b8f1 27bd 6c78 d33c 7488 9d3c f26c 16bd
000002b0: 4f8a 3ebe aef0 65be 8ecd 003d f9d5 b73d
000002c0: be85 81bc cca0 3dbd 1c16 f9bc 24ad 213c
000002d0: 4d22 db3c ff89 91bd 8472 19be d4c7 03be
000002e0: ea75 04bd 2b9a ae3c 74d1 d9bb a41c f5bd
000002f0: 5324 4dbd b9b1 9ebc d2d0 de3c 980e a63d
00000300: 52ba b5bc 4daf f7bd 72a8 9cbc 320b 153d
00000310: 1ded 093c 436f 3abd 0d18 70bd 33e4 81bd
00000320: 0039 f9bc 73f6 18bd 1eb2 aa3b 9324 5ebd
00000330: 3148 473d 8f58 62bd 5cc6 4bbd 1a1a a9bd
00000340: c323 3ebd e922 6b3d 5404 303d ead5 7c3d
00000350: 9471 283b 068f 093d d9ef 0b3a 1ca9 993c
00000360: 4cb3 0f3d fdc6 373d e150 253d 4cbb 1a3d
00000370: c793 5fbc c079 8c3d b933 7cbc 6a02 91bb
00000380: c8e0 123d 72ff 93bd 5230 e5bd 5731 07be
00000390: e3db f7bc f736 15bb 7f1b 1f3d 6c90 623d
000003a0: 54ed 10bd f01d 3c3d 5996 813c 5063 44bd
000003b0: d68c c83c eec9 5cbe 9ba8 1cbe 08ac 14be
000003c0: 4545 babc 07aa c0bc 2c2a 9f3d f69e 763c
000003d0: 5a72 8abd d084 9a3c 9ca8 0c3d 5ebf c8bc
000003e0: 52c4 1cbc 7c79 c9bc a749 93bd 06e6 11bd
000003f0: 0903 ff3b d4e4 51bd 2bd5 4cbd 8822 9bbd
0.022230813 0.029474417 -0.014579901 0.003511025 -0.049942866 -0.07641042 -0.0579653 -0.025295323
-0.08982576 0.026405798 0.059586555 0.00937641 0.020093005 0.02981641 0.01106936 -0.12718864
-0.06861955 0.060005773 -0.0100908065 0.019084409 -0.047876976 -0.04479511 -0.05782769 -0.023898372
-0.01068223 0.022320492 -0.0017269946 0.051204063 -0.01450922 -0.063612014 -0.06996938 0.047320254
-0.09558923 0.071273126 0.027132286 0.07688498 -0.13072702 -0.026174791 -0.05004297 0.013125801
-0.09768832 -0.047410294 -0.009794196 -0.004445863 -0.028995704 -0.022026137 -0.0059084953 -0.058042217
-0.019180382 0.028823178 0.038525276 -0.037967715 -0.083202556 -0.09209854 0.0038376746 -0.008473339
-0.12487709 0.006228052 0.0050697913 -0.09068049 -0.05627735 0.023971414 0.021038344 0.009844125
0.00039693527 -0.06949611 0.018851912 0.026214821 -0.0044539385 -0.029227506 0.024791278 -0.0022564796
0.05343504 0.05357014 -0.019913165 0.072727494 0.024656486 -0.05753887 -0.04261643 -0.116056085
0.0054632043 -0.0627147 -0.03099171 -0.051106527 -0.015010312 -0.031900987 -0.03700219 -0.017216867
-0.021884212 0.020879606 0.04232982 -0.0392496 -0.011154392 -0.13717814 -0.038639277 0.17138903
0.045099266 0.0151653895 -0.08389392 -0.015906444 0.09327454 0.024886364 -0.020893376 0.04469047
0.03377447 -0.0015627232 0.014379514 -0.024593184 0.020157112 0.02053445 0.057788484 -0.025977943
-0.0361576 0.07624962 0.006409374 0.00846264 -0.017521316 0.000440348 -0.02555862 0.038975857
0.011145205 0.019460937 -0.087019354 0.04182554 -0.0033932596 0.01570929 -0.092837326 -0.083660685
-0.0389487 0.05158639 -0.035053235 0.08661586 0.061449867 0.003471459 -0.072660096 -0.082854554
-0.04475451 -0.046447236 -0.10450904 -0.12584306 -0.12573966 0.029411439 0.061382096 0.0059283087
0.04612979 -0.0009465728 0.103193074 0.03156206 -0.0374226 -0.0841021 0.062462296 0.024529904
0.005433183 0.07001161 0.07390041 0.025318194 0.06754563 0.06389539 -0.05463103 -0.026833916
-0.040212046 0.0028994672 0.025322387 0.024906926 0.1304765 -0.0044329544 0.0473092 0.0198002
-0.041002005 0.025814258 0.019230105 -0.036724992 -0.18607448 -0.22455093 0.031446032 0.08976359
-0.015810844 -0.046295926 -0.03040605 0.00986794 0.026749754 -0.07106399 -0.1498509 -0.12869197
-0.032339014 0.021313747 -0.006647283 -0.119683534 -0.05008347 -0.019371854 0.027199183 0.08108252
-0.022183571 -0.12093983 -0.01912329 0.03638763 0.008418349 -0.045516264 -0.058616687 -0.06342354
-0.030422688 -0.037344407 0.0052092215 -0.0542341 0.04865283 -0.055260237 -0.049749717 -0.082569316
-0.046420824 0.05740634 0.042972878 0.06172744 0.0025702463 0.033583663 0.0005338169 0.018757395
0.0350831 0.044867504 0.040360335 0.037776276 -0.013646073 0.068591595 -0.015393191 -0.0044253366
0.0358589 -0.07226457 -0.11190857 -0.13202415 -0.030256217 -0.0022768357 0.03884458 0.055313513
-0.035382584 0.045926988 0.015818762 -0.047946274 0.024481218 -0.21561405 -0.15298693 -0.1451875
-0.022738108 -0.023518575 0.077717155 0.015052548 -0.06760092 0.018862158 0.034340486 -0.024505313
-0.009568291 -0.024594061 -0.071917824 -0.035619758 0.0077823442 -0.051243618 -0.05000798 -0.07574946

autoencoder.encoder.2.bias f4 [8]
00000000: d8c9 7f3c 42b4 26bd 973d 6bbd b5ca 973d
00000010: 5d47 973d 197f 1f3d 4615 243e 64bd 853d
0.015612088 -0.04069925 -0.057431784 0.0741171 0.07386658 0.03893957 0.1602374 0.06530264

autoencoder.decoder.0.weight f4 [8, 64, 3]
00000000: 1cad 263d 0913 86bd 8c0c 36bc 1841 013c
00000010: 6feb 8fbd 6035 773d b2fa 413d 428d 08bd
00000020: f8c3 76bc d776 2bbd 6464 e33c d8ec 4b3c
00000030: 4af7 ccbc a609 1e3d 1899 7fbc 70f5 fd3b
00000040: e0aa 4c3d bce2 0abd 2451 88bd 768b 1f3d
00000050: 7e2f 41bd d07f df3c c0bd b1bc c46e 463d
00000060: c0e3 33bb bd97 06bd 9e88 50bd 4ea3 463d
00000070: 2cf6 38bd 4c97 a73c 7010 623d 9f73 6dbd
00000080: 8419 78bd d040 f13b d413 e8bc 84ff 58bd
00000090: cc77 433d d17e 89bd 56c7 06bd 988a 75bd
000000a0: d841 9c3c 50f6 cb3b b09a f63c 1c86 f73c
000000b0: 00ac 95b9 588a b1bc 44b1 823d e0af 443b
000000c0: 80c1 8c3c 9c68 73bd 01dc 90bd 9d62 10bd
000000d0: bce5 1abd f849 ab3c 2563 03bd 10f8 f63b
000000e0: 5cf7 883d 3a66 aebc 700b 973c 0004 683a
000000f0: bc87 423d 7249 013d 00bc 5bbb d6ae 213d
00000100: 80a2 70bb a802 49bc 6c72 e6bc e425 71bd
00000110: dcec 763d d952 3bbd 94e6 8cbd 7896 04bd
00000120: 70d9 6e3c e09b d6bb d291 063d 4c5c 293d
00000130: f6d8 2d3d ea04 78bd 4408 f13c e052 123d
00000140: 2dfd 23bd 0047 b739 f838 313c e844 143c
00000150: d29f 1e3d 48f8 7a3d aaf5 8d3d 3c5e 843c
00000160: 24de 2c3d b0c5 fc3c 95eb 1fbd dcb3 453d
00000170: e005 a8bb 3845 f13c fd30 44bd 947f 6c3d
00000180: acf2 833c 3cf9 853c f87b 83bd 3086 cdbb
00000190: 3cbc cebc be8a 8b3d be50 87bd 50e5 91bc
000001a0: cd9d 12bd eb49 56bd b063 e33c ba17 4cbd
000001b0: 4abb 0b3d 10ed 0d3c 6f7f 1cbd 508f 06bc
000001c0: 7014 cd3b 72bd 03bd 86ed 3dbd 7495 26bd
000001d0: d8a4 8e3c f43b 82bd 7c22 3a3d cc22 423d
000001e0: 52e8 873d 8819 7a3d 8f21 26bd 0345 00bd
000001f0: 345c 583d 28f7 18bc 26a5 59bd 9499 0dbd
00000200: c47f 4f3d 4c19 28bd 84f1 cf3c 8ed1 76bd
00000210: 3232 433d f09a a23c b0e6 4b3d 004f 213b
00000220: 7c0d 163d c43d 723d f828 15bc 4e67 5fbd
00000230: e693 50bd e850 2d3d 7c80 3cbd 4c61 81bd
00000240: ba4a 7abd 98e9 02bd b05b 5b3c b8ec 85bd
00000250: 55f9 08bd 8681 8d3d c41b 49bc 9c81 c7bc
00000260: cace 0b3d 8a40 73bd f3d0 66bd 980f 293c
00000270: 88e4 ba3c d3a6 91bd 1cdc 813d 4835 e6bc
00000280: 68a2 343c 5221 523d e84b e23c 3892 b73c
00000290: bcd9 86bd 8ce5 89bd 74de db3c e0c3 2f3b
000002a0: 2283 353d f0ed 133d 4226 6dbd 40a1 593c
000002b0: aee6 67bd 8667 23bd 7878 a23c d02f 84bb
000002c0: cac8 3cbd 8478 c83c a022 4d3d a941 91bd
000002d0: 8ea2 8a3d 6a2e 233d 1053 c7bb 5a53 8fbd
000002e0: c045 fabc 746d b43c 1ae2 fbbc 7655 c2bc
000002f0: 6426 f4bc cc27 7e3d 542b 7a3d ea8f 66bd
00000300: d264 b6bc 9edf 853d 0036 88bb 26ec 0fbd
00000310: b0fb 0e3c 04e4 693d 3078 16bc b677 8bbd
00000320: ce9e c5bc 381e 133d 28b5 2ebc 6adb 503d
00000330: 9453 cb3c 80ea 253a 64d4 e13c a49a 1fbc
00000340: 3668 7dbd 6255 7dbd a284 68bd 2454 3cbc
00000350: dbbc 55bd 6048 2d3c 1094 073c 5ceb 603d
00000360: 70f8 843b 5087 493c cc39 d23c f224 a7bc
00000370: 6a4b 13bd b108 8bbd 76f3 8fbd f07f 9b3b
00000380: 81c9 0bbd e8aa a33c bcee 923c b48c 663d
00000390: 1859 10bc 0001 a0b9 0805 4c3d 4083 483c
000003a0: 1e4b 073d ce9f 1fbd 52a8 55bd 505d 613d
000003b0: c4b7 523d 7cda dfbc 286b 443c 4d72 83bd
000003c0: 5080 a53b 5f39 89bd 0014 273d 677e 92bd
000003d0: 369d 8ebc 08e6 893d 844a c8bc 6458 2bbd
000003e0: 2255 853d cd85 15bd 6c64 823c b634 253d
000003f0: 38d8 9e3c 4c3a 4cbd 6c24 863d a0bf 0d3d
0.040692434 -0.065465994 -0.01111139 0.007889055 -0.07027327 0.060353637 0.047358222 -0.03333784
-0.015061371 -0.04186138 0.02775783 0.012446605 -0.02502026 0.03858342 -0.015600465 0.0077502057
0.049967647 -0.033907637 -0.06656101 0.03895136 -0.047164433 0.027282625 -0.021696925 0.048445478
-0.0027448982 -0.032859553 -0.05091154 0.048495583 -0.045156643 0.020457886 0.055191457 -0.057971593
-0.06057121 0.0073624626 -0.028329767 -0.052978054 0.04772167 -0.067136414 -0.032904945 -0.059946626
0.019074365 0.006224431 0.030103058 0.030215316 -0.00028547645 -0.021672413 0.06381467 0.0030012056
0.017182112 -0.059425935 -0.070732124 -0.035250295 -0.037816748 0.020909294 -0.032076973 0.0075368956
0.06687805 -0.02128898 0.018438071 0.00088506937 0.047492728 0.031564184 -0.0033528805 0.039473377
-0.0036717951 -0.0122687 -0.028130732 -0.058874026 0.06028448 -0.045733307 -0.06879917 -0.03237006
0.014578208 -0.0065493435 0.03285391 0.041347787 0.04244324 -0.06055156 0.029422887 0.035723567
-0.04003637 0.0003495738 0.010816805 0.009049632 0.038726635 0.061271936 0.06931622 0.016158216
0.042204037 0.030855983 -0.039043028 0.04826723 -0.0051276535 0.029451951 -0.04789828 0.057738855
0.016106926 0.016354196 -0.064201295 -0.0062721 -0.025236242 0.06813572 -0.06607197 -0.01780954
-0.03579502 -0.052316587 0.027757496 -0.049827315 0.03411416 0.008662477 -0.038207468 -0.008212879
0.00625854 -0.03216309 -0.046369098 -0.040669873 0.017412588 -0.063590914 0.045443043 0.047396466
0.066361085 0.061059505 -0.040559348 -0.031315815 0.052822307 -0.00933627 -0.053136013 -0.03457029
0.050658956 -0.04103975 0.025383718 -0.06025844 0.04765529 0.01984927 0.049780548 0.0024613738
0.036633953 0.059140936 -0.009104006 -0.05454188 -0.050922297 0.042313486 -0.04602097 -0.06317386
-0.06110642 -0.031961054 0.013388559 -0.06539291 -0.033440907 0.0690947 -0.012274686 -0.024353795
0.034132756 -0.05938772 -0.056351613 0.010318659 0.02281405 -0.07111897 0.06340811 -0.028101578
0.011025049 0.051301308 0.027624086 0.02240859 -0.06584498 -0.06733236 0.026839472 0.0026819631
0.04431451 0.036115587 -0.057897814 0.013283074 -0.056616478 -0.03989365 0.019832835 -0.00403402
-0.046089925 0.024471529 0.05008185 -0.07092602 0.06769286 0.039839186 -0.0060829 -0.0699832
-0.030550838 0.022024848 -0.030747462 -0.023722392 -0.029803462 0.062049672 0.061076477 -0.05628959
-0.022264872 0.06536792 -0.004156828 -0.035137318 0.008726999 0.05710222 -0.009183928 -0.068099424
-0.024123576 0.03591749 -0.010663308 0.0509905 0.024820127 0.0006329194 0.027567096 -0.009741459
-0.06186696 -0.061849006 -0.056767114 -0.01149467 -0.05218206 0.010576338 0.008275047 0.054911956
0.0040579364 0.012300327 0.025662325 -0.02040336 -0.035960592 -0.06788767 -0.07028858 0.004745476
-0.034127716 0.019978955 0.017936103 0.05628653 -0.008810304 -0.00030518323 0.049809486 0.012238324
0.03303062 -0.03897076 -0.052162476 0.05502063 0.051444784 -0.027325861 0.011988439 -0.064182855
0.0050506964 -0.06700396 0.040790558 -0.071530156 -0.017408948 0.06733328 -0.024449594 -0.041832343
0.065103784 -0.036504555 0.015917026 0.040333472 0.01939021 -0.049860284 0.06549916 0.034606576

autoencoder.decoder.0.bias f4 [64]
00000000: 40c9 25bb 38d4 17bc b838 6d3c 0013 94bb
00000010: bc83 6cbc d551 85bd 844c 173d 6b6b 27bd
00000020: 6024 af3c 08e4 f63c 2867 0b3d 206d 01bc
00000030: 00fe fdba 8635 473d d839 28bd a080 4fbd
00000040: 56cd 3f3d d49f 8d3d 148a 5f3d b0c4 363d
00000050: f705 1dbd 302c 323d 9db5 18bd ac67 043d
00000060: 7e23 863d 8cb4 b0bc a635 5abd e4fb 51bd
00000070: f473 c5bc e031 af3b 7c50 873d 08dd 573c
00000080: bd3b 17bd 002c eabb dc42 a7bc 8829 923c
00000090: 1c53 ee3c a035 2cbd e48d bf3c 0241 0f3d
000000a0: 008f 91bb 60cf 4bbd 528c 3c3d fec9 8cbd
000000b0: d627 113d 309e 3a3c 28a4 a2bc 0c2d e1bc
000000c0: ecae 823c b484 2abd a06a 4abb e867 5c3d
000000d0: 90cd 92bb a00d 45bd f06c 663d f024 383d
000000e0: 88dd 733d 8048 b6bc 63bc 90bd f897 c6bc
000000f0: a8a5 483d d02c aa3c 7882 6f3d 30a8 093d
-0.0025296956 -0.0092669055 0.014478855 -0.0045188665 -0.014435705 -0.06509749 0.036938205 -0.040873926
0.02137965 0.03013803 0.034033924 -0.007899553 -0.0019378066 0.04863503 -0.04107079 -0.050659776
0.046826683 0.069152504 0.05457504 0.04462117 -0.038335767 0.04349917 -0.037282575 0.03232543
0.06549738 -0.021570466 -0.05327382 -0.051265612 -0.024103142 0.0053465217 0.06607148 0.013175257
-0.036922205 -0.0071463585 -0.020417623 0.01784207 0.029092364 -0.04204333 0.023383088 0.034974106
-0.0044420958 -0.049758315 0.046032257 -0.068744645 0.03543838 0.011390254 -0.019853666 -0.0274873
0.01595255 -0.04163046 -0.0030886307 0.05381003 -0.0044800714 -0.048108697 0.056256235 0.0449571
0.05953744 -0.022251368 -0.07067182 -0.024242386 0.048986107 0.020773321 0.058474034 0.03360766

autoencoder.decoder.2.weight f4 [64, 1, 3]
00000000: 21a4 12bf c83c 12bf 58bd 8bbd 4aa1 c8be
00000010: 18f3 bfbe b068 763d b008 e1bd 4c74 e73e
00000020: 9bd9 a2be 0eab 873e abc6 93be f5aa 97be
00000030: 3c19 023f d8a3 8f3d 4086 133f 8cc5 f5be
00000040: 14cd 55be 0fea fabe 4c89 eb3e 6891 8f3e
00000050: 404d dc3c 729f 0b3f 8003 cdbe 4241 d8be
00000060: a68f 083f e29e 1abe 4cff bf3e 1ee2 8d3e
00000070: e46a 203e 8da4 b9be 066b 43be 3072 003f
00000080: 00f9 683e 4cf4 1dbe e80c 3f3e e6dd 12be
00000090: 1039 37bd 7022 ce3d 7608 ce3e 4263 0d3f
000000a0: 0c94 063f d0ed f9bd d08a 3e3d 622f 0ebf
000000b0: d019 69bd 302f 093d d10b bdbe 6e54 043f
000000c0: 2a6b 79be 5e05 09bf 9cd5 87be 04b8 cdbd
000000d0: f0fe f5be 561c bc3e 48cd a93d 52ca adbe
000000e0: 802d 503d 5e7c ffbe 2883 3a3e c075 9dbc
000000f0: e077 3abd 408a 403d 061a 87be 5088 c53e
00000100: 10fa d6be 8080 0ebc c807 f43e 1826 f93d
00000110: 8ad5 d4be 14c9 123f d03f afbe 3a55 7bbe
00000120: 7486 b53e 3ebc b1be c02a bd3c 1c20 5a3e
00000130: c4bd a33e 7cc6 b6be 4803 0d3f 98f3 db3e
00000140: 2829 6bbe 00a5 623b 0e34 4fbe 0a5a 98be
00000150: 822a 003f 54c0 db3e 946e 193e 58f6 043f
00000160: 2291 0fbf 9073 2e3d c152 92be 6a33 a03e
00000170: f03b 3b3d c84a e8be 2023 943c 6443 723e
00000180: 3ee3 35be 60c6 5fbd b541 d2be 94c4 fe3e
00000190: e013 0fbf 6ff4 aebe 2238 e9be fe70 83be
000001a0: 0bd2 a0be f483 3a3e 5c8a ff3e 40a9 cd3c
000001b0: e857 073e 0049 df3e 2393 13bf 6054 1d3d
000001c0: f81f 853e 80e3 d73d 102b 76be c0e2 45be
000001d0: cbad 9abe fe3f 123f 699b 82be 58d3 cabd
000001e0: 80d3 333c 16eb ddbe 8891 c1be 407a c7be
000001f0: f857 ef3d cf4d b3be aae5 e8be 5c40 a8be
00000200: 5ce4 4bbe f090 20be f49b b8be 8cf7 283e
00000210: 609c 94bd dda1 d5be 86bc 893e 5c5f 083e
00000220: f8bb bc3d 7692 113f 8088 cabd e271 ba3e
00000230: 41ab 95be 408e 90be 989c 0f3e 134b 9abe
00000240: 54f8 7e3e 384b 0bbf acbd 58be 7263 133f
00000250: 407d efbc aa9a a03e 7c43 053f f2f3 28be
00000260: 50cf 09be 2cb5 a9bd 7042 93be c089 8ebc
00000270: 92de 8c3e 6c22 ff3e 227f cc3e 148f 113f
00000280: df49 95be 14c7 cbbe d4bb 11bf da0d ae3e
00000290: 9c0e 833e 3880 0dbe fc65 f43e f8c2 d4be
000002a0: fc4d bfbd 806e 77bc 40be 6d3e 4886 f63e
000002b0: ad12 a8be 206e 133f 5ac7 0c3f 7049 1d3e
000002c0: b28c c2be f4ed 423e 4066 f63d 2e5d 56be
000002d0: 224a 0e3f ef70 edbe 6c02 52be f6c2 5dbe
000002e0: 7217 24be 2817 db3e 805e ebbc 2886 a43d
000002f0: 78d1 03bf 3ef1 c7be a0ae b93e 78b3 34be
-0.5728169 -0.57123995 -0.06823224 -0.39185554 -0.37490153 0.06015843 -0.10987985 0.45205915
-0.31806645 0.26497692 -0.2886251 -0.29622617 0.50819755 0.070136726 0.57626724 -0.4800228
-0.20879012 -0.49006698 0.46003187 0.28040624 0.026892304 0.5454017 -0.40041733 -0.42237288
0.5334419 -0.15099671 0.37499464 0.27711576 0.15665776 -0.36258355 -0.19083795 0.50174236
0.22751236 -0.15425223 0.18657267 -0.1434246 -0.044732153 0.10065162 0.4024083 0.5522958
0.5256965 -0.12203562 0.0465191 -0.5554105 -0.056909382 0.033492267 -0.36923078 0.5169133
-0.24357286 -0.53523815 -0.2653016 -0.10044864 -0.48046064 0.3674037 0.082911074 -0.3394342
0.050824642 -0.49899572 0.18214095 -0.019221187 -0.045524478 0.047006845 -0.26387042 0.3858056
-0.41987658 -0.008697629 0.47662187 0.12165469 -0.41569167 0.5733807 -0.34228373 -0.2454423
0.35454142 -0.3471393 0.023091674 0.21301311 0.31980717 -0.35698307 0.5508313 0.42959285
-0.22964919 0.003458321 -0.20234701 -0.29756194 0.5006486 0.42920172 0.14983588 0.5193839
-0.5608083 0.042590678 -0.2857876 0.31289226 0.045711458 -0.45369554 0.018083155 0.2365852
-0.17762467 -0.054632545 -0.41065755 0.49759352 -0.558897 -0.34170863 -0.45550638 -0.25672144
-0.3141025 0.18214399 0.49910247 0.025105119 0.13217127 0.43610382 -0.5764639 0.038410544
0.26000953 0.10541439 -0.24039865 -0.1932478 -0.3021072 0.57128894 -0.25509194 -0.09903592
0.0109757185 -0.4334342 -0.37806344 -0.38960457 0.116867006 -0.350203 -0.4548772 -0.32861602
-0.19911331 -0.1568029 -0.36056483 0.16500682 -0.07256389 -0.41725054 0.26901644 0.13317627
0.0921554 0.56864107 -0.098893166 0.3641501 -0.2923222 -0.28233528 0.1402458 -0.30135402
0.24899417 -0.5441165 -0.21166104 0.57573617 -0.029234529 0.31368 0.520561 -0.16499308
-0.1345799 -0.08286509 -0.28761625 -0.017399669 0.27513558 0.4983095 0.39940745 0.56858945
-0.29157922 -0.39800322 -0.5692723 0.33994943 0.25597084 -0.13818443 0.47734058 -0.41555
-0.09341046 -0.015102029 0.23217106 0.48149323 -0.32826748 0.5758991 0.54991686 0.15360045
-0.37997967 0.19036084 0.120312214 -0.20933983 0.5558187 -0.46375224 -0.20508736 -0.21656403
-0.16024569 0.42791104 -0.028731585 0.08033401 -0.514915 -0.3905124 0.3626604 -0.17646587

tcn.network.0.conv1.bias f4 [64]
00000000: 18d3 ea3a 4981 28bc d026 193e a39d 2b3e
00000010: e644 ecbd 15b3 443d 5c95 09bc 55db 22be
00000020: 15b2 27bc d910 0dbc 336e fe3d 387f f73d
00000030: 3908 083e 74b1 413d f287 ebbd a13f 2bbe
00000040: 4f3a c13d 4931 12be c50c 123c 41c0 ec3d
00000050: 917d aa3d dce9 903c 9073 453c 834f 7ebc
00000060: 8815 033b 739c 423e a253 0ebe b15a 2f3e
00000070: 136a d2bc 0951 2c3e 6a22 cabd 84e2 c63d
00000080: 0e11 03be 3f14 77be 5d80 c83d 179e 9e3d
00000090: 2b8b 3c3e 9181 cc3d 2023 cebd 3f99 1fbe
000000a0: 52ec e43d abbf bbbd a7f2 0dbe f902 22be
000000b0: eb06 07be 40f5 8dbd 4278 34be 6317 473e
000000c0: 0e19 703d 91ad bb3d 175d d3bd 2dce 2e3d
000000d0: a9c8 993d c571 7fbd e71c 103e df8a e0bc
000000e0: 8641 96bd 8d00 1abe cc4e 67be 9bd5 6f3d
000000f0: 50b6 25be 2672 18be ea61 03be 5f33 08be
0.0017915694 -0.01028473 0.14956212 0.16759352 -0.11536579 0.04802235 -0.008397426 -0.15903981
-0.010235329 -0.008609974 0.124233626 0.12084812 0.13284387 0.047288373 -0.11500539 -0.16723491
0.094349496 -0.14276613 0.008914177 0.11560107 0.08324731 0.017689638 0.012051478 -0.015521887
0.0020001847 0.19004993 -0.13899091 0.1712444 -0.025685346 0.16827787 -0.09869845 0.09711173
-0.12799475 -0.24128817 0.09790108 0.07744997 0.18412463 0.0998565 -0.10065293 -0.15585802
0.11177887 -0.09167417 -0.13862096 -0.15821446 -0.13186233 -0.06931543 -0.17624 0.19442515
0.058617644 0.091639645 -0.1032049 0.042677093 0.07508976 -0.06236436 0.14073525 -0.027409969
-0.07336716 -0.15039273 -0.22588652 0.05855332 -0.16182828 -0.14887294 -0.1283032 -0.13300847

tcn.network.0.conv1.weight_g f4 [64, 1, 1]
00000000: 7391 0c3f 2f45 053f 3857 223f 9ffe 1e3f
00000010: 5372 f43e 4a98 1c3f e7c3 0a3f 36b6 ca3e
00000020: 1b07 143f 0804 2c3f 9806 173f 2963 013f
00000030: 3564 253f 453c f83e 09e8 fa3e abb0 023f
00000040: bec9 213f a381 fd3e d5ee 153f 9b4f 063f
00000050: e405 183f 4a4f ec3e 67a6 183f 63a2 033f
00000060: e612 1e3f dda5 303f cd5a 043f 7f35 233f
00000070: cc95 1c3f 35ae 223f a46b 033f cc77 f73e
00000080: 7ba3 c63e a05f f53e 11ef e83e 8c56 2e3f
00000090: 1565 083f 77ae ea3e b2be ee3e 2ee8 213f
000000a0: 741e 0f3f bf7e 213f c9ce 053f bce2 153f
000000b0: 1335 033f 3e83 193f b8fd 0c3f fdc3 033f
000000c0: 8c8f 233f 890b 073f dbdb 0e3f 041e 1d3f
000000d0: 35e6 113f 4297 213f b3fc fb3e 7225 293f
000000e0: 80a4 213f 4bd8 1b3f fb8a 063f f381 233f
000000f0: 6efa 0f3f 3bba 113f 4790 053f 20e5 153f
0.5490944 0.5205869 0.63414335 0.6210727 0.47743472 0.61169875 0.54205173 0.3959214
0.5782334 0.6719365 0.58994436 0.5054193 0.6460603 0.48483482 0.49005154 0.51050824
0.6319846 0.49512967 0.58567554 0.5246522 0.5938399 0.46154243 0.5962891 0.5141966
0.61747587 0.6900309 0.5170105 0.63753504 0.6116607 0.6354707 0.5133612 0.48333585
0.387966 0.4792452 0.45494893 0.6810081 0.5327924 0.4583623 0.46629864 0.63244903
0.5590584 0.63084024 0.52268654 0.58549094 0.5125286 0.59965885 0.55074644 0.5147093
0.6389091 0.52751976 0.5580422 0.61373925 0.56991893 0.63121426 0.49216232 0.6607276
0.6314163 0.6087691 0.5255582 0.6387016 0.562415 0.5692479 0.52173275 0.5855274

tcn.network.0.conv1.weight_v f4 [64, 8, 3]
00000000: 533a 0abe 972e e3bd f63f e03d c094 223e
00000010: dd11 473c 4e02 4abe 2aed f0bd 7093 a8bd
00000020: 9965 ba3d dacd b4bc 4c3f 88bd 6a83 90be
00000030: 8628 7d3d 9934 513e d388 5fbe 3417 9dbc
00000040: 6981 b6ba 472b babd 4b24 863c ed63 1ebd
00000050: 1a40 44be 0f40 063e 0efc 76bd 89eb a33d
00000060: f001 d6bc 04fb e83d 10e5 843d d9cc a5bd
00000070: decb c3bc 9c2b 9f3d d0d4 62bd 8506 fdbd
00000080: e94e 483e 3932 163e 3bde bcbd eb62 853d
00000090: fe61 e03d 3d1d 14be 32b3 dcbc 013e 24be
000000a0: ff2d 38be 9209 443e 07ab a63d b42c f3bd
000000b0: f3b8 3a3c d2b0 b8bd 78fa ebbc 464e 0dbd
000000c0: fdd0 4c3d bea9 e03c ba62 0dbe 8dff ab3d
000000d0: a362 1b3d 7126 34bd 1cd5 bdbd 727a 93bc
000000e0: 5cc0 7c3c 5265 3ebe e796 edbd cf93 77be
000000f0: 07ee 85bd 3af9 d33d 036a 15be 8e5d 08be
00000100: 4f66 f7bc 89a6 89bd adeb b23d 587e 6abd
00000110: cc91 33be 736e 96bc dbec 433c dd27 b53d
00000120: 6e4b ae39 2852 28be 8699 71bd 8676 3d3e
00000130: d141 30be c71d 95bd c603 383e 6f0e 9fbd
00000140: 060a 273e 267c 0ebe b5f1 163e b673 033e
00000150: 88cd 54bd 435f 4abe 01a3 9cbd e960 143d
00000160: 567d 8abd 2d0a 24be e126 43be c75d ab3d
00000170: 5881 093e 75ba 9bbd 32e2 6a3b 6fa5 fbbd
00000180: 5bd0 063e 7dba 11be fcc9 09be 5bc3 e2bd
00000190: 16ec 41bd e4fb 4d3c 0d76 7fbe 4931 d1bd
000001a0: 8415 fabd 3c73 29bd 2904 e238 194c d63c
000001b0: 3860 743d a030 05be cf1b e438 50f8 3b3e
000001c0: 5547 c33c ea6a 55be f027 ed3d 52bf 3dbe
000001d0: 6247 a53d ab88 543e 4142 473d 7814 1a3e
000001e0: a551 143e def5 723d 8176 c5bd 1e4a d93c
000001f0: 5d0d 083e 9594 f33c 2472 2ebe c409 283e
00000200: 3576 3f3e 0aa6 ca3d 86fa ba3d 9bd5 c53d
00000210: c345 19be d584 bfbd 14f6 033d 1bc6 523c
00000220: 4604 7a3d 2d92 ddbc fc99 5fbe 77c9 853d
00000230: c6c7 1abe af67 36be 9377 553e 167f be3d
00000240: 7c65 ec3d 8759 ddbd 83b0 b93d f9d9 b6ba
00000250: 4f51 ef3d b44a 9c3b e441 3d3e c41b 6dbd
00000260: cc3c 453e 2209 4a3e 7012 a63c c2a3 1abe
00000270: 786f e5bd d329 6a3d db27 3ebe 2258 bcbd
00000280: f2f2 6a3d 40f5 a33c e17d f33d b7a5 ffbb
00000290: 6a36 fcbc aa26 e83c 6773 5bbd fc51 4fbe
000002a0: 6102 b3bd fe42 7ebe 1fb0 613e 48fb 8a3d
000002b0: 96aa b03d a441 213d 87f6 c7bd 48bd 00be
000002c0: 1e2d 503c 6ccb 433d c620 e3bd df70 f0bd
000002d0: 45e7 a93d e4da 05be 7e99 9d3d 75e0 7d3e
000002e0: a9f3 893e fd08 46be 7894 e93c fd1e 05be
000002f0: 070c 6f3c d8db 013e 04fc 64be a5c2 2d3e
00000300: 8abd acbd ffa3 fa3d c332 c6bb 0d02 123e
00000310: a99b 0d3e 8acb 303d cd80 193d 1a2f c8bd
00000320: 84ca 10be 2bba ea3d ea3b e83d d91d 7e3c
00000330: 17c8 b83d 4907 c23c f81c 953d 7609 6bbd
00000340: 4eee dc3b 16cf 4bbe b771 5cbe 7bf0 893d
00000350: a42b 16be 63a0 463e 20f8 32be b739 37be
00000360: 125a 23be 6fa3 233e f25b ebbd a6ed 37be
00000370: 7916 b23d fa1e 25bd 6913 4cbe de64 0e3e
00000380: 7531 173e f0f5 153e 772b eb3d cc3f 2cbe
00000390: 232c f6bd b871 cdbd 0a78 56be b72a 063e
000003a0: f9cb b3bd ccad 8d3d 3058 03be d1e4 263e
000003b0: 8452 103e de03 153e 90ab c83d 6dd5 333e
000003c0: 489a 363d 0176 033c 78a1 adbd 881d fa3d
000003d0: d06a 0dbe 6216 cd3d 0e86 14bc 0721 c3bb
000003e0: 2190 cfbd c50b cbbd a14c fb3b 4062 0cbe
000003f0: 6634 f93d 3e4f 7c3d 7781 33be e8b7 b13d
-0.13498811 -0.11092871 0.109496996 0.15877056 0.012150255 -0.19727442 -0.117639855 -0.082312465
0.091014095 -0.022070814 -0.06652698 -0.2822526 0.061806224 0.2043022 -0.21829538 -0.019176103
-0.0013924065 -0.09090286 0.016374728 -0.038669515 -0.19165078 0.13110374 -0.06029897 0.08003909
-0.02612397 0.113760024 0.06489003 -0.08095712 -0.023900922 0.0777199 -0.055378735 -0.12354759
0.19561352 0.14667596 -0.092220746 0.06513008 0.109561905 -0.14464279 -0.026940916 -0.16039278
-0.17986296 0.19144276 0.081380896 -0.11873761 0.011396634 -0.09018101 -0.028805956 -0.034498475
0.050003994 0.02742469 -0.13807192 0.08398352 0.037935864 -0.043981973 -0.09269163 -0.018002722
0.015426721 -0.18593338 -0.11601048 -0.24177478 -0.06539541 0.103502706 -0.14591222 -0.13316938
-0.030200152 -0.06721217 0.08736358 -0.057249397 -0.17536086 -0.018363213 0.011958326 0.08845494
0.00033244066 -0.1643759 -0.058984302 0.18502244 -0.17212607 -0.0728107 0.1797019 -0.07766425
0.16312417 -0.13914546 0.14740641 0.12837109 -0.051953822 -0.19762902 -0.07648278 0.036225233
-0.06762187 -0.16019507 -0.190578 0.08367496 0.13428247 -0.07603923 0.003584039 -0.12287413
0.13165419 -0.14231296 -0.13455957 -0.11072417 -0.04734429 0.012572262 -0.24947377 -0.102144785
-0.12211135 -0.04136966 0.00010777295 0.026159333 0.059662074 -0.1300683 0.00010877067 0.18356442
0.023837725 -0.20841566 0.11579883 -0.18530014 0.08070256 0.2075526 0.04864717 0.1504687
0.1448427 0.05931651 -0.096417435 0.0265246 0.13286348 0.029733935 -0.17035729 0.16409975
0.18697436 0.09894951 0.09129815 0.09659883 -0.14968018 -0.093515076 0.0322171 0.012864615
0.06103923 -0.027047241 -0.21836084 0.06532567 -0.1511527 -0.1781299 0.20846395 0.093015835
0.11542794 -0.108080916 0.0906687 -0.0013950459 0.1168543 0.0047696475 0.18482167 -0.057887807
0.19261473 0.19730046 0.020272464 -0.15101531 -0.112029016 0.057168793 -0.18569891 -0.091964975
0.057360597 0.020014405 0.11889244 -0.007801737 -0.030787665 0.028338749 -0.053576853 -0.20246118
-0.08740688 -0.24830243 0.22039841 0.06786209 0.08626287 0.03936924 -0.09763818 -0.12572205
0.012706069 0.04780142 -0.110902354 -0.117402785 0.08296064 -0.13071781 0.07695292 0.24792655
0.2694371 -0.19339366 0.028513178 -0.13000102 0.01459027 0.1268152 -0.22361761 0.16968782
-0.08434589 0.12238311 -0.0060485317 0.14258595 0.13828911 0.04316286 0.03747635 -0.09774609
-0.14139754 0.1146129 0.11339553 0.015510046 0.09022539 0.023685114 0.07280916 -0.05738207
0.0067422753 -0.19903216 -0.21527754 0.06735321 -0.14665085 0.1939712 -0.17477465 -0.1789311
-0.15952328 0.15980314 -0.114921466 -0.1796175 0.086956926 -0.040312745 -0.1992928 0.13905665
0.1476496 0.14644599 0.114829 -0.16821212 -0.12020137 -0.10031456 -0.20944229 0.13102232
-0.08779139 0.06917915 -0.1282661 0.16298224 0.14093977 0.14552256 0.09798348 0.17561884
0.044580728 0.00802374 -0.08478063 0.12212664 -0.13810277 0.10014035 -0.009065164 -0.005954865
-0.10134912 -0.09914354 0.007669047 -0.13709354 0.12168197 0.06159901 -0.17529856 0.086776555

tcn.network.0.conv2.bias f4 [64]
00000000: 4987 f7bc e2ba 4f3b 9b0c 3fbd c5dc 23bb
00000010: 213e 8bbd c3dd 47bd 4ae5 413a 56f6 d03c
00000020: e9ba 68bc 3f12 ab3c d82d 2a3d b433 8bbd
00000030: cb3c 6cbc 4009 e9b9 ed4b e33d 3aa0 32bd
00000040: 991e 47bb c874 273d bcd5 3b3a 22b0 bdba
00000050: dddf b2bc 4244 153d 4ae0 083d e3b1 1cbd
00000060: a5ed 173c fdaf 18bb 6497 14bc 8832 713d
00000070: a067 25bd a4a4 8bbd c47e bd3d 610e 8dbd
00000080: c002 ae3b 8aab b4bc e88d 48bd 5e7f 4b3d
00000090: 848f a63c 0072 6a3c 1949 31bc c8c8 6c3c
000000a0: 2531 4b3c 8189 f7bc 622e 96bc 263c 263d
000000b0: 61b2 c73c 3b48 d93b e499 91bd bb7b 93bd
000000c0: 1719 aa3d 894e 29bd 9001 8bbc ae2f b03c
000000d0: f611 5fbd deb8 99bd 7604 babd 5063 f33c
000000e0: ee76 a4bb bf18 d23b 76c3 4abd 0f61 84bd
000000f0: c006 ff3b da27 84bd dd7e fa3b 8b7e 8bbb
-0.030215876 0.0031697084 -0.04664288 -0.0025003415 -0.067989595 -0.048795473 0.00073965325 0.025508087
-0.014204719 0.020882724 0.041547626 -0.06796971 -0.014418791 -0.00044448115 0.11098466 -0.043609835
-0.0030383228 0.040882856 0.0007165333 -0.0014472047 -0.021835262 0.03644205 0.033417024 -0.038255583
0.009272967 -0.0023298257 -0.009069297 0.05888608 -0.040382028 -0.06818512 0.09252694 -0.06887508
0.0053103864 -0.022054452 -0.048963457 0.049682014 0.020332105 0.014309406 -0.0108206505 0.014452167
0.012401854 -0.030216934 -0.018332664 0.040584706 0.02437705 0.006630925 -0.071094304 -0.07201334
0.08305567 -0.041334663 -0.016968518 0.02150711 -0.05446049 -0.07505964 -0.09082882 0.029710442
-0.0050190603 0.0064116414 -0.049502812 -0.06463825 0.007782787 -0.064529136 0.007644518 -0.0042570285

tcn.network.0.conv2.weight_g f4 [64, 1, 1]
00000000: 426f 113f 992c 0f3f 8881 163f 8ae8 d93e
00000010: 8641 0f3f 7923 173f 2e4b 183f c022 163f
00000020: f37c 0f3f 7cc1 0b3f c91b 103f 5feb 123f
00000030: b4fe 113f 9e69 153f 269b 1d3f 3230 173f
00000040: 7d2e 073f 1b19 153f 6434 143f c30f 0e3f
00000050: cbc9 053f ca3b 173f 42b9 103f 2227 0c3f
00000060: ddf3 0a3f aab9 223f c16f 133f e0f2 183f
00000070: 2d10 f13e 6b35 0e3f 3c63 1a3f bad1 103f
00000080: 5d09 123f bb71 0e3f df15 043f 1793 0f3f
00000090: 7e97 063f ee55 0c3f edaa 143f f0d4 053f
000000a0: ba67 0c3f 8acd 173f 22e2 063f cb38 0c3f
000000b0: 1a8b 0f3f 36aa 113f 253e 143f 10a2 0e3f
000000c0: ac4a 173f b951 d63e e046 053f 925f 0e3f
000000d0: 4205 e83e 5d9e 0c3f f856 143f d6f4 163f
000000e0: 4bae 123f 87bf 0d3f 8422 123f c73c 083f
000000f0: c706 0a3f 1618 0b3f cf5d f53e 44e8 073f
0.5681039 0.55927426 0.587914 0.42560226 0.55959356 0.590385 0.59489715 0.58646774
0.5605003 0.5459211 0.56292397 0.573904 0.5702927 0.58364284 0.6156486 0.59057915
0.5280531 0.5824143 0.5789244 0.554928 0.52261037 0.59075606 0.5653268 0.5474721
0.54278356 0.6356455 0.575924 0.597456 0.47082654 0.5555026 0.6030767 0.5657002
0.5704554 0.5564229 0.5159587 0.56083816 0.5257491 0.5481862 0.5807331 0.5227804
0.54845774 0.59298 0.526888 0.5477416 0.5607163 0.56900346 0.57907325 0.5571604
0.59098315 0.41859224 0.5206127 0.5561458 0.4531651 0.54929143 0.57945204 0.5896734
0.572972 0.5537037 0.57083917 0.5321774 0.5391659 0.5433363 0.47923133 0.53088784

tcn.network.0.conv2.weight_v f4 [64, 64, 3]
00000000: 5f72 9abd d585 8bbd 3e59 a93d a17f 393c
00000010: 597b c7bc 5228 113b 1fb6 8d3d 9c06 8ebd
00000020: b798 a23c ada6 bbbb aa8f 53bd ba0e 7a3d
00000030: 8b19 553d 9cdc 8e3d 9e77 453d da22 673c
00000040: 3a3f dd3c f8af 3dbd 7d43 6b3d 164f 4cbd
00000050: e881 163d 0ac8 84bd 03a0 90bd 2ccc 473d
00000060: e12b 2f3d 28ee 9abc 9b30 ab3c f4ac 58bd
00000070: d5b6 1f3c ec4e ac3d 09cd a63d 43f0 59bd
00000080: 4d84 a7bc 51eb b83d 8c54 4d3d f087 fe3c
00000090: 4e8a 89bd 683c ac3c 66ab 573b 80a7 67bd
000000a0: d910 603d e402 8abd 493f 413c c2c3 85bd
000000b0: 53ec 11bc 5688 7cbd 7270 5ebd d5e1 883d
000000c0: 7ff1 3dbb 6098 a43c 9489 6cbd 3cbf 61bd
000000d0: f148 83bd 39a0 b1bd 8a56 94bd 0f81 a53d
000000e0: 1115 71bd 5383 00bd 2dc0 173d 56b7 5a3d
000000f0: 6580 003d 4194 543c f693 b73d deeb 163d
00000100: cb8f 48bd 5c08 43bd c3db 41bd d648 143d
00000110: bc42 96bd bfcc bfbc 219b ce3c 2bdc 0fbc
00000120: df5e a23d f2ea b33d 1ad6 c83d 2008 523d
00000130: 4c62 7ebd 3482 a2bd 26a6 63bd 4ef0 613b
00000140: 7b57 a23d 461d f9bc 3dda 993d 1dd8 543d
00000150: 3d73 8fbd 7fc6 593c 7154 16bd 4726 9cbd
00000160: 0357 c03c 7d28 e9bc 0161 cdbd 61fc ccbd
00000170: 1b43 eb3c 94e5 773b 097a b43d 0d7a 6dbc
00000180: bd5f a43d b0bc 0a3c c716 b33d 95d3 abbc
00000190: ec4a d6bd 594c fc3a 64c5 1e3d add4 63bd
000001a0: 8b89 80bd edff 553b 22a2 6c3d 1819 a93d
000001b0: c302 86bc 343d 8cbd 88a2 543d d8e6 46bd
000001c0: 3083 25bd abee b23b 4141 24bd 5974 c83c
000001d0: 9f86 413c 1455 45bd 9c9e 173c 0af0 19bd
000001e0: ff96 72bd cf46 9a3d 2bdf 3e3b 54c0 4dbd
000001f0: f7f9 9a3d e9b4 a03d 82c3 92bd 4fad 343d
00000200: 953f 5cbd 7c6c 2fbd 7da3 853d 852c 36bd
00000210: 725a 03bd 8d40 1a3d 8fa2 89bc c6ee babb
00000220: 6ebf 3e3d 6d90 403c c212 2f3d a4ce a43d
00000230: a481 1bbd 589e bbbb fa4f a6bd a55e 4cbd
00000240: 07e9 f9bc 7b47 9f3d 8f2e 5b3d bb20 62bd
00000250: 4cf6 95bd 4ef1 7dbd e5ab 54bd 8255 50bd
00000260: dfc5 2d3d 53fa 1ebd b97c 913d 7a98 243d
00000270: 674b b6ba d0a7 35bb afff 093c 25dc 7c3d
00000280: a8bc 573d 16f1 2bbd c239 243d ede0 eb3a
00000290: 3cfe 7cbd 9ff3 97bd c620 62bd df8d b93d
000002a0: 64ac 29bd 231b 703d c70d 95bd 0e25 653d
000002b0: 9072 bfbc d9c1 30bd a769 333d 148f 403d
000002c0: 0a3b a4bd ce00 8ebc 96b8 6d3b 3f2c 8d3c
000002d0: 9685 b43d 353c a3bd f9d1 9d3d b3ca 133c
000002e0: 2d6c d1bd 556a 98bd ac85 06bc 9d5b 92bd
000002f0: ee83 453c a4be 92bd c271 fd3b bcdc 81bc
00000300: 6de5 77bd 2d1c c9bd fdc5 893c 4492 84bd
00000310: a62c dfbc fe8f 093c 567b 4bbd 0525 823c
00000320: a3ca cfbd 3e90 86bd 07fe 323d eb4b 26bd
00000330: c443 9b3d 3728 0bba 5cf4 3fbd 54a3 8d3d
00000340: effb d0bb 5ca0 6fbd 55d1 31bd d5e9 953c
00000350: c8f8 0e3d c376 943d 8470 73bd c794 3b3d
00000360: d28d 5d3d e757 debc cc34 b33b ca42 19bd
00000370: 9a8a 823c 112d b53d 4684 443d 7fec 86bd
00000380: 8b99 793c ec06 883d a427 7fbc d77c e03c
00000390: ef92 9fbd 0cf4 853c 931f 3ebd 429b 533d
000003a0: e875 023d 12b3 36bd 7f2f 58bd 71a2 8ebd
000003b0: e295 40bd 09bb acbd 65e5 783d 719c 9c3d
000003c0: 9820 a7bd d981 8e3c a56b 77bd 72c8 663d
000003d0: 105b 993d c3ae 8a3d a65e 94bd d92a b13c
000003e0: 666d aabd 4ed9 9fbd 9b3a 40bc d630 b7bc
000003f0: 4672 4f3c d57b 0c3c 7722 233d aa90 e23c
-0.07541346 -0.06812636 0.08268975 0.011321933 -0.024350809 0.0022149277 0.069195025 -0.069348544
0.01984821 -0.0057266564 -0.05165068 0.0610492 0.052026313 0.06975672 0.04820978 0.01410743
0.027007688 -0.046310395 0.05743741 -0.04988011 0.036744982 -0.06483467 -0.0706177 0.048778698
0.042766456 -0.01891239 0.0208972 -0.052899316 0.00974818 0.08413491 0.08144576 -0.053207647
-0.020448828 0.09029258 0.05012946 0.03107068 -0.06715833 0.021024898 0.0032908558 -0.056556225
0.054703567 -0.067388326 0.0117948735 -0.065314785 -0.008906442 -0.061653458 -0.054306455 0.06683699
-0.0028983054 0.02009219 -0.057748392 -0.055114016 -0.06410397 -0.08673138 -0.072430685 0.080812566
-0.05885798 -0.03137524 0.037048507 0.0533975 0.031372447 0.0129748 0.08963768 0.036846034
-0.048965257 -0.047615394 -0.04732872 0.036202274 -0.07336947 -0.02341306 0.025220456 -0.0087805195
0.079282515 0.08785047 0.09806462 0.05127728 -0.062105462 -0.079349905 -0.055578373 0.0034475508
0.07926842 -0.030409466 0.07512329 0.051963914 -0.07004402 0.013291954 -0.036701623 -0.07624488
0.02347899 -0.02846169 -0.10028268 -0.10009075 0.028718522 0.0037826048 0.08812339 -0.014494431
0.08026073 0.008467838 0.08744579 -0.020974914 -0.10463509 0.0019248828 0.038762465 -0.055622745
-0.06276234 0.0032653764 0.05777181 0.082567394 -0.016358739 -0.06847611 0.051912814 -0.048559994
-0.040408313 0.0054605803 -0.040101293 0.024469541 0.011811881 -0.04817684 0.009254124 -0.037582435
-0.059226032 0.07533037 0.0029124718 -0.050232247 0.07567208 0.07847006 -0.071661964 0.044110592
-0.053771574 -0.042828068 0.065253235 -0.04447605 -0.032068677 0.037659217 -0.016801147 -0.0057047335
0.04656928 0.011753184 0.0427425 0.08047226 -0.03796543 -0.005725663 -0.08120723 -0.049894948
-0.030506624 0.07777306 0.0535112 -0.055206995 -0.07322368 -0.061997704 -0.051921744 -0.050862797
0.042425033 -0.038812947 0.07103867 0.040184475 -0.001390797 -0.0027718432 0.008422776 0.061733384
0.05267015 -0.041977964 0.040094145 0.001799611 -0.061765894 -0.07419514 -0.055207036 0.09060263
-0.04142417 0.05861963 -0.072780184 0.05594354 -0.023370057 -0.043153618 0.04380193 0.04701145
-0.08019073 -0.017334368 0.0036273352 0.017233012 0.08814542 -0.07970468 0.07706065 0.009020495
-0.10225711 -0.07442156 -0.008210581 -0.0714638 0.01205538 -0.07165268 0.0077345083 -0.015852325
-0.06052153 -0.09819827 0.016818041 -0.064732105 -0.02724297 0.008396147 -0.04967817 0.015886793
-0.10146072 -0.06570481 0.04369929 -0.040599745 0.07581285 -0.00053084217 -0.0468639 0.06915918
-0.006377689 -0.05850254 -0.043412525 0.018299976 0.034905225 0.072492145 -0.059433475 0.045796182
0.05409033 -0.027141524 0.0054689404 -0.03741721 0.015935231 0.08846486 0.04797771 -0.06588077
0.015234361 0.06641945 -0.015573416 0.027403278 -0.07791697 0.016351722 -0.04641683 0.051661737
0.031850725 -0.04460437 -0.05277967 -0.06964577 -0.04701794 -0.084341116 0.060765643 0.07647026
-0.08160514 0.0173959 -0.060405392 0.056343503 0.07488072 0.067716144 -0.07244615 0.021626877
-0.08321647 -0.078051195 -0.011732723 -0.022362154 0.012661522 0.008574446 0.03982779 0.027656872

tcn.network.0.net.0.bias f4 [64]
00000000: 18d3 ea3a 4981 28bc d026 193e a39d 2b3e
00000010: e644 ecbd 15b3 443d 5c95 09bc 55db 22be
00000020: 15b2 27bc d910 0dbc 336e fe3d 387f f73d
00000030: 3908 083e 74b1 413d f287 ebbd a13f 2bbe
00000040: 4f3a c13d 4931 12be c50c 123c 41c0 ec3d
00000050: 917d aa3d dce9 903c 9073 453c 834f 7ebc
00000060: 8815 033b 739c 423e a253 0ebe b15a 2f3e
00000070: 136a d2bc 0951 2c3e 6a22 cabd 84e2 c63d
00000080: 0e11 03be 3f14 77be 5d80 c83d 179e 9e3d
00000090: 2b8b 3c3e 9181 cc3d 2023 cebd 3f99 1fbe
000000a0: 52ec e43d abbf bbbd a7f2 0dbe f902 22be
000000b0: eb06 07be 40f5 8dbd 4278 34be 6317 473e
000000c0: 0e19 703d 91ad bb3d 175d d3bd 2dce 2e3d
000000d0: a9c8 993d c571 7fbd e71c 103e df8a e0bc
000000e0: 8641 96bd 8d00 1abe cc4e 67be 9bd5 6f3d
000000f0: 50b6 25be 2672 18be ea61 03be 5f33 08be
0.0017915694 -0.01028473 0.14956212 0.16759352 -0.11536579 0.04802235 -0.008397426 -0.15903981
-0.010235329 -0.008609974 0.124233626 0.12084812 0.13284387 0.047288373 -0.11500539 -0.16723491
0.094349496 -0.14276613 0.008914177 0.11560107 0.08324731 0.017689638 0.012051478 -0.015521887
0.0020001847 0.19004993 -0.13899091 0.1712444 -0.025685346 0.16827787 -0.09869845 0.09711173
-0.12799475 -0.24128817 0.09790108 0.07744997 0.18412463 0.0998565 -0.10065293 -0.15585802
0.11177887 -0.09167417 -0.13862096 -0.15821446 -0.13186233 -0.06931543 -0.17624 0.19442515
0.058617644 0.091639645 -0.1032049 0.042677093 0.07508976 -0.06236436 0.14073525 -0.027409969
-0.07336716 -0.15039273 -0.22588652 0.05855332 -0.16182828 -0.14887294 -0.1283032 -0.13300847

tcn.network.0.net.0.weight_g f4 [64, 1, 1]
00000000: 7391 0c3f 2f45 053f 3857 223f 9ffe 1e3f
00000010: 5372 f43e 4a98 1c3f e7c3 0a3f 36b6 ca3e
00000020: 1b07 143f 0804 2c3f 9806 173f 2963 013f
00000030: 3564 253f 453c f83e 09e8 fa3e abb0 023f
00000040: bec9 213f a381 fd3e d5ee 153f 9b4f 063f
00000050: e405 183f 4a4f ec3e 67a6 183f 63a2 033f
00000060: e612 1e3f dda5 303f cd5a 043f 7f35 233f
00000070: cc95 1c3f 35ae 223f a46b 033f cc77 f73e
00000080: 7ba3 c63e a05f f53e 11ef e83e 8c56 2e3f
00000090: 1565 083f 77ae ea3e b2be ee3e 2ee8 213f
000000a0: 741e 0f3f bf7e 213f c9ce 053f bce2 153f
000000b0: 1335 033f 3e83 193f b8fd 0c3f fdc3 033f
000000c0: 8c8f 233f 890b 073f dbdb 0e3f 041e 1d3f
000000d0: 35e6 113f 4297 213f b3fc fb3e 7225 293f
000000e0: 80a4 213f 4bd8 1b3f fb8a 063f f381 233f
000000f0: 6efa 0f3f 3bba 113f 4790 053f 20e5 153f
0.5490944 0.5205869 0.63414335 0.6210727 0.47743472 0.61169875 0.54205173 0.3959214
0.5782334 0.6719365 0.58994436 0.5054193 0.6460603 0.48483482 0.49005154 0.51050824
0.6319846 0.49512967 0.58567554 0.5246522 0.5938399 0.46154243 0.5962891 0.5141966
0.61747587 0.6900309 0.5170105 0.63753504 0.6116607 0.6354707 0.5133612 0.48333585
0.387966 0.4792452 0.45494893 0.6810081 0.5327924 0.4583623 0.46629864 0.63244903
0.5590584 0.63084024 0.52268654 0.58549094 0.5125286 0.59965885 0.55074644 0.5147093
0.6389091 0.52751976 0.5580422 0.61373925 0.56991893 0.63121426 0.49216232 0.6607276
0.6314163 0.6087691 0.5255582 0.6387016 0.562415 0.5692479 0.52173275 0.5855274
