checkpoints/tae/sh-CEEMDAN(1024)-h[64,32,16]-k3-lr0.001-d0.3-ep200.pth (torch, 183179 bytes, 50 tensors)

autoencoder.encoder.0.weight f4 [64, 47, 3]
0	0x3d649539	0.055806372
1	0x3d984a7e	0.07436083
2	0x3c1da55a	0.009621942
3	0x3d92f113	0.071748875
4	0xbc48e735	-0.012262155
5	0x3d62d116	0.05537518
6	0xbd4a494b	-0.049386304
7	0x3d57f9ae	0.052728347
8	0x3dda4d1c	0.10659239
9	0xbd898b5b	-0.06716033
10	0x3da307a9	0.079604454
11	0x3d715746	0.05892112
12	0x3d6b8be6	0.057506464
13	0xbb2e1f51	-0.002656896
14	0x3cce23ae	0.025163498
15	0x3c5248f7	0.012834779
16	0x3dab6ec7	0.083707385
17	0x3cb771d6	0.022393148
18	0xbc9b85df	-0.018984733
19	0x3d2d80e4	0.042359248
20	0xbcb312a5	-0.021859476
21	0x3cd9d598	0.026591107
22	0x3a106bcb	0.00055092265
23	0x3db257d6	0.087081596
24	0xbdb34653	-0.08753648
25	0xbd678e99	-0.056532476
26	0xbd0c4fe6	-0.034255885
27	0xbd408499	-0.047001455
28	0x3c8698c2	0.016430262
29	0xbd9acfbb	-0.07559153
30	0x3d9eb1be	0.077487454
31	0xbd964a69	-0.07338411
32	0x3d7e9c98	0.06216106
33	0x3c5b2cf1	0.013377414
34	0xbcd0397c	-0.025418036
35	0x3d566f1d	0.05235206
36	0x3c24b545	0.010052984
37	0x3da02f1b	0.07821485
38	0x3c3a7ec9	0.011382767
39	0xbc5d5ee5	-0.013511394
40	0x3d20569d	0.0391451
41	0xbc1d546d	-0.009602648
42	0x3cca8a4b	0.024724146
43	0x3d8f49fa	0.06996532
44	0x3d2ff59f	0.042958852
45	0xbd9ea618	-0.077465236
46	0x3c0ee8db	0.008722509
47	0xbca61058	-0.020271465
48	0x3cd33217	0.02578072
49	0xbd845b70	-0.06462753
50	0xbdcd9c6b	-0.100396
51	0xbd570337	-0.0524933
52	0xbdaa8021	-0.0832522
53	0x3d22908f	0.039688643
54	0x3d60f8f7	0.05492493
55	0x3d948d5a	0.07253523
56	0x3d8ed9eb	0.06975158
57	0x3d3e7b9f	0.046504613
58	0x3dd45fd7	0.103698425
59	0xbcd2e30a	-0.025743026
60	0x3d44377d	0.04790448
61	0xbcc62ba5	-0.024190733
62	0x3d7eddfe	0.062223427
63	0x3ce90a4b	0.02844729
64	0x3d8e27cf	0.06941187
65	0x3c01b07d	0.007915613
66	0x3d9d474b	0.07679614
67	0xbd0d73e0	-0.034534335
68	0xbd03523e	-0.032060854
69	0xbcc39871	-0.0238764
70	0x3dd9c371	0.106329806
71	0x3d7cd1f4	0.061723664
72	0x3da288fb	0.07936283
73	0xbd910d40	-0.07082605
74	0xbdb1c8a1	-0.08680845
75	0xbd5c34b3	-0.053761195
76	0xbd1e59e0	-0.03865993
77	0x3d5bf96a	0.053704657
78	0x3d5822fc	0.05276774
79	0x3dbd343e	0.0923848
80	0xbc9d306d	-0.01918813
81	0xbd59028c	-0.052980945
82	0x3d473319	0.048632715
83	0xbce19172	-0.027535174
84	0x3d852cad	0.06502662
85	0xbbf17f21	-0.0073698913
86	0x3d839a74	0.06425944
87	0xbe164872	-0.14676073
88	0xbe12c4a6	-0.14332828
89	0xbdc9bc3c	-0.09850356
90	0x3d8640b4	0.0655531
91	0x3b8ca581	0.0042921905
92	0x3d36ec46	0.04465892
93	0x3cf901e1	0.030396404
94	0xbdc16a0e	-0.094440565
95	0xbd03310e	-0.032029204
96	0x3df53f76	0.11974995
97	0x39207a5b	0.0001530437
98	0xbc0fa5f9	-0.008767598
99	0xbc8dc7c4	-0.01730717
100	0x3d5f88a3	0.054573666
101	0x3c97b0d8	0.018516943
102	0xbc503173	-0.012707102
103	0xbd919350	-0.07108176
104	0xbca8c7ca	-0.02060308
105	0xbd9539d3	-0.0728642
106	0xbdb15bea	-0.08660109
107	0xbd91b4f4	-0.07114592
108	0xbc821e86	-0.015883695
109	0xbb2d6899	-0.002646005
110	0x3dccd96f	0.1000241
111	0x3cf7628a	0.030198354
112	0x3d2d068b	0.042242568
113	0xbd7f824b	-0.062380116
114	0x3c84bf58	0.016204521
115	0xbf009a6f	-0.50235647
116	0x3f2a7561	0.66585356
117	0xbef9b760	-0.48772717
118	0xbe17fb8f	-0.14842056
119	0x3e8a1ed5	0.26976648
120	0xbe72e884	-0.2372151
121	0xbd859fcc	-0.065246195
122	0x3e263de7	0.16234551
123	0xbcce9328	-0.025216654
124	0x3d62d294	0.055376604
125	0x3e0b6580	0.13612938
126	0xbca94f97	-0.020667834
127	0xbd461191	-0.048356596
128	0x3dc92662	0.09821774
129	0x3d384e40	0.0449965
130	0x3e08ff66	0.13378677
131	0x3db286a2	0.087170854
132	0xbd47ef29	-0.048812065
133	0x3da5aa44	0.08089116
134	0xb9e6b63a	-0.00044004788
135	0xbd78db4e	-0.06075602
136	0xbdc962da	-0.098333076
137	0xbde5922a	-0.11209519
138	0xbc927bff	-0.017881392
139	0xbd774df7	-0.060377087
140	0xbc16c4e9	-0.0092022205
141	0xbdb20ec0	-0.086942196
142	0x3d346138	0.044038028
143	0xbdbd212b	-0.09234842
144	0xbd21cc8f	-0.039501723
145	0xbc6c45d7	-0.014420948
146	0xbc6d9ed6	-0.0145032015
147	0x3d4d2adf	0.050089713
148	0x3d695a8b	0.056971114
149	0xbde01e02	-0.109432235
150	0xbb9f92a1	-0.0048697744
151	0xbd8900e9	-0.06689627
152	0xbd9d1ea2	-0.07671858
153	0xbd1e7ad8	-0.03869137
154	0x3dc073e1	0.09397102
155	0xbd327264	-0.043566123
156	0x3d9a85e1	0.075450666
157	0x3d727681	0.059195045
158	0x3d6c0190	0.057618678
159	0xbd268383	-0.040652763
160	0x3daae157	0.083437614
161	0x3cfeab51	0.03108755
162	0x3cb3bf51	0.021941813
163	0xbd85386c	-0.06504902
164	0x3d46681d	0.048439134
165	0x3c30510d	0.0107615115
166	0xbc6e4827	-0.01454357
167	0x3dace5e3	0.08442285
168	0x3c521f2a	0.012824813
169	0xbd695790	-0.05696827
170	0xbd564123	-0.052308213
171	0xbbb8ed62	-0.0056435326
172	0x3d42365d	0.047415126
173	0xbc8da72b	-0.017291626
174	0xbd330d2e	-0.04371374
175	0xbcedb871	-0.029018613
176	0xbd8476ce	-0.06467973
177	0x3d61dd53	0.05514271
178	0x3d74f5a4	0.059804574
179	0xbda0545a	-0.07828589
180	0x3cd45fda	0.025924612
181	0x3d2a151e	0.041524045
182	0x3c24ed3a	0.010066325
183	0xbc2cebd4	-0.010554273
184	0x3d80a14b	0.06280764
185	0x3d87e1ab	0.066348396
186	0x3d26485b	0.040596347
187	0xbb78f48a	-0.0037987554
188	0xbc67e863	-0.014154526
189	0x3cd06145	0.025437007
190	0xbc3c360b	-0.011487494
191	0xbcd00483	-0.025392776
192	0x3d6221fc	0.05520819
193	0x3d824164	0.063601285
194	0xbbe0c85b	-0.0068598217
195	0xbbf9ade6	-0.0076196073
196	0x3c803551	0.015650423
197	0xbb63f6a0	-0.003478445
198	0x3d2682ed	0.040652204
199	0x3d362dde	0.044477336
200	0xbd82dc5f	-0.06389689
201	0xbc8b7cf0	-0.017027348
202	0x3db5dc19	0.08879871
203	0x3d215c1d	0.039394487
204	0xbcf2e196	-0.029648583
205	0xbd6d24f7	-0.05789658
206	0xbd09cbcc	-0.03364162
207	0xbd4523a6	-0.0481297
208	0xbc1463e1	-0.009057016
209	0x3d0657e1	0.03279865
210	0x3d91b9fe	0.07115553
211	0x3d60973f	0.05483174
212	0xbd6f7de8	-0.058469683
213	0xbd78dd88	-0.060758144
214	0xbcc720eb	-0.024307689
215	0x3d9829d0	0.0742985
216	0x3c9c8fdb	0.019111564
217	0xbc88f82f	-0.016719906
218	0x3d28bb1b	0.041194063
219	0xbcecb1aa	-0.02889331
220	0xbd5e1c11	-0.054225985
221	0x3d5f1436	0.054462634
222	0xbc4e33cb	-0.012585591
223	0x3c2c9ec7	0.010535902
224	0xbd7515e0	-0.059835315
225	0x3d729dc3	0.059232485
226	0x3d9e340e	0.077247724
227	0x3d3192c7	0.04335287
228	0xbd2afc19	-0.041744325
229	0xbd222bad	-0.039592434
230	0xbd913140	-0.07089472
231	0x3d9c4df2	0.076320544
232	0x3cd27d96	0.02569465
233	0x3d0c5819	0.034263704
234	0x3ca3ec82	0.020010237
235	0xbc44c961	-0.012010903
236	0xbc56fe86	-0.013122207
237	0xbd6d08d1	-0.057869736
238	0xbd94b24b	-0.07260569
239	0xbd640469	-0.05566827
240	0x3d4cb966	0.049981497
241	0xbcf376b1	-0.029719682
242	0xbc23747b	-0.009976502
243	0xbd057243	-0.03257967
244	0x395fef06	0.0002135598
245	0xbd8e2907	-0.06941419
246	0xbd764483	-0.06012393
247	0x3d03fb54	0.032222107
248	0xbc74ec10	-0.01494886
249	0x3dc98c78	0.098412454
250	0x3ca532a8	0.020165756
251	0x3b8ecf9a	0.004358244
252	0xbbc34ecc	-0.005960321
253	0xbcb03df8	-0.021513924
254	0xbbf1bb04	-0.0073770303
255	0xbe637ed3	-0.22216348

autoencoder.encoder.0.bias f4 [64]
0	0x3c974656	0.018466156
1	0x3d93a4a5	0.07209138
2	0xbd9a24c3	-0.07526543
3	0x3d5a90d5	0.05336078
4	0x3dd8acf4	0.10579863
5	0x3c029756	0.007970652
6	0x3d28d3a8	0.041217476
7	0xbd485bce	-0.048915677
8	0xbcd66a5a	-0.02617376
9	0x3d91cbae	0.07118927
10	0xbd83ca55	-0.06435076
11	0x3a7542ee	0.00093559816
12	0xbd9f9e30	-0.07793844
13	0xbc33b70b	-0.010968934
14	0x3cfab2ce	0.030602839
15	0x3d5bcac5	0.053660173
16	0x3cfc3d32	0.030790899
17	0x3ca6af7f	0.020347355
18	0x3d528a0e	0.05140119
19	0x3c896625	0.01677234
20	0xbd8f9e68	-0.070126355
21	0x3d6739f2	0.056451745
22	0x3d728fe5	0.05921926
23	0xbd22daee	-0.03975957
24	0x3c93411c	0.017975383
25	0x3d902ad3	0.07039418
26	0x3da22495	0.07917134
27	0x3cab9b98	0.020948216
28	0x3dc32a78	0.09529585
29	0x3ca49f5b	0.020095518
30	0x3d189652	0.03725273
31	0xba636be3	-0.0008675439
32	0x3a18045f	0.0005798991
33	0x3d89151f	0.06693482
34	0xbd4e8cdb	-0.0504273
35	0xbd984158	-0.07434338
36	0x3d7db6bf	0.06194186
37	0xbc8238b1	-0.015896173
38	0x3d6cb0f8	0.057785958
39	0x3cde9cd1	0.027174385
40	0xbd664784	-0.056220546
41	0x3c9ddbfe	0.01926994
42	0x39a39bae	0.00031205773
43	0x3ca806cc	0.020511054
44	0xbd0bc884	-0.034126773
45	0xbd9036d8	-0.070417106
46	0x3d1a3b72	0.037654348
47	0x3dd67987	0.10472398
48	0xbd2a525b	-0.041582447
49	0xbd9cf6a5	-0.07664231
50	0x3c505aa7	0.012716926
51	0x3d860681	0.06544209
52	0x3dcca279	0.09991927
53	0xbc85aa1b	-0.016316464
54	0x3d1eb6c5	0.03874852
55	0xbda62fe9	-0.08114607
56	0x3d660083	0.05615283
57	0x3d94604e	0.07244931
58	0x3b058676	0.0020374334
59	0xbda944cd	-0.08265076
60	0x3ceeb887	0.029140724
61	0xbc24331b	-0.01002195
62	0x3dc61394	0.09671703
63	0x3d37fb51	0.04491741

autoencoder.encoder.2.weight f4 [8, 64, 3]
0	0xbd1f83a9	-0.03894392
1	0xbd8f20d6	-0.06988685
2	0x3b4cd895	0.0031257023
3	0x3d727aa4	0.05919899
4	0x3c56ddb8	0.013114385
5	0xbcb843a5	-0.022493193
6	0xbd1461e8	-0.036226183
7	0xbd9f70fd	-0.07785223
8	0xbd71ea35	-0.059061248
9	0xbd99910e	-0.0749837
10	0xbced5a71	-0.02897379
11	0xbdda56be	-0.10661076
12	0x3d8708a1	0.06593443
13	0xbd1999e5	-0.03750028
14	0xbd500166	-0.050782584
15	0xbd4e46bd	-0.05036043
16	0xbd08ffae	-0.03344696
17	0x3b73ef53	0.0037221506
18	0x3d981622	0.074260965
19	0x3d9939a0	0.07481694
20	0xbd9e216a	-0.07721217
21	0x3cd2a8cf	0.02571526
22	0x3c81b107	0.015831484
23	0x3d604441	0.054752592
24	0x3db09bd5	0.086234726
25	0x3db61268	0.088902295
26	0x3dafcf9d	0.08584521
27	0x3d8eabf4	0.06966391
28	0x3c799fd3	0.015235859
29	0x3d8c064b	0.06837138
30	0xbd0449fb	-0.032297116
31	0x3aab2391	0.0013056864
32	0xbc03d169	-0.008045533
33	0xbd0e1ea1	-0.03469718
34	0xbc69d24b	-0.014271329
35	0xbde338e4	-0.110948354
36	0xbd6fc281	-0.058535103
37	0xbcf361f9	-0.029709803
38	0xbc5c1bd2	-0.013434367
39	0x3d3757d3	0.04476149
40	0xbd75602a	-0.059906162
41	0xbbcd6c86	-0.0062690405
42	0x3d087fb9	0.03332493
43	0xbd0e0f94	-0.034682825
44	0x3c7f4379	0.015580052
45	0xbd0590f4	-0.03260894
46	0x3c624e41	0.0138126025
47	0xbdcb2fbe	-0.099212155
48	0xbc43dc9f	-0.011954456
49	0xbc90384c	-0.01760497
50	0x3da84d3a	0.08217855
51	0x3b62eb29	0.003462503
52	0xbd9a3759	-0.07530088
53	0x3d38ae96	0.045088373
54	0x3d790232	0.06079311
55	0xbd7429c0	-0.05961013
56	0xbe16d6b3	-0.14730339
57	0xbd1c119a	-0.038102724
58	0xbdc8a318	-0.09796733
59	0xbdbe2891	-0.09285081
60	0x3b6b19ba	0.0035873489
61	0xbd7af324	-0.061267033
62	0xbd8d62d8	-0.069036186
63	0xbdb27f27	-0.08715659
64	0xbd8f37dd	-0.06993077
65	0x3d467ff3	0.048461866
66	0x3ce6ddb1	0.028181883
67	0x3d4e9933	0.05043907
68	0x3dab5479	0.08365721
69	0x3d5c3051	0.053757016
70	0xbcbd7094	-0.02312497
71	0xbc4134e6	-0.011792397
72	0xbcc17097	-0.023613257
73	0x3d684dde	0.056714885
74	0x3d292fe9	0.041305456
75	0x3d0ef2a4	0.03489937
76	0xbd2e473c	-0.042548403
77	0x3d975086	0.073884055
78	0xbd81c4df	-0.06336378
79	0x3d3561f3	0.044282865
80	0xbd53b577	-0.05168673
81	0x3d70e269	0.05880967
82	0xbd1cfea8	-0.038328797
83	0xbd487ca7	-0.048947003
84	0x3d258d61	0.040418033
85	0x3d93a47b	0.072091065
86	0x3bce36ef	0.0062931697
87	0x3d2da31f	0.042391893
88	0x3d9abf29	0.07555992
89	0xbd6a7008	-0.057235748
90	0x3d49363e	0.049123995
91	0x3d0249fa	0.03180883
92	0xbd127a64	-0.035761252
93	0x3d4bcdda	0.049756862
94	0x3d95bb19	0.07311077
95	0x3d8f25f4	0.06989661
96	0xbd2d7b2c	-0.042353794
97	0x3da0f38b	0.07858952
98	0x3db01cc7	0.08599239
99	0x3ca058ab	0.01957353
100	0xbc5b80e6	-0.013397431
101	0x3d874914	0.066057354
102	0xbd8a4745	-0.06751875
103	0xbd48abd7	-0.048992004
104	0x3d2ee0ee	0.04269498
105	0x3d3f9fae	0.04678314
106	0xbbdceb6f	-0.006741933
107	0x3d8da244	0.06915715
108	0x3d2fb7df	0.042899963
109	0x3d3de933	0.046364974
110	0x3d9a476c	0.07533154
111	0x3d8b7aa3	0.068105005
112	0x3d44e91f	0.048073884
113	0x3d7cdd36	0.0617344
114	0x3c329cd8	0.010901652
115	0x3d84b9f8	0.06480783
116	0x3d62a1e7	0.055330183
117	0xbd0233eb	-0.031787794
118	0x3c251b5d	0.010077325
119	0xbd9f2ead	-0.077725746
120	0xbd8dcec2	-0.069242015
121	0x3c25d0cf	0.010120585
122	0xbce76165	-0.028244684
123	0x3d8d4662	0.0689819
124	0x3cf6d1f0	0.030129403
125	0x3d423183	0.0474105
126	0x3d3e170b	0.046408694
127	0xbc500fc7	-0.012699074
128	0x3d64083f	0.055671927
129	0xbd22df48	-0.03976372
130	0xbc47b4ec	-0.012189131
131	0xbce7e50a	-0.028307457
132	0x3d7a987f	0.061180588
133	0x3d3d0f86	0.046157382
134	0x3dbdfa11	0.09276212
135	0xbc315897	-0.010824344
136	0x3c9d8f91	0.019233497
137	0x3c72096e	0.014772756
138	0x3d5d9d1a	0.0541049
139	0x3d7a50ef	0.06111234
140	0x3c9e8c47	0.019353999
141	0xbd99193c	-0.07475516
142	0xbdb54163	-0.08850362
143	0xbd523cdd	-0.051327575
144	0xbd5ddd4e	-0.05416613
145	0xbd7f5cbf	-0.06234431
146	0xbe03f2cb	-0.12885587
147	0x3d012057	0.031524982
148	0xbcc02ec7	-0.023459805
149	0xbdba20d3	-0.09088292
150	0x3d546aec	0.05185978
151	0xbd6613fa	-0.056171395
152	0x3c69309a	0.014232779
153	0x3d8f94ec	0.070108265
154	0x3d348de8	0.044080645
155	0xbd3985ea	-0.045293726
156	0xbd2df28d	-0.042467643
157	0xbda6c0b0	-0.08142221
158	0xbd69ea75	-0.05710836
159	0x3d150e38	0.036390513
160	0x3d1481b6	0.036256514
161	0xbbf75ee8	-0.0075491555
162	0x3c750493	0.014954704
163	0xbda2b45f	-0.07944559
164	0x3d885846	0.06657462
165	0x3e1cd11a	0.15314141
166	0x3b3dda16	0.00289691
167	0xbd72ff42	-0.059325464
168	0xbd0b6556	-0.03403219
169	0xbd230ff3	-0.039810132
170	0x3d4aaeda	0.049483158
171	0xbc328b63	-0.01089749
172	0x3d2b10a9	0.041763935
173	0xbc26563e	-0.010152398
174	0x3d8770cd	0.06613312
175	0xbcb9e466	-0.022691917
176	0xbc757458	-0.014981352
177	0xbcc869ce	-0.024464514
178	0xbc617dd5	-0.013762911
179	0xbd9aca1b	-0.0755808
180	0xbd74cf18	-0.059767812
181	0xbda58db4	-0.08083668
182	0x3d284579	0.04108188
183	0x3c952115	0.018204251
184	0xbd0e1798	-0.03469047
185	0x3d6c4fa2	0.05769313
186	0xbd2d5f24	-0.04232706
187	0xbd7edf92	-0.062224932
188	0x3cf2235b	0.029557874
189	0xbc218187	-0.009857542
190	0x3ce992a5	0.028512308
191	0xbe02c9b3	-0.12772255
192	0xbd93aa06	-0.07210164
193	0xbd9d5d36	-0.07683794
194	0xbd2c4da0	-0.042066216
195	0xbc824284	-0.015900858
196	0x3bf3a61f	0.0074355747
197	0xbccf613f	-0.025314925
198	0x3c85de99	0.016341494
199	0x3cef51f6	0.029213887
200	0x3d3e09fa	0.046396233
201	0xbd51ec07	-0.051250484
202	0x3d92258b	0.07136067
203	0x3dca47c3	0.09876969
204	0xbd1262c7	-0.035738733
205	0xbd0f2d6a	-0.03495542
206	0x3a3024e7	0.0006719366
207	0x3d74ccba	0.059765555
208	0x3bf4eb85	0.007474365
209	0xbc446400	-0.0119867325
210	0xbdc67eee	-0.09692179
211	0xb8a92644	-8.0656755e-05
212	0x3dbbee57	0.09176319
213	0xbdbbe27a	-0.09174056
214	0xbcd689f4	-0.026188828
215	0xbd89f8f7	-0.067369394
216	0x3d76bd55	0.060239155
217	0x3d47298b	0.048623603
218	0xbce7e60f	-0.028307943
219	0xbd50f358	-0.05101332
220	0xbdc221f3	-0.094791315
221	0x3c9875ac	0.018610798
222	0xbd35b656	-0.044363342
223	0xbd37fc7f	-0.044918533
224	0xbd437856	-0.047722183
225	0xbd10059c	-0.0351616
226	0x3ccc2fa2	0.024925057
227	0x3da58d94	0.080836445
228	0xbc4cedb7	-0.0125078475
229	0x3d3fdee3	0.04684342
230	0xbc0be336	-0.008538058
231	0x3d63a7e3	0.05558003
232	0x3d4fa245	0.05069186
233	0x3d8563c1	0.06513167
234	0x3d1b6060	0.037933707
235	0xbd052eda	-0.032515384
236	0x3daf4389	0.08557803
237	0xbd35183b	-0.04421256
238	0xbc7ecd78	-0.015551917
239	0x3d703eff	0.058653828
240	0xbd6025fc	-0.054723725
241	0x3c5edc4b	0.013602327
242	0xbae73854	-0.0017640688
243	0xbdb53aaf	-0.08849084
244	0x3bf4c3b7	0.00746962
245	0xbe3114a3	-0.17293029
246	0x3d63229a	0.05545292
247	0xbd060288	-0.032717258
248	0x3e105c2c	0.14097661
249	0x3c76cdb5	0.015063693
250	0xbc5e89e5	-0.013582681
251	0xbcf48800	-0.029850006
252	0x3c6063be	0.013695655
253	0xbd029c1f	-0.03188717
254	0xbdc24404	-0.09485629
255	0x3d6e573d	0.058188666

autoencoder.encoder.2.bias f4 [8]
0	0xbcc630dd	-0.024193222
1	0x3a9f37f1	0.0012147409
2	0xbc6f5e0f	-0.014609828
3	0xbbf96681	-0.0076110964
4	0xbc968cf6	-0.018377762
5	0x3da5905e	0.080841765
6	0x3d6ccbb7	0.057811465
7	0xbd4bd47e	-0.049763195

autoencoder.decoder.0.weight f4 [8, 64, 3]
0	0xbcb664d2	-0.022264872
1	0x3d85df9e	0.06536792
2	0xbb883600	-0.004156828
3	0xbd0fec26	-0.035137318
4	0x3c0efbb0	0.008726999
5	0x3d69e404	0.05710222
6	0xbc167830	-0.009183928
7	0xbd8b77b6	-0.068099424
8	0xbcc59ece	-0.024123576
9	0x3d131e38	0.03591749
10	0xbc2eb528	-0.010663308
11	0x3d50db6a	0.0509905
12	0x3ccb5394	0.024820127
13	0x3a25ea80	0.0006329194
14	0x3ce1d464	0.027567096
15	0xbc1f9aa4	-0.009741459
16	0xbd7d6836	-0.06186696
17	0xbd7d5562	-0.061849006
18	0xbd6884a2	-0.056767114
19	0xbc3c5424	-0.01149467
20	0xbd55bcdb	-0.05218206
21	0x3c2d4860	0.010576338
22	0x3c079410	0.008275047
23	0x3d60eb5c	0.054911956
24	0x3b84f870	0.0040579364
25	0x3c498750	0.012300327
26	0x3cd239cc	0.025662325
27	0xbca724f2	-0.02040336
28	0xbd134b6a	-0.035960592
29	0xbd8b08b1	-0.06788767
30	0xbd8ff376	-0.07028858
31	0x3b9b7ff0	0.004745476
32	0xbd0bc981	-0.034127716
33	0x3ca3aae8	0.019978955
34	0x3c92eebc	0.017936103
35	0x3d668cb4	0.05628653
36	0xbc105918	-0.008810304
37	0xb9a00100	-0.00030518323
38	0x3d4c0508	0.049809486
39	0x3c488340	0.012238324
40	0x3d074b1e	0.03303062
41	0xbd1f9fce	-0.03897076
42	0xbd55a852	-0.052162476
43	0x3d615d50	0.05502063
44	0x3d52b7c4	0.051444784
45	0xbcdfda7c	-0.027325861
46	0x3c446b28	0.011988439
47	0xbd83724d	-0.064182855
48	0x3ba58050	0.0050506964
49	0xbd89395f	-0.06700396
50	0x3d271400	0.040790558
51	0xbd927e67	-0.071530156
52	0xbc8e9d36	-0.017408948
53	0x3d89e608	0.06733328
54	0xbcc84a84	-0.024449594
55	0xbd2b5864	-0.041832343
56	0x3d855522	0.065103784
57	0xbd1585cd	-0.036504555
58	0x3c82646c	0.015917026
59	0x3d2534b6	0.040333472
60	0x3c9ed838	0.01939021
61	0xbd4c3a4c	-0.049860284
62	0x3d86246c	0.06549916
63	0x3d0dbfa0	0.034606576
64	0xbd39e2f6	-0.045382462
65	0xbd28b5de	-0.041189067
66	0xbc885b1e	-0.01664501
67	0x3cc53d10	0.024076968
68	0x3cdf8b40	0.02728808
69	0x3c183fe8	0.00929258
70	0x3d41dc38	0.047329158
71	0x3d9308b8	0.07179397
72	0x3c7342e0	0.014847487
73	0x3ce79220	0.02826792
74	0x3d281ba2	0.041041978
75	0x3c6a6560	0.014306396
76	0x3b91cdb0	0.0044495687
77	0x3d84e3f6	0.064887926
78	0x3d4c1396	0.049823366
79	0x3d411100	0.047135353
80	0xbce60b3e	-0.028081533
81	0xbd0d5434	-0.03450413
82	0xbd2049ae	-0.039132766
83	0xbd778ae7	-0.060435202
84	0xbbf04450	-0.0073323622
85	0x3d268d94	0.040662363
86	0x3c2d3bd0	0.010573342
87	0xbcd121a2	-0.025528733
88	0xbc239388	-0.009983905
89	0xbd62871e	-0.05530464
90	0xbd3de0c7	-0.046356943
91	0x3bd9b750	0.006644167
92	0xbd2bc03c	-0.041931376
93	0x3c11bae8	0.00889466
94	0x3d73c960	0.059518218
95	0x3c976598	0.01848106
96	0x3d624a54	0.055246666
97	0xbd3b47f4	-0.045722917
98	0x3af603c0	0.0018769428
99	0xbd9130dd	-0.07089398
100	0x3a031580	0.0005000457
101	0xbd59c30e	-0.053164534
102	0x3d8ab7bc	0.06773326
103	0xbd7cb4fd	-0.06169604
104	0x3cca18c4	0.024670012
105	0xbd30d30e	-0.043170027
106	0x3ca3a64c	0.019976757
107	0xb9c55b00	-0.00037642568
108	0xbc173c88	-0.00923074
109	0xbce5739e	-0.028009232
110	0x3d3e117a	0.046403386
111	0xbc556f50	-0.013027027
112	0x3bc990e0	0.0061513036
113	0xbcb22a86	-0.021748792
114	0xbd576a10	-0.052591383
115	0xbcf6642e	-0.030077066
116	0x3d8484a0	0.06470609
117	0x3d8caff4	0.06869498
118	0xbd09565c	-0.033529624
119	0x3bebad40	0.007192284
120	0x3c3fed40	0.01171428
121	0x3d82630c	0.06366548
122	0x3c2501e8	0.010071255
123	0x3b5c2d00	0.0033596158
124	0xbcabf912	-0.02099279
125	0x3c795d28	0.015219964
126	0xbd932a20	-0.07185769
127	0xbd9376d3	-0.07200398
128	0xbc090f50	-0.008365467
129	0xbd4d0718	-0.050055593
130	0xbd4d4c32	-0.050121494
131	0xbc48b33c	-0.012249764
132	0x3d240154	0.04004033
133	0x3d124ca8	0.035717636
134	0xbccd6804	-0.025074013
135	0xbba71dc0	-0.005099982
136	0x3d8935b0	0.06699693
137	0x3c7fc7d0	0.015611604
138	0x3d49057e	0.049077503
139	0xbcf4e178	-0.029892668
140	0xbd8443c9	-0.064582415
141	0xbd090dbb	-0.03346036
142	0x3bcfd2a0	0.006342247
143	0xbc8f3090	-0.017479211
144	0xbd216792	-0.039405413
145	0x3d8e219a	0.06940003
146	0xbd886cff	-0.06661414
147	0x3af02bc0	0.0018323585
148	0x3ceb9b50	0.028760582
149	0xbc9f7fa8	-0.01947005
150	0x3d0034e2	0.031300433
151	0x39865000	0.00025618076
152	0xbd2fb748	-0.0428994
153	0xbd20bc44	-0.039242044
154	0xbd04fa67	-0.032465365
155	0xbd904fa4	-0.0704644
156	0x3d383cde	0.044979922
157	0x3d877b50	0.06615317
158	0xbd17d984	-0.037072673
159	0x3b69c640	0.0035671145
160	0x3cc58de0	0.024115503
161	0x3ca76528	0.020433977
162	0xbd24130d	-0.04005723
163	0xbd33a16d	-0.04385512
164	0x3d8fe0a0	0.07025266
165	0x3d2c22e8	0.042025477
166	0x3d8a2ac2	0.06746437
167	0x3d4f82a6	0.050661705
168	0xbbaff3f0	-0.005369656
169	0x3d501b0e	0.05080705
170	0xbb17b320	-0.0023147538
171	0xb9eac200	-0.000447765
172	0xbd001492	-0.031269617
173	0x3d66872c	0.056281254
174	0xbc7b61a0	-0.0153431
175	0x3c2bac60	0.010478109
176	0xbd6bb6ac	-0.057547256
177	0x3ccace2c	0.024756514
178	0xbd0c8c71	-0.034313623
179	0xbc858024	-0.016296454
180	0xbbd377a0	-0.0064534694
181	0x3cdb2c08	0.026754394
182	0x3b4110a0	0.0029459372
183	0x3c4e0710	0.012574926
184	0xbd3fff76	-0.046874486
185	0xbd5f5b08	-0.054530174
186	0x3cd4ea18	0.02599053
187	0xbcf3726a	-0.029717643
188	0xbd7edbda	-0.062221386
189	0xbcf3fdd4	-0.02978412
190	0xbd91000f	-0.07080089
191	0x3c6c4048	0.014419623
192	0x3bafa0d0	0.0053597465
193	0x3d887ca4	0.06664398
194	0xbd230163	-0.039796244
195	0xbd18e0ef	-0.03732389
196	0x3c8d2ab8	0.017232284
197	0xbc9b58ca	-0.018963236
198	0x3d665da8	0.05624166
199	0x3c33e000	0.010978699
200	0xbacd8980	-0.0015681237
201	0xbce2d12a	-0.027687628
202	0x3d329b2e	0.043605022
203	0xbd0a5f0e	-0.033782057
204	0x3cedbbd8	0.029020235
205	0x3d3de5d6	0.046361767
206	0xbd67dfa7	-0.056609776
207	0xbd82f518	-0.06394404
208	0xbd26b422	-0.04069913
209	0x3d0dd716	0.03462895
210	0xbd230d83	-0.039807808
211	0x3bdf8aa0	0.0068219453
212	0x3c328770	0.010896549
213	0x3c783d28	0.0151513
214	0xbd16bcc9	-0.036801133
215	0x3b256020	0.0025234297
216	0x3d4cd5ec	0.0500087
217	0x3d193b08	0.037409812
218	0x3c61e220	0.013786823
219	0xbd6b1606	-0.05739405
220	0x3d0b12d2	0.033953495
221	0xbceb69d8	-0.028736994
222	0x3d4ee0f2	0.050507493
223	0x3cf58a8c	0.02997329
224	0xbc5909fc	-0.013247009
225	0x3ce48b18	0.027898356
226	0xbcf5d86a	-0.03001042
227	0x3c4c1760	0.012456745
228	0xbb6bfea0	-0.0036009923
229	0x3a961ac0	0.0011452064
230	0x3cd02b90	0.025411397
231	0x3d8ff0b0	0.07028329
232	0xbd027a1d	-0.031854738
233	0x3d9054d6	0.07047431
234	0xbc58fbd8	-0.013243638
235	0x3d8c9354	0.06864038
236	0x3c850a90	0.016240388
237	0x3bc0d8f0	0.005885236
238	0xbcc5b86c	-0.02413579
239	0xbd1bc522	-0.038029797
240	0xbd9159a9	-0.070971794
241	0xbd215ace	-0.03939324
242	0xbbd3bb30	-0.0064615235
243	0x3d78af64	0.06071414
244	0x3d1ff6fe	0.03905391
245	0x3c4e28f0	0.012583002
246	0xbd8f0b60	-0.069845915
247	0x3d50416c	0.05084364
248	0x3d4b83f4	0.049686387
249	0xbd04e25a	-0.03244243
250	0x3cef73a0	0.029229939
251	0xbd764b40	-0.060130358
252	0xbd15743c	-0.036487803
253	0xbcb269cc	-0.021778964
254	0xbd860422	-0.06543757
255	0xbb9077c0	-0.0044088066

autoencoder.decoder.0.bias f4 [64]
0	0xbccbe45c	-0.024889164
1	0xbca090f0	-0.019600362
2	0xbd389bf4	-0.045070603
3	0x3ca8f78c	0.020625852
4	0xbc149c60	-0.009070486
5	0xbd55a1dd	-0.052156318
6	0x3d09bc86	0.033627056
7	0x3c885f5c	0.016647033
8	0x3c3cbbf8	0.011519425
9	0x3d919276	0.07108013
10	0xbc4a8880	-0.012361646
11	0x3d3a71e2	0.045518763
12	0xbd15ab41	-0.036540274
13	0xbd108e40	-0.03529191
14	0x3c8f9c98	0.017530724
15	0xbd1a4b13	-0.037669253
16	0x3cfef854	0.031124271
17	0xbd8b4b38	-0.06801456
18	0xbcd8bdac	-0.02645763
19	0x3d936372	0.07196702
20	0xbb6f7d40	-0.003654316
21	0x3d209aaa	0.03921
22	0x3d85437c	0.06507012
23	0xbca8f3f2	-0.020624135
24	0xbc89cf50	-0.016822487
25	0xbc29b52c	-0.010358136
26	0xbd134270	-0.03595203
27	0xbb0e89c0	-0.0021749586
28	0x3d0cde92	0.034391947
29	0x3d7f226c	0.062288687
30	0x3d4c7f22	0.04992593
31	0x3d918f14	0.07107368
32	0xbd1549df	-0.036447402
33	0xbd4bc714	-0.049750403
34	0xbd91bbd4	-0.071159035
35	0x3d2e0dda	0.04249368
36	0x3d030e9c	0.031996354
37	0xbc8d8038	-0.017273054
38	0x3d7465fc	0.059667572
39	0xbd54c2f8	-0.05194375
40	0xbc3f4dfc	-0.011676308
41	0xbaf76e80	-0.0018877536
42	0x3cedbe40	0.029021382
43	0x3d768648	0.060186654
44	0xbd2812ad	-0.041033436
45	0x3d936e20	0.07198739
46	0x3d8cc75a	0.06873961
47	0x3c9d4970	0.019200057
48	0xbd428cb2	-0.04749746
49	0x3cc2edf4	0.023795106
50	0x3c766640	0.015039027
51	0xbcd65d2e	-0.026167478
52	0x3d8e4a22	0.069477335
53	0xbd6d70ef	-0.05796903
54	0xbcd2026c	-0.02563592
55	0xbcddc2f6	-0.027070504
56	0xbca41772	-0.02003071
57	0x3d5b1728	0.05348888
58	0xbb6b5e80	-0.003591448
59	0x3c248628	0.010041751
60	0xbd83d178	-0.06436437
61	0xbd47f13e	-0.04881405
62	0x3d39aea0	0.04533255
63	0xbcb4b378	-0.022058234

autoencoder.decoder.2.weight f4 [64, 1, 3]
0	0x3e537d80	0.20653343
1	0xbee3d432	-0.4449783
2	0xbea7da75	-0.32783857
3	0x3e8e3cf8	0.2778089
4	0x3ed02ac2	0.40657622
5	0x3d12fc90	0.035885394
6	0xbf05d6f4	-0.5228112
7	0xbeb9f9d8	-0.36323428
8	0xbe571a30	-0.21006083
9	0x3e899618	0.26872325
10	0xbef06473	-0.46951637
11	0xbebdd886	-0.37079257
12	0xbf12e261	-0.57376677
13	0xbed08601	-0.40727237
14	0x3ed5fa66	0.417926
15	0xbe5c90ac	-0.21539563
16	0xbe0b722e	-0.13617775
17	0x3c91bc60	0.01779002
18	0xbde9e6c4	-0.11420968
19	0xbe4a9460	-0.19783163
20	0xbc3f9180	-0.011692405
21	0xbe943328	-0.2894528
22	0x3ebb83fc	0.36624134
23	0xbcbe4c80	-0.023229837
24	0x3e843a26	0.25825614
25	0x3d8e8908	0.069597304
26	0x3edeba3c	0.4350146
27	0x3e8fcb14	0.28084624
28	0xbe949c2c	-0.290254
29	0xbe0af30e	-0.1356928
30	0x3e086e7c	0.13323396
31	0xbe554afa	-0.20829383
32	0xbecce6b7	-0.4001977
33	0x3ef7d034	0.48401034
34	0x3ec6885e	0.38775915
35	0xbe93ae3d	-0.2884387
36	0x3e087af4	0.13328153
37	0x3ed6581e	0.41864103
38	0xbeb31d08	-0.34983087
39	0xbdc2d24c	-0.09512767
40	0xbef3c5c3	-0.47611818
41	0xbf073d94	-0.52828336
42	0x3eeaf02c	0.45886362
43	0x3e4eeb68	0.20206988
44	0xbec01f1e	-0.3752374
45	0xbd2f7f80	-0.042846203
46	0xbe897f16	-0.2685477
47	0xbdd78418	-0.10523242
48	0xbdffa5c0	-0.12482786
49	0x3e3b4558	0.18288171
50	0x3dcc98e8	0.09990102
51	0xbec86c88	-0.39145303
52	0x3e94183a	0.28924733
53	0x3d2e40e0	0.04254234
54	0xbe9a63fe	-0.30154413
55	0xbeabb884	-0.33539212
56	0xbc50be80	-0.012740731
57	0x3e4dc5c0	0.20094967
58	0xbf087fe2	-0.53320134
59	0xbe097b54	-0.13425952
60	0xbed5998e	-0.41718715
61	0xbf0a348b	-0.53986424
62	0x3e9e6a24	0.30940354
63	0xbe4b1ad8	-0.19834459
64	0xbf0cdfbe	-0.55028903
65	0xbe2a412e	-0.16626427
66	0xbea343d0	-0.31887674
67	0x3e9fcbaa	0.3121007
68	0xbdb9a9dc	-0.09065601
69	0xbeb32a0c	-0.34993017
70	0xbe71a930	-0.23599696
71	0xbe02c882	-0.127718
72	0x3ee23cc8	0.44186997
73	0x3d5709a0	0.052499413
74	0xbee9eeb2	-0.45689923
75	0xbe19133c	-0.14948744
76	0x3f083530	0.5320616
77	0xbefc9690	-0.4933362
78	0xbe5dae8a	-0.21648613
79	0x3f00beba	0.50291026
80	0xbe6e71ba	-0.2328557
81	0x3ee12994	0.43977034
82	0xbec19636	-0.37809914
83	0x3edfc284	0.4370309
84	0x3ec3550c	0.38150823
85	0xbddd0bdc	-0.107932776
86	0xbf0919e5	-0.53555137
87	0xbe47f822	-0.19528249
88	0x3e141144	0.14459711
89	0xbe460148	-0.19336426
90	0xbeebeba5	-0.4607822
91	0xbf02a296	-0.51029336
92	0x3e8cc206	0.27491778
93	0x3ed51568	0.41617894
94	0xbe5fee0c	-0.21868151
95	0x3cb4bfc0	0.02206409
96	0xbeb4f440	-0.35342598
97	0x3eaaad88	0.3333552
98	0xbec23fa4	-0.3793918
99	0xbea7a66c	-0.32744157
100	0xbe70b7ea	-0.23507658
101	0xbdd92394	-0.10602489
102	0x3d921f30	0.07134855
103	0xbf0b5520	-0.54426765
104	0xbe5835ec	-0.2111432
105	0xbe804af7	-0.25057194
106	0xbdf03010	-0.11727917
107	0xbd06a040	-0.03286767
108	0x3cdd9cc0	0.027052283
109	0x3e96f062	0.29480273
110	0xbea84a00	-0.32868958
111	0x3c4e6280	0.012596726
112	0x3f0650aa	0.52466834
113	0x3d97ac88	0.074059546
114	0xbedb9710	-0.4288869
115	0x3eca5418	0.39517283
116	0xbf0329ad	-0.5123547
117	0x3e70494c	0.2346546
118	0x3ef4bb5c	0.47799194
119	0x3d943100	0.072359085
120	0x3e9e8ea0	0.3096819
121	0x3eea8ffc	0.45812976
122	0x3e86fa26	0.26362723
123	0xbe319b4a	-0.17344394
124	0x3e008c9c	0.12553638
125	0x3eef16a4	0.4669696
126	0x3e0a9e48	0.13536942
127	0xbeeaee73	-0.45885047
128	0x3f009ca8	0.5023904
129	0x3f0f3c38	0.5595126
130	0x3eab89fc	0.3350371
131	0x3ea0b360	0.31386852
132	0x3ea61548	0.3243811
133	0xbeb379da	-0.35053903
134	0xbe3173be	-0.17329308
135	0x3e7f8604	0.24953467
136	0x3e1692fc	0.14704508
137	0x3e7b3b08	0.24534237
138	0xbc330840	-0.01092726
139	0xbf0e6f92	-0.5563899
140	0x3e8c1d72	0.27366215
141	0xbeb9ee71	-0.3631473
142	0xbef4473e	-0.47710603
143	0x3f122a76	0.5709604
144	0x3e824f58	0.2545116
145	0x3e92e8d4	0.2869326
146	0xbe818357	-0.25295517
147	0x3e59dd9c	0.21275944
148	0x3d48fb70	0.049067914
149	0x3ec9a27e	0.39381784
150	0x3d8a5090	0.06753647
151	0x3f041a2c	0.51602435
152	0xbe0a78b6	-0.1352261
153	0x3f086496	0.5327848
154	0x3f12608c	0.5717857
155	0x3d8bdb28	0.0682891
156	0xbed8bbd9	-0.42330816
157	0x396d1000	0.00022608042
158	0x3eeb4c04	0.45956433
159	0xbec9f6aa	-0.39446002
160	0xbe5349a2	-0.20633557
161	0x3e55c880	0.20877266
162	0x3df04188	0.11731249
163	0x3f0af094	0.54273343
164	0x3dc2c160	0.095095396
165	0xbb90ad00	-0.0044151545
166	0x3d9b66b8	0.075879514
167	0xbdf3365c	-0.118756026
168	0xbf08114c	-0.5315139
169	0xbe4f5cf0	-0.20250297
170	0xbf05fbb4	-0.52337193
171	0x3ed849ce	0.42243809
172	0x3d0f1580	0.034932613
173	0x3d89ae70	0.067227244
174	0xbd241fc0	-0.04006934
175	0xbe97ac2b	-0.2962354
176	0xbed08b46	-0.40731257
177	0xbdb4fbac	-0.08837065
178	0x3e32e078	0.1746844
179	0xbea1c3cf	-0.31594703
180	0xbeb6e23e	-0.35719484
181	0x3ec00df0	0.37510633
182	0xbe4d44f6	-0.20045838
183	0x3ea68964	0.32526696
184	0x3f0d7ebe	0.5527152
185	0x3f0aeb74	0.5426552
186	0xbee48c78	-0.4463842
187	0x3d2f6880	0.04282427
188	0xbee7c8ce	-0.4527039
189	0x3cc335e0	0.0238294
190	0x3da46f08	0.0802899
191	0xbe7fe388	-0.2498914

tcn.network.0.conv1.bias f4 [64]
0	0xbe174750	-0.14773297
1	0xbd95fe1d	-0.07323859
2	0x3bac5969	0.005259682
3	0xbd95f51f	-0.07322144
4	0xbe117daf	-0.142081
5	0x3d9bfade	0.076162085
6	0xbd82c2b8	-0.06384796
7	0x3de6d05c	0.1127021
8	0x3e05ce11	0.1306689
9	0x3d8e8cd3	0.06960454
10	0x3cbe30ed	0.023216689
11	0x3e13f542	0.14449027
12	0xbdc849dd	-0.09779713
13	0xbdb67262	-0.089085355
14	0xbe417fd4	-0.18896419
15	0xbdab3eaa	-0.083615616
16	0x3b711f2e	0.0036792266
17	0x3e6bcc70	0.23027205
18	0x3dab0048	0.08349663
19	0xbcfe4aa9	-0.03104146
20	0xbdc87241	-0.09787417
21	0x3db7abe2	0.08968331
22	0xbd0640cf	-0.03277665
23	0xbd354816	-0.0442582
24	0x3cb5d1c3	0.022194749
25	0xbdfd71ce	-0.12375222
26	0x3d87c21d	0.06628821
27	0x3d68b9e7	0.056817915
28	0x3c8b154b	0.016977927
29	0xbd54b5f0	-0.05193132
30	0xbbeb5fcd	-0.007183051
31	0x3cdd9df9	0.027052866
32	0x3d0e61b4	0.034761146
33	0xbbfcf9e9	-0.0077202213
34	0x3d875c68	0.06609422
35	0xbd20b421	-0.039234284
36	0xbde19c24	-0.110161096
37	0xbe823eaf	-0.2543845
38	0x3c4da968	0.012552597
39	0x3e07bdfb	0.13256066
40	0xbd492aa9	-0.04911295
41	0x3dc43d68	0.09582025
42	0xbd6f6be0	-0.058452487
43	0x3ddf77a7	0.10911494
44	0xbd7ed764	-0.06221713
45	0xbd6d59cd	-0.05794697
46	0x3d2506b5	0.0402896
47	0x3d9f90ff	0.07791328
48	0xbe3ebfb7	-0.18627821
49	0xbd9eb1ac	-0.07748732
50	0x3d09d21c	0.03364764
51	0xbb6cdca8	-0.0036142264
52	0x3e1d7099	0.15374984
53	0xbe2d0c86	-0.16899309
54	0x3e0dfd0a	0.13866058
55	0x3dc6bfd8	0.0970456
56	0xbe80fabd	-0.25191298
57	0xbdd385ad	-0.10328231
58	0x3ce6187b	0.028087845
59	0xbe5d87bd	-0.21633811
60	0x3e276280	0.16346169
61	0xbddbd421	-0.1073382
62	0x3d81d81b	0.06340047
63	0x3c8933eb	0.01674839

tcn.network.0.conv1.weight_g f4 [64, 1, 1]
0	0x3f238d1a	0.6388718
1	0x3f287d45	0.65816146
2	0x3ef470fd	0.47742453
3	0x3effdb2c	0.49971902
4	0x3f214c89	0.6300741
5	0x3f1afd63	0.6054289
6	0x3efc4768	0.4927323
7	0x3f28e1ba	0.6596943
8	0x3f077da0	0.52926064
9	0x3f01d8f7	0.5072169
10	0x3f25b89f	0.64734834
11	0x3f066e56	0.5251211
12	0x3f0e0ff1	0.55493075
13	0x3ed75329	0.42055634
14	0x3f139eb4	0.57664037
15	0x3f00509d	0.50123006
16	0x3f15a6d9	0.58457714
17	0x3f2f1619	0.68393093
18	0x3f148ede	0.580305
19	0x3f24be6e	0.6435307
20	0x3f1ca099	0.6118255
21	0x3f2ea3fc	0.6821897
22	0x3f1e8c03	0.6193239
23	0x3f09f802	0.53894055
24	0x3eccd406	0.4000551
25	0x3f0e19fb	0.55508393
26	0x3f12b89c	0.5731294
27	0x3f1b5329	0.6067377
28	0x3f043e0c	0.51657176
29	0x3f109c66	0.56488645
30	0x3f08ba14	0.5340893
31	0x3f14669e	0.5796908
32	0x3f0f364f	0.55942243
33	0x3f238a0b	0.6388251
34	0x3f0e5b2b	0.5560786
35	0x3f1b19d1	0.6058627
36	0x3f154979	0.58315235
37	0x3f10a473	0.5650093
38	0x3f0dd3d9	0.5540138
39	0x3f058359	0.52153546
40	0x3f255308	0.6457982
41	0x3efa8914	0.48932707
42	0x3f0c4a21	0.5480061
43	0x3f11d5d7	0.5696692
44	0x3f171ff5	0.5903314
45	0x3f31e5d0	0.6949129
46	0x3f042495	0.5161832
47	0x3f1f9a86	0.6234516
48	0x3f17a444	0.59235024
49	0x3f1d864b	0.6153304
50	0x3f15b38b	0.58477086
51	0x3f105718	0.56382895
52	0x3f0c9213	0.5491039
53	0x3f1a88cd	0.6036499
54	0x3f0ea44f	0.55719465
55	0x3f30be22	0.6904012
56	0x3ef2ba4d	0.4740776
57	0x3f270dfd	0.6525572
58	0x3f0c254a	0.547444
59	0x3f14383b	0.578983
60	0x3f1c842b	0.6113917
61	0x3f1176f3	0.5682213
62	0x3f2d2c31	0.67645556
63	0x3f1ab74c	0.6043594

tcn.network.0.conv1.weight_v f4 [64, 8, 3]
0	0xbdaaad0e	-0.08333789
1	0x3de1c160	0.110232115
2	0xbd4bf3c2	-0.049793012
3	0x3e056808	0.13027966
4	0x3e14231d	0.1446652
5	0x3d9b0426	0.075691506
6	0x3da2e5d2	0.07953991
7	0xbdc51003	-0.096221946
8	0xbe17d621	-0.14827777
9	0x3e15efdd	0.14642282
10	0x3e16d540	0.14729786
11	0x3d8d8c62	0.069115415
12	0x3e218637	0.15773855
13	0x3df2a4b5	0.118478216
14	0x3df2896a	0.11842616
15	0xbd488008	-0.048950225
16	0x3bcab1e0	0.006185755
17	0xbe3650e7	-0.178043
18	0xbe340427	-0.17579709
19	0x3db8cbcb	0.090232454
20	0xbdc59b6f	-0.09648787
21	0x3e183b36	0.14866337
22	0xbe0b9105	-0.1362954
23	0xbe171c8a	-0.1475698
24	0xbe248566	-0.16066512
25	0x3e17feca	0.14843288
26	0xbdf99807	-0.121872
27	0xbe4ac536	-0.19801793
28	0x3d27cbb5	0.040965755
29	0xbdf4f068	-0.11959916
30	0xbe445368	-0.19172442
31	0x3e1de403	0.15419011
32	0x3e224864	0.15847927
33	0x3e26115b	0.16217558
34	0x3e04dca2	0.1297479
35	0xbe235568	-0.15950549
36	0xbdbf5323	-0.09342029
37	0xbda583b6	-0.080817625
38	0xbe494ef0	-0.19659019
39	0x3e120a6a	0.14261785
40	0xbda5b7ef	-0.08091723
41	0x3dabeb5f	0.08394503
42	0xbdd7e840	-0.10542345
43	0x3e2baeec	0.16765946
44	0x3dd3e690	0.10346711
45	0x3e10ea7b	0.14151947
46	0x3dcd747b	0.100319825
47	0x3e36e88b	0.17862146
48	0x3d9bfd3d	0.07616661
49	0x3d31e7b5	0.043433864
50	0xbd5b78e7	-0.0535821
51	0x3e524cb1	0.20537068
52	0xbe73f739	-0.23824777
53	0x3e2d3718	0.16915548
54	0xb9594add	-0.00020722621
55	0xbbec4bbb	-0.007211176
56	0xbe1327d2	-0.14370659
57	0xbcc0a23a	-0.023514856
58	0x3d9b8152	0.07593025
59	0xbd804ca7	-0.0626462
60	0x3dd055c0	0.101726055
61	0x3d22a541	0.03970838
62	0xbe275587	-0.1634122
63	0x3e20dc21	0.15708973
64	0xbd5a154a	-0.05324296
65	0xbda05d5d	-0.07830308
66	0xbdcaf5e1	-0.09910179
67	0x3d963bee	0.073356494
68	0xbe70135c	-0.23444885
69	0xbd8bf6d5	-0.06834189
70	0x3e0c34ca	0.13692012
71	0xbd1a5544	-0.037678972
72	0xbd17536b	-0.036944788
73	0xbe3944ed	-0.180927
74	0x3cec33b7	0.028833253
75	0x3de71b49	0.11284501
76	0xbdb3c9c4	-0.08778718
77	0x3c455dc0	0.0120462775
78	0x39b61b42	0.00034734054
79	0xbd3e1272	-0.04640431
80	0x3e2d9a22	0.16953328
81	0x3d0b154e	0.033955865
82	0x3cbe6ee8	0.023246244
83	0xbc235960	-0.009970039
84	0xbcb95ed9	-0.022628235
85	0x3db5e4a7	0.088815026
86	0x3bb25e43	0.005443366
87	0x3d078b49	0.033091817
88	0x3e1f19ce	0.15537187
89	0x3e132b87	0.14372073
90	0xbd6e9fba	-0.058257796
91	0xbe283866	-0.16427764
92	0x3d77f11f	0.060532685
93	0xbe1dc3a7	-0.15406667
94	0xbe5d1261	-0.21589042
95	0x3e06290e	0.13101599
96	0xbe548f62	-0.20757821
97	0x3e4a9026	0.19781551
98	0xbe7ba2da	-0.24573842
99	0xbe418ec0	-0.18902111
100	0x3dcaba4e	0.09898816
101	0x3d1eb63d	0.038748015
102	0xbe077fee	-0.13232395
103	0x3d1874b3	0.037220668
104	0xbe53cfba	-0.2068471
105	0xbdf27bc7	-0.11840015
106	0xbe476337	-0.19471441
107	0xbdf7f206	-0.12106709
108	0xbe2f9bca	-0.17149273
109	0x3e3a59b1	0.18198277
110	0xbdca5862	-0.09880139
111	0x3c93a314	0.018022098
112	0xbdf7dc88	-0.1210261
113	0xbdd4862a	-0.10377152
114	0x3d93a92f	0.072100036
115	0xbc3de594	-0.01159038
116	0x3d9d07fa	0.07667537
117	0x3d813537	0.06308978
118	0xbe3cf924	-0.18454415
119	0x3de721e5	0.11285762
120	0x3e253726	0.16134319
121	0x3d7494c8	0.0597122
122	0x3e28e0be	0.16491982
123	0xbdc72c81	-0.09725285
124	0xbe0ba3f3	-0.1363676
125	0xbe2d5bb3	-0.16929512
126	0xbd2f4a08	-0.04279521
127	0xbcea057f	-0.028567074
128	0xbdf1c6bf	-0.11805486
129	0xbdc460ed	-0.095887996
130	0xbdb45ae0	-0.088063955
131	0x3e13f1e1	0.14447738
132	0xbd400a2b	-0.046884697
133	0x3db430b2	0.087983504
134	0xbc1afe14	-0.009459991
135	0x3d65293a	0.05594752
136	0x3dcd9f22	0.10040118
137	0xbe41b465	-0.18916471
138	0xbdce5c05	-0.10076145
139	0xbe2af1f0	-0.16693854
140	0x3e34dbbc	0.17661947
141	0x3d4ffad5	0.05077632
142	0xbdc4d229	-0.09610397
143	0xbe23aaa4	-0.15983063
144	0x3dd16a95	0.10225407
145	0x3d1c4d25	0.03815951
146	0xbddec897	-0.10878103
147	0xbe27333c	-0.16328138
148	0xbdfc99b0	-0.12334001
149	0x3d7f501f	0.06233227
150	0xbe41c9b6	-0.18924603
151	0xbd19ef84	-0.037581936
152	0x3de4a231	0.11163748
153	0x3d8ab93f	0.06773614
154	0xbc2511e0	-0.0100750625
155	0xbb5419d2	-0.0032364023
156	0x3c60c30c	0.013718378
157	0x3d2c5476	0.042072736
158	0x3df9cfad	0.12197814
159	0x3d1d54f6	0.038411103
160	0x3dc3b0f5	0.09555236
161	0x3e0a6faf	0.13519166
162	0xbe2f14fe	-0.17097852
163	0xbdfa13bd	-0.12210796
164	0x3dfc7b5b	0.12328216
165	0x3cba261c	0.02272325
166	0xbe0bf7fa	-0.13668814
167	0x3d374e3c	0.044752344
168	0xbe29e163	-0.16589884
169	0xbdd3b0d1	-0.103364594
170	0x3d45a909	0.048256908
171	0x3c46bf7a	0.0121306125
172	0xbdbcc23c	-0.09216735
173	0x3e0bddc2	0.13658813
174	0x3d9e2ef5	0.077238
175	0x3bcb3789	0.0062016887
176	0xbe42a096	-0.19006571
177	0x3d76f6f8	0.06029412
178	0x3dc303af	0.09522187
179	0xbd66edeb	-0.05637924
180	0x3cd2660b	0.025683424
181	0xbe187863	-0.14889674
182	0x3dc0cef5	0.09414474
183	0x3e3f2821	0.18667652
184	0x3def7f3c	0.1169419
185	0xbd481b9a	-0.048854448
186	0xbe80e428	-0.2517407
187	0xbd82759e	-0.0637009
188	0x3da11fa0	0.0786736
189	0xbe1c7d7b	-0.15282242
190	0x3e38425e	0.17994067
191	0x3d9d2755	0.076735176
192	0x3e212111	0.1573527
193	0xbe3f8937	-0.18704687
194	0xbded8665	-0.11597899
195	0x3ca7e523	0.020495003
196	0xbd386f1e	-0.045027845
197	0xbe13bd44	-0.14427668
198	0x3e105750	0.14095807
199	0x3d97f2f8	0.074193895
200	0xbd0809d5	-0.0332125
201	0x3e52a6ec	0.20571488
202	0xbe4fc2eb	-0.20289199
203	0xbe4a058b	-0.19728677
204	0x3d8c9d36	0.06865923
205	0x3e5bc5ec	0.2146222
206	0x3dfbb287	0.12289911
207	0xbdf99cea	-0.12188132
208	0x3e16ddb0	0.14733005
209	0x3dc8ecef	0.098108165
210	0xbd28c8aa	-0.041206993
211	0x3d67b053	0.05656464
212	0xbbc3d866	-0.0059767244
213	0x3c13368a	0.008985171
214	0xbd574949	-0.052560125
215	0xbdecc1f3	-0.115604304
216	0xbe1732fe	-0.14765546
217	0xbd0295d2	-0.03188116
218	0xbe2506f5	-0.16115935
219	0x3dbc3895	0.0919048
220	0x3d5d130a	0.053973235
221	0xbe5c4db6	-0.2151402
222	0xbe311526	-0.17293224
223	0x3e0a143a	0.13484278
224	0xbe0c9f83	-0.13732724
225	0xbc4c8809	-0.012483605
226	0xbe36836f	-0.17823575
227	0xbc08e4bf	-0.008355319
228	0x3dd92590	0.106028676
229	0x3c472f69	0.0121573
230	0x3df5c24c	0.1199995
231	0xbb4b8e70	-0.003106024
232	0xbe3b4cf2	-0.18291071
233	0xbc87a2d9	-0.016557144
234	0x3dcc4359	0.09973783
235	0x3c8b3c04	0.016996391
236	0xbc20e8a0	-0.009821087
237	0x3d8d5b11	0.06902135
238	0x3e4fa47a	0.20277587
239	0x3e05e0ab	0.13073985
240	0xbc99e452	-0.01878563
241	0xbde04dc8	-0.109523356
242	0x3dfe7de0	0.124263525
243	0xbdc17054	-0.09445253
244	0xbde22490	-0.1104213
245	0x3de16a96	0.11006658
246	0xbdd11e82	-0.10210897
247	0xbe0eff20	-0.1396451
248	0xbe3a7b99	-0.18211211
249	0x3c93e535	0.01805363
250	0xbdc2a2b5	-0.0950369
251	0x3e1832d7	0.14863144
252	0x3d0fdea0	0.03512442
253	0xbcd654d5	-0.026163498
254	0xbdc0a245	-0.094059505
255	0xbcaafd36	-0.020872694

tcn.network.0.conv2.bias f4 [64]
0	0x3c9ccde5	0.019141147
1	0x3d014ca2	0.031567223
2	0x3c5f1ba1	0.013617427
3	0xbcd15a44	-0.025555737
4	0xbcd4410d	-0.025909925
5	0x3d2d611a	0.04232893
6	0xbda67b11	-0.08128942
7	0xbb3552bb	-0.002766772
8	0xbbe80eae	-0.007081828
9	0x3d36e1d4	0.04464896
10	0xbdaaecab	-0.08345922
11	0xbd684508	-0.05670646
12	0xbc1eb559	-0.009686791
13	0xbd937f89	-0.0720206
14	0xbd4bdc3d	-0.049770582
15	0xbc07604d	-0.008262706
16	0x3c88ca9c	0.016698174
17	0xbd8826e8	-0.06648046
18	0xbc6c1f46	-0.014411753
19	0xbd1025b7	-0.035192218
20	0xbd0213ce	-0.03175717
21	0xbd387480	-0.045032978
22	0x3d48875b	0.04895721
23	0x3c859fd0	0.016311556
24	0x3c0ff085	0.008785372
25	0xbd4cb104	-0.049973503
26	0x3cd2eba0	0.02574712
27	0xbd795111	-0.060868327
28	0xbd9cba5d	-0.076527335
29	0xbd007ea3	-0.03137077
30	0xbd0c1bac	-0.034206077
31	0xbdb9639f	-0.09052204
32	0x3cf7c552	0.030245457
33	0xbcb8fb48	-0.022580758
34	0xbd26728f	-0.040636595
35	0xbd8305c6	-0.063975856
36	0x3c1f2da9	0.009715476
37	0x3d3f55d0	0.046712697
38	0xbd476687	-0.048681762
39	0x3cb88cb7	0.022528036
40	0xbd308b54	-0.043101624
41	0xbd35dfc3	-0.04440285
42	0x3c42a0cd	0.011879158
43	0xbda59711	-0.08085454
44	0xbdad424a	-0.08459909
45	0xbd3349c3	-0.043771517
46	0x3c7ebaaa	0.015547434
47	0x3d195d5a	0.037442543
48	0x3cc3bb7b	0.023893109
49	0x3c4e4bca	0.012591312
50	0xbbc4cbf6	-0.0060057594
51	0xbc959754	-0.018260635
52	0xbd2911a8	-0.041276604
53	0x3d37014b	0.044678967
54	0x3cb42e62	0.021994773
55	0xbd6f61a4	-0.058442727
56	0xbda353c2	-0.0797496
57	0xbcd04103	-0.025421625
58	0xbd9367e0	-0.07197547
59	0xbd47e38e	-0.048800997
60	0x3cff14ed	0.031137908
61	0xbd42e81d	-0.04758464
62	0x3c5dc95e	0.013536779
63	0xbce572ae	-0.028008785

tcn.network.0.conv2.weight_g f4 [64, 1, 1]
0	0x3f118353	0.5684101
1	0x3f1a915f	0.6037807
2	0x3f16497c	0.5870588
3	0x3f11744a	0.5681807
4	0x3f17cec4	0.59299874
5	0x3f169fcb	0.58837575
6	0x3f1b11dd	0.6057413
7	0x3f124836	0.57141435
8	0x3f13d2e9	0.577437
9	0x3f0c6045	0.54834396
10	0x3f0f7cc1	0.56049734
11	0x3f11a938	0.5689883
12	0x3f18cc9f	0.59687227
13	0x3f06bccc	0.5263183
14	0x3f124684	0.5713885
15	0x3f06fa20	0.5272541
16	0x3f16ed9d	0.5895632
17	0x3f10d7c8	0.56579256
18	0x3f0dc3f9	0.55377156
19	0x3f09dc23	0.53851527
20	0x3f1ea113	0.6196453
21	0x3f15b20d	0.5847481
22	0x3f19603b	0.5991246
23	0x3f0d46ee	0.55186355
24	0x3f1d3b6d	0.614188
25	0x3f123f79	0.571281
26	0x3f13ac5d	0.5768488
27	0x3f0f339d	0.5593813
28	0x3f0fb413	0.56134146
29	0x3f10e750	0.56602955
30	0x3f16b826	0.5887474
31	0x3f0bd92f	0.5462827
32	0x3f0a2958	0.53969336
33	0x3f11562a	0.567721
34	0x3f0f6682	0.5601579
35	0x3f111947	0.56679195
36	0x3f0eb1b3	0.557399
37	0x3f17bc5b	0.5927178
38	0x3f0bbaa2	0.54581654
39	0x3f0ce668	0.5503907
40	0x3f16164b	0.58627766
41	0x3f17439c	0.5908754
42	0x3f0bee53	0.5466053
43	0x3f116765	0.5679839
44	0x3f0ed6d5	0.5579656
45	0x3f0d958e	0.5530633
46	0x3f128b30	0.57243633
47	0x3f1d186d	0.61365396
48	0x3f0e31bb	0.5554463
49	0x3f054602	0.5205995
50	0x3f10f453	0.5662281
51	0x3f088549	0.53328377
52	0x3f0d4952	0.5519
53	0x3f13f02f	0.57788366
54	0x3f17e98a	0.5934073
55	0x3f0d561f	0.55209535
56	0x3f0f864b	0.5606429
57	0x3f153c12	0.58294785
58	0x3f07ba8c	0.5301902
59	0x3f15791c	0.58387923
60	0x3f129606	0.5726017
61	0x3f0fb2ae	0.5613202
62	0x3f11bd48	0.56929445
63	0x3f13f2b5	0.57792217

tcn.network.0.conv2.weight_v f4 [64, 64, 3]
0	0xbd0534bc	-0.032520995
1	0xbdbdc7a2	-0.092665926
2	0xbd1f72a7	-0.0389277
3	0xbd3fca82	-0.046823986
4	0xbc7dcc15	-0.0154905515
5	0xbbab9434	-0.005236173
6	0xbd185c3a	-0.03719733
7	0x3d6283f7	0.055301633
8	0xbd98b2e5	-0.074559964
9	0xbd870068	-0.06591874
10	0x3cee5271	0.029092046
11	0xbd283479	-0.041065667
12	0x3d24ba2b	0.040216606
13	0xbceb2340	-0.028703332
14	0xbc46c118	-0.012130998
15	0x3d58bd51	0.05291492
16	0xbc2dc290	-0.010605469
17	0xbd80a8ca	-0.06282194
18	0xbd184dd7	-0.03718361
19	0x3c158bc8	0.009127565
20	0x3ca76015	0.020431558
21	0x3d8f5775	0.06999103
22	0xbdbe2d6d	-0.09286008
23	0xbc169d14	-0.009192724
24	0x3d3969c3	0.045266878
25	0xbd2fd68e	-0.042929225
26	0x3c84e16d	0.016220773
27	0xbd025e75	-0.031828362
28	0x3d372c65	0.044720072
29	0x3db74777	0.08949178
30	0x3cf7d01c	0.030250601
31	0xbcf3a9d7	-0.029744072
32	0xba193ec8	-0.0005845842
33	0x3d39d2cc	0.045367047
34	0xbb209911	-0.0024505297
35	0x3ca696dc	0.020335607
36	0xbd8f0194	-0.06982723
37	0x3d37b042	0.044845827
38	0xbcff15ac	-0.031138264
39	0x3d632aab	0.055460613
40	0x3d11e53a	0.035618998
41	0xbd93edfd	-0.07223127
42	0xbd191151	-0.03737003
43	0xbd7b0456	-0.061283432
44	0xbd9d917f	-0.07693767
45	0xbd989993	-0.07451167
46	0x3cd7a5be	0.02632415
47	0x3cea5218	0.028603598
48	0xbd240023	-0.040039193
49	0x3d03f4ee	0.032216005
50	0xbcbf07fe	-0.02331924
51	0x3c1262d9	0.0089347
52	0x3dce675d	0.10078309
53	0x3da58495	0.08081929
54	0xbd8e94aa	-0.06961949
55	0x3ca8211e	0.020523604
56	0xbda42229	-0.08014328
57	0xbd975e95	-0.07391087
58	0xbc8bbc13	-0.017057454
59	0xbc7a5d61	-0.015281052
60	0x3b54acc4	0.003245161
61	0x3b142644	0.0022605816
62	0x3cff5f26	0.0311733
63	0xba6d8bd9	-0.00090616714
64	0xbdce5d1d	-0.10076354
65	0xbdccb267	-0.09994965
66	0xbda5d049	-0.08096368
67	0xb9307877	-0.00016829545
68	0x3d9ed39b	0.07755204
69	0xbd2ffdf8	-0.042966813
70	0x3b7af2fa	0.0038291798
71	0xbba3a852	-0.0049944306
72	0x3c475830	0.012167022
73	0x3c2297ad	0.009923858
74	0x3c868c24	0.016424246
75	0x3d112a99	0.035441015
76	0xbd192990	-0.037393153
77	0x3d585e86	0.05282452
78	0xbd1b1c4b	-0.03786878
79	0xbdc6d1b6	-0.09707968
80	0x3c1b578c	0.009481322
81	0x3d5b6382	0.053561695
82	0x3d1a433f	0.037661787
83	0x3b8f8627	0.004380006
84	0xbc879f82	-0.016555551
85	0xbd08bb67	-0.033381846
86	0xbd8bf39f	-0.068335764
87	0xbbb89ff8	-0.005634304
88	0x3af28f6a	0.0018505875
89	0xbd4246ac	-0.04743068
90	0xbcfaa7d8	-0.030597612
91	0xbd4522d2	-0.04812891
92	0xbd25c57d	-0.040471543
93	0xbd9d58c2	-0.07682945
94	0x3d2fb894	0.042900637
95	0xba8ba5dc	-0.0010654288
96	0x3d499701	0.049216274
97	0xbd5b3ba2	-0.053523667
98	0x3c470d63	0.012149188
99	0xbd8d56f5	-0.06901351
100	0x3c103efe	0.008804081
101	0xbd3bea73	-0.045877885
102	0xbcf83a8a	-0.030301351
103	0x3cda69dd	0.026661808
104	0xbd167805	-0.036735553
105	0x3c671e61	0.014106364
106	0xbc3a8f86	-0.011386758
107	0x3cd1caa5	0.025609324
108	0xbc36184f	-0.011114194
109	0xbd08dc1f	-0.03341305
110	0xbdf07929	-0.117418595
111	0xbb91ab89	-0.0044454974
112	0x3c1574b0	0.009122059
113	0x3cfe4c58	0.031042263
114	0xbc22f14b	-0.009945224
115	0xbd0230bd	-0.03178476
116	0xbc0a9027	-0.00845722
117	0x3c96b1ed	0.018395388
118	0x3d7538e5	0.059868712
119	0x3cd95829	0.026531296
120	0xbd775656	-0.06038507
121	0xbd87b211	-0.0662576
122	0x3c914c58	0.017736599
123	0x3d3b309e	0.04570066
124	0xbd395dd2	-0.04525549
125	0x3cbcaf57	0.023032827
126	0x3d83af11	0.06429876
127	0x3d8fcaf8	0.07021135
128	0x3d80dda8	0.062922776
129	0xbd7fc2d4	-0.062441662
130	0x3d1af6cb	0.037833016
131	0xbb9027f5	-0.0043992945
132	0xbd70b1a9	-0.05876318
133	0xbda23836	-0.07920878
134	0xbd19cbb2	-0.037547775
135	0x3d93afc1	0.07211257
136	0x3d95d52a	0.073160484
137	0x3d679578	0.05653903
138	0xbd8e8bb5	-0.06960241
139	0x3cb6127e	0.022225615
140	0x3d28a664	0.041174307
141	0x3dd101fe	0.10205458
142	0xbd688a40	-0.05677247
143	0x3d0e6483	0.034763824
144	0xbaaa7ca8	-0.0013007121
145	0x3d2b7ed2	0.041868992
146	0xbd8bd1c1	-0.06827117
147	0xbc1a568f	-0.009420051
148	0xbd83a37e	-0.06427668
149	0xbd1a0774	-0.037604764
150	0xba9b2081	-0.0011835248
151	0xbbb37303	-0.005476357
152	0x3d9ce5f3	0.07661047
153	0x3d8394d0	0.06424868
154	0xb9f064b9	-0.0004585141
155	0xbcfe90a3	-0.031074828
156	0xbcf03721	-0.029323163
157	0xbd3f85b7	-0.04675838
158	0xbc94ffe6	-0.018188428
159	0xbcb7f62e	-0.022456255
160	0x3d15ab1e	0.036540143
161	0x39fd268b	0.00048284637
162	0xbd8bfa76	-0.06834881
163	0xbcfbb7a4	-0.030727215
164	0xbd3815e8	-0.044942766
165	0x3cf9e14a	0.030502934
166	0x3d8e470a	0.069471434
167	0x3cd99ba4	0.026563473
168	0xbcd9d85d	-0.026592428
169	0xbd86fde7	-0.06591397
170	0xbcde489d	-0.027134234
171	0x3bf064d1	0.007336237
172	0xbc873c9e	-0.016508397
173	0x3cea9e0a	0.028639812
174	0x3c448869	0.011995413
175	0xbc9b075d	-0.01892441
176	0xbd965b67	-0.07341652
177	0xbc8c3eed	-0.01711985
178	0xbcd784b5	-0.026308397
179	0xbcad68dc	-0.021168165
180	0xbda9ec68	-0.08297044
181	0xbda23729	-0.07920677
182	0x3d76975e	0.06020295
183	0x3d7782cc	0.060427472
184	0xbdb4fccf	-0.08837282
185	0xbd985cfa	-0.07439609
186	0xbce8cfc2	-0.02841938
187	0xbd848f2b	-0.064726196
188	0xbd9e8f65	-0.07742194
189	0x3b9626a1	0.0045822416
190	0xbd5b4080	-0.05352831
191	0x3c7d03a9	0.015442767
192	0xbd1f2206	-0.038850807
193	0xbcd96cc6	-0.026541125
194	0xbd39ebad	-0.045390774
195	0xbcac3d7a	-0.021025408
196	0xbd1c6f09	-0.03819183
197	0xbd825792	-0.06364359
198	0x3d4fb990	0.050714076
199	0xbcbccaf5	-0.023045996
200	0xbd328528	-0.04358402
201	0x3c4d957f	0.01254785
202	0xbcdd1b19	-0.02699046
203	0x3aedfd6f	0.0018157194
204	0x3cbd314c	0.023094796
205	0x3cccecfc	0.025015347
206	0x3bdbdc00	0.0067095757
207	0x3d80e383	0.062933944
208	0x3cfa793c	0.030575387
209	0x3d5df85f	0.054191943
210	0x3ca14e9d	0.019690806
211	0xbd1702f9	-0.03686807
212	0xbbff508a	-0.0077915834
213	0xbd634282	-0.05548335
214	0x3d730ed2	0.059340306
215	0xbd352129	-0.044221077
216	0x3d58763b	0.05284713
217	0xbcf40468	-0.029787257
218	0x3d15defc	0.036589608
219	0x3cc4211c	0.023941569
220	0x3ca2df77	0.019881947
221	0xbd7717af	-0.06032532
222	0x3c263730	0.010144994
223	0x3d6d18d8	0.05788502
224	0xbd8a63af	-0.067572944
225	0xbcec5b44	-0.028852113
226	0xbd9700ab	-0.07373174
227	0xbd83686b	-0.064164005
228	0x3d42b869	0.04753915
229	0xbd16bc3f	-0.03680062
230	0xbd87c41e	-0.06629203
231	0xbd691021	-0.056900147
232	0xbd697594	-0.056996897
233	0x3d31197d	0.0432372
234	0x3c34e529	0.011040964
235	0xbc7a6b7f	-0.015284418
236	0xbc4ca51c	-0.012490537
237	0x3da29ab9	0.07939667
238	0x3d841b53	0.06450524
239	0x3daaf5a1	0.08347631
240	0x3d57e559	0.052708957
241	0xbcf1a93e	-0.029499646
242	0xbc8c976c	-0.017162047
243	0xbcd0099c	-0.025395207
244	0xbd551c0d	-0.052028704
245	0xbd95c1da	-0.07312365
246	0x3d3cf054	0.046127632
247	0x3d024ffe	0.031814568
248	0xbd52aeba	-0.051436163
249	0xbd37c24e	-0.044863038
250	0x3d9592ee	0.07303415
251	0xbd324503	-0.043522846
252	0xbc737353	-0.014859038
253	0xbcd0223d	-0.025406951
254	0xbd3a92f4	-0.0455503
255	0xbd7ea897	-0.0621725
