checkpoints/tae/sh-CEEMDAN-h[64,32]-k3-lr0.001-d0.3-ep200.pth (torch, 166927 bytes, 36 tensors)

autoencoder.encoder.0.weight f4 [64, 47, 3]
000000 e5 34 fd 3d 8f d0 fd 3d c4 9d 2e 3d 57 5f 11 3e
       0.123636045 0.12393295 0.042630926 0.14196526
000010 7f 40 78 3d a5 2f 24 3e 2e ba e9 3c f7 73 ea 3d
       0.060608383 0.160338 0.02853116 0.114479
000020 7f 04 46 3e a2 40 93 3c 5c 64 30 3e f3 3a 56 3e
       0.19337653 0.017975155 0.17225784 0.20920925
000030 47 3f b3 3d 7f 22 2c 3d e1 b9 86 3d 03 64 55 3c
       0.087523036 0.042025086 0.06578422 0.013024333
000040 87 d9 bb 3d 04 30 3d 3d b2 4f 23 bd f6 5f 60 3c
       0.091723494 0.04618837 -0.039870925 0.013694754
000050 52 7a 43 bd f9 6b 5b bc f6 7d 24 bd c7 b9 70 3d
       -0.047724076 -0.013392442 -0.04015919 0.05877092
000060 97 51 27 bd 21 54 42 bc 16 f9 bf 3c 00 50 f3 bc
       -0.040849295 -0.011860878 0.023434203 -0.029701233
000070 47 8c cd 3c c3 d9 66 bd 78 06 8f 3d 7d 74 a3 bd
       0.025091304 -0.056360018 0.06983656 -0.07981203
000080 1e 94 2e 3d f6 75 02 3c 5d 8e 07 bd a6 6d 50 3d
       0.042621724 0.007962694 -0.033094753 0.05088582
000090 b8 a4 b6 bc f7 a1 40 3d 75 db 68 bb 71 d8 29 bd
       -0.02229534 0.04702946 -0.0035531197 -0.04146618
0000a0 03 08 be b8 d7 5f 19 bd 6c d4 f6 3b 7b 27 3a 3d
       -9.061398e-05 -0.037444916 0.007532647 0.045447808
0000b0 71 2f 80 3c 56 eb 2b bd f1 d1 44 3d 29 73 85 3c
       0.015647622 -0.04197248 0.04805178 0.016290264
0000c0 92 71 fb 3c 69 8c 4f bd ea 74 9d bd 00 e9 2c bd
       0.030693803 -0.050671015 -0.07688315 -0.042214394
0000d0 4c 3b 87 bd 83 3a 61 3d ec 57 82 b9 9c 08 d2 3b
       -0.06603107 0.05498744 -0.0002486104 0.0064097177
0000e0 f2 29 18 bc 26 36 9e b8 e7 f0 95 3d 64 d1 18 bd
       -0.009287344 -7.544113e-05 0.07321339 -0.037309065
0000f0 9d e7 5e 3c dd 52 21 bd 8c dd 42 3d 2d 86 21 bc
       0.013605026 -0.039385665 0.047574565 -0.00985865
000100 a6 ae 22 3d e4 f8 ae bb 64 2b 1e 3d 66 e6 95 bd
       0.03971734 -0.0053397287 0.0386156 -0.07319336
000110 12 4b 5c bd 50 83 17 bd 9a ec b5 3d 32 7c 37 3d
       -0.05378253 -0.036990464 0.08883019 0.044796176
000120 65 b6 d0 3d fa 64 46 bd 86 5d 63 bd 0c a4 60 bd
       0.10191039 -0.048436143 -0.055509113 -0.054843947
000130 0f 68 34 bd fd 09 62 3d a2 c9 42 3d 38 5a b0 3d
       -0.04404455 0.055185307 0.047555573 0.08610958
000140 02 31 8a bc be 33 35 bd 70 3a 66 3d 3f de 83 bc
       -0.016869072 -0.0442388 0.056208074 -0.016097186
000150 2b 5a c6 3d ae a4 ba 3c 73 7c b1 3d 9b 13 71 bd
       0.09685167 0.022783604 0.08666315 -0.058856588
000160 04 05 ea bc cc 28 80 3c 69 35 93 3d ff b1 a8 bb
       -0.028566845 0.015644453 0.071879216 -0.005148172
000170 46 6b 78 3d a6 9f 46 3d d4 a0 de bb 2d 8d b5 3c
       0.06064918 0.048492096 -0.0067940746 0.022162044
000180 17 a4 dc 3d 5d 80 ac bb 52 63 15 3b 48 d9 6e bd
       0.10773485 -0.0052643255 0.0022794795 -0.058312684
000190 e0 07 9b bc d4 af 86 bc 81 64 34 3d ec 34 e0 b8
       -0.018924654 -0.016441263 0.04404116 -0.0001069101
0001a0 5c 01 33 3d a5 dc 8a bd 89 1e 87 bd bf e6 78 bd
       0.04370247 -0.06780366 -0.06597621 -0.06076693
0001b0 fa 9a 81 bd 4c a8 42 bd 3e 93 b1 3d 96 bf 9f ba
       -0.063283876 -0.04752378 0.08670662 -0.0012187834
0001c0 c7 4e 52 3c 87 f9 ca bd 42 b5 2c 3c 95 28 23 be
       0.012836165 -0.09910875 0.010541262 -0.1593345
0001d0 0d d2 03 3f 41 e3 31 be 77 23 99 bd a4 03 83 3e
       0.5149239 -0.17371847 -0.074774675 0.25588715
0001e0 99 9f e2 bd 1f eb d7 bc 48 63 10 3e ea ef ef bc
       -0.11065597 -0.026357232 0.14100373 -0.029289205
0001f0 27 1c a3 3d b4 3c 46 3e 27 6f 29 3d 24 e1 1d 3d
       0.07964354 0.19359094 0.04136577 0.03854479
000200 07 67 55 3e cb cd 81 3d b7 aa 1b 3e 67 40 d7 3d
       0.20840083 0.0633808 0.15201841 0.10510331
000210 8f ee 12 bd ac b9 bf 3d 85 f3 44 3c 1a f4 8d bc
       -0.03587204 0.09361586 0.01202095 -0.01732831
000220 42 78 60 bd b1 65 8c bd 94 0e 8c 3c 86 20 d0 bc
       -0.054802187 -0.068553336 0.017096795 -0.025406133
000230 71 23 d3 3c f8 35 86 bd 42 6c c5 3d 34 65 f6 bc
       0.025773736 -0.065532625 0.09639789 -0.030077554
000240 81 46 ab bc 10 88 8d 3c e6 de c3 bb e9 b1 58 3d
       -0.020907642 0.017276794 -0.0059774993 0.052904043
000250 a2 f1 d7 3d 76 ca b5 bd 17 86 3a 3b 3b 50 1f bd
       0.10544135 -0.08876507 0.0028461271 -0.038894873
000260 01 58 89 bd de aa c8 bd d7 92 52 3d b3 da a8 bd
       -0.067062385 -0.09798215 0.05140957 -0.082448386
000270 20 d4 b5 3d d0 41 1c 3d 79 04 d8 3c 16 3a 00 bd
       0.0887835 0.0381487 0.02636932 -0.031305395
000280 5c 32 ab 3d ee 64 9f 3c 5e b8 90 3c 09 03 78 bd
       0.08359215 0.019457307 0.017666038 -0.06054977
000290 2f 0c c5 3c 83 0f 56 3b 4a 7a c3 bc 27 77 1b 3d
       0.024053661 0.0032663054 -0.023862023 0.03795543
0002a0 18 fc 5f 3d 4d e6 5d bc 83 bd dd bc 34 33 91 bb
       0.054683775 -0.0135436775 -0.027067905 -0.0044311527
0002b0 71 0c 5d 3d 31 62 5f 3c 2d 2c 80 bc c6 54 b6 bc
       0.053966943 0.0136342505 -0.015646065 -0.02225722
0002c0 af 4a 42 bd 76 6f d0 3c d3 59 87 3d 56 ed 03 bd
       -0.047434505 0.025443774 0.066089295 -0.032208763
0002d0 42 b6 48 3d bc 75 b8 3d fa ac 11 3d bd 35 23 bd
       0.04900194 0.09006831 0.035565354 -0.03984617
0002e0 ef cc a2 3c 99 a8 0c 3d 9f 47 0e 3d 6d 23 c2 bc
       0.01987311 0.034340475 0.034736272 -0.023698533
0002f0 3d 43 c8 bc b0 89 6b 3c fa da 0a bd e5 a4 30 bc
       -0.024446124 0.014376089 -0.03390024 -0.010781501
000300 8c fc 35 3d 0f 6d c2 3d f1 f5 bf 3b 9d 0d 9d bd
       0.0444303 0.094934575 0.005858176 -0.07668612
000310 82 b7 0b bd c7 2b 01 bd 90 5d 96 bc 17 f4 e3 bb
       -0.034110554 -0.03153589 -0.018355161 -0.006956588
000320 c9 94 c5 bd e6 31 2a bd cd c0 8c 3d f5 a1 3a bb
       -0.09647519 -0.041551493 0.06872711 -0.0028477882
000330 da 75 10 3d 94 c1 84 bb 97 83 9c 3c d2 cc 28 3b
       0.035268642 -0.0040513966 0.019105716 0.0025756848
000340 95 ac 00 3d 77 b3 45 3d 95 d7 ab 3d a1 ad 76 3d
       0.031414587 0.048266854 0.083907284 0.06022418
000350 be f5 b0 bd 14 c2 23 bc dd 69 81 3c 0f 15 b1 3d
       -0.086406216 -0.009995002 0.01579755 0.08646595
000360 8d 0b 48 3d b1 fc 9f 3b 5e 61 cd 3c 91 25 88 3c
       0.04883914 0.004882418 0.025070842 0.016619476
000370 f4 00 44 ba e5 59 92 3d c9 ea 93 bc 3e df 5d 3b
       -0.00074769487 0.07146052 -0.01805629 0.0033854987
000380 46 2e c7 bd ab 52 62 3d e7 31 4c 3d ed c8 9b 3c
       -0.09725623 0.05525462 0.049852278 0.019016707
000390 a9 5a 9b bc 90 7e 5e bd 9d dd b6 bb 73 2c bb 3d
       -0.018964129 -0.05431992 -0.0055806176 0.091393374
0003a0 35 d1 72 3d 34 fc 8d 3d ca 48 2e ba 84 30 4b 3c
       0.059281547 0.069328696 -0.00066484197 0.012401704
0003b0 ee 10 2c 3c e4 77 43 bd 57 7b 1e bd ef 62 a9 bd
       0.010502083 -0.04772176 -0.038691845 -0.08270823
0003c0 79 96 59 3d bb 88 9f 3c 7c 0c 9d 3c ae 55 93 bd
       0.053122018 0.019474378 0.019170992 -0.071940765
0003d0 5e 77 a0 bd b2 dc 08 3d f4 7e 50 bd 1d 62 f2 3c
       -0.078352675 0.033413596 -0.050902322 0.0295878
0003e0 88 f1 2c 3c 9a 11 35 bb 1c d9 df bd e1 9c ba bd
       0.010555632 -0.00276289 -0.10930082 -0.091119535
0003f0 7e 0f 91 3d 2d cc cc 3b 90 19 bb bb 26 c8 8e bd
       0.07083033 0.0062499256 -0.0057098344 -0.06971769

autoencoder.encoder.0.bias f4 [64]
000000 b1 66 0a bc 5d e1 8d 3d 7f 3a 51 bd ef 38 28 3d
       -0.008447335 0.0692775 -0.051081177 0.04106992
000010 b8 33 81 3d 4e a4 22 3c 1c ea fe bb c6 88 a7 bd
       0.06308693 0.009926869 -0.007779373 -0.08180384
000020 32 c1 67 bc 6c 28 a0 3d f1 8d 06 bd c2 db 66 bc
       -0.014145182 0.0782021 -0.03285021 -0.01409048
000030 ae 8c 59 bc 6c 72 92 3c d2 33 b8 3d da e5 1f bd
       -0.01327817 0.017876826 0.08994259 -0.039037563
000040 5e 18 c5 3c a3 37 a4 bd ce 63 0c 3d a8 f6 b4 3c
       0.02405947 -0.08018424 0.03427487 0.022090271
000050 0a 47 9a bd e3 20 c5 ba 50 40 1e 3d e2 23 02 ba
       -0.07533081 -0.0015039708 0.038635552 -0.00049644534
000060 ef 58 0b bb 47 36 bc 3d 72 fe c3 3d 4e ad b4 3c
       -0.0021262725 0.0919004 0.09570016 0.022055294
000070 d9 2d cb 3d cc 7d 53 3d da 2a 33 3d 6e 8f 3d bc
       0.09920854 0.05163364 0.04374204 -0.011569841
000080 0a 90 57 3c f6 7c cf 3d ee a8 38 bd 4c b8 3f bd
       0.0131569 0.10131256 -0.04508298 -0.04680662
000090 01 15 e9 3c c2 4d 63 bc f3 80 70 3d a1 6a eb bb
       0.028452398 -0.013873519 0.058716726 -0.007184342
0000a0 eb 76 de 3b 15 f5 2c 3c f6 49 1d bd 75 66 e4 3c
       0.0067890785 0.010556479 -0.038400613 0.027880887
0000b0 d2 fa 86 bd f8 0e a2 bd 16 59 20 3b d1 9e b4 3d
       -0.06590809 -0.07913011 0.0024467162 0.08819354
0000c0 7a 25 21 bd 1d c8 04 bd 5d 28 b9 3c 4d d2 93 3d
       -0.03934238 -0.032417405 0.022602255 0.07217846
0000d0 12 37 6a 3d 59 80 85 3b 1b 3f 1f 3c f0 75 f6 bd
       0.057181425 0.004074138 0.009719635 -0.120342135
0000e0 be 28 e3 3d 7a fe 62 3e 01 84 4a 3d d1 99 95 bd
       0.11091755 0.22167388 0.049442295 -0.07304729
0000f0 0a 3e 4e 3d 31 2e 75 bd b8 de 98 3c 82 9d 2e bb
       0.050352134 -0.059858505 0.018660888 -0.0026644175

autoencoder.encoder.2.weight f4 [8, 64, 3]
000000 d0 aa e6 3c 91 8d 59 bb e6 80 01 3e 3e d4 93 3d
       0.028157622 -0.0033195952 0.12646827 0.07218216
000010 96 b1 0b 3d 91 7c 87 bd 15 1a f8 bc 50 06 6c bd
       0.034104906 -0.06615556 -0.030285874 -0.057623208
000020 d1 e2 20 bd 61 f4 65 bd 71 fa 72 3b 62 db 60 bd
       -0.03927881 -0.05614126 0.0037075544 -0.05489672
000030 4d 5b 27 3d ec ca 74 bd 90 be 5d bd fa 35 23 bd
       0.040858556 -0.059763834 -0.054136813 -0.039846398
000040 1f 43 e8 bb fd 5f 4c 3d 4b cb 4b 3d 07 b1 ba 3d
       -0.0070880796 0.04989623 0.049754422 0.091157965
000050 74 d6 ee 3b b9 76 04 3c d4 e7 fb bb 96 ff 0f 3d
       0.0072887484 0.008084946 -0.007687548 0.035155855
000060 da dd 6c 3d ff f0 7d 3d 4b 21 78 3d 8c 20 5d 3d
       0.05782876 0.06199741 0.060578626 0.053986117
000070 7c d6 31 3c 15 ec c7 3d e8 a2 ec bc ba a0 b6 bb
       0.01085436 0.09761826 -0.028886274 -0.0055733593
000080 47 83 2d 3c 12 30 df bb 01 17 b0 3c 7c 10 26 3c
       0.010590381 -0.0068111503 0.021495344 0.010135766
000090 4d 97 67 bd ea d7 6d bc 06 94 86 3d 4a ce 48 3d
       -0.056540776 -0.01451681 0.06571202 0.049024858
0000a0 94 4b 48 bd 21 24 a5 3c b7 8d 12 3d c4 23 af bc
       -0.048900202 0.02015883 0.03577968 -0.021379359
0000b0 f7 83 f7 3d 76 7d 6f 3b 29 55 84 3c a7 0d 93 bc
       0.12085717 0.0036543286 0.016153889 -0.017950846
0000c0 30 9b 93 bc c4 1c db bc 8a 92 7d 3d 6a 12 de 3c
       -0.018018335 -0.026747115 0.06190733 0.02710839
0000d0 e9 6e 6b bd d4 63 9c bc 68 b8 97 3c c6 cf 44 bd
       -0.05747882 -0.01909057 0.018520549 -0.04804971
0000e0 eb f5 16 3c 9d c4 de bc db 01 9b bd 6f ce 44 bd
       0.009213905 -0.027193362 -0.07568713 -0.048048433
0000f0 f9 39 cd 3c f0 dc 22 bd 25 48 6a bd 6e 83 64 bd
       0.025052058 -0.039761484 -0.05719771 -0.055789404
000100 a3 db 6d bd f6 73 91 bc 8a bb f5 3c 5b 99 46 3d
       -0.05807079 -0.01775549 0.029996652 0.048486095
000110 b0 b6 91 3d e1 47 4f 3d 69 ad 9f bc f9 ae ca 3b
       0.07114923 0.05060566 -0.019491868 0.006185409
000120 60 ac 1d bd c7 84 29 3d e6 1b b6 3c 22 02 fb 3c
       -0.038494468 0.041386392 0.0222301 0.030640665
000130 4b 3a 41 bd 1b 07 70 3d da 4e 8b bd 63 27 fd 3c
       -0.047174733 0.058600526 -0.06802149 0.03090257
000140 76 20 8b bd dd 06 a8 3d 8f 3c 3e bc c9 b8 ba 3c
       -0.06793301 0.08204434 -0.011611118 0.02279319
000150 9f 0e 4c 3c 3e 7d 3d 3d 47 24 36 3d 68 73 1c 3d
       0.012454658 0.04626202 0.04446819 0.038195997
000160 17 5a af 3d 52 22 07 bd 0d 28 60 3d f1 7e 57 3d
       0.08562105 -0.032991715 0.054725695 0.052611295
000170 4d dc 17 3d 3a ad 4a 3d 3e 9a 8e 3d bd 00 77 3d
       0.03707533 0.049481608 0.06963013 0.06030344
000180 b0 d2 ab bd 86 31 37 3d d4 11 db 3d 50 3f ac 3c
       -0.08389795 0.044724964 0.1069676 0.021026284
000190 88 61 13 bc d2 85 e1 3d d5 06 56 bd e7 28 3e bd
       -0.008995421 0.11011852 -0.05225261 -0.046425726
0001a0 14 51 e6 3c 92 78 31 3d 00 2e 80 bc 0c bb 85 3d
       0.028114833 0.043327875 -0.015646935 0.06529817
0001b0 af e6 fa 3c 77 f2 9b 3c 00 a7 32 3d fe f2 a7 3d
       0.030627577 0.019036515 0.043616295 0.08200644
0001c0 b8 b6 85 3d 51 94 ab 3d d3 5a 12 ba b3 4b 6d 3d
       0.065289915 0.083778985 -0.0005582992 0.05793352
0001d0 47 ce 46 3d 5a 51 1b bd af 8d 07 3d d1 4d dc 3c
       0.048536565 -0.03791938 0.033094104 0.026892575
0001e0 ca 11 4d bd f0 a1 3b 3d f0 18 9f 3d 6b 24 5f 3d
       -0.050065793 0.045808733 0.07768428 0.05447809
0001f0 9f 72 3d 3c 12 bc 30 3c fc 1a 5a 3d 27 91 77 bb
       0.011562972 0.010787027 0.05324839 -0.0037775727
000200 ea 7e 65 3d 2b d3 a2 bc a7 e9 d8 3b a0 87 ba 3c
       0.056029238 -0.019876083 0.0066196504 0.02276975
000210 ad 5d 4a 3d fd 55 00 3d b7 fe 7a 3d d0 0c 35 bd
       0.049405742 0.031332005 0.06127807 -0.044201672
000220 fd c5 d3 bb 85 03 5d bc 57 91 4f 3d eb 64 9f 3d
       -0.006462811 -0.013489609 0.050675716 0.077829204
000230 25 c4 82 3d 12 66 05 bd 80 a5 bf bc 37 11 9a 3d
       0.06385068 -0.032568045 -0.023394346 0.07522815
000240 f5 34 79 bd 02 9f e5 bc 40 d1 b4 bb c7 fd 57 3d
       -0.06084152 -0.028029922 -0.0055181086 0.052732255
000250 76 ed 89 3b cf 36 42 bd 32 09 4d 3d 85 8d 73 bd
       0.0042092158 -0.04741555 0.050057597 -0.059461135
000260 d9 4b c8 bb 67 03 a4 3d 0e d8 40 3d 6c c9 81 bd
       -0.0061125574 0.080084614 0.047081046 -0.06337246
000270 e7 d6 02 bc 87 6b 88 bc 0e cb b2 3d 26 e1 c7 3d
       -0.007985807 -0.016652836 0.08730136 0.097597405
000280 9b 3c c1 3d 79 45 87 3d bd 2b 3a 3d 51 48 4a bd
       0.09435388 0.06605048 0.04545187 -0.049385373
000290 e7 cb d4 3d 35 fe b8 3c 49 05 70 bd 0f 7b 09 3b
       0.10390454 0.022582153 -0.05859879 0.002097789
0002a0 4f d9 0f bc 17 d8 a3 bc d2 a4 01 3e 19 6d 2e bd
       -0.008779838 -0.0200005 0.1266053 -0.042584512
0002b0 96 3f dc 3c 3a 96 f8 3d 53 8a 35 3d d4 f8 af bc
       0.026885789 0.121380284 0.04432137 -0.021480955
0002c0 86 8e 88 3d 86 c4 c3 bc 4c 4e a8 3a 57 f6 b7 bc
       0.06667809 -0.02389742 0.0012840717 -0.022456331
0002d0 ad 3f 59 bd 43 3a 90 bd 69 42 a2 3d c2 e9 8d bc
       -0.05303924 -0.070423625 0.07922823 -0.017323378
0002e0 91 0b a8 bd 10 ac 59 bc 65 cb 1a bd ef 94 1d bd
       -0.08205331 -0.013285652 -0.03779163 -0.038472112
0002f0 5c 4c 25 3d 54 03 b2 39 1e d5 a6 3d 16 49 0e bd
       0.040356025 0.00033953285 0.08146118 -0.03473767
000300 15 f9 03 bd 56 c6 20 bd c9 85 01 bb 5e c4 2a bc
       -0.032219965 -0.039251648 -0.001976358 -0.010422794
000310 20 58 e7 3c 84 5c 66 bd 84 d9 06 3d a0 a8 42 3c
       0.028240263 -0.056240574 0.032922283 0.011881024
000320 8c 36 a4 bb 3e 78 31 bd 73 7a bb 3d d5 82 80 3d
       -0.0050113853 -0.043327563 0.09154215 0.06274954
000330 17 75 9c ba 07 1d 55 3c 93 54 a5 3c f9 e8 a6 3d
       -0.0011936751 0.013007409 0.02018193 0.08149905
000340 31 28 bd 3c b2 66 ec 3b 19 73 43 3b da 42 90 3d
       0.023090454 0.0072143907 0.0029823242 0.07044001
000350 1e 39 a3 3d 4d 36 e3 bc 8d e0 5d 3d d8 c4 9b 3d
       0.079698786 -0.027735854 0.054169226 0.07605904
000360 92 e4 4e 3d 8a 07 26 3d a9 55 a4 bc 03 77 bb 3c
       0.05051095 0.040534534 -0.020060377 0.022883898
000370 0b e0 cc bc d5 c0 c9 3d 14 08 85 bd c6 0a 97 bd
       -0.025009176 0.09851233 -0.064956814 -0.07375102
000380 4b b9 46 bd f6 1c 9a bc 22 ba 9d 3c 29 00 dd 3d
       -0.048516553 -0.018812638 0.019253794 0.10791046
000390 21 17 e3 3c 77 ef b5 3d 37 15 94 3d 6b c7 89 3d
       0.02772099 0.08883565 0.07230609 0.06727489
0003a0 36 ce 8b 3d c9 c4 85 3d 0c 08 d5 3c dd 42 38 bd
       0.06826441 0.065316744 0.026004814 -0.04498564
0003b0 2b 9b 0d 3e ff 14 53 bd e7 37 5a bd 84 95 1f bc
       0.13828723 -0.051533695 -0.05327597 -0.009740237
0003c0 b6 5c e3 bc cf 0a c7 3c 39 4f 1c 3c 93 37 e7 bd
       -0.027754169 0.024297146 0.0095403725 -0.11289897
0003d0 ae 79 13 3d 3c aa 88 bc 82 fb 4e 3d 18 d0 65 bd
       0.036004715 -0.016682737 0.050532825 -0.056106657
0003e0 17 43 a7 3d 40 c2 94 3c ea 4e 06 bb 8c 9f 87 bd
       0.08167093 0.018159032 -0.0020493814 -0.06622228
0003f0 83 74 88 3d 33 54 83 bc bf 80 3f bd 40 ff 06 3d
       0.06662848 -0.01603136 -0.04675364 0.03295827

autoencoder.encoder.2.bias f4 [8]
000000 c3 4f 72 bc 88 ac c3 3c 5e 91 53 3b 3d 62 b0 3b
       -0.0147895245 0.02388598 0.003228269 0.0053828047
000010 b3 f9 4f bd 8b 87 92 3d 1a a2 c2 3d 9f 64 64 bd
       -0.05077524 0.07154759 0.09503575 -0.055760022

autoencoder.decoder.0.weight f4 [8, 64, 3]
000000 d2 64 b6 bc 9e df 85 3d 00 36 88 bb 26 ec 0f bd
       -0.022264872 0.06536792 -0.004156828 -0.035137318
000010 b0 fb 0e 3c 04 e4 69 3d 30 78 16 bc b6 77 8b bd
       0.008726999 0.05710222 -0.009183928 -0.068099424
000020 ce 9e c5 bc 38 1e 13 3d 28 b5 2e bc 6a db 50 3d
       -0.024123576 0.03591749 -0.010663308 0.0509905
000030 94 53 cb 3c 80 ea 25 3a 64 d4 e1 3c a4 9a 1f bc
       0.024820127 0.0006329194 0.027567096 -0.009741459
000040 36 68 7d bd 62 55 7d bd a2 84 68 bd 24 54 3c bc
       -0.06186696 -0.061849006 -0.056767114 -0.01149467
000050 db bc 55 bd 60 48 2d 3c 10 94 07 3c 5c eb 60 3d
       -0.05218206 0.010576338 0.008275047 0.054911956
000060 70 f8 84 3b 50 87 49 3c cc 39 d2 3c f2 24 a7 bc
       0.0040579364 0.012300327 0.025662325 -0.02040336
000070 6a 4b 13 bd b1 08 8b bd 76 f3 8f bd f0 7f 9b 3b
       -0.035960592 -0.06788767 -0.07028858 0.004745476
000080 81 c9 0b bd e8 aa a3 3c bc ee 92 3c b4 8c 66 3d
       -0.034127716 0.019978955 0.017936103 0.05628653
000090 18 59 10 bc 00 01 a0 b9 08 05 4c 3d 40 83 48 3c
       -0.008810304 -0.00030518323 0.049809486 0.012238324
0000a0 1e 4b 07 3d ce 9f 1f bd 52 a8 55 bd 50 5d 61 3d
       0.03303062 -0.03897076 -0.052162476 0.05502063
0000b0 c4 b7 52 3d 7c da df bc 28 6b 44 3c 4d 72 83 bd
       0.051444784 -0.027325861 0.011988439 -0.064182855
0000c0 50 80 a5 3b 5f 39 89 bd 00 14 27 3d 67 7e 92 bd
       0.0050506964 -0.06700396 0.040790558 -0.071530156
0000d0 36 9d 8e bc 08 e6 89 3d 84 4a c8 bc 64 58 2b bd
       -0.017408948 0.06733328 -0.024449594 -0.041832343
0000e0 22 55 85 3d cd 85 15 bd 6c 64 82 3c b6 34 25 3d
       0.065103784 -0.036504555 0.015917026 0.040333472
0000f0 38 d8 9e 3c 4c 3a 4c bd 6c 24 86 3d a0 bf 0d 3d
       0.01939021 -0.049860284 0.06549916 0.034606576
000100 f6 e2 39 bd de b5 28 bd 1e 5b 88 bc 10 3d c5 3c
       -0.045382462 -0.041189067 -0.01664501 0.024076968
000110 40 8b df 3c e8 3f 18 3c 38 dc 41 3d b8 08 93 3d
       0.02728808 0.00929258 0.047329158 0.07179397
000120 e0 42 73 3c 20 92 e7 3c a2 1b 28 3d 60 65 6a 3c
       0.014847487 0.02826792 0.041041978 0.014306396
000130 b0 cd 91 3b f6 e3 84 3d 96 13 4c 3d 00 11 41 3d
       0.0044495687 0.064887926 0.049823366 0.047135353
000140 3e 0b e6 bc 34 54 0d bd ae 49 20 bd e7 8a 77 bd
       -0.028081533 -0.03450413 -0.039132766 -0.060435202
000150 50 44 f0 bb 94 8d 26 3d d0 3b 2d 3c a2 21 d1 bc
       -0.0073323622 0.040662363 0.010573342 -0.025528733
000160 88 93 23 bc 1e 87 62 bd c7 e0 3d bd 50 b7 d9 3b
       -0.009983905 -0.05530464 -0.046356943 0.006644167
000170 3c c0 2b bd e8 ba 11 3c 60 c9 73 3d 98 65 97 3c
       -0.041931376 0.00889466 0.059518218 0.01848106
000180 54 4a 62 3d f4 47 3b bd c0 03 f6 3a dd 30 91 bd
       0.055246666 -0.045722917 0.0018769428 -0.07089398
000190 80 15 03 3a 0e c3 59 bd bc b7 8a 3d fd b4 7c bd
       0.0005000457 -0.053164534 0.06773326 -0.06169604
0001a0 c4 18 ca 3c 0e d3 30 bd 4c a6 a3 3c 00 5b c5 b9
       0.024670012 -0.043170027 0.019976757 -0.00037642568
0001b0 88 3c 17 bc 9e 73 e5 bc 7a 11 3e 3d 50 6f 55 bc
       -0.00923074 -0.028009232 0.046403386 -0.013027027
0001c0 e0 90 c9 3b 86 2a b2 bc 10 6a 57 bd 2e 64 f6 bc
       0.0061513036 -0.021748792 -0.052591383 -0.030077066
0001d0 a0 84 84 3d f4 af 8c 3d 5c 56 09 bd 40 ad eb 3b
       0.06470609 0.06869498 -0.033529624 0.007192284
0001e0 40 ed 3f 3c 0c 63 82 3d e8 01 25 3c 00 2d 5c 3b
       0.01171428 0.06366548 0.010071255 0.0033596158
0001f0 12 f9 ab bc 28 5d 79 3c 20 2a 93 bd d3 76 93 bd
       -0.02099279 0.015219964 -0.07185769 -0.07200398
000200 50 0f 09 bc 18 07 4d bd 32 4c 4d bd 3c b3 48 bc
       -0.008365467 -0.050055593 -0.050121494 -0.012249764
000210 54 01 24 3d a8 4c 12 3d 04 68 cd bc c0 1d a7 bb
       0.04004033 0.035717636 -0.025074013 -0.005099982
000220 b0 35 89 3d d0 c7 7f 3c 7e 05 49 3d 78 e1 f4 bc
       0.06699693 0.015611604 0.049077503 -0.029892668
000230 c9 43 84 bd bb 0d 09 bd a0 d2 cf 3b 90 30 8f bc
       -0.064582415 -0.03346036 0.006342247 -0.017479211
000240 92 67 21 bd 9a 21 8e 3d ff 6c 88 bd c0 2b f0 3a
       -0.039405413 0.06940003 -0.06661414 0.0018323585
000250 50 9b eb 3c a8 7f 9f bc e2 34 00 3d 00 50 86 39
       0.028760582 -0.01947005 0.031300433 0.00025618076
000260 48 b7 2f bd 44 bc 20 bd 67 fa 04 bd a4 4f 90 bd
       -0.0428994 -0.039242044 -0.032465365 -0.0704644
000270 de 3c 38 3d 50 7b 87 3d 84 d9 17 bd 40 c6 69 3b
       0.044979922 0.06615317 -0.037072673 0.0035671145
000280 e0 8d c5 3c 28 65 a7 3c 0d 13 24 bd 6d a1 33 bd
       0.024115503 0.020433977 -0.04005723 -0.04385512
000290 a0 e0 8f 3d e8 22 2c 3d c2 2a 8a 3d a6 82 4f 3d
       0.07025266 0.042025477 0.06746437 0.050661705
0002a0 f0 f3 af bb 0e 1b 50 3d 20 b3 17 bb 00 c2 ea b9
       -0.005369656 0.05080705 -0.0023147538 -0.000447765
0002b0 92 14 00 bd 2c 87 66 3d a0 61 7b bc 60 ac 2b 3c
       -0.031269617 0.056281254 -0.0153431 0.010478109
0002c0 ac b6 6b bd 2c ce ca 3c 71 8c 0c bd 24 80 85 bc
       -0.057547256 0.024756514 -0.034313623 -0.016296454
0002d0 a0 77 d3 bb 08 2c db 3c a0 10 41 3b 10 07 4e 3c
       -0.0064534694 0.026754394 0.0029459372 0.012574926
0002e0 76 ff 3f bd 08 5b 5f bd 18 ea d4 3c 6a 72 f3 bc
       -0.046874486 -0.054530174 0.02599053 -0.029717643
0002f0 da db 7e bd d4 fd f3 bc 0f 00 91 bd 48 40 6c 3c
       -0.062221386 -0.02978412 -0.07080089 0.014419623
000300 d0 a0 af 3b a4 7c 88 3d 63 01 23 bd ef e0 18 bd
       0.0053597465 0.06664398 -0.039796244 -0.03732389
000310 b8 2a 8d 3c ca 58 9b bc a8 5d 66 3d 00 e0 33 3c
       0.017232284 -0.018963236 0.05624166 0.010978699
000320 80 89 cd ba 2a d1 e2 bc 2e 9b 32 3d 0e 5f 0a bd
       -0.0015681237 -0.027687628 0.043605022 -0.033782057
000330 d8 bb ed 3c d6 e5 3d 3d a7 df 67 bd 18 f5 82 bd
       0.029020235 0.046361767 -0.056609776 -0.06394404
000340 22 b4 26 bd 16 d7 0d 3d 83 0d 23 bd a0 8a df 3b
       -0.04069913 0.03462895 -0.039807808 0.0068219453
000350 70 87 32 3c 28 3d 78 3c c9 bc 16 bd 20 60 25 3b
       0.010896549 0.0151513 -0.036801133 0.0025234297
000360 ec d5 4c 3d 08 3b 19 3d 20 e2 61 3c 06 16 6b bd
       0.0500087 0.037409812 0.013786823 -0.05739405
000370 d2 12 0b 3d d8 69 eb bc f2 e0 4e 3d 8c 8a f5 3c
       0.033953495 -0.028736994 0.050507493 0.02997329
000380 fc 09 59 bc 18 8b e4 3c 6a d8 f5 bc 60 17 4c 3c
       -0.013247009 0.027898356 -0.03001042 0.012456745
000390 a0 fe 6b bb c0 1a 96 3a 90 2b d0 3c b0 f0 8f 3d
       -0.0036009923 0.0011452064 0.025411397 0.07028329
0003a0 1d 7a 02 bd d6 54 90 3d d8 fb 58 bc 54 93 8c 3d
       -0.031854738 0.07047431 -0.013243638 0.06864038
0003b0 90 0a 85 3c f0 d8 c0 3b 6c b8 c5 bc 22 c5 1b bd
       0.016240388 0.005885236 -0.02413579 -0.038029797
0003c0 a9 59 91 bd ce 5a 21 bd 30 bb d3 bb 64 af 78 3d
       -0.070971794 -0.03939324 -0.0064615235 0.06071414
0003d0 fe f6 1f 3d f0 28 4e 3c 60 0b 8f bd 6c 41 50 3d
       0.03905391 0.012583002 -0.069845915 0.05084364
0003e0 f4 83 4b 3d 5a e2 04 bd a0 73 ef 3c 40 4b 76 bd
       0.049686387 -0.03244243 0.029229939 -0.060130358
0003f0 3c 74 15 bd cc 69 b2 bc 22 04 86 bd c0 77 90 bb
       -0.036487803 -0.021778964 -0.06543757 -0.0044088066

autoencoder.decoder.0.bias f4 [64]
000000 5c e4 cb bc f0 90 a0 bc f4 9b 38 bd 8c f7 a8 3c
       -0.024889164 -0.019600362 -0.045070603 0.020625852
000010 60 9c 14 bc dd a1 55 bd 86 bc 09 3d 5c 5f 88 3c
       -0.009070486 -0.052156318 0.033627056 0.016647033
000020 f8 bb 3c 3c 76 92 91 3d 80 88 4a bc e2 71 3a 3d
       0.011519425 0.07108013 -0.012361646 0.045518763
000030 41 ab 15 bd 40 8e 10 bd 98 9c 8f 3c 13 4b 1a bd
       -0.036540274 -0.03529191 0.017530724 -0.037669253
000040 54 f8 fe 3c 38 4b 8b bd ac bd d8 bc 72 63 93 3d
       0.031124271 -0.06801456 -0.02645763 0.07196702
000050 40 7d 6f bb aa 9a 20 3d 7c 43 85 3d f2 f3 a8 bc
       -0.003654316 0.03921 0.06507012 -0.020624135
000060 50 cf 89 bc 2c b5 29 bc 70 42 13 bd c0 89 0e bb
       -0.016822487 -0.010358136 -0.03595203 -0.0021749586
000070 92 de 0c 3d 6c 22 7f 3d 22 7f 4c 3d 14 8f 91 3d
       0.034391947 0.062288687 0.04992593 0.07107368
000080 df 49 15 bd 14 c7 4b bd d4 bb 91 bd da 0d 2e 3d
       -0.036447402 -0.049750403 -0.071159035 0.04249368
000090 9c 0e 03 3d 38 80 8d bc fc 65 74 3d f8 c2 54 bd
       0.031996354 -0.017273054 0.059667572 -0.05194375
0000a0 fc 4d 3f bc 80 6e f7 ba 40 be ed 3c 48 86 76 3d
       -0.011676308 -0.0018877536 0.029021382 0.060186654
0000b0 ad 12 28 bd 20 6e 93 3d 5a c7 8c 3d 70 49 9d 3c
       -0.041033436 0.07198739 0.06873961 0.019200057
0000c0 b2 8c 42 bd f4 ed c2 3c 40 66 76 3c 2e 5d d6 bc
       -0.04749746 0.023795106 0.015039027 -0.026167478
0000d0 22 4a 8e 3d ef 70 6d bd 6c 02 d2 bc f6 c2 dd bc
       0.069477335 -0.05796903 -0.02563592 -0.027070504
0000e0 72 17 a4 bc 28 17 5b 3d 80 5e 6b bb 28 86 24 3c
       -0.02003071 0.05348888 -0.003591448 0.010041751
0000f0 78 d1 83 bd 3e f1 47 bd a0 ae 39 3d 78 b3 b4 bc
       -0.06436437 -0.04881405 0.04533255 -0.022058234

autoencoder.decoder.2.weight f4 [64, 1, 3]
000000 80 7d 53 3e 32 d4 e3 be 75 da a7 be f8 3c 8e 3e
       0.20653343 -0.4449783 -0.32783857 0.2778089
000010 c2 2a d0 3e 90 fc 12 3d f4 d6 05 bf d8 f9 b9 be
       0.40657622 0.035885394 -0.5228112 -0.36323428
000020 30 1a 57 be 18 96 89 3e 73 64 f0 be 86 d8 bd be
       -0.21006083 0.26872325 -0.46951637 -0.37079257
000030 61 e2 12 bf 01 86 d0 be 66 fa d5 3e ac 90 5c be
       -0.57376677 -0.40727237 0.417926 -0.21539563
000040 2e 72 0b be 60 bc 91 3c c4 e6 e9 bd 60 94 4a be
       -0.13617775 0.01779002 -0.11420968 -0.19783163
000050 80 91 3f bc 28 33 94 be fc 83 bb 3e 80 4c be bc
       -0.011692405 -0.2894528 0.36624134 -0.023229837
000060 26 3a 84 3e 08 89 8e 3d 3c ba de 3e 14 cb 8f 3e
       0.25825614 0.069597304 0.4350146 0.28084624
000070 2c 9c 94 be 0e f3 0a be 7c 6e 08 3e fa 4a 55 be
       -0.290254 -0.1356928 0.13323396 -0.20829383
000080 b7 e6 cc be 34 d0 f7 3e 5e 88 c6 3e 3d ae 93 be
       -0.4001977 0.48401034 0.38775915 -0.2884387
000090 f4 7a 08 3e 1e 58 d6 3e 08 1d b3 be 4c d2 c2 bd
       0.13328153 0.41864103 -0.34983087 -0.09512767
0000a0 c3 c5 f3 be 94 3d 07 bf 2c f0 ea 3e 68 eb 4e 3e
       -0.47611818 -0.52828336 0.45886362 0.20206988
0000b0 1e 1f c0 be 80 7f 2f bd 16 7f 89 be 18 84 d7 bd
       -0.3752374 -0.042846203 -0.2685477 -0.10523242
0000c0 c0 a5 ff bd 58 45 3b 3e e8 98 cc 3d 88 6c c8 be
       -0.12482786 0.18288171 0.09990102 -0.39145303
0000d0 3a 18 94 3e e0 40 2e 3d fe 63 9a be 84 b8 ab be
       0.28924733 0.04254234 -0.30154413 -0.33539212
0000e0 80 be 50 bc c0 c5 4d 3e e2 7f 08 bf 54 7b 09 be
       -0.012740731 0.20094967 -0.53320134 -0.13425952
0000f0 8e 99 d5 be 8b 34 0a bf 24 6a 9e 3e d8 1a 4b be
       -0.41718715 -0.53986424 0.30940354 -0.19834459
000100 be df 0c bf 2e 41 2a be d0 43 a3 be aa cb 9f 3e
       -0.55028903 -0.16626427 -0.31887674 0.3121007
000110 dc a9 b9 bd 0c 2a b3 be 30 a9 71 be 82 c8 02 be
       -0.09065601 -0.34993017 -0.23599696 -0.127718
000120 c8 3c e2 3e a0 09 57 3d b2 ee e9 be 3c 13 19 be
       0.44186997 0.052499413 -0.45689923 -0.14948744
000130 30 35 08 3f 90 96 fc be 8a ae 5d be ba be 00 3f
       0.5320616 -0.4933362 -0.21648613 0.50291026
000140 ba 71 6e be 94 29 e1 3e 36 96 c1 be 84 c2 df 3e
       -0.2328557 0.43977034 -0.37809914 0.4370309
000150 0c 55 c3 3e dc 0b dd bd e5 19 09 bf 22 f8 47 be
       0.38150823 -0.107932776 -0.53555137 -0.19528249
000160 44 11 14 3e 48 01 46 be a5 eb eb be 96 a2 02 bf
       0.14459711 -0.19336426 -0.4607822 -0.51029336
000170 06 c2 8c 3e 68 15 d5 3e 0c ee 5f be c0 bf b4 3c
       0.27491778 0.41617894 -0.21868151 0.02206409
000180 40 f4 b4 be 88 ad aa 3e a4 3f c2 be 6c a6 a7 be
       -0.35342598 0.3333552 -0.3793918 -0.32744157
000190 ea b7 70 be 94 23 d9 bd 30 1f 92 3d 20 55 0b bf
       -0.23507658 -0.10602489 0.07134855 -0.54426765
0001a0 ec 35 58 be f7 4a 80 be 10 30 f0 bd 40 a0 06 bd
       -0.2111432 -0.25057194 -0.11727917 -0.03286767
0001b0 c0 9c dd 3c 62 f0 96 3e 00 4a a8 be 80 62 4e 3c
       0.027052283 0.29480273 -0.32868958 0.012596726
0001c0 aa 50 06 3f 88 ac 97 3d 10 97 db be 18 54 ca 3e
       0.52466834 0.074059546 -0.4288869 0.39517283
0001d0 ad 29 03 bf 4c 49 70 3e 5c bb f4 3e 00 31 94 3d
       -0.5123547 0.2346546 0.47799194 0.072359085
0001e0 a0 8e 9e 3e fc 8f ea 3e 26 fa 86 3e 4a 9b 31 be
       0.3096819 0.45812976 0.26362723 -0.17344394
0001f0 9c 8c 00 3e a4 16 ef 3e 48 9e 0a 3e 73 ee ea be
       0.12553638 0.4669696 0.13536942 -0.45885047
000200 a8 9c 00 3f 38 3c 0f 3f fc 89 ab 3e 60 b3 a0 3e
       0.5023904 0.5595126 0.3350371 0.31386852
000210 48 15 a6 3e da 79 b3 be be 73 31 be 04 86 7f 3e
       0.3243811 -0.35053903 -0.17329308 0.24953467
000220 fc 92 16 3e 08 3b 7b 3e 40 08 33 bc 92 6f 0e bf
       0.14704508 0.24534237 -0.01092726 -0.5563899
000230 72 1d 8c 3e 71 ee b9 be 3e 47 f4 be 76 2a 12 3f
       0.27366215 -0.3631473 -0.47710603 0.5709604
000240 58 4f 82 3e d4 e8 92 3e 57 83 81 be 9c dd 59 3e
       0.2545116 0.2869326 -0.25295517 0.21275944
000250 70 fb 48 3d 7e a2 c9 3e 90 50 8a 3d 2c 1a 04 3f
       0.049067914 0.39381784 0.06753647 0.51602435
000260 b6 78 0a be 96 64 08 3f 8c 60 12 3f 28 db 8b 3d
       -0.1352261 0.5327848 0.5717857 0.0682891
000270 d9 bb d8 be 00 10 6d 39 04 4c eb 3e aa f6 c9 be
       -0.42330816 0.00022608042 0.45956433 -0.39446002
000280 a2 49 53 be 80 c8 55 3e 88 41 f0 3d 94 f0 0a 3f
       -0.20633557 0.20877266 0.11731249 0.54273343
000290 60 c1 c2 3d 00 ad 90 bb b8 66 9b 3d 5c 36 f3 bd
       0.095095396 -0.0044151545 0.075879514 -0.118756026
0002a0 4c 11 08 bf f0 5c 4f be b4 fb 05 bf ce 49 d8 3e
       -0.5315139 -0.20250297 -0.52337193 0.42243809
0002b0 80 15 0f 3d 70 ae 89 3d c0 1f 24 bd 2b ac 97 be
       0.034932613 0.067227244 -0.04006934 -0.2962354
0002c0 46 8b d0 be ac fb b4 bd 78 e0 32 3e cf c3 a1 be
       -0.40731257 -0.08837065 0.1746844 -0.31594703
0002d0 3e e2 b6 be f0 0d c0 3e f6 44 4d be 64 89 a6 3e
       -0.35719484 0.37510633 -0.20045838 0.32526696
0002e0 be 7e 0d 3f 74 eb 0a 3f 78 8c e4 be 80 68 2f 3d
       0.5527152 0.5426552 -0.4463842 0.04282427
0002f0 ce c8 e7 be e0 35 c3 3c 08 6f a4 3d 88 e3 7f be
       -0.4527039 0.0238294 0.0802899 -0.2498914

tcn.network.0.conv1.bias f4 [64]
000000 70 35 e8 bd 76 23 b7 bd 01 0a 53 3d d1 72 a9 bd
       -0.113383174 -0.089423105 0.051523212 -0.082738526
000010 05 8a bf bd 1c a8 c9 3d 4d 47 8c bd a1 91 a6 3d
       -0.09352497 0.098465174 -0.06849537 0.08133245
000020 21 fc 20 3e 9a dc 50 3d 46 dd 09 3d b4 71 12 3e
       0.1572118 0.050991632 0.03365829 0.14301187
000030 28 83 9f bd 21 a8 d6 bc ed 29 5f be 85 db d7 bd
       -0.07788688 -0.026203217 -0.21793337 -0.10539917
000040 79 b9 62 bb ed 5e 36 3e bf eb b1 3d 3e de a9 bb
       -0.0034595414 0.17809649 0.08687543 -0.005183964
000050 8d 75 ec bd 2e 14 3f 3d 86 5a ba bd 9c b6 27 bd
       -0.115458585 0.046650104 -0.09099297 -0.040945634
000060 a4 2b f9 3c 40 1a 8b bd 0b c9 1e 3e 39 ff 92 3d
       0.030416317 -0.06792116 0.1550638 0.07177586
000070 09 14 ce bc e4 90 60 bd bd 2f a2 3c a4 7f 95 3d
       -0.025156038 -0.05482568 0.019798154 0.07299736
000080 e2 f0 85 3c c8 f3 02 bd 27 f6 92 3d f3 bb 53 bb
       0.016350213 -0.03197077 0.07175856 -0.0032308071
000090 ad 5e 09 be b7 c6 4c be ff 77 54 bc 7e a8 29 3e
       -0.13415022 -0.19997679 -0.012968062 0.16568181
0000a0 f2 69 b6 bd d4 59 df 3d 39 51 82 bd dc 62 b7 3d
       -0.08906926 0.10905805 -0.06363148 0.08954403
0000b0 49 16 69 bd 68 e6 a1 bd 86 06 81 3d d3 64 b9 3d
       -0.05690602 -0.07905275 0.06300072 0.09052434
0000c0 5d 5b 0e be 8e fc f5 bc c7 29 1a 3d 97 3d 2d 3d
       -0.1390204 -0.030027654 0.0376375 0.042295065
0000d0 2d 26 35 3e cc de 62 be 33 46 07 3e ed b3 e3 3d
       0.17690344 -0.22155303 0.13210373 0.111183025
0000e0 42 91 49 be ac 4c bb bd 96 ae 49 3d 86 22 0c be
       -0.19684318 -0.091454834 0.049238764 -0.13685045
0000f0 31 35 1b 3e 4a 49 d1 bd 2c 72 29 3d df 2c 9e 3c
       0.1515701 -0.10219057 0.04136865 0.019308506

tcn.network.0.conv1.weight_g f4 [64, 1, 1]
000000 c4 a4 15 3f 6a 81 24 3f 97 61 15 3f 87 04 02 3f
       0.5845454 0.6425997 0.58352035 0.5078816
000010 79 6c 21 3f 84 64 19 3f ef 65 fe 3e cc 5f 14 3f
       0.6305614 0.59919 0.49687144 0.57958674
000020 55 97 1c 3f ec 2c 04 3f 46 e3 23 3f c1 65 06 3f
       0.61168414 0.51631045 0.64018667 0.52499014
000030 b8 4b 17 3f 56 d5 f3 3e df 93 07 3f 53 1f f4 3e
       0.5909991 0.476237 0.5296001 0.47680148
000040 98 fa 18 3f fd 57 25 3f a9 a8 07 3f 09 c5 14 3f
       0.59757376 0.64587384 0.5299173 0.5811315
000050 ef 4a 14 3f a6 1e 2a 3f d4 24 0d 3f 49 20 07 3f
       0.5792684 0.66453016 0.5513432 0.5278364
000060 1e 53 c6 3e 15 d8 07 3f 7c ea 0b 3f eb b5 17 3f
       0.38735288 0.5306409 0.5465467 0.5926196
000070 f8 20 00 3f 47 dc 0a 3f 60 9f f1 3e a4 b8 19 3f
       0.50050306 0.54242367 0.47191906 0.60047364
000080 3f 24 0a 3f 8c 8a 19 3f 8c ff 03 3f dc 23 0a 3f
       0.5396156 0.5997703 0.5156181 0.5396097
000090 db 54 0c 3f 4d 48 10 3f 2f d4 0e 3f 0a b5 ee 3e
       0.5481698 0.5636032 0.55792516 0.46622497
0000a0 bd c1 21 3f ae 5a fc 3e 91 87 18 3f dc b4 0e 3f
       0.63186246 0.49287933 0.5958186 0.5574472
0000b0 20 45 14 3f 5d b6 24 3f 92 71 07 3f dc a7 1d 3f
       0.57917976 0.64340764 0.5290767 0.6158426
0000c0 6c 10 28 3f 1d e0 1f 3f bf 7c 0e 3f 08 e8 11 3f
       0.6565006 0.62451345 0.556591 0.56994677
0000d0 83 ab 17 3f 91 37 10 3f b1 bc 0c 3f 08 9c 0f 3f
       0.5924608 0.5633479 0.5497542 0.5609746
0000e0 de f7 fb 3e 56 96 23 3f ea 6e 13 3f 74 92 20 3f
       0.49212545 0.6390127 0.57591116 0.6272347
0000f0 48 ca 19 3f 6b 86 11 3f cc 9a 22 3f 43 ba 13 3f
       0.6007428 0.5684573 0.6351745 0.5770609

tcn.network.0.conv1.weight_v f4 [64, 8, 3]
000000 59 7b 0c be 6d fd 95 3d 68 43 5b bd b6 71 2f 3e
       -0.13718928 0.07323728 -0.05353108 0.17133221
000010 29 b4 1e 3e f8 ea e7 ba 4a 0d 93 bc f4 5e 3b be
       0.15498413 -0.0017693928 -0.017950673 -0.1829794
000020 9c 56 54 be ac 0f f3 3d 6e 02 f5 3d b1 84 99 3c
       -0.20736164 0.118682235 0.11963354 0.01874003
000030 97 b1 3e 3e 6a f2 f6 3d 03 b2 17 3e 2d 6e 9c bc
       0.18622433 0.120579556 0.14814 -0.019095505
000040 3f d4 4a 3d 9a 27 28 be 9f 87 63 be b9 d2 a0 3d
       0.04951882 -0.16421357 -0.22219704 0.07852692
000050 ca c7 44 be b6 d7 1a 3e 11 49 61 be 74 2e 77 be
       -0.19216838 0.1512135 -0.22000529 -0.24138814
000060 c7 b9 47 be 1e f0 d8 3d e0 c9 22 be 1a 89 4f be
       -0.19504462 0.10592674 -0.15897322 -0.20267144
000070 a0 87 82 3d a2 88 85 bd dc 3f 81 be f1 70 b0 3d
       0.06373525 -0.06520201 -0.25244033 0.08615292
000080 a2 7c c2 3d c7 b7 cd 3d 0d a6 85 3d bf 16 64 be
       0.09496428 0.10044818 0.06525812 -0.22274302
000090 2d 61 01 be 63 fc ef bd f5 1b 70 be 0d 21 f9 3d
       -0.12634726 -0.11718061 -0.23448165 0.12164507
0000a0 25 97 cb bd 18 90 45 3d 31 4f 01 be 1a 47 2d 3e
       -0.09940938 0.04823312 -0.12627865 0.16921654
0000b0 1c ee 0b 3e f4 03 05 3e 4b 37 bf 3d 3a 9f 41 3e
       0.1366505 0.12989789 0.09336718 0.18908396
0000c0 8c 8b 1f 3d 3b 29 a6 3c 79 26 cd bd dd c0 20 3e
       0.03895144 0.020283332 -0.10017104 0.15698572
0000d0 a7 7a 40 be e0 f3 00 3e d0 eb 18 bd bb 22 74 3c
       -0.18796788 0.12593031 -0.037334263 0.0149008585
0000e0 5d ce 57 be ca 47 01 be f2 ea 76 3c 5c ab 00 bd
       -0.21074815 -0.12625042 0.015070664 -0.03141342
0000f0 dd b1 d1 3c 6e 34 21 bc 99 45 00 be 00 c3 d7 3d
       0.025597507 -0.00983916 -0.1252655 0.1053524
000100 e2 0f ac bd cb 58 4a bd a0 2b 9b bd 6b 50 c9 3d
       -0.08401467 -0.049401086 -0.0757668 0.09829792
000110 9c 7f 61 be 30 d3 2a be 94 58 e5 3d 31 a8 5d bd
       -0.22021335 -0.16682124 0.111985356 -0.054115478
000120 a3 1d 2f bd 1b bc 40 be 70 c3 62 bc 91 6d a3 3d
       -0.042752873 -0.18821757 -0.013840541 0.079798825
000130 4a 26 9c bd 6d c1 9f bc 4b 2e 86 3d 25 e5 24 bd
       -0.076244906 -0.019501412 0.065517984 -0.04025759
000140 44 bb 2b 3e 58 64 e0 bc e7 47 24 bd e4 17 84 bd
       0.16770655 -0.027391598 -0.040107634 -0.06449869
000150 bb d0 3c 3d 9e 1f ec 3d c9 6e 0a bd 97 34 1c 3d
       0.0460975 0.11529468 -0.03379706 0.03813609
000160 47 fd 20 3e d3 40 0c 3e a3 47 a3 bd 94 68 31 be
       0.15721618 0.13696603 -0.07972648 -0.1732505
000170 4b 92 c2 3c 5f f6 12 be f6 59 54 be b5 a2 14 3e
       0.023751399 -0.14351796 -0.20737442 0.14515193
000180 29 78 38 be fa 69 46 3e 19 b6 3a be e5 6a 3e be
       -0.18014587 0.19376364 -0.18233527 -0.18595465
000190 12 c8 a7 3d 08 43 05 bc 0a 1a 0c be 77 da 25 3d
       0.08192457 -0.008133657 -0.13681808 0.040491547
0001a0 15 9b 21 be ab 0f d9 bd 39 dd 45 be 51 d4 c4 bd
       -0.15781815 -0.105986916 -0.19322671 -0.09610809
0001b0 e3 5b 36 be 22 b2 34 3e 7f 55 bc bd 80 89 ab 3c
       -0.1780849 0.17646077 -0.091959946 0.020939589
0001c0 3b 1c de bd 80 fd 89 bd 99 11 07 3e e0 81 f2 3c
       -0.10845228 -0.067378044 0.13190307 0.029602945
0001d0 dd e9 ca 3d e1 db 86 3d f7 37 2a be 43 07 1c 3e
       0.09907887 0.06584907 -0.16622911 0.15237145
0001e0 ed fa 1b 3e f1 36 57 3d ea 20 1e 3e d9 73 dd bd
       0.1523244 0.05254263 0.15442243 -0.10813112
0001f0 a0 e8 18 be ab eb 39 be 61 92 3d bd b7 28 71 bd
       -0.1493249 -0.18156306 -0.046282176 -0.05887672
000200 85 8a 0e be c9 c7 b0 bd 48 aa b1 bd b7 89 39 3e
       -0.13920029 -0.08631856 -0.08675057 0.1811894
000210 51 28 c2 bc eb 22 2e 3e 7e 20 b8 3b 95 f0 86 3d
       -0.023700865 0.17005508 0.0056191077 0.06588856
000220 27 b7 d1 3d 1e 5f 48 be be 20 d0 bd 4d b0 25 be
       0.10240012 -0.19567534 -0.10162495 -0.16180535
000230 9a 40 4c 3e 90 42 c6 3d 6b a1 8d bd 72 2b 08 be
       0.19946519 0.096806645 -0.06915554 -0.13297823
000240 3b 0d f7 3d 58 77 19 3d ef d3 eb bd 3a 11 1b be
       0.120630704 0.03746733 -0.115150325 -0.1514329
000250 c5 84 e6 bd ba 2e cd 3c 4f d7 38 be 86 ec b5 bc
       -0.112557925 0.025046695 -0.18050884 -0.02220751
000260 97 48 05 3e 99 ce 0a 3d 42 6c 6c bd 77 28 39 bd
       0.13015972 0.033888433 -0.05772043 -0.045204606
000270 c4 05 7e 3d de a1 ba 3d 3b b6 2f 3e f7 26 3a 3d
       0.062017217 0.09112905 0.17159359 0.045447316
000280 e8 80 c7 3d 66 8b 0a 3e a7 ab 2a be 7c 32 f3 bd
       0.09741384 0.13529739 -0.16667043 -0.118748635
000290 ce 83 c2 3d d6 81 80 3d 70 72 01 be 36 dd 98 3d
       0.09497796 0.06274764 -0.1264131 0.07464068
0002a0 91 20 40 be 38 4b aa bd 2d 4f 95 3d 0c af b0 bc
       -0.18762423 -0.08315128 0.07290492 -0.021567844
0002b0 6d 44 0a be 89 01 9c 3d a4 7e 92 3c e9 b3 e2 bc
       -0.13502665 0.0761748 0.017882653 -0.027673678
0002c0 05 e4 43 be 6f 61 bf bd 3f 6d 2c bc 3d bb 01 be
       -0.19129951 -0.09344756 -0.010524093 -0.12669082
0002d0 99 97 0e 3d 91 6e 15 be 7f db 22 3e 68 64 21 3e
       0.034812544 -0.14592959 0.15904044 0.15760958
0002e0 48 06 fb 3d f3 a6 ba bc 08 bf 4c be fb 41 ad bd
       0.122570574 -0.022784686 -0.19994748 -0.084598504
0002f0 e1 85 2d bd 4f 4f 3b be e6 ec 25 3e 2d e2 6b 3d
       -0.042364005 -0.18291973 0.16203651 0.057588745
000300 fc 6f e7 3d 13 07 66 be fc 6e 20 be d5 03 93 3c
       0.11300656 -0.22463636 -0.15667337 0.017946163
000310 dd 0a ec bc 38 42 10 be 55 97 a8 3d 5e ba 81 3c
       -0.028813774 -0.1408776 0.08231989 0.015835937
000320 67 07 d0 bd d7 51 10 3e a6 00 5e be e3 e8 4b be
       -0.10157662 0.1409372 -0.21679935 -0.19913058
000330 c2 36 04 3d 3c 9f 2e 3e e4 e9 cf 3d 32 99 e3 bd
       0.032278784 0.1705293 0.10152033 -0.11113204
000340 9b db 16 3e ca e7 df 3d 72 78 0e bd d3 a1 a7 3d
       0.1473221 0.10932882 -0.034782834 0.081851624
000350 a6 b2 92 bc a9 39 15 bd de 69 87 bd 0c 5b ec bd
       -0.017907452 -0.036431942 -0.066119894 -0.11540803
000360 b8 36 01 be bd 8c 8b bc 15 1d fa bd ea 03 91 3d
       -0.1261853 -0.017034883 -0.12212578 0.07080825
000370 50 d8 34 3d 4a 6f 52 be 83 9a 26 be 12 32 1b 3e
       0.044151604 -0.20550266 -0.16269879 0.15155819
000380 a0 cb ea bd 12 98 2f 3d 95 c0 06 be e5 bf 34 bd
       -0.1146462 0.042869635 -0.13159402 -0.044128317
000390 80 20 d3 3d 21 28 68 3d c3 15 d2 3d b8 39 76 bd
       0.10308933 0.056678895 0.10258057 -0.06011364
0003a0 9d ef 50 be 80 48 80 bd f6 54 fc 3d 71 ee 62 3d
       -0.20403905 -0.06263828 0.123208925 0.055403177
0003b0 eb e7 7b 3d 84 66 da 3c a6 56 28 3e 47 3d f0 3d
       0.06150047 0.026660211 0.16439304 0.11730438
0003c0 4d 25 22 bd 49 80 f1 bd 2f d9 17 3e 40 8d a4 bd
       -0.039586354 -0.117920466 0.14828943 -0.08034754
0003d0 1f e9 00 be d5 9d 32 3d 47 b6 6f be 9f ae 86 be
       -0.12588929 0.04360755 -0.23409377 -0.263051
0003e0 0e 07 6c be 92 5c 88 3d b3 8a d6 bd 0c 6f 50 3e
       -0.23049566 0.066582814 -0.104756735 0.20354861
0003f0 f5 4d 94 bb 96 ea 89 bd 16 ff df bd f4 9d 84 bd
       -0.0045258948 -0.06734197 -0.10937326 -0.0647544

tcn.network.0.conv2.bias f4 [64]
000000 c9 db af 3c 78 cd 03 3d 05 9c 9f bc 6a f6 67 bd
       0.021467106 0.032178372 -0.019483576 -0.056631483
000010 40 66 61 bc 0f ba 1c 3d 19 be a3 bd f7 2c 05 bc
       -0.013757288 0.038263377 -0.079952426 -0.008128396
000020 21 21 33 bc a3 df 72 3c 4f 93 73 bd ba 62 8d bd
       -0.0109331915 0.014823827 -0.059466656 -0.06903596
000030 5a 0e 20 bc c5 9b b7 bc f1 3e 07 bd f2 68 6b bc
       -0.009769047 -0.022413144 -0.03301901 -0.014368283
000040 25 7c 29 3d 25 ec 63 bd ab 60 38 bc cc 61 24 bd
       0.04137816 -0.055645127 -0.011253516 -0.04013233
000050 fd be 87 bc 55 71 20 bd 48 17 60 3d 9c 45 af 3c
       -0.016570562 -0.03917058 0.054709703 0.021395497
000060 16 28 da bb 12 9a 4b bd ff 72 87 3c c2 dd 5f bd
       -0.0066576106 -0.04970748 0.016534327 -0.054654844
000070 ac 5a 77 bd fe 31 96 bd c6 3d f5 bb ae be 48 bd
       -0.060389206 -0.07333754 -0.0074841706 -0.04900997
000080 22 4c 09 3d e7 a4 69 bc ee 8f 47 bd 8a 35 27 bd
       0.03351987 -0.014260507 -0.048721246 -0.040822543
000090 45 f8 0b 3d 3c 8e 63 3d 7f 40 48 bd d7 0c 3c 3d
       0.034172315 0.055555567 -0.048889633 0.045910683
0000a0 14 aa 19 bd e8 75 33 bd c2 30 f6 3c f4 17 85 bd
       -0.037515715 -0.043813616 0.030052546 -0.06498709
0000b0 67 75 94 bd c5 d8 e5 bc 00 00 09 3d c5 ef 16 3d
       -0.07248955 -0.028057465 0.033447266 0.036849756
0000c0 11 24 b1 3c 99 0d 2c 3d 70 e5 29 bb 2f 05 fb bb
       0.021623643 0.042005155 -0.002592411 -0.00766053
0000d0 cf de 3b bd 0c 1a 24 3d ee 08 c8 3c 56 56 80 bd
       -0.045866784 0.040063903 0.02441832 -0.06266467
0000e0 a9 23 85 bd 9a 30 21 bc ba 7a 4a bd d7 d3 4f bd
       -0.06500942 -0.009838248 -0.049433447 -0.050739136
0000f0 95 1b 9b 3c a5 7a 0e bd 8e e4 17 3d 64 5e 4c bb
       0.01893405 -0.03478493 0.0370832 -0.003118419

tcn.network.0.conv2.weight_g f4 [64, 1, 1]
000000 92 cb 12 3f b8 4b 18 3f 95 50 02 3f 20 cb 0c 3f
       0.57341874 0.5949054 0.5090421 0.54997444
000010 0b d9 17 3f c3 0f 11 3f f4 91 18 3f 03 01 13 3f
       0.59315556 0.56664675 0.59597707 0.5742342
000020 44 ab 0d 3f c5 95 0c 3f 88 8e 16 3f 11 db 0d 3f
       0.55339456 0.5491603 0.58811235 0.55412394
000030 06 64 14 3f 62 e7 15 3f d5 cf 0d 3f 4c da 0a 3f
       0.57965124 0.5855619 0.5539525 0.54239345
000040 1c 23 17 3f c6 ad 17 3f 45 4c 14 3f a0 19 07 3f
       0.5903795 0.5924953 0.5792888 0.52773476
000050 89 17 1a 3f 0f 01 12 3f a6 17 1b 3f 7d 73 08 3f
       0.6019216 0.57032865 0.6058296 0.5330122
000060 34 8f 15 3f 71 4c 17 3f a3 5e 0f 3f e7 9c 0e 3f
       0.58421636 0.59101015 0.5600378 0.55708164
000070 f8 b1 0c 3f 23 e8 0b 3f ef 69 16 3f e4 83 0e 3f
       0.5495906 0.5465109 0.5875539 0.5567
000080 5d c2 0c 3f 7a c4 02 3f fd 73 12 3f 46 03 11 3f
       0.54984075 0.5108105 0.57208234 0.5664562
000090 25 4c 0f 3f c4 36 15 3f 62 da 0a 3f a5 db 03 3f
       0.5597556 0.5828669 0.54239476 0.51507026
0000a0 7a d8 11 3f b6 8d 12 3f 9d e5 05 3f 4b a6 10 3f
       0.5697094 0.57247484 0.5230349 0.5650374
0000b0 02 a8 10 3f c8 37 17 3f 7b 92 11 3f 4d 70 17 3f
       0.5650636 0.5906949 0.56864136 0.5915573
0000c0 11 06 0a 3f ca 7b 01 3f 71 5a 13 3f 9e d1 0b 3f
       0.53915507 0.5057951 0.5755988 0.54616725
0000d0 6d 00 0d 3f 5a e3 12 3f 4e 00 19 3f 60 1d 12 3f
       0.55078775 0.5737816 0.5976609 0.5707607
0000e0 20 ce 0f 3f a7 03 13 3f d0 98 07 3f cb f6 0b 3f
       0.56173897 0.5742745 0.5296755 0.5467345
0000f0 24 17 0d 3f 68 e4 11 3f f5 54 0e 3f 49 ff 15 3f
       0.55113435 0.56989145 0.55598384 0.5859266
