checkpoints/tae/sh-EEMD-h64-k3-lr0.001-d0.3-ep200.pth (torch, 116663 bytes, 22 tensors)

autoencoder.encoder.0.weight f4 [64, 47, 3]
0.095501006 0.12640554 0.07546763 0.15982953 0.071477056 0.22084731 0.008510623 0.11915434
0.2293385 0.019757938 0.17882714 0.2889198 0.07630882 0.012236642 0.042944595 -0.02653857
0.040542394 -0.02396122 -0.05592722 0.032974042 -0.025695032 -0.027118921 -0.046134178 0.05992619
-0.067120954 -0.03317957 -0.022173436 -0.03405732 0.030503027 -0.05009304 0.08019614 -0.056864217
0.07296299 0.020456918 -0.013597946 0.07357253 -0.0074887574 0.07015615 0.016809633 -0.034604184
0.018196644 -0.024874045 0.04426866 0.073144175 0.0506122 -0.03699048 0.05696635 0.03021849
0.04895453 -0.030409122 -0.045233075 -0.012961747 -0.044837616 0.092249505 -0.013713047 -1.5892745e-05
0.017052969 -0.0055021774 0.060603455 -0.051148776 0.014183181 -0.05631426 0.043374162 -0.0370002
0.014892464 -0.0039572306 0.049771305 -0.06404911 -0.046188146 -0.026383273 0.08469824 0.035771288
0.1396527 -0.028944239 -0.033552255 -0.06599381 -0.067446984 0.03719236 0.006958385 0.03651203
-0.05921889 -0.090928026 -0.00059609534 -0.07132058 0.045839913 -0.033302337 0.030158097 -0.076969504
-0.09723479 -0.0049063796 0.0028475781 0.029312734 0.06734501 0.06559231 0.027268479 0.024280826
0.051711544 -0.058603305 -0.06466596 -0.009519886 0.009416941 0.024610976 -0.03765421 -0.090725824
-0.028196355 -0.1298048 -0.111473314 -0.10070369 -0.072907284 -0.08131461 0.06038237 -0.060564026
-0.02704241 -0.1253118 -0.23472248 -0.20198011 0.7139646 -0.28144062 0.004030269 0.38598323
-0.14307389 0.112783596 0.43928215 -0.15605867 0.07481704 0.3123851 0.027344558 0.04550642
0.23600808 0.09279196 0.19340977 0.15863726 0.009215908 0.13859059 0.056767423 0.051738296
0.013726932 -0.0003882552 0.036093187 -0.0065624937 0.044559073 -0.07680929 0.051144812 -0.08960257
-0.035484545 -0.0005448801 -0.0057389126 0.057642434 0.065032914 -0.10570712 -0.0006821155 -0.06463176
-0.08313055 -0.033944383 0.100232944 -0.030119365 0.03508495 0.03274386 0.038977355 -0.050642703
0.06272995 0.0068777082 -0.004926708 -0.058995508 0.07541298 -0.023035657 -0.045061544 0.061787035
-0.003957601 -0.07054343 -0.07596429 -0.020815315 0.024929034 -0.037080467 -0.064441405 -0.05005905
-0.083243005 0.04472627 0.056942914 -0.09426353 0.046209425 0.050295096 0.0075716795 -0.041290626
0.030013913 0.034374446 0.06213413 0.015437956 0.00525846 0.034838706 0.0118623 0.0036647893
0.079024315 0.09914182 0.022429094 0.017417474 0.04161713 0.017084133 0.026703563 0.03137557
-0.07880439 -0.02339168 0.074060544 0.021881286 -0.004436044 -0.055829544 -0.073511675 -0.07921403
-0.01163469 0.052860312 0.056313083 0.04114088 -0.054385804 -0.03841687 0.0025132522 0.10245741
0.027398085 -0.0014227086 0.062683985 -0.019564237 -0.04486378 0.09105416 -0.01560116 0.004817913
-0.039955057 0.0925651 0.09909484 0.08250268 0.015499382 -0.113898925 -0.076282434 0.07964161
0.07153745 0.12755355 0.02152463 -0.0024447541 -0.012570024 -0.14609422 -0.16653669 -0.14437263
0.01074562 -0.03694535 0.08175004 -0.035625145 -0.043910693 -0.055910364 -0.040890414 0.023910908
-0.03481339 0.064178616 -0.01623264 -0.03443015 -0.0041322294 -0.016475555 0.000847891 -0.194502
00000000: 0896 c33d 7470 013e c68e 9a3d 5aaa 233e
00000010: 9062 923d cc25 623e 2470 0b3c 3107 f43d
00000020: b6d7 6a3e 66db a13c 761e 373e 4ced 933e
00000030: cc47 9c3d 327c 483c ace6 2f3d 6a67 d9bc
00000040: c80f 263d 524a c4bc f113 65bd ca0f 073d
00000050: 637e d2bc 8028 debc 31f7 3cbd 2a75 753d
00000060: b676 89bd 4de7 07bd 11a5 b5bc b07f 0bbd
00000070: 7ce1 f93c 5c2e 4dbd e03d a43d 74ea 68bd
00000080: 9f6d 953d 4495 a73c ebc9 5ebc 32ad 963d
00000090: 4064 f5bb 07ae 8f3d 5bb4 893c 1ebd 0dbd
000000a0: 2111 953c a7c4 cbbc 0e53 353d 9dcc 953d
000000b0: bd4e 4f3d 5483 17bd 8c55 693d c48c f73c
000000c0: 8c84 483d 8d1c f9bc 5146 39bd 825d 54bc
000000d0: a6a7 37bd 4fed bc3d b0ac 60bc 6951 85b7
000000e0: abb2 8b3c 9c4b b4bb 543b 783d 6181 51bd
000000f0: 9360 683c c8a9 66bd 1ba9 313d 868d 17bd
00000100: 85ff 733c a8ab 81bb ffdc 4b3d 2e2c 83bd
00000110: c82f 3dbd bc21 d8bc 4576 ad3d ea84 123d
00000120: 1e01 0f3e 781c edbc 176e 09bd c327 87bd
00000130: a521 8abd 0457 183d 2a03 e43b a38d 153d
00000140: 828f 72bd 7938 babd 4843 1cba 8610 92bd
00000150: a2c2 3b3d 0868 08bd 1d0e f73c 30a2 9dbd
00000160: 0923 c7bd b2c5 a0bb 6f9e 3a3b 4221 f03c
00000170: 2eec 893d 4355 863d 2562 df3c 95e8 c63c
00000180: 7ccf 533d 050a 70bd 966f 84bd 4cf9 1bbc
00000190: 8349 1a3c f59c c93c 4d3b 1abd 76ce b9bd
000001a0: 0bfc e6bc 8deb 04be 1f4c e4bd bc3d cebd
000001b0: 6a50 95bd 4688 a6bd 8153 773d fc11 78bd
000001c0: 0b88 ddbc bd51 00be 175b 70be e0d3 4ebe
000001d0: 62c6 363f fc18 90be 5910 843b 989f c53e
000001e0: f681 12be 16fb e63d 97e9 e03e d8cd 1fbe
000001f0: ad39 993d f1f0 9f3e b201 e03c f164 3a3d
00000200: 1aac 713e b609 be3d 360d 463e ce71 223e
00000210: 52fe 163c b1ea 0d3e f584 683d 89eb 533d
00000220: ede6 603c bb8e cbb9 73d6 133d 300a d7bb
00000230: 9383 363d 304e 9dbd 397d 513d 8d81 b7bd
00000240: 3e58 11bd 49d6 0eba 7d0d bcbb 791a 6c3d
00000250: fa2f 853d f97c d8bd ffcf 32ba a85d 84bd
00000260: 5a40 aabd 4409 0bbd ee46 cd3d e3bc f6bc
00000270: 3db5 0f3d 6d1e 063d b8a6 1f3d b96e 4fbd
00000280: 8f78 803d 665e e13b 3970 a1bb 46a5 71bd
00000290: 1f72 9a3d 46b5 bcbc 7492 38bd 6714 7d3d
000002a0: c3ae 81bb 1379 90bd 2a93 9bbd e184 aabc
000002b0: f937 cc3c b0e1 17bd dbf9 83bd b80a 4dbd
000002c0: 4f7b aabd e532 373d f93c 693d 3d0d c1bd
000002d0: 1846 3d3d 3b02 4e3d da1b f83b 5c20 29bd
000002e0: bddf f53c 38cc 0c3d 5c80 7e3d 7bef 7c3c
000002f0: 294f ac3b 08b3 0e3d 185a 423c f62c 703b
00000300: 80d7 a13d de0a cb3d 38bd b73c 17af 8e3c
00000310: b976 2a3d 06f4 8b3c 6ec1 da3c ab83 003d
00000320: 3264 a1bd e99f bfbc 0ead 973d 6240 b33c
00000330: 3c5c 91bb 85ad 64bd 4a8d 96bd f73a a2bd
00000340: 6d9f 3ebc 0e84 583d 8ca8 663d 5783 283d
00000350: a6c3 5ebd 025b 1dbd 60b5 243b 31d5 d13d
00000360: f371 e03c 2e7a baba 7660 803d 2e45 a0bc
00000370: 15c3 37bd 9a7a ba3d 029c 7fbc 95df 9d3b
00000380: eaa7 23bd c592 bd3d 3cf2 ca3d 2af7 a83d
00000390: 1ff1 7d3c d743 e9bd f739 9cbd 241b a33d
000003a0: 3a82 923d 669d 023e 6c54 b03c 2b38 20bb
000003b0: 80f2 4dbc b999 15be 9888 2abe 6bd6 13be
000003c0: 660e 303c 0254 17bd 916c a73d aceb 11bd
000003d0: b3db 33bd 4402 65bd b57c 27bd cfe0 c33c
000003e0: 7c98 0ebd 1470 833d 50fa 84bc a106 0dbd
000003f0: a767 87bb bef7 86bc 0045 5e3a 882b 47be

autoencoder.encoder.0.bias f4 [64]
-0.013767577 0.03188321 -0.05008631 0.105689034 0.09846271 -0.005293629 -0.021410126 -0.06723969
0.006253154 0.057853356 -0.092106104 -0.007957794 -0.014452007 -0.10001927 -0.039861057 0.008386177
0.04300605 -0.07337405 0.007684349 0.028814023 -0.0486446 0.054542612 0.041530427 -0.025653563
-0.20392765 0.037590336 0.02002793 -0.03227289 -0.02553137 -0.03377906 0.0065631806 -0.005023924
0.00080439495 0.040683113 -0.15363522 -0.07202707 0.16218373 -0.093325086 0.013016778 -0.0044912375
-0.10557503 0.02890361 -0.027042335 0.01741803 -0.04848059 -0.12785862 -0.0708547 0.093028225
-0.07174308 0.050953954 -0.037269752 0.016646732 0.101840205 0.00082426256 0.066859506 -0.1113605
0.04930074 -0.025865426 0.041402753 -0.13617234 0.025035147 -0.075443484 -0.04045098 -0.0140085025
00000000: 6791 61bc f897 023d 4d27 4dbd 7e73 d83d
00000010: d1a6 c93d 2e76 adbb 4a64 afbc f6b4 89bd
00000020: 42e7 cc3b a4f7 6c3d 20a2 bcbd 6861 02bc
00000030: 1cc8 6cbc e7d6 ccbd 5945 23bd 2d66 093c
00000040: 1d27 303d 2245 96bd fecc fb3b 630b ec3c
00000050: 8f3f 47bd 1368 5f3d cf1b 2a3d 6c27 d2bc
00000060: 69d2 50be 53f8 193d 9d11 a43c 9430 04bd
00000070: 2a27 d1bc e95b 0abd f30f d73b bb9f a4bb
00000080: 08de 523a 56a3 263d 8d52 1dbe ee82 93bd
00000090: 7e13 263e 3921 bfbd 5344 553c 3b2b 93bb
000000a0: b937 d8bd 43c7 ec3c e387 ddbc 42b0 8e3c
000000b0: 9593 46bd 5fed 02be 451c 91bd 9585 be3d
000000c0: 09ee 92bd 18b5 503d 2ba8 18bd ba5e 883c
000000d0: 9991 d03d 5313 583a a3ed 883d f910 e4bd
000000e0: 93ef 493d bbe3 d3bc ef95 293d c370 0bbe
000000f0: 8216 cd3c 1d82 9abd edaf 25bd eb83 65bc

autoencoder.encoder.2.weight f4 [8, 64, 3]
-0.0031769867 -0.056198202 0.0059939767 0.028791165 -0.020147087 -0.011942324 -0.028155625 -0.057804786
-0.005250515 -0.12405579 -0.048269447 -0.06796848 0.050135087 -0.049733978 -0.027303869 -0.08562033
-0.114437625 -0.08003348 0.021751719 0.05332805 0.03133726 0.021310547 0.017334945 0.06707869
-0.046486415 -0.0029797757 0.115384474 0.06735638 0.028968608 0.091536656 -0.051998515 -0.012736533
-0.00588554 -0.0768293 -0.046051156 -0.17828622 -0.05477562 -0.024521166 -0.052033506 0.04753005
-0.051327545 0.051098827 -0.0018056876 -0.05709926 0.011957269 -0.02562898 0.008150753 -0.067203425
-0.013770078 -0.018568732 0.09367429 0.022447653 -0.06499413 0.058199856 0.022340443 -0.023903118
-0.009169877 0.026485777 -0.05155888 0.011130341 0.049211808 -0.056808617 -0.102005795 -0.045266364
-0.05082531 0.031547375 0.023129765 0.044791713 0.090417124 0.026449405 -0.034615383 0.017002527
-0.020257575 0.033600125 0.114040606 0.019125355 -0.052483488 0.07381253 -0.095296815 0.04628119
-0.040302776 0.04097672 -0.040410668 -0.06312102 0.01945518 0.07081578 0.013957324 0.020759027
0.059457082 -0.07242456 0.027504636 0.010357132 -0.06265788 0.042032268 0.06902447 0.07192195
-0.039491538 0.08406158 0.10469019 0.036389124 0.030171968 0.09871729 -0.082263924 -0.08331683
0.048588 0.037576508 -0.00861244 0.06966206 0.02126489 0.044460624 0.12817444 0.08529494
0.042330686 0.033962958 0.014437454 0.07100956 0.05540811 0.011166236 0.034816865 -0.051632293
-0.08882707 0.13374281 -0.06345548 0.07842579 0.031665687 0.06569019 0.03040967 -0.03386825
0.04160793 -0.022640685 0.008588353 -0.01895866 0.06270606 0.04614425 0.10026912 -0.03360031
0.009216611 0.016164117 0.029093537 0.038803503 0.025144158 -0.14652316 -0.031388983 -0.05770859
-0.013691466 -0.06703547 -0.09340297 -0.024766978 -0.08752332 -0.12935762 0.0816467 -0.056849364
-0.030942863 0.11125748 0.061449353 -0.05099088 0.020161347 0.02205785 0.054051336 0.05689923
0.04336167 -0.026884068 0.02437662 -0.062792875 0.08041888 0.050324842 -0.022066735 -0.09749558
-0.046955645 -0.06827232 0.030777836 -0.011246531 0.031102097 -0.030285949 0.084400885 -0.021214077
-0.011881118 -0.052023765 -0.017647464 -0.018485155 -0.0958593 -0.12666892 0.03465266 0.034245327
-0.021456499 0.0887839 0.037363775 0.029659845 -0.051087704 -0.03992103 0.070144005 -0.18281102
-0.037935924 -0.06387162 -0.1057865 -0.011992921 0.024291862 0.06730325 0.049579795 0.028482428
0.06106914 -0.119866826 0.075822815 0.08777311 0.017346073 0.032244522 0.053315584 0.062066298
0.001000147 -0.04820346 -0.059852716 0.00023763248 0.16074806 -0.046166584 0.045744844 0.065643035
0.022808168 0.05014956 0.14147948 0.020155065 -0.019497896 0.0965784 -0.060267203 -0.05754043
-0.013450379 -0.08674759 0.009802757 0.017444821 0.0033062063 0.063715145 -0.121038586 0.045765065
-0.02455314 0.040836815 0.009815759 -0.05211133 0.09044961 -0.03501043 -0.03721849 -0.03905046
0.0010997055 0.057125837 0.07873009 -0.057252377 0.08035148 0.1410487 0.07172921 -0.011336714
0.111941725 0.057892412 -0.025689507 -0.069749914 0.045840416 -0.025763383 -0.10580397 0.058162164
00000000: fe34 50bb 1630 66bd 1f69 c43b 73db eb3c
00000010: 810b a5bc bda9 43bc a0a6 e6bc b6c4 6cbd
00000020: 830c acbb f610 febd 2fb6 45bd 0f33 8bbd
00000030: 735a 4d3d dbb5 4bbd 5dac dfbc b659 afbd
00000040: 465e eabd 98e8 a3bd a930 b23c 836e 5a3d
00000050: 805b 003d 7593 ae3c 0402 8e3c 8d60 893d
00000060: 8a68 3ebd 5748 43bb b24e ec3d 24f2 893d
00000070: 934f ed3c 9277 bb3d 65fc 54bd e4ac 50bc
00000080: 7ddb c0bb ae58 9dbd 23a0 3cbd aa90 36be
00000090: 675c 60bd 9de0 c8bc 1621 55bd dfae 423d
000000a0: d53c 52bd 014d 513d d2ac ecba eae0 69bd
000000b0: 6ce8 433c def3 d1bc bc8a 053c f3a1 89bd
000000c0: e59b 61bc 741d 98bc 4ed8 bf3d 24e4 b73c
000000d0: a41b 85bd f962 6e3d 4e03 b73c 79d0 c3bc
000000e0: 403d 16bc b3f8 d83c 672f 53bd 095c 363c
000000f0: 5292 493d 27b0 68bd 6ae8 d0bd 3969 39bd
00000100: 332e 50bd d237 013d a27a bd3c 8477 373d
00000110: 9d2c b93d 6cac d83c dcc8 0dbd e248 8b3c
00000120: 37f3 a5bc 49a0 093d 1f8e e93d c7ac 9c3c
00000130: edf8 56bd 062b 973d fa2a c3bd 5891 3d3d
00000140: 8614 25bd 35d7 273d a885 25bd 9845 81bd
00000150: 7860 9f3c dd07 913d 43ad 643c d60e aa3c
00000160: 4589 733d 5453 94bd 6751 e13c f6b0 293c
00000170: c652 80bd 072a 2c3d b45c 8d3d d14b 933d
00000180: e1c1 21bd 7a28 ac3d cf67 d63d c30c 153d
00000190: 342b f73c 4a2c ca3d fd79 a8bd 04a2 aabd
000001a0: 3604 473d d3e9 193d 311b 0dbc fbaa 8e3d
000001b0: b533 ae3c 581c 363d 2940 033e 1daf ae3d
000001c0: f162 2d3d be1c 0b3d 128b 6c3c 766d 913d
000001d0: 9df3 623d 97f2 363c 219c 0e3d 627c 53bd
000001e0: f8ea b5bd e0f3 083e f2f4 81bd b39d a03d
000001f0: e1b3 013d 9488 863d b31d f93c 6fb9 0abd
00000200: 146d 2a3d f578 b9bc 2ab6 0c3c 314f 9bbc
00000210: 096c 803d c101 3d3d e559 cd3d 7ba0 09bd
00000220: 4501 173c 9c6a 843c 9255 ee3c 6cf0 1e3d
00000230: 1ffb cd3c 2b0a 16be bc91 00bd d85f 6cbd
00000240: 2c52 60bc e449 89bd 0e4a bfbd 1ee4 cabc
00000250: 6d3f b3bd 5376 04be 6336 a73d e1da 68bd
00000260: e37b fdbc f6da e33d 51b2 7b3d d0db 50bd
00000270: 6929 a53c aab2 b43c ef64 5d3d 2b0f 693d
00000280: 029c 313d fa3b dcbc 7ab1 c73c 8d99 80bd
00000290: a7b2 a43d 6c21 4e3d 4cc5 b4bc c3ab c7bd
000002a0: 9054 40bd 5cd2 8bbd cd21 fc3c 5f43 38bc
000002b0: d3c9 fe3c 3d1a f8bc 5fda ac3d 25c9 adbc
000002c0: 05a9 42bc df16 55bd 6a91 90bc 2e6e 97bc
000002d0: e151 c4bd 7fb5 01be f3ef 0d3d d444 0c3d
000002e0: 8ac5 afbc 55d4 b53d c20a 193d 34f9 f23c
000002f0: 5741 51bd 3c84 23bd a9a7 8f3d d032 3bbe
00000300: b362 1bbd 20cf 82bd 98a6 d8bd f57d 44bc
00000310: baff c63c 49d6 893d 2f14 4b3d fb53 e93c
00000320: a223 7a3d bd7c f5bd fe48 9b3d 63c2 b33d
00000330: 5a19 8e3c d512 043d 7161 5a3d 3b39 7e3d
00000340: 5d17 833a fe70 45bd 1f28 75bd fc2c 7939
00000350: 249b 243e 2c19 3dbd f25e 3b3d db6f 863d
00000360: 32d8 ba3c a069 4d3d ffdf 103e 3c1c a53c
00000370: 0dba 9fbc e5ca c53d beda 76bd 84af 6bbd
00000380: fa5e 5cbc b8a8 b1bd be9b 203c 71e8 8e3c
00000390: f0ac 583b 167d 823d 14e3 f7bd 2674 3b3d
000003a0: ab23 c9bc 8144 273d 47d2 203c b172 55bd
000003b0: a53d b93d 1967 0fbd 6a72 18bd 60f3 1fbd
000003c0: fe23 903a c8fc 693d 3e3d a13d 7881 6abd
000003d0: 518f a43d 126f 103e c4e6 923d a0bd 39bc
000003e0: b441 e53d 9820 6d3d cd72 d2bc 0bd9 8ebd
000003f0: 29c3 3b3d bb0d d3bc c0af d8bd 733b 6e3d

autoencoder.encoder.2.bias f4 [8]
-0.018078294 0.046407383 -0.01603415 0.007232177 -0.009201579 0.040854704 0.0911051 -0.03993374
00000000: ee18 94bc ab15 3e3d 0d5a 83bc e6fb ec3b
00000010: 38c2 16bc 4357 273d 5095 ba3d 9091 23bd

autoencoder.decoder.0.weight f4 [8, 64, 3]
-0.022264872 0.06536792 -0.004156828 -0.035137318 0.008726999 0.05710222 -0.009183928 -0.068099424
-0.024123576 0.03591749 -0.010663308 0.0509905 0.024820127 0.0006329194 0.027567096 -0.009741459
-0.06186696 -0.061849006 -0.056767114 -0.01149467 -0.05218206 0.010576338 0.008275047 0.054911956
0.0040579364 0.012300327 0.025662325 -0.02040336 -0.035960592 -0.06788767 -0.07028858 0.004745476
-0.034127716 0.019978955 0.017936103 0.05628653 -0.008810304 -0.00030518323 0.049809486 0.012238324
0.03303062 -0.03897076 -0.052162476 0.05502063 0.051444784 -0.027325861 0.011988439 -0.064182855
0.0050506964 -0.06700396 0.040790558 -0.071530156 -0.017408948 0.06733328 -0.024449594 -0.041832343
0.065103784 -0.036504555 0.015917026 0.040333472 0.01939021 -0.049860284 0.06549916 0.034606576
-0.045382462 -0.041189067 -0.01664501 0.024076968 0.02728808 0.00929258 0.047329158 0.07179397
0.014847487 0.02826792 0.041041978 0.014306396 0.0044495687 0.064887926 0.049823366 0.047135353
-0.028081533 -0.03450413 -0.039132766 -0.060435202 -0.0073323622 0.040662363 0.010573342 -0.025528733
-0.009983905 -0.05530464 -0.046356943 0.006644167 -0.041931376 0.00889466 0.059518218 0.01848106
0.055246666 -0.045722917 0.0018769428 -0.07089398 0.0005000457 -0.053164534 0.06773326 -0.06169604
0.024670012 -0.043170027 0.019976757 -0.00037642568 -0.00923074 -0.028009232 0.046403386 -0.013027027
0.0061513036 -0.021748792 -0.052591383 -0.030077066 0.06470609 0.06869498 -0.033529624 0.007192284
0.01171428 0.06366548 0.010071255 0.0033596158 -0.02099279 0.015219964 -0.07185769 -0.07200398
-0.008365467 -0.050055593 -0.050121494 -0.012249764 0.04004033 0.035717636 -0.025074013 -0.005099982
0.06699693 0.015611604 0.049077503 -0.029892668 -0.064582415 -0.03346036 0.006342247 -0.017479211
-0.039405413 0.06940003 -0.06661414 0.0018323585 0.028760582 -0.01947005 0.031300433 0.00025618076
-0.0428994 -0.039242044 -0.032465365 -0.0704644 0.044979922 0.06615317 -0.037072673 0.0035671145
0.024115503 0.020433977 -0.04005723 -0.04385512 0.07025266 0.042025477 0.06746437 0.050661705
-0.005369656 0.05080705 -0.0023147538 -0.000447765 -0.031269617 0.056281254 -0.0153431 0.010478109
-0.057547256 0.024756514 -0.034313623 -0.016296454 -0.0064534694 0.026754394 0.0029459372 0.012574926
-0.046874486 -0.054530174 0.02599053 -0.029717643 -0.062221386 -0.02978412 -0.07080089 0.014419623
0.0053597465 0.06664398 -0.039796244 -0.03732389 0.017232284 -0.018963236 0.05624166 0.010978699
-0.0015681237 -0.027687628 0.043605022 -0.033782057 0.029020235 0.046361767 -0.056609776 -0.06394404
-0.04069913 0.03462895 -0.039807808 0.0068219453 0.010896549 0.0151513 -0.036801133 0.0025234297
0.0500087 0.037409812 0.013786823 -0.05739405 0.033953495 -0.028736994 0.050507493 0.02997329
-0.013247009 0.027898356 -0.03001042 0.012456745 -0.0036009923 0.0011452064 0.025411397 0.07028329
-0.031854738 0.07047431 -0.013243638 0.06864038 0.016240388 0.005885236 -0.02413579 -0.038029797
-0.070971794 -0.03939324 -0.0064615235 0.06071414 0.03905391 0.012583002 -0.069845915 0.05084364
0.049686387 -0.03244243 0.029229939 -0.060130358 -0.036487803 -0.021778964 -0.06543757 -0.0044088066
00000000: d264 b6bc 9edf 853d 0036 88bb 26ec 0fbd
00000010: b0fb 0e3c 04e4 693d 3078 16bc b677 8bbd
00000020: ce9e c5bc 381e 133d 28b5 2ebc 6adb 503d
00000030: 9453 cb3c 80ea 253a 64d4 e13c a49a 1fbc
00000040: 3668 7dbd 6255 7dbd a284 68bd 2454 3cbc
00000050: dbbc 55bd 6048 2d3c 1094 073c 5ceb 603d
00000060: 70f8 843b 5087 493c cc39 d23c f224 a7bc
00000070: 6a4b 13bd b108 8bbd 76f3 8fbd f07f 9b3b
00000080: 81c9 0bbd e8aa a33c bcee 923c b48c 663d
00000090: 1859 10bc 0001 a0b9 0805 4c3d 4083 483c
000000a0: 1e4b 073d ce9f 1fbd 52a8 55bd 505d 613d
000000b0: c4b7 523d 7cda dfbc 286b 443c 4d72 83bd
000000c0: 5080 a53b 5f39 89bd 0014 273d 677e 92bd
000000d0: 369d 8ebc 08e6 893d 844a c8bc 6458 2bbd
000000e0: 2255 853d cd85 15bd 6c64 823c b634 253d
000000f0: 38d8 9e3c 4c3a 4cbd 6c24 863d a0bf 0d3d
00000100: f6e2 39bd deb5 28bd 1e5b 88bc 103d c53c
00000110: 408b df3c e83f 183c 38dc 413d b808 933d
00000120: e042 733c 2092 e73c a21b 283d 6065 6a3c
00000130: b0cd 913b f6e3 843d 9613 4c3d 0011 413d
00000140: 3e0b e6bc 3454 0dbd ae49 20bd e78a 77bd
00000150: 5044 f0bb 948d 263d d03b 2d3c a221 d1bc
00000160: 8893 23bc 1e87 62bd c7e0 3dbd 50b7 d93b
00000170: 3cc0 2bbd e8ba 113c 60c9 733d 9865 973c
00000180: 544a 623d f447 3bbd c003 f63a dd30 91bd
00000190: 8015 033a 0ec3 59bd bcb7 8a3d fdb4 7cbd
000001a0: c418 ca3c 0ed3 30bd 4ca6 a33c 005b c5b9
000001b0: 883c 17bc 9e73 e5bc 7a11 3e3d 506f 55bc
000001c0: e090 c93b 862a b2bc 106a 57bd 2e64 f6bc
000001d0: a084 843d f4af 8c3d 5c56 09bd 40ad eb3b
000001e0: 40ed 3f3c 0c63 823d e801 253c 002d 5c3b
000001f0: 12f9 abbc 285d 793c 202a 93bd d376 93bd
00000200: 500f 09bc 1807 4dbd 324c 4dbd 3cb3 48bc
00000210: 5401 243d a84c 123d 0468 cdbc c01d a7bb
00000220: b035 893d d0c7 7f3c 7e05 493d 78e1 f4bc
00000230: c943 84bd bb0d 09bd a0d2 cf3b 9030 8fbc
00000240: 9267 21bd 9a21 8e3d ff6c 88bd c02b f03a
00000250: 509b eb3c a87f 9fbc e234 003d 0050 8639
00000260: 48b7 2fbd 44bc 20bd 67fa 04bd a44f 90bd
00000270: de3c 383d 507b 873d 84d9 17bd 40c6 693b
00000280: e08d c53c 2865 a73c 0d13 24bd 6da1 33bd
00000290: a0e0 8f3d e822 2c3d c22a 8a3d a682 4f3d
000002a0: f0f3 afbb 0e1b 503d 20b3 17bb 00c2 eab9
000002b0: 9214 00bd 2c87 663d a061 7bbc 60ac 2b3c
000002c0: acb6 6bbd 2cce ca3c 718c 0cbd 2480 85bc
000002d0: a077 d3bb 082c db3c a010 413b 1007 4e3c
000002e0: 76ff 3fbd 085b 5fbd 18ea d43c 6a72 f3bc
000002f0: dadb 7ebd d4fd f3bc 0f00 91bd 4840 6c3c
00000300: d0a0 af3b a47c 883d 6301 23bd efe0 18bd
00000310: b82a 8d3c ca58 9bbc a85d 663d 00e0 333c
00000320: 8089 cdba 2ad1 e2bc 2e9b 323d 0e5f 0abd
00000330: d8bb ed3c d6e5 3d3d a7df 67bd 18f5 82bd
00000340: 22b4 26bd 16d7 0d3d 830d 23bd a08a df3b
00000350: 7087 323c 283d 783c c9bc 16bd 2060 253b
00000360: ecd5 4c3d 083b 193d 20e2 613c 0616 6bbd
00000370: d212 0b3d d869 ebbc f2e0 4e3d 8c8a f53c
00000380: fc09 59bc 188b e43c 6ad8 f5bc 6017 4c3c
00000390: a0fe 6bbb c01a 963a 902b d03c b0f0 8f3d
000003a0: 1d7a 02bd d654 903d d8fb 58bc 5493 8c3d
000003b0: 900a 853c f0d8 c03b 6cb8 c5bc 22c5 1bbd
000003c0: a959 91bd ce5a 21bd 30bb d3bb 64af 783d
000003d0: fef6 1f3d f028 4e3c 600b 8fbd 6c41 503d
000003e0: f483 4b3d 5ae2 04bd a073 ef3c 404b 76bd
000003f0: 3c74 15bd cc69 b2bc 2204 86bd c077 90bb

autoencoder.decoder.0.bias f4 [64]
-0.024889164 -0.019600362 -0.045070603 0.020625852 -0.009070486 -0.052156318 0.033627056 0.016647033
0.011519425 0.07108013 -0.012361646 0.045518763 -0.036540274 -0.03529191 0.017530724 -0.037669253
0.031124271 -0.06801456 -0.02645763 0.07196702 -0.003654316 0.03921 0.06507012 -0.020624135
-0.016822487 -0.010358136 -0.03595203 -0.0021749586 0.034391947 0.062288687 0.04992593 0.07107368
-0.036447402 -0.049750403 -0.071159035 0.04249368 0.031996354 -0.017273054 0.059667572 -0.05194375
-0.011676308 -0.0018877536 0.029021382 0.060186654 -0.041033436 0.07198739 0.06873961 0.019200057
-0.04749746 0.023795106 0.015039027 -0.026167478 0.069477335 -0.05796903 -0.02563592 -0.027070504
-0.02003071 0.05348888 -0.003591448 0.010041751 -0.06436437 -0.04881405 0.04533255 -0.022058234
00000000: 5ce4 cbbc f090 a0bc f49b 38bd 8cf7 a83c
00000010: 609c 14bc dda1 55bd 86bc 093d 5c5f 883c
00000020: f8bb 3c3c 7692 913d 8088 4abc e271 3a3d
00000030: 41ab 15bd 408e 10bd 989c 8f3c 134b 1abd
00000040: 54f8 fe3c 384b 8bbd acbd d8bc 7263 933d
00000050: 407d 6fbb aa9a 203d 7c43 853d f2f3 a8bc
00000060: 50cf 89bc 2cb5 29bc 7042 13bd c089 0ebb
00000070: 92de 0c3d 6c22 7f3d 227f 4c3d 148f 913d
00000080: df49 15bd 14c7 4bbd d4bb 91bd da0d 2e3d
00000090: 9c0e 033d 3880 8dbc fc65 743d f8c2 54bd
000000a0: fc4d 3fbc 806e f7ba 40be ed3c 4886 763d
000000b0: ad12 28bd 206e 933d 5ac7 8c3d 7049 9d3c
000000c0: b28c 42bd f4ed c23c 4066 763c 2e5d d6bc
000000d0: 224a 8e3d ef70 6dbd 6c02 d2bc f6c2 ddbc
000000e0: 7217 a4bc 2817 5b3d 805e 6bbb 2886 243c
000000f0: 78d1 83bd 3ef1 47bd a0ae 393d 78b3 b4bc

autoencoder.decoder.2.weight f4 [64, 1, 3]
0.20653343 -0.4449783 -0.32783857 0.2778089 0.40657622 0.035885394 -0.5228112 -0.36323428
-0.21006083 0.26872325 -0.46951637 -0.37079257 -0.57376677 -0.40727237 0.417926 -0.21539563
-0.13617775 0.01779002 -0.11420968 -0.19783163 -0.011692405 -0.2894528 0.36624134 -0.023229837
0.25825614 0.069597304 0.4350146 0.28084624 -0.290254 -0.1356928 0.13323396 -0.20829383
-0.4001977 0.48401034 0.38775915 -0.2884387 0.13328153 0.41864103 -0.34983087 -0.09512767
-0.47611818 -0.52828336 0.45886362 0.20206988 -0.3752374 -0.042846203 -0.2685477 -0.10523242
-0.12482786 0.18288171 0.09990102 -0.39145303 0.28924733 0.04254234 -0.30154413 -0.33539212
-0.012740731 0.20094967 -0.53320134 -0.13425952 -0.41718715 -0.53986424 0.30940354 -0.19834459
-0.55028903 -0.16626427 -0.31887674 0.3121007 -0.09065601 -0.34993017 -0.23599696 -0.127718
0.44186997 0.052499413 -0.45689923 -0.14948744 0.5320616 -0.4933362 -0.21648613 0.50291026
-0.2328557 0.43977034 -0.37809914 0.4370309 0.38150823 -0.107932776 -0.53555137 -0.19528249
0.14459711 -0.19336426 -0.4607822 -0.51029336 0.27491778 0.41617894 -0.21868151 0.02206409
-0.35342598 0.3333552 -0.3793918 -0.32744157 -0.23507658 -0.10602489 0.07134855 -0.54426765
-0.2111432 -0.25057194 -0.11727917 -0.03286767 0.027052283 0.29480273 -0.32868958 0.012596726
0.52466834 0.074059546 -0.4288869 0.39517283 -0.5123547 0.2346546 0.47799194 0.072359085
0.3096819 0.45812976 0.26362723 -0.17344394 0.12553638 0.4669696 0.13536942 -0.45885047
0.5023904 0.5595126 0.3350371 0.31386852 0.3243811 -0.35053903 -0.17329308 0.24953467
0.14704508 0.24534237 -0.01092726 -0.5563899 0.27366215 -0.3631473 -0.47710603 0.5709604
0.2545116 0.2869326 -0.25295517 0.21275944 0.049067914 0.39381784 0.06753647 0.51602435
-0.1352261 0.5327848 0.5717857 0.0682891 -0.42330816 0.00022608042 0.45956433 -0.39446002
-0.20633557 0.20877266 0.11731249 0.54273343 0.095095396 -0.0044151545 0.075879514 -0.118756026
-0.5315139 -0.20250297 -0.52337193 0.42243809 0.034932613 0.067227244 -0.04006934 -0.2962354
-0.40731257 -0.08837065 0.1746844 -0.31594703 -0.35719484 0.37510633 -0.20045838 0.32526696
0.5527152 0.5426552 -0.4463842 0.04282427 -0.4527039 0.0238294 0.0802899 -0.2498914
00000000: 807d 533e 32d4 e3be 75da a7be f83c 8e3e
00000010: c22a d03e 90fc 123d f4d6 05bf d8f9 b9be
00000020: 301a 57be 1896 893e 7364 f0be 86d8 bdbe
00000030: 61e2 12bf 0186 d0be 66fa d53e ac90 5cbe
00000040: 2e72 0bbe 60bc 913c c4e6 e9bd 6094 4abe
00000050: 8091 3fbc 2833 94be fc83 bb3e 804c bebc
00000060: 263a 843e 0889 8e3d 3cba de3e 14cb 8f3e
00000070: 2c9c 94be 0ef3 0abe 7c6e 083e fa4a 55be
00000080: b7e6 ccbe 34d0 f73e 5e88 c63e 3dae 93be
00000090: f47a 083e 1e58 d63e 081d b3be 4cd2 c2bd
000000a0: c3c5 f3be 943d 07bf 2cf0 ea3e 68eb 4e3e
000000b0: 1e1f c0be 807f 2fbd 167f 89be 1884 d7bd
000000c0: c0a5 ffbd 5845 3b3e e898 cc3d 886c c8be
000000d0: 3a18 943e e040 2e3d fe63 9abe 84b8 abbe
000000e0: 80be 50bc c0c5 4d3e e27f 08bf 547b 09be
000000f0: 8e99 d5be 8b34 0abf 246a 9e3e d81a 4bbe
00000100: bedf 0cbf 2e41 2abe d043 a3be aacb 9f3e
00000110: dca9 b9bd 0c2a b3be 30a9 71be 82c8 02be
00000120: c83c e23e a009 573d b2ee e9be 3c13 19be
00000130: 3035 083f 9096 fcbe 8aae 5dbe babe 003f
00000140: ba71 6ebe 9429 e13e 3696 c1be 84c2 df3e
00000150: 0c55 c33e dc0b ddbd e519 09bf 22f8 47be
00000160: 4411 143e 4801 46be a5eb ebbe 96a2 02bf
00000170: 06c2 8c3e 6815 d53e 0cee 5fbe c0bf b43c
00000180: 40f4 b4be 88ad aa3e a43f c2be 6ca6 a7be
00000190: eab7 70be 9423 d9bd 301f 923d 2055 0bbf
000001a0: ec35 58be f74a 80be 1030 f0bd 40a0 06bd
000001b0: c09c dd3c 62f0 963e 004a a8be 8062 4e3c
000001c0: aa50 063f 88ac 973d 1097 dbbe 1854 ca3e
000001d0: ad29 03bf 4c49 703e 5cbb f43e 0031 943d
000001e0: a08e 9e3e fc8f ea3e 26fa 863e 4a9b 31be
000001f0: 9c8c 003e a416 ef3e 489e 0a3e 73ee eabe
00000200: a89c 003f 383c 0f3f fc89 ab3e 60b3 a03e
00000210: 4815 a63e da79 b3be be73 31be 0486 7f3e
00000220: fc92 163e 083b 7b3e 4008 33bc 926f 0ebf
00000230: 721d 8c3e 71ee b9be 3e47 f4be 762a 123f
00000240: 584f 823e d4e8 923e 5783 81be 9cdd 593e
00000250: 70fb 483d 7ea2 c93e 9050 8a3d 2c1a 043f
00000260: b678 0abe 9664 083f 8c60 123f 28db 8b3d
00000270: d9bb d8be 0010 6d39 044c eb3e aaf6 c9be
00000280: a249 53be 80c8 553e 8841 f03d 94f0 0a3f
00000290: 60c1 c23d 00ad 90bb b866 9b3d 5c36 f3bd
000002a0: 4c11 08bf f05c 4fbe b4fb 05bf ce49 d83e
000002b0: 8015 0f3d 70ae 893d c01f 24bd 2bac 97be
000002c0: 468b d0be acfb b4bd 78e0 323e cfc3 a1be
000002d0: 3ee2 b6be f00d c03e f644 4dbe 6489 a63e
000002e0: be7e 0d3f 74eb 0a3f 788c e4be 8068 2f3d
000002f0: cec8 e7be e035 c33c 086f a43d 88e3 7fbe

tcn.network.0.conv1.bias f4 [64]
-0.14127679 -0.07739902 0.017951537 -0.07967041 -0.06042651 0.0707358 -0.06914908 0.07226902
0.1632892 0.023823852 0.058516514 0.101191945 -0.1094413 -0.024205167 -0.17903632 -0.08030075
-0.011754114 0.17117044 0.09397123 -0.0476683 -0.09669105 0.05128732 -0.071488574 -0.045968536
0.04204512 -0.11633393 0.12683533 0.049177136 -0.02512799 -0.05205846 -0.021324996 0.07864617
0.040196184 -0.05317375 0.06941339 -0.043301072 -0.16212432 -0.21339674 -0.023223298 0.16595423
-0.08816708 0.12724723 -0.05954234 0.08894941 -0.084749006 -0.07492139 0.044272225 0.106206976
-0.13346772 -0.013492451 0.023752358 0.028668758 0.17919825 -0.17995839 0.119565 0.11290179
-0.22695851 -0.091677964 0.062104464 -0.170566 0.15971436 -0.10872942 0.06608824 0.004778707
00000000: ddaa 10be 6183 9ebd 1a0f 933c 3d2a a3bd
00000010: ca81 77bd eedd 903d 089e 8dbd c801 943d
00000020: 4935 273e 3d2a c33c 03af 6f3d b93d cf3d
00000030: c322 e0bd ea49 c6bc 4c55 37be b874 a4bd
00000040: 5494 40bc 4e47 2f3e fd73 c03d d63f 43bd
00000050: f505 c6bd a712 523d 9a68 92bd 8149 3cbd
00000060: 8137 2c3d 7c40 eebd 1fe1 013e f76d 493d
00000070: 37d9 cdbc 403b 55bd c2b1 aebc 3e11 a13d
00000080: c1a4 243d b8cc 59bd 9b28 8e3d 775c 31bd
00000090: eb03 26be ad84 5abe c93e bebc e8ef 293e
000000a0: f190 b4bd 194d 023e abe2 73bd 1c2b b63d
000000b0: e390 adbd 6370 99bd cb56 353d 0b83 d93d
000000c0: c3ab 08be 710f 5dbc 4e94 c23c beda ea3c
000000d0: bf7f 373e 0347 38be 7fde f43d 0e39 e73d
000000e0: d067 68be a8c1 bbbd 4061 7e3d daa8 2ebe
000000f0: 298c 233e 88ad debd 4559 873d b396 9c3b

tcn.network.0.conv1.weight_g f4 [64, 1, 1]
0.5853556 0.66396946 0.5717028 0.514072 0.6259677 0.57085955 0.49421197 0.57507277
0.5044973 0.50401783 0.6018956 0.48801744 0.548585 0.4414125 0.5931243 0.51515394
0.55425876 0.65800506 0.48177594 0.5385963 0.6025556 0.66606444 0.5158382 0.521867
0.39665595 0.5059125 0.48770505 0.57428765 0.49171114 0.55826294 0.49382696 0.62495166
0.54420877 0.60907817 0.5305736 0.46903232 0.48297933 0.54750216 0.55685556 0.4758389
0.6052897 0.48008993 0.6150039 0.55202824 0.5656505 0.58886695 0.53308564 0.61259305
0.61053324 0.5966429 0.54499394 0.56569546 0.5563229 0.5850953 0.5408007 0.58801997
0.4589065 0.634432 0.57537174 0.5876648 0.5918011 0.55146056 0.65416783 0.59478474
00000000: ddd9 153f e7f9 293f 1d5b 123f 399a 033f
00000010: 6b3f 203f da23 123f 5a09 fd3e f837 133f
00000020: bc26 013f 5007 013f d415 1a3f 6cdd f93e
00000030: 1170 0c3f d200 e23e fed6 173f 21e1 033f
00000040: e7e3 0d3f 0573 283f 56ab f63e 72e1 093f
00000050: 1541 1a3f 3383 2a3f f90d 043f 1399 053f
00000060: 7d16 cb3e 7b83 013f 7ab4 f93e 8404 133f
00000070: 90c1 fb3e 52ea 0e3f e3d6 fc3e d5fc 1f3f
00000080: 4451 0b3f 8cec 1b3f acd3 073f 0125 f03e
00000090: 1149 f73e 1a29 0c3f 168e 0e3f 28a1 f33e
000000a0: 44f4 1a3f 59ce f53e e570 1d3f b951 0d3f
000000b0: 79ce 103f fcbf 163f 4d78 083f e6d2 1c3f
000000c0: e84b 1c3f 97bd 183f b984 0b3f 6bd1 103f
000000d0: 2d6b 0e3f cec8 153f ea71 0a3f 7a88 163f
000000e0: cbf5 ea3e 236a 223f 904b 133f 3371 163f
000000f0: 4780 173f 852c 0d3f 8b77 273f d043 183f

tcn.network.0.conv1.weight_v f4 [64, 8, 3]
-0.07315653 0.11376109 -0.01194407 0.13645154 0.1445534 0.04124921 0.021738665 -0.116051674
-0.1639973 0.100296795 0.099867165 0.018004073 0.10134502 0.05355024 0.11569569 -0.05309132
0.06173436 -0.1988618 -0.23938248 0.020765036 -0.1610149 0.1486123 -0.20085824 -0.21058993
-0.1815389 0.12140943 -0.1444641 -0.21820317 0.045013495 -0.07472308 -0.20555255 0.13581023
0.13850072 0.16447444 0.11234948 -0.18922126 -0.042204686 -0.05434431 -0.20716257 0.15960048
-0.09819886 0.0894691 -0.10049051 0.1762526 0.1166163 0.11670416 0.07759836 0.15092203
0.047001254 0.0081284065 -0.06647084 0.17905158 -0.19245246 0.10869046 -0.044710666 -0.0841556
-0.17185363 -0.18635927 0.006651061 -0.05677788 -0.13200705 -0.11019879 -0.14869976 0.12344062
-0.090621985 -0.10448774 -0.14025831 0.047532305 -0.20734964 -0.18408339 0.017764576 -0.06664642
-0.041181527 -0.18052648 0.015998064 0.08382814 -0.08738525 -0.024096541 -0.01850367 -0.06531959
0.1501116 0.04900255 0.03740138 -0.0010244475 -0.0030036245 0.11595185 0.0227758 0.05059768
0.16998503 0.14904316 -0.09037376 -0.17892745 0.033818852 -0.13493991 -0.20107627 0.13793193
-0.17006822 0.19935364 -0.20540932 -0.16863734 0.12530373 0.042206686 -0.09731524 0.07139141
-0.12194012 -0.1465947 -0.22695702 -0.14213718 -0.2727596 0.10073091 -0.168934 0.015395222
-0.08350572 -0.018635135 0.19011913 0.08112072 0.12782924 0.039835915 -0.16635266 0.12717995
0.17292988 0.071150005 0.17494231 -0.09472328 -0.13829727 -0.15916899 -0.013595138 -0.0016505548
-0.09601915 -0.10839388 -0.09705901 0.17177759 -0.05025513 0.13601212 0.0034131592 0.0997236
0.14705445 -0.22916658 -0.14974867 -0.20960757 0.15713191 0.09655153 -0.065572366 -0.13290104
0.1189137 0.047866866 -0.107672095 -0.16803561 -0.12045583 0.051211245 -0.18663386 -0.024469456
0.12643833 0.075986266 -0.0065068607 0.0029427824 0.01575945 0.059811104 0.16563004 0.06805354
0.12062554 0.15597335 -0.20344938 -0.14306769 0.08414234 0.06890685 -0.11591027 0.08169165
-0.1908612 -0.07287267 0.10171001 -7.759556e-05 -0.12466 0.107045434 0.02270159 -0.013059776
-0.18304387 -0.06756652 0.02392075 -0.08884679 0.035304777 -0.14652137 0.20259506 0.16487354
0.1254372 -0.017245406 -0.22506335 -0.12742427 -0.008453807 -0.16333215 0.17738281 0.07410478
0.17704652 -0.17676276 -0.11065532 0.08455282 0.03062932 -0.11413847 0.15823852 0.093999654
-0.012964888 0.20225286 -0.217402 -0.19626707 0.038132627 0.18499203 0.10763826 -0.19769798
0.23437004 0.19338408 -0.05037817 0.08758674 -0.010834413 0.02300081 -0.03285188 -0.096753865
-0.14715664 -0.03219075 -0.14383665 0.034226634 0.025815515 -0.22696927 -0.16144332 0.14054117
-0.11549902 -0.0052077295 -0.15866035 -0.09240507 0.1413825 0.057642654 0.0784089 -0.03030903
-0.18002485 -0.0029763728 0.12793277 0.017321717 -0.020733157 0.019602548 0.15518026 0.092944436
-0.06498931 -0.12518315 0.15459487 -0.18340139 -0.10896925 -0.020468678 -0.24183919 -0.19485858
-0.18238856 0.056407418 -0.11883698 0.20334229 0.010327365 -0.06415346 -0.07369879 -0.09852536
00000000: 17d3 95bd 93fb e83d 10b1 43bc f4b9 0b3e
00000010: ce05 143e eef4 283d 4915 b23c 80ac edbd
00000020: e9ee 27be 6868 cd3d 2887 cc3d 477d 933c
00000030: fa8d cf3d 7f57 5b3d ddf1 ec3d 4976 59bd
00000040: 2bdd 7c3d 6da2 4bbe ae20 75be 701b aa3c
00000050: 17e1 24be d32d 183e c8ad 4dbe e3a4 57be
00000060: 55e5 39be 82a5 f83d 66ee 13be a770 5fbe
00000070: 1260 383d 6a08 99bd 5e7c 52be d611 0b3e
00000080: 22d3 0d3e fd6b 283e 7c17 e63d 38c3 41be
00000090: d2de 2cbd 2498 5ebd 6d22 54be 4f6e 233e
000000a0: 7c1c c9bd 933b b73d f8cd cdbd 907b 343e
000000b0: 87d4 ee3d 9702 ef3d e4eb 9e3d 4e8b 1a3e
000000c0: 6384 403d 022d 053c dd21 88bd 4c59 373e
000000d0: 4212 45be 1b99 de3d 8822 37bd c559 acbd
000000e0: 66fa 2fbe f7d4 3ebe 25f1 d93b ec8f 68bd
000000f0: db2c 07be e7af e1bd c044 18be 70ce fc3d
00000100: 0598 b9bd abfd d5bd e09f 0fbe 3cb1 423d
00000110: 7753 54be 5b80 3cbe 0487 913c eb7d 88bd
00000120: f6ad 28bd efdb 38be 5f0e 833c 16ae ab3d
00000130: 0af7 b2bd 1c66 c5bc 0295 97bc 47c6 85bd
00000140: dbb6 193e e6b6 483d 3032 193d c146 86ba
00000150: 75d8 44bb 2a78 ed3d 5194 ba3c 833f 4f3d
00000160: 8e10 2e3e c59e 183e e115 b9bd c238 37be
00000170: a385 0a3d b02d 0abe f0e6 4dbe 073e 0d3e
00000180: 5d26 2ebe 5c23 4c3e d256 52be 44af 2cbe
00000190: 9f4f 003e ebe0 2c3d 364d c7bd a935 923d
000001a0: bebb f9bd ec1c 16be 6c67 68be 698c 11be
000001b0: 25a7 8bbe 024c ce3d 09fd 2cbe 3e3c 7c3c
000001c0: 0c05 abbd b6a8 98bc 97ae 423e 9f22 a63d
000001d0: abe5 023e fc2a 233d 5a58 2abe 763b 023e
000001e0: 8814 313e 18b7 913d 1424 333e 47fe c1bd
000001f0: cd9d 0dbe 32fd 22be 24be 5ebc 6e57 d8ba
00000200: b0a5 c4bd 9cfd ddbd e0c6 c6bd 77e6 2f3e
00000210: 53d8 4dbd c346 0b3e 4faf 5f3b e33b cc3d
00000220: 7195 163e a5aa 6abe b757 19be 5ea3 56be
00000230: 30e7 203e cfbc c53d ce4a 86bd 3617 08be
00000240: 0789 f33d 0c10 443d 3083 dcbd 8711 2cbe
00000250: 8cb1 f6bd e2c2 513d f21c 3fbe 2b74 c8bc
00000260: 0d79 013e b09e 9b3d 8137 d5bb b2db 403b
00000270: f619 813c 7dfc 743d ec9a 293e a85f 8b3d
00000280: 860a f73d 7ab7 1f3e 0955 50be 5680 12be
00000290: d252 ac3d 091f 8d3d 5d62 edbd f44d a73d
000002a0: 1e71 43be 443e 95bd 564d d03d cdba a2b8
000002b0: be4d ffbd a33a db3d aff8 b93c acf8 55bc
000002c0: da6f 3bbe 5160 8abd 73f5 c33c 4ef5 b5bd
000002d0: be9b 103d b309 16be 1475 4f3e 9cd4 283e
000002e0: 9c72 003e 3d46 8dbc 0277 66be 827b 02be
000002f0: d681 0abc 8b40 27be d7a3 353e 3fc4 973d
00000300: af4b 353e 4c01 35be 429f e2bd 072a ad3d
00000310: 57ea fa3c 6ec1 e9bd 4709 223e e482 c03d
00000320: ae6a 54bc 601b 4f3e a19e 5ebe 3cfa 48be
00000330: f530 1c3d 8d6e 3d3e 7371 dc3d 5771 4abe
00000340: b3fe 6f3e 7a06 463e 5759 4ebd ad60 b33d
00000350: d282 31bc 326c bc3c b18f 06bd e426 c6bd
00000360: 3bb0 16be 73da 03bd ea49 13be 3a31 0c3d
00000370: 0f7b d33c a26a 68be 6651 25be 06ea 0f3e
00000380: c08a ecbd 9aa5 aabb dc77 22be df3e bdbd
00000390: 93c6 103e b41a 6c3d d894 a03d a54a f8bc
000003a0: 6f58 38be 400f 43bb cf00 033e 46e6 8d3c
000003b0: 95d8 a9bc 8695 a03c 93e7 1e3e a759 be3d
000003c0: 1e19 85bd 0330 00be 1e4e 1e3e 93cd 3bbe
000003d0: 452b dfbd eead a7bc b1a4 77be 0289 47be
000003e0: 11c4 3abe 770b 673d cd60 f3bd f638 503e
000003f0: 1c34 293c e462 83bd 64ef 96bd aac7 c9bd

tcn.network.0.conv2.bias f4 [64]
0.026957557 0.023872528 0.0134192305 -0.051541634 0.023034912 -0.008228455 -0.081961654 0.01458411
-0.014523228 0.025267264 -0.08136929 -0.056723762 -0.010491509 -0.05966151 -0.04503307 -0.011264027
0.0067525427 -0.060094547 -0.060838606 -0.059711263 -0.032151055 -0.030615505 0.014997616 -0.017011102
0.016088296 -0.043014765 -0.0063682855 -0.07500809 -0.04332599 -0.05574061 -0.057584736 -0.05307007
0.05192574 -0.018883806 -0.05050798 -0.08084021 0.034425315 0.0034336087 -0.07135784 0.030029884
-0.05190413 -0.0493135 0.0067766556 -0.08111023 -0.06371975 -0.022583738 0.03944722 0.07501562
-0.0230723 0.023507742 -0.01677143 -0.018172488 -0.026990581 0.022949541 0.028948918 -0.068216704
-0.096005954 -0.06410802 -0.060292054 -0.056078807 0.019535514 -0.0175127 0.045484416 -0.027102306
00000000: 18d6 dc3c 5290 c33c 55dc 5b3c 521d 53bd
00000010: b6b3 bc3c a4d0 06bc 83db a7bd 31f2 6e3c
00000020: d5f2 6dbc 4bfd ce3c f1a4 a6bd 2d57 68bd
00000030: 94e4 2bbc a15f 74bd 9974 38bd c18c 38bc
00000040: 6f44 dd3b b325 76bd e731 79bd cc93 74bd
00000050: d3b0 03bd 5ecd fabc 90b8 753c de5a 8bbc
00000060: 9acb 833c 4030 30bd 0dad d0bb d79d 99bd
00000070: 9876 31bd 4450 64bd f9dd 6bbd 0060 59bd
00000080: 16b0 543d 36b2 9abc 75e1 4ebd 8d8f a5bd
00000090: 8f01 0d3d 6506 613b 0f24 92bd 3b01 f63c
000000a0: 6d99 54bd f4fc 49bd b50e de3b 1f1d a6bd
000000b0: 807f 82bd 8801 b9bc 6893 213d caa1 993d
000000c0: 1f02 bdbc 4f93 c03c 3d64 89bc 78de 94bc
000000d0: 5a1b ddbc ad00 bc3c 4826 ed3c 33b5 8bbd
000000e0: c59e c4bd 114b 83bd cdf4 76bd e4b2 65bd
000000f0: f108 a03c cb76 8fbc de4d 3a3d a805 debc

tcn.network.0.conv2.weight_g f4 [64, 1, 1]
0.5737288 0.59403825 0.5817186 0.55305 0.5728755 0.58106595 0.5897859 0.5247145
0.5303653 0.5499875 0.5555946 0.5109021 0.5708633 0.41941863 0.5724227 0.5249271
0.58451265 0.55039716 0.4580828 0.53340876 0.5451201 0.529094 0.5911233 0.5509692
0.5809027 0.560278 0.5541774 0.55536354 0.5604758 0.52897656 0.56158257 0.46844062
0.5353759 0.55289054 0.56093293 0.5492673 0.5680586 0.56444865 0.54494363 0.54784393
0.5729549 0.5806619 0.5473637 0.5502498 0.5727253 0.5571819 0.51913947 0.5837405
0.5592142 0.536119 0.5465781 0.5276845 0.5374198 0.59657276 0.57757443 0.5352033
0.5328115 0.55061764 0.53324664 0.5708797 0.56010675 0.55525243 0.57994735 0.56062126
00000000: e4df 123f e412 183f 83eb 143f af94 0d3f
00000010: f8a7 123f bdc0 143f 35fc 163f b153 063f
00000020: 05c6 073f fbcb 0c3f 733b 0e3f 7bca 023f
00000030: 1924 123f 0abe d63e 4b8a 123f 9f61 063f
00000040: 9fa2 153f d4e6 0c3f d489 ea3e 7a8d 083f
00000050: fe8c 0b3f b472 073f db53 173f 510c 0d3f
00000060: 0ab6 143f 616e 0f3f 92de 0d3f 4e2c 0e3f
00000070: 587b 0f3f 026b 073f e0c3 0f3f 73d7 ef3e
00000080: 650e 093f 3c8a 0d3f 4d99 0f3f c89c 0c3f
00000090: 4a6c 113f b57f 103f 6d81 0b3f 803f 0c3f
000000a0: 2cad 123f 42a6 143f 0720 0c3f 2cdd 0c3f
000000b0: 209e 123f 79a3 0e3f 53e6 043f 0470 153f
000000c0: a928 0f3f 183f 093f 8bec 0b3f 5516 073f
000000d0: 5894 093f feb8 183f ebdb 133f 1503 093f
000000e0: 5666 083f 47f5 0c3f da82 083f 2c25 123f
000000f0: 2863 0f3f 0625 0e3f 6e77 143f e084 0f3f

tcn.network.0.conv2.weight_v f4 [64, 64, 3]
-0.020360323 -0.07555211 -0.0014238004 -0.085284784 -0.01842578 -0.015546897 -0.025121849 0.05714598
-0.06685442 -0.063015096 0.04125513 -0.035517216 0.06504377 -0.05258672 -0.03555048 0.08134893
-0.007854457 -0.058301046 -0.022464532 0.017552849 0.05229418 0.077041626 -0.025702793 0.028494418
0.04776073 -0.035777107 -0.0047920053 -0.06947375 -0.028001094 0.08113243 0.070051834 -0.050928365
0.04417648 0.05117601 -0.024871921 0.024746526 -0.07168627 0.048200756 -0.0077541894 0.036553506
0.026007753 -0.04174794 -0.037559465 -0.0745365 -0.07625273 -0.07514428 0.026721535 0.04935476
-0.094703615 0.010505875 -0.06958205 0.02281647 0.05769855 0.05894559 -0.05147585 0.024523525
-0.044586778 -0.08554421 -0.032503664 -0.0040644924 -0.01153204 -0.0028223637 0.018135134 0.020711811
-0.061939307 -0.058146264 -0.05570431 0.039636914 0.073650114 -0.06535989 -0.023389833 -0.032449782
0.009633417 0.015613343 -0.008425486 0.024832854 -0.026958022 0.08628127 -0.003105831 -0.062175762
0.039046504 0.04167702 0.035770986 -0.018712232 0.025040919 0.02646993 -0.042999227 -0.017498676
-0.033855148 -0.059783857 -0.029151637 -0.028355448 -0.0013608981 -0.06710541 0.038079854 -0.023849644
0.044302054 -0.045723874 0.00014095566 -0.050123863 0.022870218 -0.04647602 -0.021628248 0.022062987
-0.03701176 0.046813916 0.024770292 0.050775655 -0.04068052 -0.023894755 -0.08010066 0.0010742351
0.0013422039 0.015062364 0.0027593563 -0.0037360878 -0.014986618 0.033831153 0.07854502 0.0018807526
-0.0699419 -0.071615025 0.02693182 0.077562556 -0.03652475 0.051674813 0.048553433 0.06345639
0.053686514 -0.069736436 0.03988828 -0.0033132462 -0.048833553 -0.07070954 -0.037755027 0.067296706
0.080098495 0.06156545 -0.04693264 0.06726351 0.05711304 0.06471277 -0.04228525 0.06084098
-0.0275886 0.033781853 -0.069504894 -0.032614768 -0.067505784 -0.07012088 -0.021601094 -0.03468301
0.012692193 0.05904736 0.00058904686 -0.042569228 -0.033313263 -0.042629424 -0.019950852 -0.091140516
0.006897281 -0.037868313 -0.072746 -0.028269598 -0.04402502 0.021415008 0.07284303 0.06691575
0.004793259 -0.04169914 -0.00804126 0.012443434 -0.004433489 0.05117689 0.014250404 -0.045847427
-0.05127542 -0.0006704366 -0.029843258 -0.052390814 -0.07639079 -0.07213618 0.060400266 0.04859034
-0.07947612 -0.06873916 -0.084347375 -0.07756937 -0.077291265 0.02707696 -0.05592862 0.023043288
-0.084295504 -0.056416575 -0.032708317 0.0087864725 -0.022897452 -0.046460997 0.041184664 -0.15915383
-0.02310949 0.06971463 -0.04771793 -0.035898156 0.06635712 0.12877716 0.054335963 0.015919337
0.03653119 0.07452674 0.037927117 -0.03959692 -0.036377046 -0.03831706 0.07492494 -0.040344145
0.03736667 -0.06352255 0.014612672 0.007813375 0.06197542 -0.04555246 -0.058798783 0.061914213
-0.07019235 -0.015616108 -0.06928334 -0.06928159 0.058169533 -0.045049064 -0.03273784 -0.08372652
-0.09303632 0.0072361785 0.101100124 -0.029699666 -0.04602654 0.073830456 0.05509872 0.057658616
0.09275706 0.016051648 0.023286548 0.037390906 -0.009210751 -0.056627948 0.060632225 0.09130687
0.015729055 -0.03115547 0.05434306 -0.08027701 -0.019390969 -0.017691731 -0.039127965 -0.029098224
00000000: b1ca a6bc 11bb 9abd d09e baba caa9 aebd
00000010: a9f1 96bc 6ab8 7ebc 56cc cdbc e711 6a3d
00000020: f8ea 88bd 0f0e 81bd 24fb 283d 807a 11bd
00000030: ab35 853d 2c65 57bd 619d 11bd 459a a63d
00000040: fbaf 00bc 14cd 6ebd 8a07 b8bc feca 8f3c
00000050: 6c32 563d 00c8 9d3d aa8e d2bc 206d e93c
00000060: c1a0 433d 048b 12bd 4106 9dbb 4148 8ebd
00000070: 8d62 e5bc c228 a63d 5677 8f3d 439a 50bd
00000080: 66f2 343d f09d 513d 33c0 cbbc 3ab9 ca3c
00000090: 40d0 92bd 286e 453d db16 febb 21b9 153d
000000a0: 360e d53c e3ff 2abd f4d7 19bd 98a6 98bd
000000b0: 642a 9cbd 3fe5 99bd 1fe7 da3c 3828 4a3d
000000c0: f8f3 c1bd d520 2c3c 0981 8ebd 9be9 ba3c
000000d0: 5155 6c3d ee70 713d 57d8 52bd 8fe5 c83c
000000e0: a0a0 36bd ce31 afbd 9022 05bd 6f2f 85bb
000000f0: e2f0 3cbc 68f7 38bb 2290 943c d1ab a93c
00000100: 12b4 7dbd c72a 6ebd 342a 64bd 515a 223d
00000110: dfd5 963d 68db 85bd 099c bfbc 10ea 04bd
00000120: 7bd5 1d3c 1bcf 7f3c 0d0b 0abc 456e cb3c
00000130: 12d7 dcbc 3cb4 b03d 338b 4bbb 03ac 7ebd
00000140: 3aef 1f3d 86b5 2a3d 9984 123d 654a 99bc
00000150: 9d22 cd3c 77d7 d83c f51f 30bd 6259 8fbc
00000160: b2ab 0abd ebdf 74bd 6acf eebc af49 e8bc
00000170: 2a60 b2ba 906e 89bd 9ff9 1b3d 5460 c3bc
00000180: 1276 353d f548 3bbd 7fcd 1339 ae4e 4dbd
00000190: 535a bb3c a45d 3ebd b92d b1bc 70bd b43c
000001a0: a599 17bd f3bf 3f3d 11eb ca3c 22fa 4f3d
000001b0: 9ea0 26bd efbe c3bc d10b a4bd 59cd 8c3a
000001c0: e4ec af3a 22c8 763c 51d6 343b 27d9 74bb
000001d0: 6f8a 75bc 8992 0a3d 36dc a03d 9683 f63a
000001e0: b33d 8fbd e6aa 92bd 1fa0 dc3c 1ed9 9e3d
000001f0: fa9a 15bd f8a8 533d f7df 463d 6cf5 813d
00000200: 64e6 5b3d fad1 8ebd e561 233d 0c23 59bb
00000210: b105 48bd 2ad0 90bd 04a5 1abd dbd2 893d
00000220: ae0a a43d 0e2c 7c3d 713c 40bd 73c1 893d
00000230: 5def 693d 2188 843d 4c33 2dbd 6434 793d
00000240: 7d01 e2bc d75e 0a3d 9558 8ebd 1097 05bd
00000250: 7940 8abd 899b 8fbd c7f4 b0bc c60f 0ebd
00000260: eaf2 4f3c a5db 713d 446a 1a3a 125d 2ebd
00000270: 7d73 08bd 319c 2ebd f86f a3bc e1a7 babd
00000280: 9602 e23b ce1b 1bbd dbfb 94bd a595 e7bc
00000290: 9453 34bd 876e af3c ba2e 953d 200b 893d
000002a0: c510 9d3b b8cc 2abd 7dbf 03bc 8cdf 4b3c
000002b0: cd46 91bb dc9e 513d 877a 693c 83ca 3bbd
000002c0: 2d06 52bd 3dc0 2fba d979 f4bc c097 56bd
000002d0: c672 9cbd 22bc 93bd 4566 773d aa06 473d
000002e0: 60c4 a2bd 1ec7 8cbd 51be acbd b1dc 9ebd
000002f0: e24a 9ebd 80d0 dd3c 6915 65bd 47c5 bc3c
00000300: 1fa3 acbd 1115 67bd 28f9 05bd 23f5 0f3c
00000310: 7093 bbbc e34d 3ebd 40b1 283d 39f9 22be
00000320: 1d50 bdbc 8bc6 8e3d e073 43bd f209 13bd
00000330: 3ee6 873d 29de 033e 638f 5e3d 4569 823c
00000340: bba1 153d 7aa1 983d 7759 1b3d 6130 22bd
00000350: 1900 15bd 59f2 1cbd 3f72 993d e73f 25bd
00000360: cb0d 193d 1c18 82bd fd69 6f3c ac03 003c
00000370: f0d9 7d3d 3795 3abd fed6 70bd c299 7d3d
00000380: 02c1 8fbd b4da 7fbc 6ce4 8dbd 82e3 8dbd
00000390: 2d43 6e3d 5e85 38bd 1d18 06bd cf78 abbd
000003a0: d389 bebd 771d ed3b 950d cf3d b74c f3bc
000003b0: 5386 3cbd 6c34 973d 32af 613d 712b 6c3d
000003c0: 6af7 bd3d bf7e 833c 6ec3 be3c 3527 193d
000003d0: b1e8 16bc b5f2 67bd 7f59 783d 19ff ba3d
000003e0: 38da 803c c239 ffbc d496 5e3d 4668 a4bd
000003f0: cfd9 9ebc 40ee 90bc a544 20bd 665f eebc

tcn.network.0.net.0.bias f4 [64]
-0.14127679 -0.07739902 0.017951537 -0.07967041 -0.06042651 0.0707358 -0.06914908 0.07226902
0.1632892 0.023823852 0.058516514 0.101191945 -0.1094413 -0.024205167 -0.17903632 -0.08030075
-0.011754114 0.17117044 0.09397123 -0.0476683 -0.09669105 0.05128732 -0.071488574 -0.045968536
0.04204512 -0.11633393 0.12683533 0.049177136 -0.02512799 -0.05205846 -0.021324996 0.07864617
0.040196184 -0.05317375 0.06941339 -0.043301072 -0.16212432 -0.21339674 -0.023223298 0.16595423
-0.08816708 0.12724723 -0.05954234 0.08894941 -0.084749006 -0.07492139 0.044272225 0.106206976
-0.13346772 -0.013492451 0.023752358 0.028668758 0.17919825 -0.17995839 0.119565 0.11290179
-0.22695851 -0.091677964 0.062104464 -0.170566 0.15971436 -0.10872942 0.06608824 0.004778707
00000000: ddaa 10be 6183 9ebd 1a0f 933c 3d2a a3bd
00000010: ca81 77bd eedd 903d 089e 8dbd c801 943d
00000020: 4935 273e 3d2a c33c 03af 6f3d b93d cf3d
00000030: c322 e0bd ea49 c6bc 4c55 37be b874 a4bd
00000040: 5494 40bc 4e47 2f3e fd73 c03d d63f 43bd
00000050: f505 c6bd a712 523d 9a68 92bd 8149 3cbd
00000060: 8137 2c3d 7c40 eebd 1fe1 013e f76d 493d
00000070: 37d9 cdbc 403b 55bd c2b1 aebc 3e11 a13d
00000080: c1a4 243d b8cc 59bd 9b28 8e3d 775c 31bd
00000090: eb03 26be ad84 5abe c93e bebc e8ef 293e
000000a0: f190 b4bd 194d 023e abe2 73bd 1c2b b63d
000000b0: e390 adbd 6370 99bd cb56 353d 0b83 d93d
000000c0: c3ab 08be 710f 5dbc 4e94 c23c beda ea3c
000000d0: bf7f 373e 0347 38be 7fde f43d 0e39 e73d
000000e0: d067 68be a8c1 bbbd 4061 7e3d daa8 2ebe
000000f0: 298c 233e 88ad debd 4559 873d b396 9c3b

tcn.network.0.net.0.weight_g f4 [64, 1, 1]
0.5853556 0.66396946 0.5717028 0.514072 0.6259677 0.57085955 0.49421197 0.57507277
0.5044973 0.50401783 0.6018956 0.48801744 0.548585 0.4414125 0.5931243 0.51515394
0.55425876 0.65800506 0.48177594 0.5385963 0.6025556 0.66606444 0.5158382 0.521867
0.39665595 0.5059125 0.48770505 0.57428765 0.49171114 0.55826294 0.49382696 0.62495166
0.54420877 0.60907817 0.5305736 0.46903232 0.48297933 0.54750216 0.55685556 0.4758389
0.6052897 0.48008993 0.6150039 0.55202824 0.5656505 0.58886695 0.53308564 0.61259305
0.61053324 0.5966429 0.54499394 0.56569546 0.5563229 0.5850953 0.5408007 0.58801997
0.4589065 0.634432 0.57537174 0.5876648 0.5918011 0.55146056 0.65416783 0.59478474
00000000: ddd9 153f e7f9 293f 1d5b 123f 399a 033f
00000010: 6b3f 203f da23 123f 5a09 fd3e f837 133f
00000020: bc26 013f 5007 013f d415 1a3f 6cdd f93e
00000030: 1170 0c3f d200 e23e fed6 173f 21e1 033f
00000040: e7e3 0d3f 0573 283f 56ab f63e 72e1 093f
00000050: 1541 1a3f 3383 2a3f f90d 043f 1399 053f
00000060: 7d16 cb3e 7b83 013f 7ab4 f93e 8404 133f
00000070: 90c1 fb3e 52ea 0e3f e3d6 fc3e d5fc 1f3f
00000080: 4451 0b3f 8cec 1b3f acd3 073f 0125 f03e
00000090: 1149 f73e 1a29 0c3f 168e 0e3f 28a1 f33e
000000a0: 44f4 1a3f 59ce f53e e570 1d3f b951 0d3f
000000b0: 79ce 103f fcbf 163f 4d78 083f e6d2 1c3f
000000c0: e84b 1c3f 97bd 183f b984 0b3f 6bd1 103f
000000d0: 2d6b 0e3f cec8 153f ea71 0a3f 7a88 163f
000000e0: cbf5 ea3e 236a 223f 904b 133f 3371 163f
000000f0: 4780 173f 852c 0d3f 8b77 273f d043 183f
