checkpoints/tae/sh-EMD-h32-k3-lr0.001-d0.3-ep200.pth (torch, 74895 bytes, 22 tensors)

autoencoder.encoder.0.weight f4 [64, 47, 3]
0.06009066 0.05934122 -0.047939666 0.114690326 0.04262068 0.14134084 -0.021619407 0.07527846
0.15234554 0.0028793234 0.19160089 0.28437433 0.08474567 0.0183377 0.03973261 -0.006763279
0.06247266 0.004511089 -0.056198116 0.004499149 -0.061020922 -0.026738593 -0.029361855 0.033982236
-0.022906749 -0.0009504374 0.024906667 -0.050899077 0.0030717968 -0.0895225 0.08121638 -0.071285754
0.036184337 0.011794316 -0.03043241 0.04093826 0.009904675 0.07612233 0.0099759055 -0.008433223
0.03698887 -0.017127637 0.058737885 0.08836559 0.035050847 -0.013107704 0.06739601 0.03525187
0.05224782 -0.02907528 -0.0555575 -0.025199067 -0.046444707 0.087930106 0.038460482 0.055572487
0.056019746 -0.016999634 0.06847429 -0.025338626 0.0075191744 -0.02581988 0.07422721 -0.018711906
0.03462271 -0.014107123 0.021105357 -0.08194551 -0.098128036 -0.0609763 0.06553999 0.009317027
0.052825868 -0.092855364 -0.09852446 -0.08644101 -0.07590904 0.03057509 0.041183397 0.08026455
-0.040283702 -0.054203626 0.04452249 -0.047958996 0.049379643 -0.024965651 0.04651619 -0.02845222
0.02068331 0.026898202 0.05818385 -0.08800364 -0.024482885 0.06253808 -0.08108413 -0.058338128
0.027694449 -0.051344965 -0.044750523 -0.16654874 -0.006713233 0.05518288 -0.006856531 -0.031218955
0.001564035 -0.15785566 -0.12676428 -0.09717201 -0.061541744 -0.050541878 0.094707236 -0.012717484
0.02752728 -0.09877809 -0.11251528 -0.12282698 0.6998489 -0.2791954 -0.02380566 0.45415246
0.040832616 0.4522198 0.7340321 0.18356714 0.3663795 0.52254677 0.19958445 0.23240253
0.43450487 0.13877791 0.23656361 0.19914721 -0.019785281 0.108096056 0.025116641 0.0020225015
-0.035929766 -0.051822834 0.010726878 -0.031565133 0.019778136 -0.063066356 0.08400623 -0.09109003
-0.023388963 0.022258332 0.009398022 0.07299559 0.096141905 -0.1069667 0.009913367 -0.04431742
-0.0876924 -0.0737829 0.07033556 -0.06313895 0.009099787 -0.01697228 -0.028809292 -0.044555254
0.0703645 0.014459585 0.005614227 -0.035900895 0.103688166 -0.027928578 -0.061617948 0.03765307
-0.015291268 -0.06471032 -0.06639582 -0.024299245 0.029919486 -0.031127332 -0.07814727 -0.053969864
-0.08290901 0.03909354 0.05991294 -0.079676636 0.027261307 0.04748352 0.0192414 0.020700002
0.04958041 0.06961657 0.068634115 0.020306002 0.018430484 -0.0112097 -0.036490552 -0.062459327
0.04013165 0.057223555 -0.038582508 -0.088249944 -0.06929528 -0.09874671 0.009044299 0.012724678
-0.09982262 -0.049565457 0.04971524 0.011309673 -0.0058795214 -0.046195515 -0.06013694 -0.08199917
-0.011812818 0.07242684 0.10304616 0.08384676 -0.010238776 -0.029064985 0.010145507 0.10647674
0.011259099 -0.018824058 0.03930894 -0.014839006 -0.033716444 0.10713557 -0.039762978 -0.015613946
-0.0516008 0.077370316 0.087093085 0.0682042 0.05449575 -0.09411213 -0.04764522 0.16408724
0.04001931 -0.053051833 0.09854418 -0.011942457 -0.027748073 -0.121213034 -0.1499939 -0.1800709
0.04904959 0.0040848358 -0.04793048 -0.13836797 -0.11689665 -0.14211172 -0.009417793 0.08681636
0.0086614 0.097771324 0.046954684 0.017722541 -0.06794879 -0.052686807 -0.02957168 -0.413206
00000000: a021 763d c70f 733d 625c 44bd c3e2 ea3d
00000010: 0693 2e3d a7bb 103e 2f1b b1bc 982b 9a3d
00000020: 7800 1c3e 08b3 3c3b 0633 443e 8399 913e
00000030: 238f ad3d f238 963c a9be 223d 7f9e ddbb
00000040: 55e3 7f3d c2d1 933b ff2f 66bd 996d 933b
00000050: 13f1 79bd e50a dbbc 4688 f0bc f530 0b3d
00000060: efa6 bbbc c626 79ba 1109 cc3c 8d7b 50bd
00000070: 3350 493b 9357 b7bd c654 a63d 44fe 91bd
00000080: 0736 143d f23c 413c 644d f9bc e0ae 273d
00000090: 3847 223c 06e6 9b3d fb71 233c 802b 0abc
000000a0: a481 173d 424f 8cbc 2397 703d 05f9 b43d
000000b0: 7a91 0f3d b2c1 56bc eb06 8a3d 4464 103d
000000c0: cf01 563d 482f eebc 4390 63bd 466e cebc
000000d0: ce3c 3ebd b314 b43d bd88 1d3d fa9f 633d
000000e0: f674 653d d142 8bbc 403c 8c3d f392 cfbc
000000f0: 6863 f63b 3784 d3bc 6f04 983d b649 99bc
00000100: 8bd0 0d3d 9021 67bc 24e5 ac3c 0cd3 a7bd
00000110: 5af7 c8bd 49c2 79bd d539 863d 72a6 183c
00000120: f05f 583d f42a bebd 31c7 c9bd fc07 b1bd
00000130: 3376 9bbd 9c78 fa3c ecaf 283d be61 a43d
00000140: 8600 25bd 9f04 5ebd 375d 363d a770 44bd
00000150: 4f42 4a3d c484 ccbc c387 3e3d a114 e9bc
00000160: 0c70 a93c 9e59 dc3c 3052 6e3d 413b b4bd
00000170: 5590 c8bc f713 803d 700f a6bd f6f3 6ebd
00000180: 78df e23c 194f 52bd 534c 37bd c18b 2abe
00000190: aefa dbbb 7207 623d c0ac e0bb e5be ffbc
000001a0: 4e00 cd3a eaa4 21be 7fce 01be 1e02 c7bd
000001b0: 3213 7cbd 0005 4fbd def5 c13d fe5c 50bc
000001c0: e480 e13c 2b4c cabd 696e e6bd b68c fbbd
000001d0: 4c29 333f b3f2 8ebe 1604 c3bc ac86 e83e
000001e0: 1a40 273d 5b89 e73e 87e9 3b3f 06f9 3b3e
000001f0: 1896 bb3e a0c5 053f de5f 4c3e eefa 6d3e
00000200: 6c77 de3e cc1b 0e3e bb3d 723e 3fed 4b3e
00000210: be14 a2bc 7761 dd3d 6ac1 cd3c f28b 043b
00000220: 172b 13bd 2e44 54bd cabf 2f3c 714a 01bd
00000230: c205 a23c ef28 81bd 750b ac3d 698d babd
00000240: 369a bfbc 1b57 b63c 29fa 193c b67e 953d
00000250: 0ce6 c43d 5b11 dbbd ad6b 223c 2f86 35bd
00000260: 1398 b3bd 7d1b 97bd 170c 903d fe4e 81bd
00000270: 4617 153c 7309 8bbc 7701 ecbc 927f 36bd
00000280: 431b 903d e5e7 6c3c 8df7 b73b d10c 13bd
00000290: 765a d43d 79ca e4bc 1a63 7cbd 1b3a 1a3d
000002a0: 3a88 7abc d886 84bd 88fa 87bd 360f c7bc
000002b0: b619 f53c bffe febc ad0b a0bd 810f 5dbd
000002c0: 33cc a9bd 8c20 203d 4567 753d 812d a3bd
000002d0: 1b53 df3c 147e 423d 24a0 9d3c 0d93 a93c
000002e0: d414 4b3d 2293 8e3d 0b90 8c3d c658 a63c
000002f0: 87fb 963c e4a8 37bc 1e77 15bd 5ad5 7fbd
00000300: 1661 243d 3f63 6a3d b108 1ebd 63bc b4bd
00000310: afea 8dbd b73b cabd 8a2e 143c 2b7b 503c
00000320: cd6f ccbd 2605 4bbd 35a2 4b3d 354c 393c
00000330: 00a9 c0bb 8237 3dbd 2752 76bd 2eef a7bd
00000340: 8d8a 41bc 8654 943d dd09 d33d dab7 ab3d
00000350: 8ac0 27bc b119 eebc 5739 263c 7a10 da3d
00000360: 1578 383c e934 9abc 6902 213d 4d1f 73bc
00000370: 411a 0abd e569 db3d 81de 22bd a3d1 7fbc
00000380: 5c5b 53bd 5474 9e3d dc5d b23d a5ae 8b3d
00000390: f036 5f3d dcbd c0bd a227 43bd 7c06 283e
000003a0: 4aeb 233d e14c 59bd 88d1 c93d 4caa 43bc
000003b0: ed4f e3bc 8a3e f8bd 0098 19be 8264 38be
000003c0: 39e8 483d 16da 853b c052 44bd 55b0 0dbe
000003d0: 8367 efbd bc85 11be 164d 1abc c7cc b13d
000003e0: 8be8 0d3c 553c c83d 8e53 403d dd2e 913c
000003f0: bc28 8bbd 1fce 57bd 4f40 f2bc bd8f d3be

autoencoder.encoder.0.bias f4 [64]
0.034267344 0.041599784 -0.024938432 0.072546534 0.10953349 0.049552385 -0.058809042 -0.108439654
-0.046069372 0.03297247 -0.07775776 -0.06583108 -0.03945869 -0.0068053924 0.010027968 0.0037225743
0.04773079 -0.11668115 0.07897635 -0.009103921 -0.092230774 0.08143587 0.05508593 0.01356267
-0.16563979 0.05551648 0.10174099 -0.0054056016 0.09551447 -0.038882185 0.046128802 -0.014526796
0.024761017 0.12089475 -0.03560862 -0.035002794 0.051677942 -0.0021031706 0.049322736 0.012696009
-0.09724229 0.015920684 -0.03675076 -0.016172303 -0.069452226 -0.08381134 0.052962877 0.13552852
-0.05848295 -0.027795956 -0.11480247 -0.026709866 0.12931614 0.029154608 0.06406958 -0.19002713
0.045877196 0.01316312 0.08250628 -0.074104756 -0.08314175 -0.10335007 0.04192886 0.12046356
00000000: ea5b 0c3d 8964 2a3d af4b ccbc 4793 943d
00000010: 1853 e03d 71f7 4a3d c0e1 70bd 9c15 debd
00000020: 3db3 3cbd 240e 073d 763f 9fbd 72d2 86bd
00000030: 6f9f 21bd c5ff debb 594c 243c 6ff6 733b
00000040: 5c81 433d 87f6 eebd 5abe a13d 9d28 15bc
00000050: 7de3 bcbd d9c7 a63d c9a1 613d f635 5e3c
00000060: 7a9d 29be 4065 633d 955d d03d 7921 b1bb
00000070: 179d c33d ed42 1fbd 8ef1 3c3d cc01 6ebc
00000080: 9ed7 ca3c ab97 f73d 58da 11bd 175f 0fbd
00000090: 40ac 533d 59d5 09bb a306 4a3d ec02 503c
000000a0: f726 c7bd 186c 823c f787 16bd c77b 84bc
000000b0: f83c 8ebd 48a5 abbd 9aef 583d fdc7 0a3e
000000c0: d18b 6fbd 58b4 e3bc 8f1d ebbd a6ce dabc
000000d0: 736b 043e a5d5 ee3c e936 833d 7996 42be
000000e0: bae9 3b3d 20aa 573c 0df9 a83d 3cc4 97bd
000000f0: 3946 aabd 34a9 d3bd 99bd 2b3d 99b5 f63d

autoencoder.encoder.2.weight f4 [8, 64, 3]
0.009720158 0.013700918 0.1249813 0.06758646 0.05576466 -0.05346117 -0.018342094 -0.055860892
-0.06456031 -0.052487925 0.0071428088 0.00045421324 0.05781272 -0.043729126 -0.073119126 -0.040089473
-0.011821243 0.077979036 0.052075114 0.09547959 0.05837339 0.026842514 0.014466573 0.03397168
0.060792264 0.057352796 0.06599712 0.032139186 -0.020950114 0.038458288 -0.018295554 0.004006379
-0.021395696 -0.0359068 0.0036583447 -0.080261424 -0.025844805 0.011164863 -0.0014305734 0.038755737
-0.044295244 0.10512448 0.075696975 0.015512363 0.017221639 -0.03132079 0.0154770315 0.031733725
-0.005050428 -0.0110469535 0.04593664 -0.014706403 -0.11880329 -0.05827807 0.0806387 0.0044712205
-0.059941154 -0.05355611 -0.075726 -0.10249534 0.056871664 -0.01621998 -0.045107014 -0.039560482
-0.04373015 0.0027626331 0.054825187 0.06994386 0.05770474 0.011207175 -0.0262751 0.12631436
-0.025392907 0.051465847 0.012066002 -0.009756994 -0.07533647 0.1276973 -0.070783414 0.023079062
-0.09227252 0.09915807 0.023341184 -0.056568805 0.0064553395 0.035061643 0.036694918 0.04175791
0.07033571 -0.043487817 0.06797899 0.04449789 -0.050872575 0.069700755 0.09554527 0.06591349
-0.028802538 0.079818614 0.020847648 0.039076682 0.008188027 0.13313046 -0.027620962 -0.014071008
0.06384731 0.04072549 -0.016568502 0.101006396 -0.0011463859 0.049071796 0.12541321 0.08629099
0.06913098 0.110771485 0.009962547 0.06612667 0.057962634 -0.013343155 0.031971753 0.114765435
0.008124403 0.052443624 0.051422834 0.07710046 0.028548323 -0.016574321 0.067716986 0.013278127
0.06622063 0.046712458 0.053996406 -0.044203997 0.061873157 0.033416938 0.053845223 -0.031015944
0.0064752954 -0.0062417225 0.044039056 0.060707644 0.06207323 -0.03630706 -0.016379617 0.13600738
-0.0070052254 -8.783853e-05 -0.13738063 0.012555783 -0.05582064 -0.0003280574 0.033846922 -0.07189533
0.010276632 0.0682858 0.013185856 -0.07649399 0.031684004 0.028343363 0.1170483 0.10510552
0.09183814 0.06233095 -0.014854068 -0.08522336 0.18220758 0.020843359 -0.059351597 -0.014169574
-0.0012727318 -0.015321704 0.047159847 -0.00038527124 0.05833391 -0.035240315 0.05865631 -0.013851857
0.05552693 -0.013697787 0.005216286 -0.046175946 -0.022937877 -0.052434556 0.08545925 0.035039153
-0.03883435 0.038788807 0.054913033 0.04878021 -0.03602326 -0.031546224 -0.012777989 0.10657362
-0.049040955 -0.079019606 -0.06353556 0.05352911 0.10242351 0.16545168 0.06467568 0.053736795
0.071943656 -0.01832191 0.0960937 0.1183545 0.036829222 0.051451348 0.088053286 0.09096471
0.009507085 0.05638929 -0.014214549 0.025944617 0.032838605 -0.044179644 0.056467112 0.08006718
0.032513894 0.0353515 -0.05533608 -0.041958 -0.06861675 0.04139877 -0.038117055 -0.04332987
-0.01954794 -0.03438437 0.05038018 0.12503892 0.028640615 0.07051114 0.055513978 0.029886259
0.049914148 0.090970725 0.05186437 -0.025587084 0.1386391 -0.0059687397 -0.01117493 -0.04767999
0.010895116 0.06955236 0.09141205 -0.08429297 0.05674307 0.07586109 0.06424648 -0.03263805
0.12945634 0.071677946 -0.02658918 -0.01653507 0.064220935 -0.007369664 -0.025380714 0.08444282
00000000: 4c41 1f3c d179 603c 32f6 ff3d c56a 8a3d
00000010: 7c69 643d 1afa 5abd 2942 96bc 64ce 64bd
00000020: 3238 84bd 94fd 56bd 390e ea3b 7823 ee39
00000030: 08cd 6c3d 501d 33bd 7bbf 95bd dc34 24bd
00000040: e3ad 41bc 79b3 9f3d b74c 553d ce8a c33d
00000050: f018 6f3d d5e4 db3c 3405 6d3c e325 0b3d
00000060: 4f01 793d c4ea 6a3d 8029 873d 61a4 033d
00000070: 939f abbc 7086 1d3d 8fe0 95bc f147 833b
00000080: 0746 afbc 0213 13bd d7c0 6f3b 1a60 a4bd
00000090: 7cb8 d3bc d4ec 363c 1482 bbba 56be 1e3d
000000a0: ee6e 35bd 814b d73d 0407 9b3d 9127 7e3c
000000b0: 6514 8d3c 3b4a 00bd 6093 7d3c 39fb 013d
000000c0: 107e a5bb 48fe 34bc 0f28 3c3d 20f3 70bc
000000d0: 244f f3bd fcb4 6ebd e725 a53d 5183 923b
000000e0: db84 75bd a75d 5bbd 3c16 9bbd 14e9 d1bd
000000f0: 43f2 683d c3df 84bc 22c2 38bd 2c0a 22bd
00000100: 631e 33bd 4b0d 353b 6090 603d ba3e 8f3d
00000110: ce5b 6c3d 4d9e 373c e13e d7bc 8d58 013e
00000120: c904 d0bc dacd 523d 7bb0 453c cddb 1fbc
00000130: 024a 9abd 15c3 023e e5f6 90bd 4d10 bd3c
00000140: 60f9 bcbd 6313 cb3d 0336 bf3c b1b4 67bd
00000150: 5087 d33b cc9c 0f3d 694d 163d 580a 2b3d
00000160: 2b0c 903d 4820 32bd 9238 8b3d 6b43 363d
00000170: c35f 50bd 45bf 8e3d 3dad c33d a7fd 863d
00000180: 4df3 ebbc f177 a33d b0c8 aa3c df0e 203d
00000190: 1327 063c 5a53 083e 5b45 e2bc 168a 66bc
000001a0: 61c2 823d c5cf 263d abba 87bc 71dc ce3d
000001b0: 5442 96ba 82ff 483d 526c 003e 55b9 b03d
000001c0: 8b94 8d3d 29dc e23d f339 233c 6b6d 873d
000001d0: 3a6a 6d3d 409d 5abc d0f4 023d 240a eb3d
000001e0: 371c 053c 20cf 563d c0a0 523d d9e6 9d3d
000001f0: 2cde e93c dfc6 87bc 34af 8a3d 808c 593c
00000200: af9e 873d 9055 3f3d 562b 5d3d 400f 35bd
00000210: b56e 7d3d 33e0 083d cf8c 5c3d 2615 febc
00000220: b72e d43b 5d87 ccbb 4c62 343d 94a8 783d
00000230: 8040 7e3d b6b6 14bd 8c2e 86bc 8545 0b3e
00000240: 178c e5bb f435 b8b8 82ad 0cbe c5b6 4d3c
00000250: 2fa4 64bd 1eff abb9 12a3 0a3d dc3d 93bd
00000260: 525f 283c 6dd9 8b3d 7d09 583c e2a8 9cbd
00000270: 16c7 013d 5730 e83c 05b7 ef3d 9041 d73d
00000280: a215 bc3d bd4e 7f3d 7a5e 73bc 9689 aebd
00000290: a094 3a3e b1bf aa3c a91a 73bd 8027 68bc
000002a0: cbd1 a6ba e207 7bbc af2a 413d 3bfe c9b9
000002b0: 8aef 6e3d 2658 10bd 9941 703d e6f2 62bc
000002c0: 3570 633d af6c 60bc 61ed aa3b fd22 3dbd
000002d0: 37e8 bbbc 9ec5 56bd 4205 af3d 3785 0f3d
000002e0: c410 1fbd 03e1 1e3d 7dec 603d c2cd 473d
000002f0: 208d 13bd 9d36 01bd c55a 51bc 4543 da3d
00000300: 2bdf 48bd 08d5 a1bd ef1e 82bd 5741 5b3d
00000310: 6bc3 d13d 2a6c 293e af74 843d 1d1b 5c3d
00000320: 3257 933d d517 96bc c6cc c43d d863 f23d
00000330: 3dda 163d a6be 523d 4855 b43d b54b ba3d
00000340: 9bc3 1b3c 75f8 663d 24e4 68bc ce89 d43c
00000350: c681 063d b7f5 34bd 0f4a 673d 43fa a33d
00000360: 4a2d 053d bccc 103d 16a8 62bd 27dc 2bbd
00000370: f086 8cbd c291 293d a120 1cbd a97a 31bd
00000380: 0023 a0bc a0d6 0cbd 735b 4e3d 340a 003e
00000390: b99f ea3c 2568 903d a062 633d 07d4 f43c
000003a0: c772 4c3d dc4e ba3d bc6f 543d 019c d1bc
000003b0: 69f7 0d3e 6b95 c3bb 0e17 37bc 184c 43bd
000003c0: 6e81 323c 7871 8e3d 3e36 bb3d cba1 acbd
000003d0: 6c6b 683d 0f5d 9b3d a993 833d 7aaf 05bd
000003e0: 3490 043e e3cb 923d 8dd1 d9bc 8e74 87bc
000003f0: 4486 833d 397d f1bb 37eb cfbc 5bf0 ac3d

autoencoder.encoder.2.bias f4 [8]
-0.003419442 0.105608925 0.012246552 0.008803714 0.009790599 0.10705286 0.097737536 0.0070620985
00000000: b818 60bb 7e49 d83d c3a5 483c 743d 103c
00000010: c068 203c 883e db3d 9e2a c83d 2d69 e73b

autoencoder.decoder.0.weight f4 [8, 64, 3]
-0.022264872 0.06536792 -0.004156828 -0.035137318 0.008726999 0.05710222 -0.009183928 -0.068099424
-0.024123576 0.03591749 -0.010663308 0.0509905 0.024820127 0.0006329194 0.027567096 -0.009741459
-0.06186696 -0.061849006 -0.056767114 -0.01149467 -0.05218206 0.010576338 0.008275047 0.054911956
0.0040579364 0.012300327 0.025662325 -0.02040336 -0.035960592 -0.06788767 -0.07028858 0.004745476
-0.034127716 0.019978955 0.017936103 0.05628653 -0.008810304 -0.00030518323 0.049809486 0.012238324
0.03303062 -0.03897076 -0.052162476 0.05502063 0.051444784 -0.027325861 0.011988439 -0.064182855
0.0050506964 -0.06700396 0.040790558 -0.071530156 -0.017408948 0.06733328 -0.024449594 -0.041832343
0.065103784 -0.036504555 0.015917026 0.040333472 0.01939021 -0.049860284 0.06549916 0.034606576
-0.045382462 -0.041189067 -0.01664501 0.024076968 0.02728808 0.00929258 0.047329158 0.07179397
0.014847487 0.02826792 0.041041978 0.014306396 0.0044495687 0.064887926 0.049823366 0.047135353
-0.028081533 -0.03450413 -0.039132766 -0.060435202 -0.0073323622 0.040662363 0.010573342 -0.025528733
-0.009983905 -0.05530464 -0.046356943 0.006644167 -0.041931376 0.00889466 0.059518218 0.01848106
0.055246666 -0.045722917 0.0018769428 -0.07089398 0.0005000457 -0.053164534 0.06773326 -0.06169604
0.024670012 -0.043170027 0.019976757 -0.00037642568 -0.00923074 -0.028009232 0.046403386 -0.013027027
0.0061513036 -0.021748792 -0.052591383 -0.030077066 0.06470609 0.06869498 -0.033529624 0.007192284
0.01171428 0.06366548 0.010071255 0.0033596158 -0.02099279 0.015219964 -0.07185769 -0.07200398
-0.008365467 -0.050055593 -0.050121494 -0.012249764 0.04004033 0.035717636 -0.025074013 -0.005099982
0.06699693 0.015611604 0.049077503 -0.029892668 -0.064582415 -0.03346036 0.006342247 -0.017479211
-0.039405413 0.06940003 -0.06661414 0.0018323585 0.028760582 -0.01947005 0.031300433 0.00025618076
-0.0428994 -0.039242044 -0.032465365 -0.0704644 0.044979922 0.06615317 -0.037072673 0.0035671145
0.024115503 0.020433977 -0.04005723 -0.04385512 0.07025266 0.042025477 0.06746437 0.050661705
-0.005369656 0.05080705 -0.0023147538 -0.000447765 -0.031269617 0.056281254 -0.0153431 0.010478109
-0.057547256 0.024756514 -0.034313623 -0.016296454 -0.0064534694 0.026754394 0.0029459372 0.012574926
-0.046874486 -0.054530174 0.02599053 -0.029717643 -0.062221386 -0.02978412 -0.07080089 0.014419623
0.0053597465 0.06664398 -0.039796244 -0.03732389 0.017232284 -0.018963236 0.05624166 0.010978699
-0.0015681237 -0.027687628 0.043605022 -0.033782057 0.029020235 0.046361767 -0.056609776 -0.06394404
-0.04069913 0.03462895 -0.039807808 0.0068219453 0.010896549 0.0151513 -0.036801133 0.0025234297
0.0500087 0.037409812 0.013786823 -0.05739405 0.033953495 -0.028736994 0.050507493 0.02997329
-0.013247009 0.027898356 -0.03001042 0.012456745 -0.0036009923 0.0011452064 0.025411397 0.07028329
-0.031854738 0.07047431 -0.013243638 0.06864038 0.016240388 0.005885236 -0.02413579 -0.038029797
-0.070971794 -0.03939324 -0.0064615235 0.06071414 0.03905391 0.012583002 -0.069845915 0.05084364
0.049686387 -0.03244243 0.029229939 -0.060130358 -0.036487803 -0.021778964 -0.06543757 -0.0044088066
00000000: d264 b6bc 9edf 853d 0036 88bb 26ec 0fbd
00000010: b0fb 0e3c 04e4 693d 3078 16bc b677 8bbd
00000020: ce9e c5bc 381e 133d 28b5 2ebc 6adb 503d
00000030: 9453 cb3c 80ea 253a 64d4 e13c a49a 1fbc
00000040: 3668 7dbd 6255 7dbd a284 68bd 2454 3cbc
00000050: dbbc 55bd 6048 2d3c 1094 073c 5ceb 603d
00000060: 70f8 843b 5087 493c cc39 d23c f224 a7bc
00000070: 6a4b 13bd b108 8bbd 76f3 8fbd f07f 9b3b
00000080: 81c9 0bbd e8aa a33c bcee 923c b48c 663d
00000090: 1859 10bc 0001 a0b9 0805 4c3d 4083 483c
000000a0: 1e4b 073d ce9f 1fbd 52a8 55bd 505d 613d
000000b0: c4b7 523d 7cda dfbc 286b 443c 4d72 83bd
000000c0: 5080 a53b 5f39 89bd 0014 273d 677e 92bd
000000d0: 369d 8ebc 08e6 893d 844a c8bc 6458 2bbd
000000e0: 2255 853d cd85 15bd 6c64 823c b634 253d
000000f0: 38d8 9e3c 4c3a 4cbd 6c24 863d a0bf 0d3d
00000100: f6e2 39bd deb5 28bd 1e5b 88bc 103d c53c
00000110: 408b df3c e83f 183c 38dc 413d b808 933d
00000120: e042 733c 2092 e73c a21b 283d 6065 6a3c
00000130: b0cd 913b f6e3 843d 9613 4c3d 0011 413d
00000140: 3e0b e6bc 3454 0dbd ae49 20bd e78a 77bd
00000150: 5044 f0bb 948d 263d d03b 2d3c a221 d1bc
00000160: 8893 23bc 1e87 62bd c7e0 3dbd 50b7 d93b
00000170: 3cc0 2bbd e8ba 113c 60c9 733d 9865 973c
00000180: 544a 623d f447 3bbd c003 f63a dd30 91bd
00000190: 8015 033a 0ec3 59bd bcb7 8a3d fdb4 7cbd
000001a0: c418 ca3c 0ed3 30bd 4ca6 a33c 005b c5b9
000001b0: 883c 17bc 9e73 e5bc 7a11 3e3d 506f 55bc
000001c0: e090 c93b 862a b2bc 106a 57bd 2e64 f6bc
000001d0: a084 843d f4af 8c3d 5c56 09bd 40ad eb3b
000001e0: 40ed 3f3c 0c63 823d e801 253c 002d 5c3b
000001f0: 12f9 abbc 285d 793c 202a 93bd d376 93bd
00000200: 500f 09bc 1807 4dbd 324c 4dbd 3cb3 48bc
00000210: 5401 243d a84c 123d 0468 cdbc c01d a7bb
00000220: b035 893d d0c7 7f3c 7e05 493d 78e1 f4bc
00000230: c943 84bd bb0d 09bd a0d2 cf3b 9030 8fbc
00000240: 9267 21bd 9a21 8e3d ff6c 88bd c02b f03a
00000250: 509b eb3c a87f 9fbc e234 003d 0050 8639
00000260: 48b7 2fbd 44bc 20bd 67fa 04bd a44f 90bd
00000270: de3c 383d 507b 873d 84d9 17bd 40c6 693b
00000280: e08d c53c 2865 a73c 0d13 24bd 6da1 33bd
00000290: a0e0 8f3d e822 2c3d c22a 8a3d a682 4f3d
000002a0: f0f3 afbb 0e1b 503d 20b3 17bb 00c2 eab9
000002b0: 9214 00bd 2c87 663d a061 7bbc 60ac 2b3c
000002c0: acb6 6bbd 2cce ca3c 718c 0cbd 2480 85bc
000002d0: a077 d3bb 082c db3c a010 413b 1007 4e3c
000002e0: 76ff 3fbd 085b 5fbd 18ea d43c 6a72 f3bc
000002f0: dadb 7ebd d4fd f3bc 0f00 91bd 4840 6c3c
00000300: d0a0 af3b a47c 883d 6301 23bd efe0 18bd
00000310: b82a 8d3c ca58 9bbc a85d 663d 00e0 333c
00000320: 8089 cdba 2ad1 e2bc 2e9b 323d 0e5f 0abd
00000330: d8bb ed3c d6e5 3d3d a7df 67bd 18f5 82bd
00000340: 22b4 26bd 16d7 0d3d 830d 23bd a08a df3b
00000350: 7087 323c 283d 783c c9bc 16bd 2060 253b
00000360: ecd5 4c3d 083b 193d 20e2 613c 0616 6bbd
00000370: d212 0b3d d869 ebbc f2e0 4e3d 8c8a f53c
00000380: fc09 59bc 188b e43c 6ad8 f5bc 6017 4c3c
00000390: a0fe 6bbb c01a 963a 902b d03c b0f0 8f3d
000003a0: 1d7a 02bd d654 903d d8fb 58bc 5493 8c3d
000003b0: 900a 853c f0d8 c03b 6cb8 c5bc 22c5 1bbd
000003c0: a959 91bd ce5a 21bd 30bb d3bb 64af 783d
000003d0: fef6 1f3d f028 4e3c 600b 8fbd 6c41 503d
000003e0: f483 4b3d 5ae2 04bd a073 ef3c 404b 76bd
000003f0: 3c74 15bd cc69 b2bc 2204 86bd c077 90bb

autoencoder.decoder.0.bias f4 [64]
-0.024889164 -0.019600362 -0.045070603 0.020625852 -0.009070486 -0.052156318 0.033627056 0.016647033
0.011519425 0.07108013 -0.012361646 0.045518763 -0.036540274 -0.03529191 0.017530724 -0.037669253
0.031124271 -0.06801456 -0.02645763 0.07196702 -0.003654316 0.03921 0.06507012 -0.020624135
-0.016822487 -0.010358136 -0.03595203 -0.0021749586 0.034391947 0.062288687 0.04992593 0.07107368
-0.036447402 -0.049750403 -0.071159035 0.04249368 0.031996354 -0.017273054 0.059667572 -0.05194375
-0.011676308 -0.0018877536 0.029021382 0.060186654 -0.041033436 0.07198739 0.06873961 0.019200057
-0.04749746 0.023795106 0.015039027 -0.026167478 0.069477335 -0.05796903 -0.02563592 -0.027070504
-0.02003071 0.05348888 -0.003591448 0.010041751 -0.06436437 -0.04881405 0.04533255 -0.022058234
00000000: 5ce4 cbbc f090 a0bc f49b 38bd 8cf7 a83c
00000010: 609c 14bc dda1 55bd 86bc 093d 5c5f 883c
00000020: f8bb 3c3c 7692 913d 8088 4abc e271 3a3d
00000030: 41ab 15bd 408e 10bd 989c 8f3c 134b 1abd
00000040: 54f8 fe3c 384b 8bbd acbd d8bc 7263 933d
00000050: 407d 6fbb aa9a 203d 7c43 853d f2f3 a8bc
00000060: 50cf 89bc 2cb5 29bc 7042 13bd c089 0ebb
00000070: 92de 0c3d 6c22 7f3d 227f 4c3d 148f 913d
00000080: df49 15bd 14c7 4bbd d4bb 91bd da0d 2e3d
00000090: 9c0e 033d 3880 8dbc fc65 743d f8c2 54bd
000000a0: fc4d 3fbc 806e f7ba 40be ed3c 4886 763d
000000b0: ad12 28bd 206e 933d 5ac7 8c3d 7049 9d3c
000000c0: b28c 42bd f4ed c23c 4066 763c 2e5d d6bc
000000d0: 224a 8e3d ef70 6dbd 6c02 d2bc f6c2 ddbc
000000e0: 7217 a4bc 2817 5b3d 805e 6bbb 2886 243c
000000f0: 78d1 83bd 3ef1 47bd a0ae 393d 78b3 b4bc

autoencoder.decoder.2.weight f4 [64, 1, 3]
0.20653343 -0.4449783 -0.32783857 0.2778089 0.40657622 0.035885394 -0.5228112 -0.36323428
-0.21006083 0.26872325 -0.46951637 -0.37079257 -0.57376677 -0.40727237 0.417926 -0.21539563
-0.13617775 0.01779002 -0.11420968 -0.19783163 -0.011692405 -0.2894528 0.36624134 -0.023229837
0.25825614 0.069597304 0.4350146 0.28084624 -0.290254 -0.1356928 0.13323396 -0.20829383
-0.4001977 0.48401034 0.38775915 -0.2884387 0.13328153 0.41864103 -0.34983087 -0.09512767
-0.47611818 -0.52828336 0.45886362 0.20206988 -0.3752374 -0.042846203 -0.2685477 -0.10523242
-0.12482786 0.18288171 0.09990102 -0.39145303 0.28924733 0.04254234 -0.30154413 -0.33539212
-0.012740731 0.20094967 -0.53320134 -0.13425952 -0.41718715 -0.53986424 0.30940354 -0.19834459
-0.55028903 -0.16626427 -0.31887674 0.3121007 -0.09065601 -0.34993017 -0.23599696 -0.127718
0.44186997 0.052499413 -0.45689923 -0.14948744 0.5320616 -0.4933362 -0.21648613 0.50291026
-0.2328557 0.43977034 -0.37809914 0.4370309 0.38150823 -0.107932776 -0.53555137 -0.19528249
0.14459711 -0.19336426 -0.4607822 -0.51029336 0.27491778 0.41617894 -0.21868151 0.02206409
-0.35342598 0.3333552 -0.3793918 -0.32744157 -0.23507658 -0.10602489 0.07134855 -0.54426765
-0.2111432 -0.25057194 -0.11727917 -0.03286767 0.027052283 0.29480273 -0.32868958 0.012596726
0.52466834 0.074059546 -0.4288869 0.39517283 -0.5123547 0.2346546 0.47799194 0.072359085
0.3096819 0.45812976 0.26362723 -0.17344394 0.12553638 0.4669696 0.13536942 -0.45885047
0.5023904 0.5595126 0.3350371 0.31386852 0.3243811 -0.35053903 -0.17329308 0.24953467
0.14704508 0.24534237 -0.01092726 -0.5563899 0.27366215 -0.3631473 -0.47710603 0.5709604
0.2545116 0.2869326 -0.25295517 0.21275944 0.049067914 0.39381784 0.06753647 0.51602435
-0.1352261 0.5327848 0.5717857 0.0682891 -0.42330816 0.00022608042 0.45956433 -0.39446002
-0.20633557 0.20877266 0.11731249 0.54273343 0.095095396 -0.0044151545 0.075879514 -0.118756026
-0.5315139 -0.20250297 -0.52337193 0.42243809 0.034932613 0.067227244 -0.04006934 -0.2962354
-0.40731257 -0.08837065 0.1746844 -0.31594703 -0.35719484 0.37510633 -0.20045838 0.32526696
0.5527152 0.5426552 -0.4463842 0.04282427 -0.4527039 0.0238294 0.0802899 -0.2498914
00000000: 807d 533e 32d4 e3be 75da a7be f83c 8e3e
00000010: c22a d03e 90fc 123d f4d6 05bf d8f9 b9be
00000020: 301a 57be 1896 893e 7364 f0be 86d8 bdbe
00000030: 61e2 12bf 0186 d0be 66fa d53e ac90 5cbe
00000040: 2e72 0bbe 60bc 913c c4e6 e9bd 6094 4abe
00000050: 8091 3fbc 2833 94be fc83 bb3e 804c bebc
00000060: 263a 843e 0889 8e3d 3cba de3e 14cb 8f3e
00000070: 2c9c 94be 0ef3 0abe 7c6e 083e fa4a 55be
00000080: b7e6 ccbe 34d0 f73e 5e88 c63e 3dae 93be
00000090: f47a 083e 1e58 d63e 081d b3be 4cd2 c2bd
000000a0: c3c5 f3be 943d 07bf 2cf0 ea3e 68eb 4e3e
000000b0: 1e1f c0be 807f 2fbd 167f 89be 1884 d7bd
000000c0: c0a5 ffbd 5845 3b3e e898 cc3d 886c c8be
000000d0: 3a18 943e e040 2e3d fe63 9abe 84b8 abbe
000000e0: 80be 50bc c0c5 4d3e e27f 08bf 547b 09be
000000f0: 8e99 d5be 8b34 0abf 246a 9e3e d81a 4bbe
00000100: bedf 0cbf 2e41 2abe d043 a3be aacb 9f3e
00000110: dca9 b9bd 0c2a b3be 30a9 71be 82c8 02be
00000120: c83c e23e a009 573d b2ee e9be 3c13 19be
00000130: 3035 083f 9096 fcbe 8aae 5dbe babe 003f
00000140: ba71 6ebe 9429 e13e 3696 c1be 84c2 df3e
00000150: 0c55 c33e dc0b ddbd e519 09bf 22f8 47be
00000160: 4411 143e 4801 46be a5eb ebbe 96a2 02bf
00000170: 06c2 8c3e 6815 d53e 0cee 5fbe c0bf b43c
00000180: 40f4 b4be 88ad aa3e a43f c2be 6ca6 a7be
00000190: eab7 70be 9423 d9bd 301f 923d 2055 0bbf
000001a0: ec35 58be f74a 80be 1030 f0bd 40a0 06bd
000001b0: c09c dd3c 62f0 963e 004a a8be 8062 4e3c
000001c0: aa50 063f 88ac 973d 1097 dbbe 1854 ca3e
000001d0: ad29 03bf 4c49 703e 5cbb f43e 0031 943d
000001e0: a08e 9e3e fc8f ea3e 26fa 863e 4a9b 31be
000001f0: 9c8c 003e a416 ef3e 489e 0a3e 73ee eabe
00000200: a89c 003f 383c 0f3f fc89 ab3e 60b3 a03e
00000210: 4815 a63e da79 b3be be73 31be 0486 7f3e
00000220: fc92 163e 083b 7b3e 4008 33bc 926f 0ebf
00000230: 721d 8c3e 71ee b9be 3e47 f4be 762a 123f
00000240: 584f 823e d4e8 923e 5783 81be 9cdd 593e
00000250: 70fb 483d 7ea2 c93e 9050 8a3d 2c1a 043f
00000260: b678 0abe 9664 083f 8c60 123f 28db 8b3d
00000270: d9bb d8be 0010 6d39 044c eb3e aaf6 c9be
00000280: a249 53be 80c8 553e 8841 f03d 94f0 0a3f
00000290: 60c1 c23d 00ad 90bb b866 9b3d 5c36 f3bd
000002a0: 4c11 08bf f05c 4fbe b4fb 05bf ce49 d83e
000002b0: 8015 0f3d 70ae 893d c01f 24bd 2bac 97be
000002c0: 468b d0be acfb b4bd 78e0 323e cfc3 a1be
000002d0: 3ee2 b6be f00d c03e f644 4dbe 6489 a63e
000002e0: be7e 0d3f 74eb 0a3f 788c e4be 8068 2f3d
000002f0: cec8 e7be e035 c33c 086f a43d 88e3 7fbe

tcn.network.0.conv1.bias f4 [32]
-0.028248958 -0.00018380307 0.1369387 0.07772038 0.15783903 0.13222134 -0.12098335 0.004762845
0.18999378 0.07131143 0.10302776 0.057140708 -0.05244402 0.01770389 -0.16052428 0.15797894
0.013014601 0.17288667 -0.14537874 -0.24379726 -0.05044816 -0.04970565 -0.119039945 0.06299876
-0.14866067 0.17210172 -0.22935891 0.031951576 -0.121882156 0.018676387 0.14687543 -0.03518383
00000000: 5c6a e7bc 43bb 40b9 a939 0c3e dd2b 9f3d
00000010: 8ea0 213e 0865 073e 1ec6 f7bd a411 9c3b
00000020: bb8d 423e ba0b 923d 3800 d33d 600c 6a3d
00000030: 8acf 56bd c007 913c 7a60 24be 3bc5 213e
00000040: 313b 553c 3409 313e 2ade 14be fda5 79be
00000050: bba2 4ebd 2798 4bbd 37cb f3bd 7e05 813d
00000060: 813a 18be 6f3b 303e 10dd 6abe a8df 023d
00000070: 5a9d f9bd 39ff 983c 8366 163e eb1c 10bd

tcn.network.0.conv1.weight_g f4 [32, 1, 1]
0.56819785 0.6719135 0.52193755 0.51446366 0.5867537 0.6047597 0.4849074 0.63112384
0.59815973 0.5189256 0.5697305 0.53326774 0.5416171 0.42405936 0.5292055 0.5231816
0.5536445 0.62931114 0.53362 0.84490734 0.5756598 0.56950766 0.5231614 0.5068493
0.38491565 0.5445377 0.46960944 0.5929369 0.501299 0.53757715 0.42782256 0.62860584
00000000: 6a75 113f 8602 2c3f b39d 053f e4b3 033f
00000010: 7e35 163f 88d1 1a3f c845 f83e 5591 213f
00000020: ff20 193f 4fd8 043f dcd9 113f 3c84 083f
00000030: 6ba7 0a3f 4f1e d93e 037a 073f 3bef 053f
00000040: a5bb 0d3f 891a 213f 529b 083f d94b 583f
00000050: 715e 133f 41cb 113f e8ed 053f e0c0 013f
00000060: aa13 c53e d366 0b3f a670 f03e b6ca 173f
00000070: 2255 003f a89e 093f 8f0b db3e 50ec 203f

tcn.network.0.conv1.weight_v f4 [32, 8, 3]
-0.10016584 0.07778971 -0.02654827 0.008467192 0.0063319653 -0.11051202 0.08189793 -0.08473785
-0.13918747 0.09779389 0.096081994 0.0070609534 0.019796604 -0.07186138 -0.0008777969 -0.090109535
-0.0017284681 -0.23090154 -0.21895522 0.10318602 -0.16202128 0.17866805 -0.17921257 -0.18756573
-0.17777951 0.12715083 -0.15213348 -0.23876382 0.007952936 -0.12211746 -0.21183701 0.122318566
0.12661286 0.1635629 0.12232938 -0.18203516 -0.08974549 -0.0820853 -0.20533474 0.08320332
-0.109746456 0.031894516 -0.11807198 0.18269159 0.1430643 0.10912055 0.0710993 0.14077115
0.0644761 0.038425237 -0.04087421 0.09839284 -0.24637806 0.08256328 -0.037349463 -0.03153949
-0.16096786 -0.084274024 0.045875616 -0.069560684 0.06286654 0.017498488 -0.17964828 0.08819519
-0.14331885 -0.13884825 -0.08903175 0.065728985 -0.22124141 -0.1784395 0.056110494 -0.10235134
-0.10702144 -0.22650631 -0.03429744 0.024393516 -0.11401269 -0.058454033 0.014620163 -0.036041148
0.17230739 -0.0024280767 -0.009815428 -0.051047057 -0.053768072 0.097168684 -0.0869253 0.022297844
0.13660203 0.12229622 -0.07727 -0.17249054 0.051529624 -0.13107009 -0.19605201 0.14650573
-0.17329615 0.19854343 -0.22728558 -0.21576321 0.09057814 -0.024099194 -0.07298854 0.094595455
-0.116047055 -0.1351821 -0.24194941 -0.16662817 -0.1787524 0.20426974 -0.15889181 0.031519286
-0.0889568 -0.04607251 0.11921737 0.011780681 0.06830813 0.07869264 -0.15386288 0.13615237
0.11447713 0.025934473 0.122899115 -0.15817009 -0.18610431 -0.20934245 -0.032170422 -0.019395337
-0.12198922 -0.100798175 -0.09232122 0.15552457 -0.112517856 0.05045856 -0.09790005 0.055325672
0.09769444 -0.2057543 -0.08983546 -0.1544273 0.192724 0.08010704 -0.090991065 -0.1624651
0.07726702 0.01857757 -0.11573003 -0.20488524 -0.16655439 -0.028340513 -0.17875089 -0.023632748
0.12197903 0.07297168 -0.0052079773 0.014936433 -0.045147706 -0.0054326975 0.12933917 0.028507458
0.08090343 0.0961699 -0.18127605 -0.1354742 0.10666332 0.035961106 -0.12390292 0.051650114
-0.20707296 -0.09578268 0.10609718 -0.03417994 -0.16923934 0.080388665 0.0038555989 -0.030985257
-0.20528498 -0.1168031 -0.007908632 -0.112247765 0.014072072 -0.154188 0.18543442 0.087630205
0.07318335 -0.08192977 -0.21068552 -0.075021766 -0.05033465 -0.22001533 0.13210946 0.026610106
0.09572498 -0.20546912 -0.1439684 -0.027770055 -0.06592237 -0.16910982 0.14736764 0.08265342
-0.010904107 0.13945366 -0.22371915 -0.21634537 -0.069016054 0.18790835 0.10512258 -0.127068
0.09587651 0.07337409 -0.00035413163 0.104902565 0.028990332 -0.0043540536 -0.060335383 -0.11085107
-0.1347605 -0.040528942 -0.15059051 0.03792705 0.009499142 -0.2331859 -0.15334652 0.13934895
-0.10965706 -0.0277505 -0.140641 -0.06689022 0.10060111 0.060019407 0.09320022 -0.031262096
-0.17321561 -0.012453431 0.10018398 0.029483737 0.029480046 0.031927697 0.15834253 0.09629302
-0.055661503 -0.11606784 0.17223468 -0.11070676 -0.14026612 0.07555493 -0.066833295 -0.11152362
-0.116981484 0.029570114 -0.134955 0.19266129 -0.02550036 -0.075291425 -0.0926413 -0.04981605
00000000: bf23 cdbd 3650 9f3d c27b d9bc fab9 0a3c
00000010: 607c cf3b 2054 e2bd 1aba a73d 0a8b adbd
00000020: 2987 0ebe 2a48 c83d a3c6 c43d 925f e73b
00000030: 7d2c a23c 0f2c 93bd f41b 66ba 598b b8bd
00000040: c48d e2ba 7471 6cbe cc35 60be 3153 d33d
00000050: e8e8 25be c2f4 363e 8083 37be 3b11 40be
00000060: d50b 36be d433 023e e1c8 1bbe 817e 74be
00000070: 084d 023c b818 fabd cdeb 58be 2882 fa3d
00000080: cda6 013e 087d 273e d387 fa3d 6d67 3abe
00000090: 7ccc b7bd 561c a8bd 4543 52be 8166 aa3d
000000a0: c0c2 e0bd d3a3 023d b9cf f1bd 8113 3b3e
000000b0: 737f 123e 987a df3d 839c 913d 5026 103e
000000c0: 0c0c 843d c863 1d3d b76b 27bd 2f82 c93d
000000d0: 884a 7cbe f016 a93d c0fb 18bd 8d2f 01bd
000000e0: c2d4 24be dc97 acbd 12e8 3b3d d575 8ebd
000000f0: 2cc0 803d fd58 8f3c b8f5 37be ae9f b43d
00000100: 2dc2 12be 3c2e 0ebe 4756 b6bd eb9c 863d
00000110: 1c8d 62be d8b8 36be 1ed4 653d 949d d1bd
00000120: 0f2e dbbd 45f1 67be 797b 0cbd e9d4 c73c
00000130: 7c7f e9bd 7f6d 6fbd 6889 6f3c e29f 13bd
00000140: 5971 303e 5e20 1fbb e4d0 20bc b816 51bd
00000150: e93b 5cbd 6000 c73d e405 b2bd f8a9 b63c
00000160: 67e1 0b3e 7176 fa3d bc3f 9ebd 5ca1 30be
00000170: ba10 533d 3d37 06be dcc1 48be 9905 163e
00000180: 8c74 31be f84e 4b3e 8dbd 68be 08f1 5cbe
00000190: 0881 b93d ac6b c5bc 047b 95bd 43bb c13d
000001a0: 14aa edbd 2d6d 0abe 96c1 77be 93a0 2abe
000001b0: df0a 37be 162c 513e 89b4 22be 5e1a 013d
000001c0: fc2e b6bd 87b6 3cbd 3d28 f43d c203 413c
000001d0: 22e5 8b3d 9b29 a13d 3b8e 1dbe 876b 0b3e
000001e0: fc72 ea3d 8874 d43c 88b2 fb3d 57f7 21be
000001f0: 2192 3ebe de5d 56be 22c5 03bd f8e2 9ebc
00000200: 7cd5 f9bd 466f cebd e812 bdbd d541 1f3e
00000210: c36f e6bd a3ad 4e3d d27f c8bd 2c9d 623d
00000220: 0614 c83d 41b1 52be a7fb b7bd 3122 1ebe
00000230: 7159 453e 290f a43d 8659 babd 405d 26be
00000240: 2c3e 9e3d fd2f 983c de03 edbd 70cd 51be
00000250: 3c8d 2abe 5d2a e8bc 790a 37be 7799 c1bc
00000260: 24d0 f93d 2d72 953d aea7 aabb f1b7 743c
00000270: cdec 38bd c504 b2bb 7d71 043e 7988 e93c
00000280: b3b0 a53d b9f4 c43d 6ea0 39be c0b9 0abe
00000290: 4c72 da3d f44b 133d d0c0 fdbd 128f 533d
000002a0: ef0a 54be b629 c4bd 7a49 d93d 4400 0cbd
000002b0: 144d 2dbe d0a2 a43d 37ae 7c3b cbd4 fdbc
000002c0: 3a36 52be 7736 efbd 3593 01bc 28e2 e5bd
000002d0: 8c8e 663c 76e3 1dbe 85e2 3d3e 7777 b33d
000002e0: 27e1 953d ccca a7bd f2bd 57be 03a5 99bd
000002f0: b52b 4ebd b34b 61be b447 073e 70fd d93c
00000300: 750b c43d 7f66 52be 746c 13be 077e e3bc
00000310: 4f02 87bd 202b 2dbe 8be7 163e 3246 a93d
00000320: 24a7 32bc f1cc 0e3e a216 65be a489 5dbe
00000330: 4a58 8dbd 0c6b 403e 824a d73d 1d1e 02be
00000340: e75a c43d 2845 963d beaa b9b9 28d7 d63d
00000350: 227d ed3c 73ac 8ebb 3c22 77bd e305 e3bd
00000360: a8fe 09be ad01 26bd 6634 1abe 6559 1b3d
00000370: 4aa2 1b3c 49c8 6ebe df06 1dbe 7eb1 0e3e
00000380: e193 e0bd 0455 e3bc 3204 10be bdfd 88bd
00000390: f407 ce3d e9d6 753d c2df be3d af0c 00bd
000003a0: 6f5f 31be 7a09 4cbc 422d cd3d e187 f13c
000003b0: 2380 f13c 9ec6 023d 8b24 223e 4635 c53d
000003c0: 51fd 63bd fab4 edbd 4a5e 303e 3aba e2bd
000003d0: eca1 0fbe 8bbc 9a3d e5df 88bd 7f66 e4bd
000003e0: fd93 efbd 063d f23c a531 0abe 0049 453e
000003f0: 22e6 d0bc 6432 9abd b9ba bdbd ea0b 4cbd

tcn.network.0.conv2.bias f4 [32]
-0.035451416 0.0035385191 -0.007833949 -0.021739982 -0.07919804 -0.02166625 -0.061180316 -0.054554503
-0.08146068 -0.056231737 -0.105612256 -0.045172915 -0.003142747 -0.03817381 -0.02524034 -0.056896403
-0.03181996 -0.04982259 -0.06710971 -0.018034255 -0.05140984 -0.05444018 -0.0558623 -0.05157865
-0.014161452 -0.04626314 -0.007666456 -0.014446438 -0.016187215 -0.088395074 -0.08556932 -0.07571305
00000000: 8135 11bd 80e6 673b f759 00bc 0c18 b2bc
00000010: 9532 a2bd 6b7d b1bc 3698 7abd 8b74 5fbd
00000020: dbd4 a6bd 4053 66bd 3d4b d8bd 3c07 39bd
00000030: 8cf6 4dbb 245c 1cbd d4c4 cebc 340c 69bd
00000040: a555 02bd c612 4cbd d170 89bd 93bc 93bc
00000050: 2093 52bd abfc 5ebd decf 64bd 2244 53bd
00000060: 6f05 68bc 6b7e 3dbd e536 fbbb c1b0 6cbc
00000070: 0d9b 84bc 7a08 b5bd f83e afbd 720f 9bbd

tcn.network.0.conv2.weight_g f4 [32, 1, 1]
0.49058565 0.54743886 0.53024393 0.58899164 0.56434476 0.57056546 0.58413017 0.5700571
0.5839126 0.5406898 0.60635614 0.52783304 0.58264154 0.6051794 0.56160617 0.545756
0.55242413 0.5429912 0.535399 0.60798013 0.596388 0.5470422 0.5850233 0.531795
0.48782295 0.5578425 0.55270797 0.59729236 0.5895847 0.55264777 0.5803717 0.51997405
00000000: 0b2e fb3e f424 0c3f 11be 073f 28c8 163f
00000010: e678 103f 9410 123f 8e89 153f 43ef 113f
00000020: 4c7b 153f a66a 0a3f 283a 1b3f 1120 073f
00000030: ff27 153f 0aed 1a3f 6cc5 0f3f aab6 0b3f
00000040: ab6b 0d3f 7901 0b3f e90f 093f 96a4 1b3f
00000050: e2ac 183f f50a 0c3f 16c4 153f b823 083f
00000060: eec3 f93e c4ce 0e3f 457e 0d3f 27e8 183f
00000070: 06ef 163f 537a 0d3f 3d93 143f 051d 053f

tcn.network.0.conv2.weight_v f4 [32, 32, 3]
0.027673988 -0.046956044 -0.11002935 -0.089290574 0.06455247 0.01247049 0.11479938 -0.07021317
-0.104224645 -0.10230122 -0.03914373 -0.018401373 -0.011852228 0.062177394 -0.041825894 0.12973593
-0.02266987 -0.11746793 0.061076 -0.090694085 0.0046522487 0.052162733 -0.0051445574 -0.07789309
-0.084768 0.08978954 -0.044018038 0.07410071 -0.05352783 -0.0050598 -0.045132816 -0.055453252
-0.105525956 -0.072064124 -0.06713248 0.013670336 -0.07732534 -0.0083043575 -0.022874646 -0.015255167
-0.089072414 -0.052930795 0.1369122 0.08840292 0.13358481 0.013185299 0.0997098 -0.082913354
-0.07165208 -0.01615056 0.021906173 0.103329204 -0.040113103 -0.057054583 0.00021023896 0.030107673
-0.10558336 0.03819495 -0.030010162 0.20250133 0.013702384 -0.084086396 -0.06521162 0.014180983
0.000821719 -0.08983194 -0.07007956 -0.12620576 -0.023626858 0.0011887206 0.0050358865 0.0044945264
-0.016074233 0.09682449 -0.029677471 0.03649418 0.05830402 0.0025250795 -0.08826832 -0.11833024
0.04317371 0.042279094 0.069452785 -0.049353957 0.09154451 0.1120427 -0.0077294703 -0.04171782
-0.023881514 -0.09934138 0.05848129 -0.08326807 0.025071934 0.086876005 -0.023748353 0.01974857
0.073685355 -0.087208815 0.07156772 0.04834902 -0.021567266 -0.092233635 0.059215203 0.04138663
-0.051195934 0.0446653 0.01216314 0.09300953 0.08001529 0.038722698 -0.10731988 0.06516512
0.07593816 -0.0278207 -0.0041289222 -0.01021694 -0.0025599916 0.074731246 0.039262466 -0.10627754
0.03650551 -0.061807647 0.027020732 0.046375882 -0.05826712 0.076314285 0.012430461 -0.04906879
0.116163924 0.06187879 0.06444091 -0.08864077 -0.08119567 -0.11501696 0.07992105 0.041037124
-0.08774398 0.012077076 0.049970675 -0.048106827 0.014818182 -0.052628994 -0.02447914 0.04915681
0.0031605584 -0.076616086 0.014091622 -0.027370026 -0.08233548 -0.10291401 0.0059969006 -0.08315268
-0.08260773 0.050347697 0.0146695245 -0.06970532 0.009442892 0.041822493 -0.047511563 -0.04173079
0.022688856 -0.010231634 0.06057497 0.09429715 -0.043732375 0.028929349 -0.065891646 -0.017255686
0.07320262 -0.116735235 -0.08530061 -0.10023582 0.08358113 -0.06912653 0.120358236 -0.054921176
-0.010998065 0.050827827 -0.114041336 -0.10793948 -0.07108687 -0.006938717 -0.088064596 -0.0007985989
0.09550766 -0.02240956 -0.0388695 -0.12350027 -0.04763846 0.006400258 0.022945076 -0.033505786
-0.058786966 -0.06523476 0.037622634 -0.064987235 -0.0027731673 -0.020057455 -0.0487505 -0.019796068
0.08674145 0.05671561 -0.03562764 -0.029866558 -0.051554475 -0.059318397 -0.003958293 0.05908193
0.0155673595 -0.084349394 -0.014865428 -0.08782877 0.09672331 -0.095108114 -0.13722134 0.109869055
-0.1185501 -0.048298933 -0.005768897 0.0734332 0.07228933 -0.012644555 -0.09729168 0.018525373
-0.030519577 0.05898345 -0.052503236 -0.040030245 -0.05376474 -0.043018032 -0.063541465 -0.09703016
-0.033940043 -0.011142623 0.004840484 0.062106296 -0.08702972 -0.044921704 0.06684011 0.119573034
0.027123367 -0.092025585 0.02518989 -0.038747624 -0.08951889 -0.0717487 -0.016923811 0.00522198
-0.0076085837 0.15700094 -0.038083933 0.15595259 -0.078821644 -0.07063699 -0.007461276 -0.023171684
00000000: 8fb4 e23c fb54 40bd 1157 e1bd fadd b6bd
00000010: 1634 843d 0751 4c3c f01b eb3d eccb 8fbd
00000020: bb73 d5bd 4d83 d1bd 2d55 20bd 7abe 96bc
00000030: d92f 42bc b9ad 7e3d a151 2bbd 7fd9 043e
00000040: 2ab6 b9bc 0793 f0bd d42a 7a3d d2bd b9bd
00000050: e471 983b 97a8 553d ad93 a8bb 6a86 9fbd
00000060: d89a adbd 94e3 b73d 424c 34bd 1dc2 973d
00000070: ff3f 5bbd aecc a5bb 30dd 38bd f322 63bd
00000080: fe1d d8bd 5b96 93bd c17c 89bd 8cf9 5f3c
00000090: bf5c 9ebd 000f 08bc 9c63 bbbc cff0 79bc
000000a0: 996b b6bd f6cd 58bd b632 0c3e 970c b53d
000000b0: 75ca 083e 2707 583c a734 cc3d 7ace a9bd
000000c0: 53be 92bd 2e4e 84bc 9374 b33c 439e d33d
000000d0: a34d 24bd 11b2 69bd 9773 5c39 5ea4 f63c
000000e0: 173c d8bd 4f72 1c3d dfd7 f5bc 825c 4f3e
000000f0: f77f 603c 7d35 acbd ab8d 85bd 5b57 683c
00000100: a168 573a cff9 b7bd df85 8fbd 153c 01be
00000110: 1d8d c1bc d8ce 9b3a 1404 a53b d246 933b
00000120: 1cae 83bc eb4b c63d 2b1e f3bc ec7a 153d
00000130: 32d0 6e3d ce7b 253b 05c6 b4bd 2057 f2bd
00000140: ebd6 303d d82c 2d3d 433d 8e3d 6027 4abd
00000150: b07b bb3d a576 e53d 7f47 fdbb 4ee0 2abd
00000160: 2aa3 c3bc 7e73 cbbd 148a 6f3d 7388 aabd
00000170: a863 cd3c 0cec b13d e88b c2bc c1c7 a13c
00000180: 59e8 963d 899a b2bd 1992 923d 9f09 463d
00000190: d6ad b0bc fde4 bcbd a48b 723d 0785 293d
000001a0: d4b2 51bd f6f2 363d e847 473c c87b be3d
000001b0: 0edf a33d b19b 1e3d 86ca dbbd 4a75 853d
000001c0: 7785 9b3d 3de8 e3bc e94b 87bb f464 27bc
000001d0: 88c5 27bb b20c 993d aed1 203d 0aa8 d9bd
000001e0: cd86 153d 042a 7dbd 955a dd3c a3f4 3d3d
000001f0: 81a9 6ebd aa4a 9c3d 22a9 4b3c 5bfc 48bd
00000200: 5ae7 ed3d 9d74 7d3d 99f9 833d 4b89 b5bd
00000210: ea49 a6bd 038e ebbd a6ad a33d 8b16 283d
00000220: 1eb3 b3bd eede 453c 0dae 4c3d aa0b 45bd
00000230: f6c7 723c 8091 57bd 7a88 c8bc a758 493d
00000240: 5f21 4f3b e5e8 9cbd 8ce0 663c 1b37 e0bc
00000250: 819f a8bd 95c4 d2bd a681 c43b f44b aabd
00000260: 3e2e a9bd 6339 4e3d 7258 703c aac1 8ebd
00000270: 5cb6 1a3c 104e 2b3d 7c9b 42bd e8ed 2abd
00000280: fbdd b93c 95a2 27bc 761d 783d dd1e c13d
00000290: b820 33bd 3efd ec3c 33f2 86bd cc5b 8dbc
000002a0: 41eb 953d e212 efbd 16b2 aebd 7048 cdbd
000002b0: 952c ab3d 3692 8dbd 617e f63d 07f5 60bd
000002c0: 3a31 34bc d730 503d 818e e9bd 600f ddbd
000002d0: fe95 91bd 2d5e e3bb 365b b4bd 1159 51ba
000002e0: 8599 c33d 4194 b7bc a035 1fbd b6ed fcbd
000002f0: 8c20 43bd 41b9 d13b 50f7 bb3c 5d3d 09bd
00000300: 9aca 70bd cd99 85bd 311a 1a3d 0718 85bd
00000310: 07be 35bb 884f a4bc 9bae 47bd 5d2b a2bc
00000320: 80a5 b13d a14e 683d 4aee 11bd b6aa f4bc
00000330: c92a 53bd d9f7 72bd 91b4 81bb e5ff 713d
00000340: 3d0e 7f3c 60bf acbd 208e 73bc 92df b3bd
00000350: df16 c63d 0bc8 c2bd c083 0cbe 0703 e13d
00000360: 65ca f2bd 1ad5 45bd 0409 bdbb 2564 963d
00000370: 6e0c 943d 1c2b 4fbc dc40 c7bd 86c2 973c
00000380: 3104 fabc a198 713d a20d 57bd c1f6 23bd
00000390: 6a38 5cbd ad33 30bd 0722 82bd c0b7 c6bd
000003a0: b704 0bbd 8c8f 36bc ec9c 9e3b 2c63 7e3d
000003b0: a33c b2bd d2ff 37bd 78e3 883d b5e2 f43d
000003c0: d331 de3c e977 bcbd 075b ce3c d4b5 1ebd
000003d0: ae55 b7bd fcf0 92bd cea3 8abc 251d ab3b
000003e0: 6d51 f9bb dbc4 203e e6fd 1bbd 09b2 1f3e
000003f0: 3e6d a1bd 20aa 90bd b87d f4bb 8bd2 bdbc

tcn.network.0.net.0.bias f4 [32]
-0.028248958 -0.00018380307 0.1369387 0.07772038 0.15783903 0.13222134 -0.12098335 0.004762845
0.18999378 0.07131143 0.10302776 0.057140708 -0.05244402 0.01770389 -0.16052428 0.15797894
0.013014601 0.17288667 -0.14537874 -0.24379726 -0.05044816 -0.04970565 -0.119039945 0.06299876
-0.14866067 0.17210172 -0.22935891 0.031951576 -0.121882156 0.018676387 0.14687543 -0.03518383
00000000: 5c6a e7bc 43bb 40b9 a939 0c3e dd2b 9f3d
00000010: 8ea0 213e 0865 073e 1ec6 f7bd a411 9c3b
00000020: bb8d 423e ba0b 923d 3800 d33d 600c 6a3d
00000030: 8acf 56bd c007 913c 7a60 24be 3bc5 213e
00000040: 313b 553c 3409 313e 2ade 14be fda5 79be
00000050: bba2 4ebd 2798 4bbd 37cb f3bd 7e05 813d
00000060: 813a 18be 6f3b 303e 10dd 6abe a8df 023d
00000070: 5a9d f9bd 39ff 983c 8366 163e eb1c 10bd

tcn.network.0.net.0.weight_g f4 [32, 1, 1]
0.56819785 0.6719135 0.52193755 0.51446366 0.5867537 0.6047597 0.4849074 0.63112384
0.59815973 0.5189256 0.5697305 0.53326774 0.5416171 0.42405936 0.5292055 0.5231816
0.5536445 0.62931114 0.53362 0.84490734 0.5756598 0.56950766 0.5231614 0.5068493
0.38491565 0.5445377 0.46960944 0.5929369 0.501299 0.53757715 0.42782256 0.62860584
00000000: 6a75 113f 8602 2c3f b39d 053f e4b3 033f
00000010: 7e35 163f 88d1 1a3f c845 f83e 5591 213f
00000020: ff20 193f 4fd8 043f dcd9 113f 3c84 083f
00000030: 6ba7 0a3f 4f1e d93e 037a 073f 3bef 053f
00000040: a5bb 0d3f 891a 213f 529b 083f d94b 583f
00000050: 715e 133f 41cb 113f e8ed 053f e0c0 013f
00000060: aa13 c53e d366 0b3f a670 f03e b6ca 173f
00000070: 2255 003f a89e 093f 8f0b db3e 50ec 203f
