checkpoints/tae/sh-h[64]-k3-lr0.001-d0.3-ep200.pth (torch, 109691 bytes, 22 tensors)

autoencoder.encoder.0.weight f4 [64, 38, 3]
00000000: 5a16 e33d 2f09 8a3d 8b2c 3abd 08bf 203e
00000010: 3458 963c 4536 673e 5897 903c c21f 513d
00000020: a266 543e 985f 8e3c c2e3 413e 3738 ee3e
00000030: 494c b03d 4d6e dd3c ebb2 653d 5e2c 6fbd
00000040: 6698 fa3c f8c6 35bd ec8a 34bd 0e4b be3c
00000050: 8178 37bd 0c5f 51bd a4e4 60bd 17ab 71bb
00000060: e7aa a5bd 7c4c 28bd 63ce 3ebc 1f5f eabd
00000070: 0042 c9bc ee22 e3bd fad2 323d 8c76 babd
00000080: 74b5 9aba 0489 3fbd 24a1 42bd 14c4 8e3c
00000090: c559 e03c 8a50 d53d 3a79 d03c 6328 9ebb
000000a0: b698 193d 7ef5 633b 517d 293c 21b5 623d
000000b0: 6d7d a53b 8143 1cbd 1532 393d a799 793c
000000c0: 26c4 743d 1f7a afbc 77fe 6fbd 1e61 07bd
000000d0: f615 90bd fad7 bb3d 2371 6f3d 4783 833d
000000e0: 6d95 923d cd8d a8ba 16c1 a93d 0642 2abd
000000f0: 50b0 c83c d59f 50bd 6c88 4e3d 9c78 bbbd
00000100: 8a61 e43b 81e6 efbc 3592 283d 668b 55bd
00000110: 0fd3 adbd d454 a0bd 26af 993d 306d 773d
00000120: 009c 9c3d 9619 a5bd 2aef c1bc 3f03 dbbd
00000130: 0355 bebd f228 9c3d 0d4d 043d 2bbf a63d
00000140: 5eec 52bb 57df 87bd 44f0 583d 8884 46bc
00000150: 8c4e 9a3d 8ffc 1fbc e1a3 6d3d 1669 91bb
00000160: 19d5 0b3d 6044 d83a 2663 01bc 80db b7bc
00000170: 2d66 1cbb efb9 a83b b251 fdbd c6d4 58bd
00000180: e398 d93d 8cd5 3d3d 206e 84bd 72a5 00be
00000190: fd17 47bd b722 e7bc 3860 a7bd 0c82 abbd
000001a0: 10ed cbbc 50a6 f0bd c3a0 6ebd a71a 74bd
000001b0: 743c a0bc 26c8 24bd 6227 003e 2f10 febc
000001c0: 2387 4c3d 56be a6bd 2162 a2bd 282f 98bd
000001d0: 0e59 87bd e58a e3bd 5ecb a5bd c514 11be
000001e0: d1ec aebc 2835 9bbd 32ff b9bd 59ae b9bd
000001f0: ff4f d8bd b7cc 1abe f2b2 00bd 0da6 9bbd
00000200: a442 993d 6aa3 babc 39f6 973d ad24 0a3d
00000210: b4c7 8bbd 4f81 953d 3bb0 95bc 43c6 23bd
00000220: e782 96bd 8e2c b0bd 9359 b23c eab7 8bbc
00000230: 107d 143d 5e5f 92bd 4a3a a73d ddd8 76bd
00000240: 82de 98bc bc6f dd3c 7638 5a3d b6c8 913d
00000250: d507 b23d 79a8 91bd b4ed b33c c62e ffbc
00000260: 983a 113b dffa cdbd 4def 7e3d fe47 c0bd
00000270: 26ad 013d b5b7 5d3c 66b3 513c 08b1 31bd
00000280: 0e1b b93d 5345 d43c 57f9 033c 3047 adbd
00000290: 87a2 603d 3f79 13bc f03e 09bd a7ea c53d
000002a0: 9dcc fc3c 9108 18bd f125 03bd b748 e63c
000002b0: 4172 9d3d ee5a e13b f50a dcbc 0a1f 89bb
000002c0: 41ca 4bbd c5f5 723d 5dd9 c63d 93f9 4dbd
000002d0: be10 f23c dcbc a73d 0eac 103d 958d 0dbd
000002e0: 9d63 443d 4f73 e33c 9e56 243d ff0f ddbb
000002f0: 485f 0bbd 9cd6 f33b 501c 6abc 513e 1dbd
00000300: 128e 4e3d 175b 9e3d ecaa a4bc 6493 dfbc
00000310: 4967 5d3b ab79 f5bb 421c 253d af29 173d
00000320: ec08 95bd 8e14 0abe c972 c93d ff0c 403d
00000330: 9bc4 8bbc d008 67bd 2292 a0bd 0eb9 1cbe
00000340: 04f5 e5bc a0b1 2d3c 048f 493d e28b 1b3d
00000350: b09d 97bd 91c5 43bd d90c 62bd e112 c43d
00000360: 1631 0b3d dd9a 8f3d b599 ae3d d2a7 68bd
00000370: 7106 59bd aa5a 903d 06a1 28bd 1218 e5bc
00000380: 93e4 88bd 21ae 8f3d 1bc6 c53d eba1 723d
00000390: 0749 80bd 3beb 50bd 7900 3cbd 4e05 b03d
000003a0: 499f 903d 4949 123e 0aae 4b3d 654c 863d
000003b0: a45c f23c e944 74bd e766 2dbd 1786 36bc
000003c0: a27e 093d 07e8 63bd 0699 02bd 4dc4 9dbd
000003d0: 2332 28bd dafd c3bd 5df1 25bd 18b3 073d
000003e0: 89f9 b6bc ede2 b83d aac5 6b3a 4253 70bd
000003f0: a279 5bbc 4f23 48bd 6386 81bc 987e a4bd
0.110882476 0.06740033 -0.045452636 0.15697873 0.018352605 0.22579296 0.017650291 0.051055677
0.20742276 0.017379567 0.18934539 0.46527264 0.086083 0.027030135 0.056078833 -0.05839192
0.030590247 -0.044379205 -0.0440778 0.023229148 -0.044792656 -0.051116034 -0.05490555 -0.003687566
-0.08089238 -0.041088566 -0.011645886 -0.11443924 -0.024567604 -0.11090647 0.043658234 -0.09104642
-0.0011803345 -0.046761528 -0.047516957 0.017427482 0.027386555 0.10415752 0.02544843 -0.004826592
0.037499152 0.0034783776 0.010344819 0.05534852 0.0050503523 -0.038150314 0.045213778 0.0152343875
0.059757374 -0.021420537 -0.058592286 -0.033051603 -0.07035439 0.09172054 0.058457505 0.064215235
0.07157407 -0.0012859643 0.08288781 -0.04156687 0.024498135 -0.050933678 0.05042307 -0.09153864
0.0069696354 -0.029284718 0.04115506 -0.052134894 -0.08487522 -0.0782868 0.0750411 0.060406864
0.07646942 -0.08061521 -0.023673613 -0.106939785 -0.092935584 0.07624997 0.032300044 0.08141931
-0.0032184343 -0.066343956 0.05296351 -0.012116559 0.07534513 -0.0097648045 0.058017615 -0.004437576
0.034138773 0.001649987 -0.007897174 -0.022443533 -0.0023864612 0.005149118 -0.12369098 -0.05293729
0.10624864 0.046346232 -0.06466317 -0.12563112 -0.04860686 -0.028214796 -0.08172649 -0.08374414
-0.024893314 -0.117504716 -0.058258783 -0.05959573 -0.019560076 -0.04022994 0.12515023 -0.031013576
0.049933564 -0.081417724 -0.07928873 -0.07430869 -0.06608783 -0.111104764 -0.0809543 -0.14168079
-0.021353157 -0.07578498 -0.09081878 -0.09066457 -0.10562133 -0.15117155 -0.031420656 -0.07600031
0.07483414 -0.022783 0.0742001 0.033726383 -0.068252 0.07300054 -0.01827251 -0.039984
-0.073491864 -0.08602248 0.021771228 -0.01705547 0.03625208 -0.07147096 0.08165415 -0.06026541
-0.018660787 0.027030818 0.0532765 0.07118361 0.086929 -0.07112212 0.021963932 -0.031150233
0.0022160169 -0.100576155 0.062239934 -0.093887314 0.031659268 0.013532569 0.01279912 -0.04338172
0.090383634 0.025911963 0.008055053 -0.084608436 0.0548425 -0.009001075 -0.033507288 0.09663897
0.030859286 -0.037117545 -0.032018606 0.028110845 0.07687808 0.0068772947 -0.026860693 -0.0041846083
-0.04975343 0.059316415 0.097094275 -0.05028684 0.029548999 0.08190319 0.035320334 -0.03455885
0.04794656 0.027764944 0.040121667 -0.0067462916 -0.034026414 0.007441355 -0.014288977 -0.038389508
0.050428458 0.07732218 -0.020101033 -0.027291961 0.0033783487 -0.0074913106 0.040310152 0.036904987
-0.07277092 -0.13484403 0.09836347 0.046887394 -0.017061522 -0.05640489 -0.078403726 -0.15304968
-0.028070934 0.010601431 0.049208656 0.0379752 -0.074031234 -0.047795836 -0.055188034 0.09573913
0.03398236 0.0701196 0.08525411 -0.05680067 -0.05298466 0.07048543 -0.04116919 -0.02796558
-0.06684222 0.07015634 0.09656926 0.05923645 -0.06263929 -0.051005583 -0.04589889 0.08594762
0.07061631 0.14285769 0.049726523 0.0655754 0.02958519 -0.05963603 -0.042334463 -0.011140368
0.033568032 -0.0556412 -0.031884216 -0.07703457 -0.04106344 -0.09569903 -0.040513385 0.03312978
-0.022335785 0.09027658 0.0008993993 -0.05867315 -0.013395699 -0.048861798 -0.01581115 -0.08031958

autoencoder.encoder.0.bias f4 [64]
00000000: a00c e23d 0beb 2ebd 52ce 803d 8c13 c2bd
00000010: 150d c83d 2038 6ebd 1ac2 a93c b86a 58bd
00000020: e64c e13d 84e4 b03d bfb2 143d 0ee1 e93c
00000030: a8fe 84bc edcb 8ebd ad15 29be dc5f 783c
00000040: 2892 febc 96d1 07bd fcb2 dabc 5b83 e4bd
00000050: 16c1 433c 4cca c53b e40b d4bd 6505 813d
00000060: c65e 1fbd 15dc c8bd 5630 02bc 46b3 6a3b
00000070: a0f0 e13d 9e64 74bd 5606 013d 1922 fbbd
00000080: 55cc edbd f0fb 38bd 2621 0b3a 70c0 cb3d
00000090: 3a17 7f3d b004 45bd 253d b2bd 4d5e 1d3d
000000a0: 2bc5 93bd 8f54 023e e7c4 313e 8ba0 c2bd
000000b0: a466 9c3d 5643 a2bd 5777 de3d 2588 c4bd
000000c0: 7e43 1a3d e321 1d3c 753e 453b fe4e 81bd
000000d0: 69d8 353d e246 d5bc 074f 8b3c 3e9c 2ebd
000000e0: d6b9 1b3d 4baa f3bd 29b9 8abd eea4 4c3d
000000f0: 4dd3 a0bd cba9 9dbd 8193 91bd 75a6 1bbd
0.11037564 -0.042704623 0.062893525 -0.094763845 0.0976812 -0.058158994 0.020722438 -0.05283615
0.11000995 0.08637336 0.036303278 0.028549697 -0.01623471 -0.069724895 -0.16512175 0.015159573
-0.031075552 -0.03315886 -0.026696675 -0.111578666 0.011947891 0.0060360786 -0.103538305 0.06299857
-0.038908742 -0.09807602 -0.0079460945 0.0035812422 0.11032224 -0.05966627 0.031500183 -0.12262363
-0.11611239 -0.04516214 0.00053073687 0.09948814 0.06227801 -0.048100173 -0.08703069 0.03842001
-0.07215341 0.12727569 0.17360269 -0.095032774 0.07636765 -0.079229996 0.10862606 -0.0959628
0.03766202 0.009590599 0.0030097042 -0.06313895 0.044395838 -0.026034776 0.017005457 -0.042629473
0.038019024 -0.11897715 -0.06773598 0.049961977 -0.078528024 -0.07698401 -0.07108212 -0.038000543

autoencoder.encoder.2.weight f4 [8, 64, 3]
00000000: bb5a 09bd 6708 663b eedb c8bd 4274 ff3c
00000010: cfca 593d e52f dd3d 31ef a13d d650 c73c
00000020: 2ff5 143b f39b 49bd a090 0a3d 9065 353d
00000030: 4c5f 3d3d 4dd9 e1bb a172 99bc 53c4 c13c
00000040: e812 6e3d a096 143c bdf8 153d cf38 cd3c
00000050: 2ee9 bf3c 557e e1bc f899 a5bc 5cec f9bb
00000060: 1680 483d 905d 513c 7474 c1bd fe38 29bd
00000070: b6bf 8cbc 50c4 cb3d 4bfe 21bd 534d 3bbe
00000080: 23c8 e1bd 3897 c9bc a7b6 823d 9fd9 d53c
00000090: 5d8c 263d 7f28 89bd e6c8 9e3c 5611 db3d
000000a0: 8d4e 7b3d 30af a9bc f2a3 b63d ccad 123b
000000b0: 8b5a 1bbd 517d 23bc 42c6 8fbd 03e1 1b3d
000000c0: 8390 d93c 76a8 babd 35b5 7fbd fd71 8dbc
000000d0: c5dc 97bd f75c 033e 5647 87bd e496 8d39
000000e0: 4084 e0bd b06f 973d 8cdb 623c d1bb da3a
000000f0: 3e7a e73c 117e a23c 4b72 d8ba 8f39 81bd
00000100: c980 513d 082b 8b3d 94a4 7e3c cfeb f23c
00000110: aa4a b53c 31ce 92bc 63fb 7b3d a05c fdbc
00000120: 8698 38be 055e 3cbe c9ae 273d 3f26 23bd
00000130: 0891 1bbc 15ca 083d f253 363d b453 533d
00000140: a7bd ab3d 5d33 e83c 6da1 503c 76c5 663c
00000150: 5538 91bd 5232 dfbd cc9c efbd 88b6 2fbc
00000160: d5e2 893c 2811 863d 2802 383c 77eb 1e3c
00000170: 01d7 253d 328d b63b 53d2 a03d 9f86 b33c
00000180: edef 703c c5c1 2b3d c870 39bd ec8f f83c
00000190: c788 9fbb 25bf ec3a 9d5b 7fba 8ec8 fe3b
000001a0: 3369 25be 0eda 293c 9c2e 503c 2707 32be
000001b0: 2668 6dbd 19cd 1bbd 965c 833d 6116 29bd
000001c0: c1d3 9abc a168 353d a30d 22bd 1450 003d
000001d0: 7d91 7b3d 60a6 633d ee01 8b3d 0559 cabb
000001e0: 2a7b 1bbc d8d8 43bd 1da7 6fbd c13e 473d
000001f0: c9b5 b43d 5d5b 1abe 2e3f eabd 5a53 f53d
00000200: 491f a7bd 5e18 0ebd 72ec 07bd c1f0 7fbc
00000210: 8eba a13c 2c74 353d a5ae 47bd 8b10 dfbc
00000220: a9fa c7bd 2175 f5bc 88e4 363d 7060 433c
00000230: 2c5c 20be 537d 173d eaf5 5e3d 5962 4b3d
00000240: bf6f 6dbd 339e 99bd 2ad5 9fbd de94 79bc
00000250: a9d2 26bb 1962 213d 9069 003d 117c 463d
00000260: 9799 8fbd 4259 673d 30b1 0b3d 35e5 dbbc
00000270: 671e afbd 6520 143d a23f a13c 5098 d9bc
00000280: 9545 763b 288f 8dbd 8bb0 adbc 600b 0c3d
00000290: 2389 87bd 16b5 20bd b379 bfb9 37b3 853d
000002a0: bb5d 30bd 0899 51bd 0d28 5abc 743e 27bd
000002b0: f2b6 ba3c ea28 9c3d e367 69bd 28b1 603d
000002c0: ad6d 67bd d277 1fbd 3451 72bd a69a 33bd
000002d0: 3f72 903c 6af3 c83c 10ca 71bd 5027 413c
000002e0: 6f6d 91bd 36f9 443d d266 5ebc b34f 333d
000002f0: 5b49 823c f167 633d d1ab 8eba 7a15 07bd
00000300: 7db3 debc 7619 503d c17a 0bbe f8f6 873d
00000310: 5f22 42bd 4c3f 473c cf07 023e 00ab f8bc
00000320: cd13 a3bc 91e8 b8bb 1b14 d03c 5a21 033c
00000330: 7480 013d 99f6 6cbd 940e 843d abc2 77bd
00000340: c481 6dbd 3da8 bd3d d20b 003d 6104 09bd
00000350: 0fe7 2a3d 862f 703c c9d0 943d 6ca3 a5bd
00000360: 5274 2f3d 5f6a 4b3d 020c 0abe 3b77 663d
00000370: f947 a23d de00 093e ce98 cabc 0026 1abd
00000380: dd40 b4bd d4eb 373d 31ef 86bd b7b7 96bc
00000390: 8b1b 85bd 62d8 bd3d 9c61 c6bb 30c4 5dbb
000003a0: e474 453c 433c 59bd 9ebc 303d d4d8 af3d
000003b0: 1d1c 1cbe 167f a0bd 5446 c63b 8bb7 a23d
000003c0: 9e11 c03d 9f46 7d3d 07b7 b4bd 2f55 a0bd
000003d0: 4436 4e3c bd30 3d3e 498d 213d 5f4a 6ebd
000003e0: 0ad3 4bbd dfa4 20bd 1c85 fdbc b42b 72bd
000003f0: 3a5f 62bb d78b 423c 6b67 fb3d 5896 733d
-0.033533793 0.0035100223 -0.09807573 0.031183366 0.05317193 0.10800151 0.0790695 0.024330538
0.0022729149 -0.04922099 0.03382933 0.04428631 0.04623346 -0.0068923593 -0.018731417 0.023653185
0.0581235 0.009069115 0.03661417 0.025051503 0.023426618 -0.02752606 -0.02021502 -0.007627053
0.048950277 0.012778655 -0.0944604 -0.041314118 -0.017181259 0.09949553 -0.039549153 -0.18291216
-0.11024501 -0.02460824 0.063824944 0.026104746 0.040661205 -0.06697177 0.019382905 0.10696666
0.06135421 -0.020713419 0.08917989 0.0022381423 -0.037928145 -0.009978608 -0.070202366 0.038056385
0.026558166 -0.091141626 -0.062428672 -0.017266268 -0.07415155 0.12828432 -0.06605403 0.00027006038
-0.10962725 0.073943496 0.013846289 0.0016688054 0.028256532 0.019835504 -0.0016513554 -0.063098066
0.05114821 0.06795317 0.015542168 0.029653458 0.02213033 -0.017920585 0.061519038 -0.030927956
-0.18026933 -0.1839524 0.040938172 -0.039831396 -0.009495027 0.033395845 0.04451365 0.051593497
0.08385783 0.028344804 0.012733799 0.014085164 -0.070908226 -0.1089827 -0.116998285 -0.010724671
0.016831795 0.06546241 0.011230983 0.009699694 0.040488247 0.005571031 0.07852616 0.021914778
0.01470564 0.04193284 -0.045273572 0.030342065 -0.0048686 0.0018062337 -0.00097411295 0.007775373
-0.16153412 0.01036693 0.012706425 -0.17385541 -0.05796065 -0.038037393 0.06414144 -0.041281108
-0.0188998 0.044289235 -0.039563786 0.03132637 0.061418045 0.05557859 0.067874774 -0.0061751627
-0.009489814 -0.04781422 -0.05850898 0.04864383 0.08823735 -0.15073915 -0.11437832 0.11978789
-0.08160264 -0.034691207 -0.033184476 -0.015621365 0.019742277 0.044300243 -0.04875054 -0.027229568
-0.097646065 -0.029963078 0.044651538 0.011924848 -0.15660161 0.036984753 0.05443374 0.04965434
-0.057967898 -0.07500877 -0.0780433 -0.015233247 -0.0025455153 0.039400194 0.031350672 0.048458163
-0.07011717 0.056481607 0.034104526 -0.026842693 -0.08550721 0.036163706 0.019683663 -0.026561886
0.0037578095 -0.069120705 -0.021202346 0.034190536 -0.06617954 -0.039235197 -0.00036521032 0.06528323
-0.04305814 -0.051171333 -0.013315213 -0.040831044 0.022792313 0.07624991 -0.05698384 0.05485645
-0.05650108 -0.03893263 -0.059159473 -0.043848656 0.017632602 0.024530131 -0.059030592 0.011789158
-0.07100951 0.04808923 -0.013574319 0.04377718 0.01590412 0.055519048 -0.0010884946 -0.032979466
-0.027185196 0.05080553 -0.13621046 0.066389024 -0.04739606 0.012161087 0.12698291 -0.030354977
-0.019906903 -0.0056429585 0.025400212 0.008003557 0.031616643 -0.05785236 0.06448093 -0.060488384
-0.057985082 0.092606045 0.031261273 -0.03345144 0.04172426 0.014659768 0.07266385 -0.08087811
0.04283554 0.04966199 -0.13481143 0.05626605 0.07923884 0.13379237 -0.024731066 -0.037633896
-0.08801434 0.044902638 -0.06588591 -0.018398149 -0.06499394 0.09269787 -0.0060541164 -0.003383886
0.012051795 -0.053035986 0.04314863 0.085862786 -0.152451 -0.0783674 0.0060508642 0.07945164
0.0937836 0.061834928 -0.08823972 -0.078287475 0.01258618 0.18475623 0.03944138 -0.058176395
-0.04976181 -0.039219733 -0.03094726 -0.05912371 -0.0034541623 0.011874161 0.12275585 0.05946955

autoencoder.encoder.2.bias f4 [8]
00000000: cc2b cf3c 4a6c ce3c c4d9 b7bc c681 5f3d
00000010: 0543 7c3c 6108 c9ba c73a 12bd cf9d 65bc
0.025289439 0.02519812 -0.022442706 0.05456712 0.015396838 -0.001533758 -0.035700586 -0.014014675

autoencoder.decoder.0.weight f4 [8, 64, 3]
00000000: e1bd 4fbd 5021 723c 209c 583d bcba 69bc
00000010: f8ec 333d 2c46 7bbc d5af 0cbd ff42 87bd
00000020: c216 46bd 88e7 5d3d 5c19 473d 949b 8e3d
00000030: 3099 eebb dcd8 c73c c81e 11bc 924a 923d
00000040: a8b5 6bbd d887 a0bc 26b7 8dbd 7089 e93b
00000050: a722 66bd 5051 4fbd 8cb9 883c ac0d 933d
00000060: 3462 763d 0219 4b3d ba53 92bc 20cc 0ebb
00000070: f7de 84bd d2b5 463d c087 a13c 04e9 7a3d
00000080: 2fb0 8fbd a02d 90bc d860 3ebd a038 62bd
00000090: abbd 2fbd 5cc7 ba3c 0e83 443d 4c7e 053d
000000a0: 4880 cabc 4865 023d 7c93 913d 004b 673b
000000b0: c8bf d4bc fa6a 69bd 30f6 503d 4c1c 87bc
000000c0: 0aeb 67bd b2f1 2a3d b0b9 6b3c e89e eebc
000000d0: cf7b 91bd c853 143c ec17 afbc e009 4dbc
000000e0: b438 c5bc 0022 733d eae7 1c3d 8c5a 6a3d
000000f0: e835 df3c 0cb8 a83c 0ede 913d 0054 86b9
00000100: 12f0 293d 7c66 f03c 0c74 8dbd fed1 483d
00000110: 40e7 e7bb 839a 47bd b835 473d 4c6a 6fbd
00000120: 149a 0a3d 5428 73bd a092 a9bc 8daa 8abd
00000130: b467 533d 8c2a 923c fc35 713d 6c70 b43c
00000140: 2c92 12bd b0cb 313c 3e0b 483d 308a 64bd
00000150: b432 45bd 0261 96bc 0ead 38bd e0cd 56bc
00000160: b4f6 8b3d e05e 243d 15a9 6fbd 8181 1fbd
00000170: e838 6d3d 005d b5bb 24f0 f8bc 602b 673c
00000180: 10ba 3bbc 1030 c73c c042 ae3a 3214 283d
00000190: 32b9 223d bc8f cf3c 9420 b73c 80d2 97bc
000001a0: 28cb 88bd f0ab e3bb 2282 60bd 0e76 6cbd
000001b0: 9025 82bd f8bc 93bc 2a9a 5abd 00eb 473c
000001c0: 984e ff3c b29d 2f3d 1da8 8ebd 84b8 783d
000001d0: 24e9 af3c 54e2 6f3d 3e3b 0f3d 40f3 563c
000001e0: 14f3 62bc 144e 773d 9965 40bd b493 663d
000001f0: 6cea 803d 901a 413c ca89 fdbc 5fcb 6ebd
00000200: 50fb 81bb 442f 7b3d 40a2 5a3b e2cf 94bc
00000210: 4302 13bd 40b6 b03b 367a 233d f859 663c
00000220: 48e0 4b3c da8e 4cbd 480e 0f3d 50cc f53b
00000230: 0b45 91bd 04e0 753d 54fd 3b3d 004c 143a
00000240: c08d 69bc aac0 843d 5abb 923d b0b1 403c
00000250: c033 893d e8ee f93c 4a12 0d3d 300f 8cbb
00000260: 70bc acbb 2e0c 3d3d 8479 01bd 2126 53bd
00000270: 7c91 383d 74e5 8dbc ceb3 503d 0877 44bc
00000280: ee14 34bd 000d a0ba 7852 08bc 98b3 873c
00000290: da0e 64bd a047 7abd 4095 743b 8467 853d
000002a0: d8db 3abd 8bb3 14bd d0b2 e13b 545f 5d3d
000002b0: 1c8a 623d 7ce4 76bc 60f3 77bb f8bb 68bd
000002c0: ee5a 903d a497 333d d828 973c 7794 8fbd
000002d0: ec18 273d 518e 26bd 60d6 443b 30d5 0d3d
000002e0: 205e 3cbb 0a2e 10bd a0aa 473d 7e5b 483d
000002f0: e05d e63b e3bb 38bd ae22 19bd 03c5 84bd
00000300: 3436 1ebd 9905 84bd 80ac d0bb 00ef 51bd
00000310: ea58 283d 3432 6fbd 8bcb 4bbd 2526 36bd
00000320: 1e56 9bbc 105d e73c 10bf 543d 1298 923d
00000330: 1e00 8dbc 84cc 8a3c b07f a63b 3208 233d
00000340: 78e9 0a3d eacd 2d3d 6ea1 493d ac14 763d
00000350: c0a0 713b 60ef 4e3d 7a19 26bd 4c51 78bc
00000360: d02b a5bc 4c04 b1bc 406a 873b f30e 8bbd
00000370: 228a 27bd 10af ddbb 30cb 6d3c c470 513d
00000380: 3bf6 4abd 4c3f 903c d66a 083d e2b9 1dbd
00000390: 2014 493c dfef 1abd 0031 fcba 546f 22bd
000003a0: 7c72 a5bc cae0 e9bc 18c3 7f3d 6cb0 8e3c
000003b0: 8c64 8fbd 28a0 153c ca32 213d d4ba 00bd
000003c0: 5dc6 30bd ec2a 68bc b18d 82bd 22f7 dbbc
000003d0: 303f 113c 748a 5cbd 5162 8cbd 8abd 2fbd
000003e0: a3ef 57bd e0e2 0a3b e0ac d53c d040 3a3d
000003f0: 88b0 933d ae81 1a3d 8375 05bd 4010 1dbc
-0.050718192 0.01477845 0.052883267 -0.014265712 0.043927163 -0.0153365545 -0.034347374 -0.06604575
-0.048361547 0.054175884 0.04860817 0.06963268 -0.007281445 0.024395399 -0.0088574365 0.071431294
-0.057546288 -0.019596025 -0.069196984 0.0071269795 -0.05618539 -0.050614655 0.016690038 0.07180342
0.060152248 0.049584396 -0.01786219 -0.0021789148 -0.0648784 0.04851324 0.019718051 0.061257377
-0.07016026 -0.01759988 -0.046479076 -0.055229783 -0.04290549 0.02280014 0.047976546 0.03259115
-0.024719372 0.03183487 0.071082085 0.0035292506 -0.025970355 -0.056986786 0.051016033 -0.016492985
-0.056620635 0.041734405 0.014387533 -0.029128507 -0.07103693 0.009053178 -0.021373712 -0.012514561
-0.02407489 0.059358597 0.038307108 0.05721526 0.027247384 0.020595573 0.07122432 -0.00025621057
0.041488715 0.029345743 -0.069069 0.04902839 -0.0070771277 -0.04873134 0.048635215 -0.058450982
0.033838347 -0.05936463 -0.020699799 -0.06770811 0.05161257 0.017842554 0.058889374 0.022026263
-0.03578393 0.010851786 0.048838846 -0.05579585 -0.048144057 -0.018356804 -0.045086913 -0.013110608
0.06834164 0.040129542 -0.05851086 -0.038941864 0.0579156 -0.005534768 -0.030387945 0.0141094625
-0.011457935 0.02431491 0.001329504 0.041034885 0.039727397 0.025337093 0.022354402 -0.018532991
-0.06679374 -0.006947987 -0.054811604 -0.057729773 -0.06354821 -0.018034443 -0.05336968 0.012202024
0.031165406 0.042875 -0.06965659 0.060722843 0.021473475 0.058565453 0.034968607 0.013119519
-0.0138519 0.060377195 -0.04697189 0.056293204 0.062947124 0.011786118 -0.030949492 -0.05829942
-0.0039667264 0.061324373 0.0033360869 -0.018165532 -0.03589083 0.0053928196 0.03991147 0.014059536
0.01244361 -0.04994092 0.03492573 0.0075011626 -0.07093247 0.06002809 0.04589589 0.0005657077
-0.014254987 0.0648206 0.07164641 0.011761114 0.06699324 0.030509427 0.03444127 -0.0042742714
-0.005271487 0.046154194 -0.031610027 -0.051550034 0.04506062 -0.017321326 0.050952725 -0.01199127
-0.043965273 -0.0012210906 -0.008320443 0.01656513 -0.055678226 -0.061103463 0.0037320405 0.06513885
-0.045619816 -0.036304038 0.006887771 0.05404599 0.055307493 -0.015069123 -0.0037834272 -0.056819886
0.070485935 0.043845788 0.018452093 -0.07010739 0.04079525 -0.040663067 0.0030035004 0.03462714
-0.0028742626 -0.035200156 0.048746705 0.04891538 0.0070302337 -0.045101058 -0.03738659 -0.064828895
-0.03862591 -0.0644638 -0.00636822 -0.05125332 0.04110042 -0.058397487 -0.04975466 -0.04446997
-0.018961962 0.028242618 0.051940024 0.07157911 -0.01721197 0.016943224 0.0050811395 0.039802738
0.03391406 0.042432703 0.049226217 0.060078308 0.0036869496 0.050521255 -0.04055164 -0.015156101
-0.020162493 -0.021608494 0.004132539 -0.06789961 -0.040903218 -0.006765254 0.014513776 0.051132932
-0.04955123 0.017608307 0.03330501 -0.03850735 0.012272865 -0.037826415 -0.0019240677 -0.039656952
-0.020196192 -0.02854957 0.062441915 0.017418109 -0.070016 0.0091324225 0.039355077 -0.031428173
-0.043157924 -0.01417039 -0.06374682 -0.02685124 0.008865163 -0.053842977 -0.0685469 -0.042905368
-0.05271877 0.0021192357 0.02608341 0.045471966 0.07211405 0.03772133 -0.03258277 -0.009586394

autoencoder.decoder.0.bias f4 [64]
00000000: 1cad 263d 0913 86bd 8c0c 36bc 1841 013c
00000010: 6feb 8fbd 6035 773d b2fa 413d 428d 08bd
00000020: f8c3 76bc d776 2bbd 6464 e33c d8ec 4b3c
00000030: 4af7 ccbc a609 1e3d 1899 7fbc 70f5 fd3b
00000040: e0aa 4c3d bce2 0abd 2451 88bd 768b 1f3d
00000050: 7e2f 41bd d07f df3c c0bd b1bc c46e 463d
00000060: c0e3 33bb bd97 06bd 9e88 50bd 4ea3 463d
00000070: 2cf6 38bd 4c97 a73c 7010 623d 9f73 6dbd
00000080: 8419 78bd d040 f13b d413 e8bc 84ff 58bd
00000090: cc77 433d d17e 89bd 56c7 06bd 988a 75bd
000000a0: d841 9c3c 50f6 cb3b b09a f63c 1c86 f73c
000000b0: 00ac 95b9 588a b1bc 44b1 823d e0af 443b
000000c0: 80c1 8c3c 9c68 73bd 01dc 90bd 9d62 10bd
000000d0: bce5 1abd f849 ab3c 2563 03bd 10f8 f63b
000000e0: 5cf7 883d 3a66 aebc 700b 973c 0004 683a
000000f0: bc87 423d 7249 013d 00bc 5bbb d6ae 213d
0.040692434 -0.065465994 -0.01111139 0.007889055 -0.07027327 0.060353637 0.047358222 -0.03333784
-0.015061371 -0.04186138 0.02775783 0.012446605 -0.02502026 0.03858342 -0.015600465 0.0077502057
0.049967647 -0.033907637 -0.06656101 0.03895136 -0.047164433 0.027282625 -0.021696925 0.048445478
-0.0027448982 -0.032859553 -0.05091154 0.048495583 -0.045156643 0.020457886 0.055191457 -0.057971593
-0.06057121 0.0073624626 -0.028329767 -0.052978054 0.04772167 -0.067136414 -0.032904945 -0.059946626
0.019074365 0.006224431 0.030103058 0.030215316 -0.00028547645 -0.021672413 0.06381467 0.0030012056
0.017182112 -0.059425935 -0.070732124 -0.035250295 -0.037816748 0.020909294 -0.032076973 0.0075368956
0.06687805 -0.02128898 0.018438071 0.00088506937 0.047492728 0.031564184 -0.0033528805 0.039473377

autoencoder.decoder.2.weight f4 [64, 1, 3]
00000000: 80a2 f0bc a802 c9bd 6c72 66be e425 f1be
00000010: dcec f63e d952 bbbe 94e6 0cbf 7896 84be
00000020: 70d9 ee3d e09b 56bd d291 863e 4c5c a93e
00000030: f6d8 ad3e ea04 f8be 4408 713e e052 923e
00000040: 2dfd a3be 0047 373b f838 b13d e844 943d
00000050: d29f 9e3e 48f8 fa3e aaf5 0d3f 3c5e 043e
00000060: 24de ac3e b0c5 7c3e 95eb 9fbe dcb3 c53e
00000070: e005 28bd 3845 713e fd30 c4be 947f ec3e
00000080: acf2 033e 3cf9 053e f87b 03bf 3086 4dbd
00000090: 3cbc 4ebe be8a 0b3f be50 07bf 50e5 11be
000000a0: cd9d 92be eb49 d6be b063 633e ba17 ccbe
000000b0: 4abb 8b3e 10ed 8d3d 6f7f 9cbe 508f 86bd
000000c0: 7014 4d3d 72bd 83be 86ed bdbe 7495 a6be
000000d0: d8a4 0e3e f43b 02bf 7c22 ba3e cc22 c23e
000000e0: 52e8 073f 8819 fa3e 8f21 a6be 0345 80be
000000f0: 345c d83e 28f7 98bd 26a5 d9be 9499 8dbe
00000100: c47f cf3e 4c19 a8be 84f1 4f3e 8ed1 f6be
00000110: 3232 c33e f09a 223e b0e6 cb3e 004f a13c
00000120: 7c0d 963e c43d f23e f828 95bd 4e67 dfbe
00000130: e693 d0be e850 ad3e 7c80 bcbe 4c61 01bf
00000140: ba4a fabe 98e9 82be b05b db3d b8ec 05bf
00000150: 55f9 88be 8681 0d3f c41b c9bd 9c81 47be
00000160: cace 8b3e 8a40 f3be f3d0 e6be 980f a93d
00000170: 88e4 3a3e d3a6 11bf 1cdc 013f 4835 66be
00000180: 68a2 b43d 5221 d23e e84b 623e 3892 373e
00000190: bcd9 06bf 8ce5 09bf 74de 5b3e e0c3 af3c
000001a0: 2283 b53e f0ed 933e 4226 edbe 40a1 d93d
000001b0: aee6 e7be 8667 a3be 7878 223e d02f 04bd
000001c0: cac8 bcbe 8478 483e a022 cd3e a941 11bf
000001d0: 8ea2 0a3f 6a2e a33e 1053 47bd 5a53 0fbf
000001e0: c045 7abe 746d 343e 1ae2 7bbe 7655 42be
000001f0: 6426 74be cc27 fe3e 542b fa3e ea8f e6be
00000200: d264 36be 9edf 053f 0036 08bd 26ec 8fbe
00000210: b0fb 8e3d 04e4 e93e 3078 96bd b677 0bbf
00000220: ce9e 45be 381e 933e 28b5 aebd 6adb d03e
00000230: 9453 4b3e 80ea a53b 64d4 613e a49a 9fbd
00000240: 3668 fdbe 6255 fdbe a284 e8be 2454 bcbd
00000250: dbbc d5be 6048 ad3d 1094 873d 5ceb e03e
00000260: 70f8 043d 5087 c93d cc39 523e f224 27be
00000270: 6a4b 93be b108 0bbf 76f3 0fbf f07f 1b3d
00000280: 81c9 8bbe e8aa 233e bcee 123e b48c e63e
00000290: 1859 90bd 0001 20bb 0805 cc3e 4083 c83d
000002a0: 1e4b 873e ce9f 9fbe 52a8 d5be 505d e13e
000002b0: c4b7 d23e 7cda 5fbe 286b c43d 4d72 03bf
000002c0: 5080 253d 5f39 09bf 0014 a73e 677e 12bf
000002d0: 369d 0ebe 08e6 093f 844a 48be 6458 abbe
000002e0: 2255 053f cd85 95be 6c64 023e b634 a53e
000002f0: 38d8 1e3e 4c3a ccbe 6c24 063f a0bf 8d3e
-0.029374361 -0.0981496 -0.22504586 -0.4709922 0.48227584 -0.36586645 -0.55039334 -0.2589605
0.11662567 -0.052394748 0.26283127 0.3307823 0.3395459 -0.4844125 0.2353831 0.28578854
-0.32029095 0.0027965903 0.08653444 0.07239705 0.30981308 0.4901755 0.5545298 0.12926573
0.3376323 0.24684787 -0.31234422 0.38613784 -0.041021228 0.23561561 -0.38318625 0.46191084
0.1288554 0.13083357 -0.51361036 -0.0501768 -0.20188993 0.5450858 -0.5285758 -0.14247632
-0.28636017 -0.4185327 0.22205997 -0.39861852 0.27291328 0.06929982 -0.30565974 -0.065703034
0.05006832 -0.25730473 -0.37095279 -0.325359 0.1393007 -0.5087273 0.36354434 0.37917173
0.5308887 0.48847604 -0.32447478 -0.25052652 0.42257845 -0.07469016 -0.4250881 -0.27656233
0.40527165 -0.328318 0.20306975 -0.48206753 0.38124233 0.15879416 0.39824438 0.01969099
0.29307163 0.47312748 -0.07283205 -0.43633503 -0.40737838 0.3385079 -0.36816776 -0.5053909
-0.48885137 -0.25568843 0.107108474 -0.5231433 -0.26752725 0.5527576 -0.09819749 -0.19483036
0.27306205 -0.47510177 -0.4508129 0.082549274 0.1825124 -0.5689518 0.50726485 -0.22481263
0.08820039 0.41041046 0.22099268 0.17926872 -0.52675986 -0.53865886 0.21471578 0.021455705
0.3545161 0.2889247 -0.4631825 0.10626459 -0.45293182 -0.3191492 0.15866268 -0.03227216
-0.3687194 0.19577223 0.4006548 -0.56740814 0.5415429 0.3187135 -0.0486632 -0.5598656
-0.2444067 0.17619878 -0.2459797 -0.18977913 -0.2384277 0.49639738 0.48861182 -0.45031673
-0.17811897 0.5229434 -0.033254623 -0.28109854 0.06981599 0.45681775 -0.07347143 -0.5447954
-0.1929886 0.28733993 -0.085306466 0.407924 0.19856101 0.005063355 0.22053677 -0.07793167
-0.4949357 -0.49479204 -0.4541369 -0.09195736 -0.41745648 0.0846107 0.066200376 0.43929565
0.03246349 0.09840262 0.2052986 -0.16322687 -0.28768474 -0.5431014 -0.56230867 0.037963808
-0.27302173 0.15983164 0.14348882 0.45029223 -0.07048243 -0.0024414659 0.3984759 0.09790659
0.26424497 -0.3117661 -0.4172998 0.44016504 0.41155827 -0.21860689 0.09590751 -0.51346284
0.04040557 -0.53603166 0.32632446 -0.57224125 -0.13927159 0.53866625 -0.19559675 -0.33465874
0.5208303 -0.29203644 0.1273362 0.32266778 0.15512168 -0.39888227 0.52399325 0.2768526

tcn.network.0.conv1.bias f4 [64]
00000000: d6b1 2dbe 1929 f6bd ad22 383d a9d0 0b3e
00000010: 6e77 7a3b 346e 46be 4e7c ffbd e877 a2bd
00000020: a84f a33d 0547 01be 5a19 07be b73d 4fbe
00000030: 163c 38be 8bef 203e 7487 e4bd 5547 58bd
00000040: e1e1 a43c 5160 6cbd 6caa 76bd a00d f1bc
00000050: bf7f febd dbe3 da3d f88e 9b3b 6ccc bf3d
00000060: e267 a43c d337 1c3e 49ac f63d af9e fdbd
00000070: 1690 82bd fafa 093d 9f4e b8bc 356c 33be
00000080: 6d0f 253e 5e5f 053e 3ff6 f7bd ce18 553d
00000090: de1d d13d d3b8 21be 66fb 43bd 2414 47be
000000a0: d6bd 67be 0989 163e bf37 9f3d 604f 0bbe
000000b0: 54c7 8abc 521f a3bd d5f0 dfbc c5c3 92bd
000000c0: 5805 483d c626 203d d498 e8bd 8715 d43d
000000d0: 393a 373d 3028 f4bd c3e5 06be fea3 c7bb
000000e0: 53b5 533d 3a5f 53be aebe 82bd b08f 1dbe
000000f0: 439a 5abe 8979 e13d d537 a8bd 97ff 4ebe
-0.1696237 -0.120195575 0.044954944 0.13653816 0.0038218158 -0.19377977 -0.12474881 -0.079330266
0.079741776 -0.12624748 -0.13193265 -0.20238386 -0.17991671 0.15716378 -0.11158648 -0.052802403
0.020127239 -0.057709042 -0.06022112 -0.029425442 -0.124267094 0.10687991 0.004747268 0.09365162
0.020069066 0.1525567 0.120445795 -0.12383782 -0.063751385 0.033686616 -0.022498427 -0.17521746
0.16119166 0.13024661 -0.121075146 0.05202561 0.10210775 -0.15793161 -0.047847174 -0.19441277
-0.2263101 0.14700712 0.077743046 -0.13604498 -0.01694075 -0.07964958 -0.027336517 -0.07166246
0.04883322 0.039099477 -0.11357275 0.103556685 0.04473326 -0.11921728 -0.13173585 -0.0060925474
0.051686596 -0.20641795 -0.063840255 -0.15386844 -0.21347909 0.11009509 -0.08213774 -0.20214687

tcn.network.0.conv1.weight_g f4 [64, 1, 1]
00000000: ebeb fb3e 855c 213f 7772 143f 1693 183f
00000010: 641c fc3e 33da 163f 3254 e23e 5198 1b3f
00000020: e6f7 1c3f 6aad 273f 648d 253f 8307 143f
00000030: 7229 103f e64c 243f 3c9a 003f 6e18 0b3f
00000040: 414d 1e3f 3cdf ed3e ef67 fd3e 3651 d43e
00000050: f40f 223f ebb5 163f a2ea 163f c939 193f
00000060: 4709 fd3e b48d f43e be6a 1c3f 4872 003f
00000070: b3de 1d3f 0e4f 3e3f e485 4f3f 798c f33e
00000080: 0a15 203f bc1c 183f 3c50 203f 27ec 0a3f
00000090: 16c4 053f 698a 083f 1ff0 073f 8f61 f03e
000000a0: efdf 273f 5089 0a3f 2bb9 253f 81bc 1a3f
000000b0: 4535 023f 71ba 1f3f 1e6e 233f 5976 263f
000000c0: 116f 023f 978c 1e3f de72 0b3f e266 f53e
000000d0: ef70 fb3e ba96 f03e af38 0a3f 7bee 1d3f
000000e0: 54a2 393f 5c75 063f 7e36 0d3f 9b66 103f
000000f0: e54f 193f fb16 063f 0263 203f 963f 133f
0.4920343 0.630318 0.5798716 0.59599435 0.4924041 0.58926696 0.4420486 0.6077929
0.61315763 0.65498984 0.6466887 0.5782396 0.5631324 0.6417984 0.5023534 0.5433415
0.6183663 0.46459377 0.49493358 0.4146821 0.6330559 0.58871335 0.5895177 0.598538
0.4942114 0.4776436 0.61100376 0.5017438 0.6166794 0.7433938 0.81063676 0.4756811
0.62532103 0.59418845 0.6262243 0.5426659 0.5225233 0.533362 0.5310077 0.4694943
0.6557607 0.5411577 0.6473567 0.60443884 0.5086253 0.6239386 0.638399 0.65024334
0.50950724 0.61933273 0.5447215 0.47930056 0.491096 0.46989995 0.5399274 0.6169202
0.7251332 0.52522826 0.55161273 0.56406564 0.59887534 0.52378815 0.62651074 0.575189

tcn.network.0.conv1.weight_v f4 [64, 8, 3]
00000000: efda 02be e0ad 59bd dfd0 d03d 594e b03d
00000010: cd6b c73c 8081 173e 8f39 3c3e 5542 abbd
00000020: aec5 f13b 570b b13d 1a78 10bd fa77 12bd
00000030: b1a0 2a3e db06 013e 8665 fa3d c262 bcbd
00000040: 4f58 e1bd 1ad8 01be 7b1f 41be 7395 05bd
00000050: 7f44 0f3e 4d14 1ebc f750 d4bd 0ceb 6cbd
00000060: 7e8f f2bd 96a2 ccbd cae4 833c 0345 20be
00000070: 628a 80bd 75c1 4c3e 3248 833d 6251 2c3e
00000080: 6796 0dbe 5690 153e 8843 5bbd d88b a33d
00000090: f89a eebd f227 533e 6bd9 19be 5d42 42bd
000000a0: c74c 2bbe 36c7 083d 34fa 713d 50a1 613d
000000b0: a893 b93d 7e93 1e3e 831d 5f3c 89cc f53c
000000c0: f771 64bc 3936 d5bd 1b7d 00be 401a 2e3e
000000d0: a8be 563e 31c2 5ebe 2bb4 5bbc c685 983c
000000e0: b2a8 763e 8793 56bd d858 71bd d889 aebc
000000f0: 5394 9f3c f217 53be 2cff 20be bc1d 4d3d
00000100: b19c 75bd f893 0ebe 7d8c fc3c caf4 1f3e
00000110: cf35 153d 8539 bfbd 3451 68bd ec53 553e
00000120: e332 c33c 3920 013e eea0 babd 560a a7bd
00000130: ec5c b2bd b9aa 24bd 8d06 62bd ed5a e5bd
00000140: 72dc 523e 8500 69be 761b 25bc 30d3 a83d
00000150: cb80 7abd d63b a63d 0f58 00ba 6ac1 03be
00000160: d0e2 83bd 3922 f5bd e2d4 6bbe 1a7a e73d
00000170: dde6 513e 0000 fbbd 79a8 f2bb 1885 853d
00000180: 5da1 b23d 94a9 e6bd b793 09be a63d 663e
00000190: dbd8 fe3d 79bc 3a3e 8ba3 483d f758 09be
000001a0: 1200 8a3d f759 b7bc 6e08 9fbc c483 d4bd
000001b0: db5c 1b3e 27db 57bd 06cc ba3c 3904 30be
000001c0: 1238 8e3d 0e22 e9bd 9fd0 26bd 029d d8bc
000001d0: 6f60 4d3d abdc dbbb 09e2 b83c ba3c 1abe
000001e0: 9be5 22be 79db 8a3d c26f c6bd c938 2ebe
000001f0: ab7d babd 7dfb 60be daae 003d 55d6 d73b
00000200: 3084 3d3e fcaa f8bd 4ed7 e6bd b676 3a3d
00000210: 0428 2bbd 2ec7 2f3e aef9 4d3d 65b0 89bc
00000220: c65d ddbd 7d27 7d3d fe5c a2bd 5943 bd3d
00000230: 5c6c 0c3e b1ac 10be 0c35 27be 0e34 c0bd
00000240: 1af3 113e bef7 dabd 080a c93c d601 8c3d
00000250: 9e99 bc3d b4e1 cdbd 9dc3 dbbd 21bf 523d
00000260: 411c b93c bce6 eb3b 6c89 49be 34cc ad3d
00000270: f0ec b7bd 1f37 083e 3928 a73d e710 02bc
00000280: 788e e93d 7043 97bd fd98 d43d e625 93ba
00000290: 8fac 6ebd 624f 453d 67cb 1f3e 16a8 e6bd
000002a0: a97c 3f3e 6670 30bd 19f0 403e bfa5 423c
000002b0: 1078 5ebc 66ef a3bd ec59 f1bd 667c 52be
000002c0: 62d8 f5bd bae3 9abb b346 263e c19e bb3d
000002d0: e28e 223c 5229 58be 0db8 e63d 9dfd 103e
000002e0: d903 bbbd 9f0b ac3d 8ff1 39be 8547 f1bd
000002f0: a978 87bd 0cc7 41be d40d 03bd 2a71 563c
00000300: 71ad 323d d666 333e d860 d53d cd4a 5fbe
00000310: 378a c1bd 8663 ab3d 3b3d 4ebe 97f0 ac3c
00000320: 4fda b03d 30fb 10be 93b7 3b3e 4882 0fbe
00000330: 2361 35be 9149 3cbe 9e05 8fbd b8a2 653d
00000340: bae5 3e3d 9161 e6bd c18e df3d f22d 26be
00000350: 293d c93d 43e8 393d 16ee c5bd 2645 073e
00000360: dd67 683c 063a e1bd 8d9a 0f3d 53a9 833e
00000370: 62cf 1bbe e38a 04be 644f f4bd 3a99 403e
00000380: fae0 583e 9dbc 4c3e 2127 f23d b329 883d
00000390: 9b63 d1bc bb70 32be bdd5 093e 86c2 e3bd
000003a0: a3fd 413c 0d31 c1bc 04ba fb3d 84d5 68be
000003b0: a09d 48bd 9eb6 3f3d e631 39be 7cc2 24bd
000003c0: d1f9 d9bd 8338 23be eb69 303e dfff 153e
000003d0: a5bc 813d 43fa 51be 0113 3dbd e1ce a3bc
000003e0: 56ea 913d eaa7 33bd bc3b 08be 647f 95b9
000003f0: 3d3c 21be 8614 d83d 788c 133e 2771 b2bd
-0.12778829 -0.053144336 0.10196089 0.08608694 0.024343396 0.14795494 0.18381332 -0.08362261
0.0073783016 0.08644741 -0.035270788 -0.03575895 0.16662861 0.12600271 0.12226395 -0.09198524
-0.11003172 -0.12680092 -0.18859665 -0.03261323 0.13990973 -0.009648395 -0.10367005 -0.057841346
-0.11843775 -0.09991948 0.016100306 -0.15651326 -0.062763944 0.19995673 0.064102545 0.1682792
-0.13826905 0.14605841 -0.0535312 0.079856575 -0.11650652 0.20620707 -0.15024345 -0.04742657
-0.16728507 0.033393107 0.059076503 0.05508548 0.09061366 0.15485951 0.013617876 0.030004757
-0.013943187 -0.10410733 -0.12547724 0.17002201 0.20971167 -0.21753766 -0.013409655 0.018618476
0.2408779 -0.052386787 -0.05892262 -0.021305963 0.019479906 -0.20614603 -0.1572234 0.050077185
-0.059963886 -0.13923633 0.030828709 0.15620723 0.03642827 -0.09337143 -0.056718066 0.20832795
0.023827976 0.12609948 -0.09112726 -0.08156268 -0.0870913 -0.040201876 -0.05518203 -0.11198983
0.20591906 -0.22754104 -0.010077348 0.08243406 -0.061157983 0.081168815 -0.0004895934 -0.1286675
-0.064397454 -0.11969418 -0.23030427 0.11302586 0.20498224 -0.122558594 -0.0074053374 0.06519526
0.08722184 -0.11262813 -0.13435255 0.22484455 0.12443706 0.18235959 0.04898409 -0.13412844
0.06738295 -0.022381766 -0.0194132 -0.10376695 0.1517214 -0.052699234 0.022802364 -0.17189111
0.06944288 -0.113834485 -0.0407263 -0.026442055 0.050140794 -0.0067096553 0.02256872 -0.15062228
-0.159079 0.06780142 -0.09689285 -0.1701385 -0.091060005 -0.21970935 0.03141675 0.0065868297
0.18507457 -0.12141988 -0.11271535 0.045523368 -0.04178621 0.17165825 0.05028694 -0.016807744
-0.108089015 0.061805237 -0.07927893 0.09241361 0.13713211 -0.14128377 -0.1632883 -0.09384929
0.14252892 -0.10691784 0.024540916 0.06836288 0.09208988 -0.10052815 -0.1073067 0.051451806
0.02259648 0.0071991365 -0.19681329 0.08486214 -0.08980739 0.13302277 0.08161969 -0.0079386
0.11404127 -0.073859096 0.10380743 -0.0011226505 -0.058270033 0.04817141 0.15604936 -0.112625286
0.18699898 -0.04307594 0.1884159 0.011880337 -0.01357843 -0.08004646 -0.11784729 -0.20555267
-0.12004162 -0.004726854 0.16237907 0.09161139 0.009921761 -0.21109512 0.11265574 0.14159246
-0.09131593 0.08400654 -0.18158554 -0.117812194 -0.06614811 -0.18923587 -0.03199561 0.013088504
0.043622438 0.17519698 0.10418862 -0.21805878 -0.094501905 0.08368592 -0.20140545 0.021110816
0.08635389 -0.1415832 0.18331747 -0.14014542 -0.17712836 -0.18387438 -0.06983493 0.056063384
0.046605803 -0.11249078 0.109159 -0.16228464 0.098261185 0.045387518 -0.09664552 0.13209972
0.014184919 -0.10997395 0.0350595 0.25715122 -0.15215829 -0.12943606 -0.11929205 0.18808451
0.21179572 0.19993825 0.118238695 0.066485785 -0.02556019 -0.17425816 0.13460441 -0.11121087
0.011840257 -0.02358296 0.12291339 -0.227377 -0.048978448 0.046805017 -0.18085441 -0.040224537
-0.10643352 -0.15939526 0.17227904 0.14648388 0.06334809 -0.20505624 -0.0461607 -0.019996108
0.07124774 -0.043861307 -0.13304037 -0.00028514408 -0.15745635 0.105507895 0.14409053 -0.08712988

tcn.network.0.conv2.bias f4 [64]
00000000: 40fc 313c daad 08bd 1498 933c 52c6 d13c
00000010: f8a5 75bd 6c5d 9bbd af4a 063d ce43 563d
00000020: 23e3 babd 2ee6 90ba 0f2d febc 9398 46ba
00000030: 2eb5 82bc 5b61 43bd 9879 9a3c db4d f23c
00000040: 8795 0f3d 0e63 ad3d 2065 333d fa91 60bd
00000050: 815b 6b3d 0266 15bd 85de 3e3d e6e2 94bd
00000060: 44e8 47bd b0e1 28bd b8df 6a39 2f7e dfbc
00000070: 32dd b73c 5333 83bc 9f95 61bd b600 88bd
00000080: b2c3 03bd ee2b a7bc 77c4 3bbb 8f4c ebbc
00000090: eff9 833d ea77 4c3c fbf0 11bd 53c5 993d
000000a0: 5ba3 e9bc 5e45 1ebc 050b 7fbd 616e 7cbd
000000b0: e853 2bbd a385 8ebd 8bb8 5bbd 6f85 8e3c
000000c0: 8db3 abbc 5657 41bd 012a ca3c 6265 a0bc
000000d0: 0723 30bd d59e 3cbd 24c0 163d a2e9 95bc
000000e0: 5410 52bb 29be 94bd 294f f4b8 73b6 893d
000000f0: 78d6 83bd a722 40bd 1162 46bd 12d2 92bb
0.010863364 -0.033368923 0.018016852 0.025607262 -0.059972733 -0.07586178 0.032786068 0.052310757
-0.09125354 -0.0011054927 -0.031027345 -0.0007575836 -0.015955534 -0.047700267 0.018856809 0.02957814
0.03505471 0.08466159 0.043797612 -0.054826714 0.05746031 -0.036474235 0.04659893 -0.0726984
-0.04880549 -0.041230857 0.00022399321 -0.027281849 0.022444341 -0.016015684 -0.05507433 -0.066407606
-0.03216905 -0.02040669 -0.0028651038 -0.02872303 0.064441554 0.012479762 -0.035630208 0.0750834
-0.028520277 -0.009660093 -0.06226637 -0.061628703 -0.041828066 -0.06959083 -0.05364279 0.01739761
-0.02095964 -0.04720243 0.024678232 -0.019579593 -0.043002155 -0.04604991 0.036804333 -0.018299881
-0.003205319 -0.07262833 -0.000116495714 0.067242526 -0.06437391 -0.046908047 -0.048433367 -0.0044806087

tcn.network.0.conv2.weight_g f4 [64, 1, 1]
00000000: 1bb9 153f 61ba 133f 7713 153f 6b52 113f
00000010: 9576 033f 16aa fe3e b815 173f bacd 133f
00000020: fbbc 0f3f 4aed 123f d34f 143f 03d6 143f
00000030: b05e 0a3f 59af 163f 9fbe 193f ccb8 1a3f
00000040: a3f9 123f 41ad 0e3f 3bd7 133f 12ea 113f
00000050: 5d66 0e3f 5591 173f 3775 0e3f edfe 143f
00000060: b2eb 0a3f f0e2 1c3f 2ea7 153f 258e 143f
00000070: 0072 083f 9834 163f 25dc 0e3f 6fa6 1b3f
00000080: 4c49 0b3f da98 143f ae57 173f 4a1b 113f
00000090: 0eb7 143f ce4a 103f 00c1 113f 4d30 173f
000000a0: 0acf 0a3f e6b8 0f3f 9d50 103f cf01 093f
000000b0: a811 0d3f 7103 0b3f 2f21 133f f8f3 103f
000000c0: 2d82 103f 02fe 183f 52bb 163f de5f 0b3f
000000d0: 7c86 113f 4811 0d3f 42e0 143f f8a7 0c3f
000000e0: dd52 143f 90f4 0b3f d841 0a3f 22d9 113f
000000f0: 14cc 053f ea3f 063f e2d0 143f 8e4c 143f
0.58485574 0.57706267 0.58232826 0.56766385 0.51352817 0.4973914 0.59017515 0.5773579
0.56147736 0.57393324 0.579343 0.58139056 0.5405073 0.5886131 0.6005649 0.6043823
0.57412165 0.55733114 0.5775029 0.5699779 0.55624944 0.59206134 0.55647606 0.58201486
0.5426589 0.6128378 0.5845822 0.58029395 0.5329895 0.58674 0.55804664 0.6080083
0.5440872 0.5804573 0.59118164 0.56682265 0.5809182 0.5636414 0.5693512 0.59058076
0.54222167 0.5614151 0.56373006 0.53518385 0.55105066 0.54302126 0.5747251 0.56622267
0.5644863 0.59762585 0.5887958 0.54443157 0.5684583 0.55104494 0.5815469 0.549438
0.5793894 0.5467005 0.5400672 0.56971943 0.52264524 0.52441275 0.5813123 0.57929313

tcn.network.0.conv2.weight_v f4 [64, 64, 3]
00000000: 816d 74bd 14a1 99bd 9f61 2cbc a5e4 193d
00000010: f0ba 92bd d8c3 cfbc cd2e 713d 5232 7f3d
00000020: 9b1d d0bd b3ba a3bd 13dd 1bbd b588 903d
00000030: c97b bdbd 48a3 5fbd 1da7 b63c 8b53 eabc
00000040: ba9c 693d b83f 50bd 86d2 aa3c 5abf c13c
00000050: 0ce4 7ebd cd91 83bd 6b6b e5bc 4e6b e03b
00000060: db55 e3bc 2981 77bd 7d80 76bd efa0 033d
00000070: 41c0 bb3d d2c2 85bd 5af3 01be 56a1 90bc
00000080: d6cc 0b3c 649e 62bd a653 41bd 78e4 32bd
00000090: 8b1e 22bc 4512 86bc 1d1f aabd bbc0 e3bc
000000a0: d285 0abd 1ff3 26bc adc2 2ebd 9b02 0ebd
000000b0: f9ac b03c 5a96 79bd 9653 a2bc 114e 8d3d
000000c0: dd92 433c a155 44bd c511 603d cccd 92bd
000000d0: 4c6d 8c3c 53f5 6f3d 32b1 52bd bfee 203d
000000e0: 2042 6c3d 56ca 2b3d 00de dc3b 0b85 17bd
000000f0: f773 aa3d 3335 863d 28f2 5fbc 48a4 6b3d
00000100: 4918 913d da4d 313d 45df eb3c 4d6e 053d
00000110: 409c 75bd 13a9 3dbc 1a77 d23c 00c9 863c
00000120: c81a c53c 2559 44bc 2950 a8bd c813 223c
00000130: 5a48 80bd e202 8cbd aabe 9d3d a2f3 a03c
00000140: fae6 413d ffdd 39bd aa8f 0a3d bd85 683d
00000150: 7a84 173d b7a2 b3ba 0336 593d 85ac 9d3d
00000160: 9cca 633d f594 893d 7eff 5cbd 5dcd 74bd
00000170: ee80 683d c646 9c3d 9df2 fdbc ed24 ccbc
00000180: a04d 863c 6ddc 183c 42f1 433d 0c69 d83c
00000190: 4fed 2c3c f44d c23c 481a e5bc 8690 9ebd
000001a0: 879d 59bd 85e0 82bd b538 a43d b4ed 3a3d
000001b0: aafc 97bc f7fc e3bc 6941 8ebd 154f a4bd
000001c0: 43fe 44bd 3f0a b8bc bb0f 36bd a70d 85bd
000001d0: 905a 463d 8509 fabc 8c0d 2b3d 0b23 8e3d
000001e0: 2710 813d cf67 7dbd 8409 0bbb adfe 61bd
000001f0: af46 133c 7cbb 663c 98a7 0abd 79b0 2f3d
00000200: 196f 61bc 85eb 153d e4a9 a5bb c63f 4a3d
00000210: e865 86bb f232 03bd afa7 14bd 6e1c 53bd
00000220: 6b5c 5ebd 67ad c43c f616 483d 142e 63bd
00000230: 5a7b 7f3d 2cd4 bb3c d018 ee3c a86a 7dbd
00000240: e3c7 cabc 8bfd 9bbd 3a9a 77bd c61f 1c3d
00000250: bde7 dbbc c6dc 6d3d c1da 86bd c65d 88bd
00000260: c17a 96bd eeba 833d 3491 53bd 0d27 7ebd
00000270: 1dd5 b63d 9142 8dbc b606 4cbd 09e6 2b3d
00000280: 8933 343d 255f 5a3d 5ba9 8d3c cd9b b1bd
00000290: 0ba8 87bd 770f 8dbd 8ffe aabd 53b6 013d
000002a0: 7d18 17bd a907 713d 3c0d 48bd cbcf ff3c
000002b0: 220c 033d 2a72 b63c e85c 283d cf78 793d
000002c0: cbed b53c f2a6 ffbc c705 89bd 4789 bb3c
000002d0: 964b 8ebd 3140 603d afb7 723d 5b25 f9bb
000002e0: 9318 3cbd b397 09bd 4179 37bc ece9 98bd
000002f0: 38f4 aebc 2e62 0ebb dad2 64bd 0d2c a73c
00000300: 0e91 5abd fa23 37bd 854f acbc 70d5 eb3b
00000310: 933a 79bd 9419 44bd dea8 c6bc 619d 72bd
00000320: a7f6 2bbd f808 7abd ca76 c33a 5781 023d
00000330: daaa 4bbc bead 78bd fe3b c1bc b412 c0bc
00000340: b9f7 593d d1ec 763c 00ed 0fbd 385e 9dbc
00000350: 1e5e 65bc e339 903d e225 843c 226b 533c
00000360: 6d30 923d dbac 593d 4dbe 29bc 63e7 49bd
00000370: e499 15bd 7ba8 1bbd 198d 80bd f7e9 0f3d
00000380: 2353 71bd 004d 5d3d 0a2a 64bd 0b71 6abd
00000390: 7504 9a3c 4934 6bbc 6928 e8bc 07f7 0f3d
000003a0: 9578 0abd 70f2 f8bc 26c8 a6bd 3170 47bd
000003b0: 6b2b 84bd 0637 5f3d bee2 b1bc 7d32 a73c
000003c0: ff83 d2bc cb60 be38 981e 533d 5315 32bd
000003d0: 908c 1b3c 7f2b e5bb 2180 47bd 7fd2 e53c
000003e0: 0584 2e3d 5b92 5eba 0bff 223d 6b48 32bd
000003f0: 8e9f 55bd d2e9 61bd 770d aabb b47c 0cbc
-0.059674744 -0.07501426 -0.010521322 0.037571568 -0.07164562 -0.02536194 0.058882523 0.06230385
-0.10161897 -0.079945944 -0.03805263 0.07057325 -0.09252126 -0.054599077 0.022296483 -0.02860429
0.05703423 -0.050842017 0.020852339 0.023650814 -0.0622292 -0.06424294 -0.028005322 0.006848729
-0.0277509 -0.06042591 -0.06018113 0.0321359 0.09167529 -0.065313 -0.12690488 -0.017655056
0.008532723 -0.055326834 -0.047198914 -0.043674916 -0.009894977 -0.016366133 -0.08306716 -0.027801862
-0.033819027 -0.0101898005 -0.042666126 -0.034670454 0.021566855 -0.060934402 -0.019815248 0.068996556
0.01193687 -0.047933225 0.054704446 -0.07168159 0.01714196 0.05858357 -0.051438518 0.039290186
0.05768025 0.04194101 0.0067403316 -0.036992114 0.083229 0.06553116 -0.013668574 0.057529718
0.0708471 0.043287136 0.028792987 0.032575894 -0.059963465 -0.011575955 0.025691558 0.016453266
0.024060622 -0.011984144 -0.08218414 0.0098924115 -0.062638 -0.06836487 0.07702382 0.019647423
0.047339417 -0.045377728 0.033828415 0.056768168 0.036991574 -0.0013705109 0.053030025 0.07698921
0.055613145 0.067178644 -0.053954594 -0.059766162 0.056763582 0.076306865 -0.030999476 -0.024919951
0.016394436 0.009329897 0.047837503 0.026417278 0.010554626 0.023718812 -0.027966633 -0.077424094
-0.053128745 -0.0639048 0.080186285 0.045636848 -0.018553097 -0.027830584 -0.0694607 -0.08022896
-0.048094045 -0.022465823 -0.044448595 -0.064967446 0.04842621 -0.030522117 0.041760966 0.06940278
0.06301909 -0.061866578 -0.0021215389 -0.05517452 0.00898902 0.014082786 -0.033851236 0.042892907
-0.013759398 0.036601562 -0.005055653 0.049377225 -0.0041015036 -0.032031007 -0.036292728 -0.051540785
-0.054287355 0.024008466 0.048850022 -0.055463865 0.062373497 0.02292832 0.029064566 -0.061869293
-0.024753517 -0.07616719 -0.060449816 0.03811624 -0.0268439 0.058071874 -0.06584693 -0.06658511
-0.07347632 0.064321384 -0.05165215 -0.06204896 0.08927367 -0.017243655 -0.049811088 0.041967425
0.04399446 0.053313393 0.017292669 -0.08672295 -0.066238485 -0.06887715 -0.083493344 0.03166802
-0.03688859 0.058845196 -0.048840746 0.031227013 0.031993993 0.022271235 0.041104227 0.060906228
0.022208115 -0.031207535 -0.06690555 0.022892607 -0.069480106 0.054748718 0.059257206 -0.00760333
-0.045921873 -0.033591937 -0.011198343 -0.07466492 -0.021356687 -0.0021726 -0.055865146 0.020406747
-0.05336099 -0.044712044 -0.021034012 0.0071970746 -0.060846876 -0.047875956 -0.024250444 -0.05923212
-0.041983273 -0.06104371 0.0014912721 0.03186163 -0.012430871 -0.06071257 -0.023588177 -0.023446418
0.053214762 0.01507111 -0.03513813 -0.019209966 -0.01399949 0.07042291 0.016131345 0.01290396
0.07138143 0.053143363 -0.010360313 -0.049292933 -0.036523715 -0.038002472 -0.06276912 0.035135236
-0.058917176 0.05402851 -0.055704154 -0.057236712 0.018800953 -0.0143557275 -0.028339582 0.035147693
-0.033806402 -0.03038904 -0.08143644 -0.04869098 -0.06453594 0.054495834 -0.021714564 0.020409817
-0.025697706 9.077935e-05 0.05154285 -0.043477368 0.009493962 -0.0069937105 -0.048706178 0.028054474
0.042606372 -0.00084904366 0.03979401 -0.043526094 -0.052154116 -0.05515463 -0.0051895934 -0.008574653

tcn.network.0.net.0.bias f4 [64]
00000000: d6b1 2dbe 1929 f6bd ad22 383d a9d0 0b3e
00000010: 6e77 7a3b 346e 46be 4e7c ffbd e877 a2bd
00000020: a84f a33d 0547 01be 5a19 07be b73d 4fbe
00000030: 163c 38be 8bef 203e 7487 e4bd 5547 58bd
00000040: e1e1 a43c 5160 6cbd 6caa 76bd a00d f1bc
00000050: bf7f febd dbe3 da3d f88e 9b3b 6ccc bf3d
00000060: e267 a43c d337 1c3e 49ac f63d af9e fdbd
00000070: 1690 82bd fafa 093d 9f4e b8bc 356c 33be
00000080: 6d0f 253e 5e5f 053e 3ff6 f7bd ce18 553d
00000090: de1d d13d d3b8 21be 66fb 43bd 2414 47be
000000a0: d6bd 67be 0989 163e bf37 9f3d 604f 0bbe
000000b0: 54c7 8abc 521f a3bd d5f0 dfbc c5c3 92bd
000000c0: 5805 483d c626 203d d498 e8bd 8715 d43d
000000d0: 393a 373d 3028 f4bd c3e5 06be fea3 c7bb
000000e0: 53b5 533d 3a5f 53be aebe 82bd b08f 1dbe
000000f0: 439a 5abe 8979 e13d d537 a8bd 97ff 4ebe
-0.1696237 -0.120195575 0.044954944 0.13653816 0.0038218158 -0.19377977 -0.12474881 -0.079330266
0.079741776 -0.12624748 -0.13193265 -0.20238386 -0.17991671 0.15716378 -0.11158648 -0.052802403
0.020127239 -0.057709042 -0.06022112 -0.029425442 -0.124267094 0.10687991 0.004747268 0.09365162
0.020069066 0.1525567 0.120445795 -0.12383782 -0.063751385 0.033686616 -0.022498427 -0.17521746
0.16119166 0.13024661 -0.121075146 0.05202561 0.10210775 -0.15793161 -0.047847174 -0.19441277
-0.2263101 0.14700712 0.077743046 -0.13604498 -0.01694075 -0.07964958 -0.027336517 -0.07166246
0.04883322 0.039099477 -0.11357275 0.103556685 0.04473326 -0.11921728 -0.13173585 -0.0060925474
0.051686596 -0.20641795 -0.063840255 -0.15386844 -0.21347909 0.11009509 -0.08213774 -0.20214687

tcn.network.0.net.0.weight_g f4 [64, 1, 1]
00000000: ebeb fb3e 855c 213f 7772 143f 1693 183f
00000010: 641c fc3e 33da 163f 3254 e23e 5198 1b3f
00000020: e6f7 1c3f 6aad 273f 648d 253f 8307 143f
00000030: 7229 103f e64c 243f 3c9a 003f 6e18 0b3f
00000040: 414d 1e3f 3cdf ed3e ef67 fd3e 3651 d43e
00000050: f40f 223f ebb5 163f a2ea 163f c939 193f
00000060: 4709 fd3e b48d f43e be6a 1c3f 4872 003f
00000070: b3de 1d3f 0e4f 3e3f e485 4f3f 798c f33e
00000080: 0a15 203f bc1c 183f 3c50 203f 27ec 0a3f
00000090: 16c4 053f 698a 083f 1ff0 073f 8f61 f03e
000000a0: efdf 273f 5089 0a3f 2bb9 253f 81bc 1a3f
000000b0: 4535 023f 71ba 1f3f 1e6e 233f 5976 263f
000000c0: 116f 023f 978c 1e3f de72 0b3f e266 f53e
000000d0: ef70 fb3e ba96 f03e af38 0a3f 7bee 1d3f
000000e0: 54a2 393f 5c75 063f 7e36 0d3f 9b66 103f
000000f0: e54f 193f fb16 063f 0263 203f 963f 133f
0.4920343 0.630318 0.5798716 0.59599435 0.4924041 0.58926696 0.4420486 0.6077929
0.61315763 0.65498984 0.6466887 0.5782396 0.5631324 0.6417984 0.5023534 0.5433415
0.6183663 0.46459377 0.49493358 0.4146821 0.6330559 0.58871335 0.5895177 0.598538
0.4942114 0.4776436 0.61100376 0.5017438 0.6166794 0.7433938 0.81063676 0.4756811
0.62532103 0.59418845 0.6262243 0.5426659 0.5225233 0.533362 0.5310077 0.4694943
0.6557607 0.5411577 0.6473567 0.60443884 0.5086253 0.6239386 0.638399 0.65024334
0.50950724 0.61933273 0.5447215 0.47930056 0.491096 0.46989995 0.5399274 0.6169202
0.7251332 0.52522826 0.55161273 0.56406564 0.59887534 0.52378815 0.62651074 0.575189
