checkpoints/tcn/sh-CEEMDAN(1024)-h[64,32,16]-k3-lr0.001-d0.3-ep200.pth (torch, 132107 bytes, 43 tensors)

tcn.network.0.conv1.bias f4 [64]
00000000: c1c0 27be 4cae 62be e517 f7bd 8646 3cbe
00000010: 461e cabc b302 b4bd 6c0e 043d 7c10 a4be
00000020: 6473 103c 4140 f3ba fdbb 58be 10de 36be
00000030: ea6e 54be 411a 853c fd0e 8fbe 2982 4bbe
00000040: 589f af3d 2387 7dbe 560e 59bc 5882 93bd
00000050: d2f1 ca3c 600d 45be a563 a03a 930a acbd
00000060: 9104 e1bc 7b35 133d 2d15 84be b83d 50be
00000070: eae3 c93c 9daa 4fbe b6ab 5cbe a09e b2bd
00000080: 5656 50be af5f 0abe 9771 31be 1389 e13b
00000090: 0ae5 64be 32a5 90bd 752d 9f3d ec13 20bd
000000a0: 99f4 c7bd 24bd 08be 463c 2ebe 93eb cebd
000000b0: a678 1bbe a953 6dbe 7ed5 54be 98cb 2f3d
000000c0: 7a81 0cbe e602 2c3b 3f23 a23c f63c c4bd
000000d0: 25de 32be 92bf 74be a750 58be 71e8 c4bb
000000e0: b778 5ebe 3207 edbd 9193 83bc 06ca 383d
000000f0: f0fd cdbb 519e 22bd a80b 893d bae6 f7bd
-0.16382124 -0.22136801 -0.120651044 -0.18386278 -0.024672639 -0.08789577 0.032240316 -0.32043827
0.008816574 -0.0018558578 -0.21165462 -0.17858148 -0.20745435 0.01624787 -0.27941123 -0.19873871
0.08575314 -0.24758582 -0.013248047 -0.072025955 0.024773512 -0.19243383 0.0012236728 -0.08400454
-0.027467998 0.035939675 -0.25797406 -0.20336044 0.02464481 -0.20279928 -0.21549878 -0.087216616
-0.20345435 -0.13513063 -0.17328487 0.0068827956 -0.22352996 -0.070627585 0.07772342 -0.0390815
-0.0976345 -0.13353401 -0.1701518 -0.10103526 -0.15182742 -0.23176445 -0.20784566 0.04291877
-0.13721266 0.0026246845 0.019792197 -0.0958194 -0.17467554 -0.23901203 -0.21124516 -0.0060091545
-0.21725737 -0.11573638 -0.016061576 0.04511454 -0.006286375 -0.039701764 0.066916764 -0.121045545

tcn.network.0.conv1.weight_g f4 [64, 1, 1]
00000000: 4d59 0b3f da9c 073f ce5b 1c3f 9886 1a3f
00000010: 31f2 103f 9b01 0e3f 8cb5 da3e d45c 1d3f
00000020: e56e 063f 2096 1a3f 867b 253f 4a33 2f3f
00000030: 3bd5 193f 8003 f03e b609 fd3e cf5d f63e
00000040: de3f 023f 4fe4 133f 2082 043f 37e5 0f3f
00000050: 8445 1d3f 74f8 223f fb29 113f a24b 183f
00000060: ee83 223f f961 123f 0f8e 1f3f b53c fd3e
00000070: 51a0 1d3f fd56 ef3e a859 033f 5b05 1e3f
00000080: 52cb f83e 4267 fb3e cd5c 133f e902 143f
00000090: ac9d 1e3f 8f5d 253f 3834 1b3f e951 fc3e
000000a0: 029e 123f cbee e83e dd18 173f 63f1 043f
000000b0: 0138 1c3f e54c 333f 78fe 103f 5532 043f
000000c0: a79a 133f 0fcf 143f 458e 003f a71e 083f
000000d0: bf86 bb3e da54 0f3f cd1b 1d3f f3f5 063f
000000e0: 9b38 053f 7644 0d3f ff7c 183f 0bef 113f
000000f0: b2d0 143f 8fd2 163f 34e0 103f fef2 173f
0.5443314 0.5297371 0.6107758 0.60361624 0.56619555 0.554712 0.42716634 0.6146977
0.5251296 0.6038532 0.64641607 0.68437636 0.6009099 0.4687767 0.4942147 0.48118445
0.50878704 0.57770246 0.51761055 0.5620913 0.614342 0.6366036 0.5670468 0.59490407
0.6348256 0.57180744 0.6232614 0.49460378 0.6157275 0.46746054 0.5130868 0.6172692
0.4859262 0.49102217 0.5756348 0.5781694 0.6195934 0.64595884 0.60626554 0.49281242
0.5727235 0.45494685 0.59022313 0.51930827 0.61022955 0.70039207 0.5663829 0.516393
0.57657856 0.58128446 0.50217086 0.5317177 0.3662624 0.5598885 0.61370546 0.5271904
0.520395 0.5518259 0.5956573 0.57005376 0.58130944 0.58915037 0.56592107 0.5935515

tcn.network.0.conv1.weight_v f4 [64, 10, 3]
00000000: 740f a13d b649 b63d d9a7 c3bd 1d17 323e
00000010: 2c35 3dbd 8777 233d 7a7d b6bd 0b7d 3c3e
00000020: 38a1 713e e843 17be d3e7 383e fee9 cd3c
00000030: f905 3c3e e352 033c 82c7 d63d 74cd c3bd
00000040: a657 083e 8ae6 a8bd 2c19 fbbd a49d 483d
00000050: bbde d5bd 186a b1bd 1496 e8bd e3aa cc3d
00000060: 4903 29be d825 8dbd d855 b1bd 5de6 50bd
00000070: caa8 8d3d 2901 57be 1fe4 e23d d12c 59be
00000080: ebf8 a93d cee1 233d c34e 58bd 8f02 103e
00000090: 9b60 5f3b 842b 1e3e 26fc 4d3c d26b 113b
000000a0: 9e4e 0b3e bd3b 863c fd6c 23bd aca2 ef3d
000000b0: e1fe bd3d d94d c8bd 104a 333e f5d9 453d
000000c0: 9746 053e 757d 4dbd 105c ecbd 9f42 6cbd
000000d0: 761c 0bbe 20ab 623e 2afd 183d 33f5 0b3e
000000e0: ed01 a83d 2798 7f3d d7fa 5f3e 956b 3fbe
000000f0: 8892 113b 1e04 08be 86c5 203d ee03 62bd
00000100: 75f2 573d 14c2 9bbd ef02 2f3e d4e8 d5bd
00000110: f504 24be f9ea 02be 8bad 0e3e 2d3d 93bb
00000120: a248 2e3e 3907 c9bd da53 3bbe fdd2 04be
00000130: 1c2c 07be cfa6 083e 5743 323d 5f07 c43d
00000140: 2e41 7dbe f067 05be 3c59 e83d 36b9 3bbe
00000150: e443 023d af08 9cbd 1500 873d e32c 39be
00000160: 7dee 0abe 7f30 a33d a113 e63c 13ae 71bd
00000170: ba6e b93d 0da4 b33d 8f06 29be 6136 12be
00000180: ec0c 153e 9ae0 a7bd 396c c3bd c22d 80be
00000190: 44b6 abbd 7f93 973d dfac edbd f45f f9bd
000001a0: 3bce 5c3c 014a d73d d580 5e3d 91a7 143e
000001b0: aba7 cdbc 5661 413c 5034 8b3e 476d 103e
000001c0: 6f61 c23c 675f 38be b09b 49be 28bd eebd
000001d0: c224 8e3d 821f 67be 4157 cebd 8ed9 20be
000001e0: 66d6 d2bc 3c7a c0bd 6ec0 2bbd b15b 83bd
000001f0: a536 abbd 5f84 b1bd 8e97 e1bd 5b26 3dbe
00000200: 121d cf3d 447c 9fbd c0b0 0a3e 0bf6 613d
00000210: 17e7 69be d914 de3d 7dc4 8cbd 1088 9bbc
00000220: f4f9 d5bd c202 fabd 3767 e83d 11f5 1cbe
00000230: 9ed5 ca3d d7af eabd 0653 5e3e f87d e5bd
00000240: 5262 553c 5fa7 d43c 9a5e 4b3e 0e5b d63d
00000250: 0661 9a3d fef9 4cbe 6bd7 b73d 405f 21bd
00000260: a517 723c 3880 12be 0c00 1d3e 9570 10be
00000270: 077c c03d 39a4 8a3d be74 823d c3d2 22bd
00000280: e63e 7f3e 8509 d63d 33b1 f43d e0cf c0bd
00000290: 86f7 f43d 19c7 2fbd ac7c 1bbe 89e5 203e
000002a0: a9d0 333d 2838 f3bd 0e3c 64bd 960e 68be
000002b0: b00a 07be de5e 82be e7da e7bd 3b2e adbd
000002c0: 25aa 2abe d099 f23c c8f1 163d 6996 2fbe
000002d0: 3b75 c3bb 9ea2 3c3d 5086 4bbc 3678 97bd
000002e0: af44 cf3d c94c d43d df90 8c3d 0ee9 73bd
000002f0: 894a 96bd eac5 133d d295 3bbd 3c03 8dbd
00000300: c042 a23d 9ef3 0e3e 00ec 9bbd dac9 3ebd
00000310: a2c9 30bd 1503 c83b b855 bf3d 9526 f3bb
00000320: cb0f 49be 17b4 d8bd 1bc5 463e 3694 d53d
00000330: f0b8 5d3d e899 1abe f423 0dbe 1e38 1bbe
00000340: 85ac 9ebc fbf7 113e 89d1 ef3d 4390 ae3d
00000350: 6135 35be 47d4 13be 0e79 70bd c6a3 013e
00000360: 58d3 95bc 5a8f c8bd d12f 8abc 1d49 33be
00000370: 5c6d a3bd 3f13 6e3e ab3e 41be fde7 023d
00000380: fdab 95bd db56 223e bc45 393e 9eb9 1e3e
00000390: 86a8 49bd 6774 efbd f676 62be 3fb3 803e
000003a0: 91ca 733d 1a91 143e 5128 c63d 3abb aa3d
000003b0: 7d77 953d 6abf 2bbe 6570 9fbd 051c b0bc
000003c0: 5847 9b3d 8ef4 b9bd 4168 31bd 4943 63bd
000003d0: d16a 903b 29a1 05be 166b cbbd f183 913d
000003e0: 4f2c 99bd 24ce 2f3e ba68 e4bc ba8d 8fbd
000003f0: 3bed ecbc 88f5 b8bd 97b8 d83d 5336 1dbe
0.078642756 0.08900778 -0.09553499 0.1739163 -0.046193287 0.039908912 -0.089106515 0.18407075
0.23596656 -0.14771998 0.18057184 0.02513599 0.18361653 0.008015367 0.10487272 -0.095606714
0.13314685 -0.08247097 -0.122606605 0.048978463 -0.10442873 -0.08662814 -0.1135675 0.099935316
-0.1650516 -0.06891984 -0.086589515 -0.05100094 0.069169596 -0.20996536 0.11078667 -0.21208502
0.082994305 0.040010266 -0.052809488 0.14063476 0.003408468 0.15446287 0.012572324 0.002218951
0.13604209 0.016385907 -0.03989886 0.11700949 0.0927713 -0.09780473 0.17508721 0.048303563
0.13015209 -0.050168473 -0.11540997 -0.057680722 -0.13585076 0.22135592 0.03735081 0.13667755
0.08203492 0.062400963 0.21873032 -0.18693383 0.0022212584 -0.1328282 0.039250873 -0.05517953
0.05272146 -0.07605377 0.17090963 -0.10444799 -0.16017516 -0.12784947 0.13933389 -0.0044933767
0.17019895 -0.09815831 -0.18293706 -0.1297111 -0.1320042 0.13344882 0.04352125 0.095717184
-0.24731895 -0.1302793 0.11345145 -0.18332371 0.031803027 -0.07618844 0.065918125 -0.18083529
-0.13567539 0.07968234 0.028085532 -0.0590039 0.090543225 0.087715246 -0.16506408 -0.14278556
0.1455571 -0.08197136 -0.09542126 -0.2503491 -0.08384374 0.074011795 -0.11605238 -0.12176505
0.013476904 0.10512162 0.054322083 0.14517047 -0.025104364 0.011802992 0.2718835 0.14104186
0.0237281 -0.18005143 -0.19688296 -0.116571724 0.06940605 -0.22570613 -0.10075236 -0.1570799
-0.025736999 -0.09398314 -0.041931562 -0.06413973 -0.08360032 -0.08667826 -0.11015235 -0.18471663
0.101129666 -0.07787374 0.13543987 0.055166285 -0.2284206 0.1084382 -0.06873415 -0.018985778
-0.104480654 -0.12207557 0.11347812 -0.1532786 0.099040255 -0.1145932 0.21711358 -0.11205667
0.01302393 0.025958715 0.19860306 0.10466586 0.07538037 -0.2001724 0.089766346 -0.039397478
0.014776145 -0.14306724 0.15332049 -0.14105447 0.09398656 0.06769604 0.06369923 -0.03975178
0.24926338 0.104510345 0.119478606 -0.09414649 0.11961274 -0.042914484 -0.15184277 0.1571256
0.043900166 -0.11875945 -0.055721335 -0.22661814 -0.1318767 -0.25463003 -0.11321049 -0.084560834
-0.16666467 0.02961436 0.036851674 -0.1714722 -0.0059649027 0.04605352 -0.012422159 -0.07395975
0.10120522 0.10366208 0.068635695 -0.05954843 -0.07338435 0.036077417 -0.045797177 -0.068853825
0.07922888 0.1396012 -0.07613373 -0.04657922 -0.043161042 0.006103883 0.093425214 -0.007420371
-0.19634931 -0.105812244 0.19411127 0.104286596 0.05413145 -0.15097773 -0.13783246 -0.15158126
-0.019369373 0.14254753 0.117098875 0.085236095 -0.17696144 -0.14436446 -0.058709197 0.12660131
-0.018289253 -0.09792967 -0.016868504 -0.17508359 -0.07979843 0.2324953 -0.18871562 0.031959523
-0.07308195 0.15853445 0.18093008 0.15500495 -0.049232982 -0.11692124 -0.22115692 0.25136754
0.059519354 0.14508477 0.096756585 0.08336492 0.07298181 -0.16772237 -0.077851094 -0.021497736
0.07581967 -0.09079848 -0.043312315 -0.05548409 0.0044072648 -0.13049759 -0.099325344 0.07105244
-0.07479154 0.1716848 -0.027881969 -0.07009454 -0.028921714 -0.09031206 0.10582083 -0.15352754

tcn.network.0.conv2.bias f4 [64]
00000000: 3b82 933d 100b bf3c e98b 9dbc 57e2 903d
00000010: 9433 a4bd 9e5b 203c 6ab4 47bd 70df 5dbd
00000020: 83b4 58bd fbe5 46ba 8282 82bc c1ec 063d
00000030: d750 21be 3bbb a1bd 0535 223c fc24 4ebc
00000040: 7c03 823d 5b5b ae3c a597 83bd 54a1 bcbd
00000050: ba21 4f3d 77d8 86bc 7e11 bebc f49c aa3c
00000060: 731b 2cbc 9deb e53c e8e2 b4bd 5af8 df3b
00000070: fdb1 b83a 5b75 94bc db25 7c3d 29a9 193d
00000080: 90f6 e6bc cac9 4d3d 740a 4d3d 2366 01be
00000090: 11f7 9fbd d91a ff3c 4b64 4b3d 4cf7 07bd
000000a0: d002 3e3d 8622 a6bc b6c8 06be 5674 2cbd
000000b0: c7e3 263d 039e 3abd 3555 643d 914d 2b3d
000000c0: 1cb5 553d 63c1 703d 581c 8dbd 3aff 1ebd
000000d0: 87e4 ddbc 287e 9c3c 3c27 aabd 3ee6 aebd
000000e0: 8d8f 13bd eafc d83c ba0c 2e3b e02d 5a3d
000000f0: 2545 45bd 7c23 8f3c 5647 d93b 866a 8bbd
0.07202574 0.023320705 -0.019231753 0.07074421 -0.0801765 0.009787468 -0.04875604 -0.054168165
-0.052906524 -0.00075873703 -0.015931372 0.03294063 -0.15753494 -0.078970395 0.009900336 -0.01258206
0.06348321 0.021283796 -0.06425408 -0.092104584 0.050569274 -0.01646064 -0.0232017 0.020826794
-0.010504591 0.02806645 -0.088323414 0.0068350257 0.001409113 -0.018122366 0.06155954 0.03751484
-0.028193742 0.05024127 0.050058797 -0.12636618 -0.07810796 0.031140732 0.049656194 -0.033194825
0.0463894 -0.020280134 -0.13162503 -0.042103134 0.04074457 -0.045560848 0.055745322 0.04182202
0.052174672 0.058778178 -0.06890172 -0.03881762 -0.02708651 0.019103125 -0.083082646 -0.08540009
-0.036025573 0.026487786 0.0026557879 0.053266406 -0.048161644 0.017472975 0.0066308184 -0.06807427

tcn.network.0.conv2.weight_g f4 [64, 1, 1]
00000000: a57f fd3e fb78 123f 4982 103f 00d8 103f
00000010: 3560 e93e 32e2 0b3f 159a 043f 3ca3 013f
00000020: d3c0 163f fb71 073f 67d7 ed3e 1cae 113f
00000030: 55d7 153f f1f0 ea3e e275 163f 5169 dd3e
00000040: e227 113f 3bb9 093f b212 0a3f d19a 073f
00000050: 9049 1a3f bc2f f53e dde6 013f 55bc 133f
00000060: c42b 0b3f fd6c 143f c401 143f 6e89 be3e
00000070: 9f37 093f 5b0f 093f a73c 163f aae1 0a3f
00000080: 1040 103f 28f8 0c3f 639f 053f 0b1c fe3e
00000090: 20b0 123f 596c 123f 9ad9 0b3f 6877 0e3f
000000a0: f093 0a3f 584a 1b3f 8206 0c3f baf1 123f
000000b0: f266 003f 9542 013f 4587 113f 9933 103f
000000c0: 5507 0d3f 6589 123f d10b 043f ce1c 173f
000000d0: da06 0b3f e5ad 1d3f cd96 0f3f 3985 033f
000000e0: c716 0e3f c628 0d3f 2afe 0c3f 9767 fe3e
000000f0: 0dab 083f 0b16 113f 4c4c 063f 8770 ef3e
0.49511448 0.5721585 0.564488 0.5657959 0.45581213 0.5464202 0.5179761 0.506397
0.58887976 0.52908295 0.464534 0.56906295 0.58531696 0.4588695 0.58773625 0.43244413
0.5670148 0.53798264 0.53934777 0.52970606 0.602685 0.4788798 0.50742894 0.57709247
0.54363656 0.579788 0.57815194 0.37214226 0.53600496 0.53539056 0.586863 0.54250586
0.5634775 0.55066156 0.5219633 0.4963077 0.57299995 0.57196575 0.5462891 0.5565095
0.54131985 0.60660315 0.5469743 0.57400095 0.5015708 0.5049222 0.5684703 0.5632873
0.5508931 0.572409 0.5158053 0.5902833 0.5430733 0.61593467 0.5608948 0.51375157
0.55503505 0.5514034 0.55075324 0.49688408 0.53386 0.5667426 0.5246017 0.4676554

tcn.network.0.conv2.weight_v f4 [64, 64, 3]
00000000: a3cc 4dbb 4e81 88bd 18bc bebd 0b3e febc
00000010: cb83 d6bd da25 c2bc dae1 76bc 9203 9a3d
00000020: aae7 e03d 86b7 7dbd f13d c6bd 0c09 71bd
00000030: 69fc e1bc 8a9b ebbc 79ef 95bd 7b4c 55bd
00000040: d16b fabc 3b69 25bd 41c7 273d e99d 14bc
00000050: 4303 cb3c 0081 c2bd e67d c7bd c7bb 5bbd
00000060: 9c86 91bc 5f77 9fbd f1fa a2bc dcb1 4ebd
00000070: ad2a 79bc c32d b1bc 82a6 ab3d d068 3dbc
00000080: 4cf7 393d d663 1bbd b18d cebc 1f14 f7ba
00000090: c21c 823d 415b b8bc 7fb5 8c3d 9f8e 97bc
000000a0: 9a70 503d aba5 ca3c 9991 263d d122 b73c
000000b0: f7b4 403c e75b 3e3d 0f50 3f3d 8564 023d
000000c0: 2fce c7bc b963 43bd 8887 6e3b 8c18 33bd
000000d0: 72a5 5ebd 829e 07bd 3a32 5c3d 4f12 8d3d
000000e0: 0326 0abc e905 43bd 46c6 18bd ddbc a33c
000000f0: 3e99 303d 6cdb b83c 282a 273c 7faf af3d
00000100: bdb9 9a3d 025a 563d 9f40 813d ac15 d03d
00000110: d0c1 893d e75a c4bd 4d83 aabd bd80 03bc
00000120: 9c88 263b 9d26 6b3c 7571 81bd 16a8 f8bd
00000130: 707f 9dbd c7ff 65bd d857 fc3b 4277 323d
00000140: 4882 0b3e 90e0 8a3d c255 c33d 7ce0 57bc
00000150: 3866 9e3c 2369 32bd 3520 36bd d3a2 b3bc
00000160: f8e7 f6bd 7f0a 40bc 9957 e4bc 504d a8bb
00000170: 16ca 303d b88a bfbd c750 67bd 7a81 323d
00000180: 798d 2ebd 469c af3d eef5 4fbc 170f 6dbb
00000190: 2bbb 28bd 31a4 463c 6a08 3abd 8557 07bd
000001a0: 109a fc3c 8d97 08bd 53a7 bc3c 9268 8f3c
000001b0: b0f1 b53b 382f 023e cd36 003b ab28 143b
000001c0: 3c06 593a 1d3e ed3c 2b72 d63b b29c a0bd
000001d0: 476d c53c ad82 99bb 1e9a bf3c 4e0e 3bbc
000001e0: 820b 633d 6e75 bc3c b0b5 5d3c 4335 933d
000001f0: c8e7 e2bc a682 01bd dda0 0cbd c31c 34bd
00000200: 9b77 9c3c e2f7 1d3c 215b 4f3d 4338 6c3b
00000210: 5d91 683d 3313 9eb8 457c 0bbc 360e 8fbd
00000220: d067 f2bd b1f9 8cbd 499f e03d 7303 083e
00000230: 5b04 533d 8129 343d daf4 0d3e 1ad3 bdbd
00000240: 107f 88bc a357 ea3b 5ddf 2fbc 7a70 07be
00000250: fa77 b1bd fbd2 47bd 6193 24bd 81e2 bebb
00000260: 84b1 cf3c 0ba8 acbd 6eb6 75bd caba 8abd
00000270: 62cf df3c de17 85bd 9860 bb3c e492 443d
00000280: 8f2f 983d 41ae b23d b9f3 f9bc caae 96bd
00000290: e8d0 b13d e5e6 1dbd 0d9e 2c3b 3b08 3cbd
000002a0: 76ac dd3c 44b1 70bc 3340 753d 2fb6 86bc
000002b0: 64cb fe3b 2182 d73c 4e9f b8bd 530c 9cbd
000002c0: e2df 0dbd 7494 043d 6d44 c53b 4ae1 873c
000002d0: d11f ab3d 4225 493d 92d8 dfbc 0c0a cebd
000002e0: e70d 87bc 356b 923b 93d6 a33c a46c aebd
000002f0: 7fec f1bd 7f44 cebd 5aa4 b63d f7da 75bc
00000300: 288f c3bd 5661 02bd fbe2 3dbe 3bb0 e7bc
00000310: 6d75 f0bd 37eb 43bd c4b7 f2bb 46ab 1cbc
00000320: dce1 043e a409 abbd 1fbc bcbd 7c54 833a
00000330: 8deb c3bc 1cb3 a33b d832 9539 91ff b7bd
00000340: 2327 67bd c330 0a3b 65bd f33c 8665 e83d
00000350: f3bc 9e3d f013 a3bc f3c9 ad3c 542a ea3d
00000360: 4ea6 003c 97c2 f4bc 89e6 39bc fa67 f6bc
00000370: 90c2 57bd a897 b0bd d047 613d 24f8 fd3d
00000380: c8d0 c9bd e865 80bc 6c1a f83c ac35 233d
00000390: f8be d8bd ac2a d5bd 7ca4 d5bd 436a 473d
000003a0: b0f2 83bc 1242 6fbd 431c 3fbc 6c0b 103c
000003b0: 1035 313c f0e9 003d b88b 143c 1ff1 fcbb
000003c0: e0a5 13bd fc27 75bd 823c 91bc 4b20 e03d
000003d0: 2709 a93c 53cd edbd db64 673c 36ab 063c
000003e0: f928 a53b d984 1fbd 5d65 803d 0812 72ba
000003f0: db90 a63b 6c2c 7f3d b31c a0bc f9b5 32be
-0.003140249 -0.06665288 -0.0931322 -0.031035444 -0.10474356 -0.02369969 -0.015068496 0.07520212
0.109816864 -0.0619426 -0.09679783 -0.05884652 -0.027586179 -0.02876069 -0.073210664 -0.05207489
-0.030568989 -0.04038356 0.040961508 -0.009070852 0.024781829 -0.09497261 -0.0974081 -0.053645875
-0.017764382 -0.0778644 -0.019895049 -0.05046259 -0.015207929 -0.021628266 0.08381368 -0.011560634
0.045401856 -0.037937008 -0.025214048 -0.0018850601 0.06353141 -0.02250445 0.06870555 -0.018500624
0.050888635 0.0247372 0.040666196 0.022355469 0.011761895 0.046474364 0.04670721 0.031834144
-0.024390308 -0.047702525 0.00363967 -0.04372458 -0.054357 -0.03311015 0.053758837 0.06888258
-0.008431914 -0.04761306 -0.037298463 0.019987518 0.043114893 0.022565566 0.010202922 0.08578395
0.07554958 0.052331932 0.063111536 0.101603836 0.0672642 -0.09587651 -0.08325825 -0.008026299
0.0025411015 0.014352468 -0.06320468 -0.12141435 -0.076903224 -0.05615213 0.0077009015 0.043570764
0.13623917 0.06781113 0.095378414 -0.01317608 0.019335851 -0.043557297 -0.04446431 -0.021928227
-0.12055963 -0.011721252 -0.027873801 -0.0051361695 0.043161474 -0.093526304 -0.05647352 0.04358051
-0.042615388 0.08574729 -0.012692912 -0.0036172324 -0.041194122 0.012124107 -0.04541818 -0.03304245
0.030835181 -0.033347655 0.023029005 0.017505918 0.005552493 0.12713325 0.0019563914 0.0022607248
0.0008278822 0.028960282 0.0065443716 -0.07842387 0.024099959 -0.004684767 0.023388918 -0.011416985
0.055430897 0.023005214 0.013532087 0.07187893 -0.027698413 -0.031618737 -0.0343331 -0.04397274
0.019100001 0.009641619 0.050624017 0.0036044277 0.056779254 -7.537603e-05 -0.008513515 -0.069851324
-0.11836207 -0.06883562 0.10967881 0.13282566 0.051517826 0.043984894 0.13862935 -0.0926878
-0.01666215 0.0071515604 -0.010734406 -0.132265 -0.08665462 -0.04878519 -0.040179614 -0.005825341
0.0253532 -0.08430489 -0.05998843 -0.067739084 0.027320568 -0.06498693 0.022873208 0.04799165
0.07430946 0.087246425 -0.030511724 -0.07357557 0.08682424 -0.038550276 0.0026339323 -0.045906287
0.027059775 -0.014690701 0.05987568 -0.016444294 0.007775711 0.026307167 -0.0901476 -0.07619538
-0.03463734 0.03236814 0.00602012 0.016586918 0.08355678 0.049107797 -0.027324948 -0.1006051
-0.016486121 0.0044683465 0.019999778 -0.08516815 -0.11812686 -0.10071658 0.08918066 -0.015005819
-0.09548789 -0.031831108 -0.18543617 -0.028282275 -0.11741147 -0.04783174 -0.0074071605 -0.009562319
0.12976784 -0.08351448 -0.09215569 0.0010019685 -0.02391603 0.0049957167 0.00028457376 -0.08984292
-0.056433808 0.0021086193 0.029753396 0.11347489 0.07750883 -0.019906968 0.021214461 0.11433855
0.00785215 -0.029877944 -0.011346468 -0.030078877 -0.052675784 -0.08622676 0.055000126 0.12400845
-0.09854275 -0.015673593 0.030286036 0.039846107 -0.105832994 -0.1040853 -0.104317635 0.048685323
-0.016106933 -0.05841262 -0.011664453 0.008791786 0.010815874 0.0314731 0.009066515 -0.0077191736
-0.036046863 -0.059852585 -0.017729048 0.109436594 0.020634247 -0.11611428 0.014123167 0.008219531
0.0050402847 -0.038945053 0.062693335 -0.0009234254 0.005083186 0.062298223 -0.019544935 -0.1745223

tcn.network.0.net.0.bias f4 [64]
00000000: c1c0 27be 4cae 62be e517 f7bd 8646 3cbe
00000010: 461e cabc b302 b4bd 6c0e 043d 7c10 a4be
00000020: 6473 103c 4140 f3ba fdbb 58be 10de 36be
00000030: ea6e 54be 411a 853c fd0e 8fbe 2982 4bbe
00000040: 589f af3d 2387 7dbe 560e 59bc 5882 93bd
00000050: d2f1 ca3c 600d 45be a563 a03a 930a acbd
00000060: 9104 e1bc 7b35 133d 2d15 84be b83d 50be
00000070: eae3 c93c 9daa 4fbe b6ab 5cbe a09e b2bd
00000080: 5656 50be af5f 0abe 9771 31be 1389 e13b
00000090: 0ae5 64be 32a5 90bd 752d 9f3d ec13 20bd
000000a0: 99f4 c7bd 24bd 08be 463c 2ebe 93eb cebd
000000b0: a678 1bbe a953 6dbe 7ed5 54be 98cb 2f3d
000000c0: 7a81 0cbe e602 2c3b 3f23 a23c f63c c4bd
000000d0: 25de 32be 92bf 74be a750 58be 71e8 c4bb
000000e0: b778 5ebe 3207 edbd 9193 83bc 06ca 383d
000000f0: f0fd cdbb 519e 22bd a80b 893d bae6 f7bd
-0.16382124 -0.22136801 -0.120651044 -0.18386278 -0.024672639 -0.08789577 0.032240316 -0.32043827
0.008816574 -0.0018558578 -0.21165462 -0.17858148 -0.20745435 0.01624787 -0.27941123 -0.19873871
0.08575314 -0.24758582 -0.013248047 -0.072025955 0.024773512 -0.19243383 0.0012236728 -0.08400454
-0.027467998 0.035939675 -0.25797406 -0.20336044 0.02464481 -0.20279928 -0.21549878 -0.087216616
-0.20345435 -0.13513063 -0.17328487 0.0068827956 -0.22352996 -0.070627585 0.07772342 -0.0390815
-0.0976345 -0.13353401 -0.1701518 -0.10103526 -0.15182742 -0.23176445 -0.20784566 0.04291877
-0.13721266 0.0026246845 0.019792197 -0.0958194 -0.17467554 -0.23901203 -0.21124516 -0.0060091545
-0.21725737 -0.11573638 -0.016061576 0.04511454 -0.006286375 -0.039701764 0.066916764 -0.121045545

tcn.network.0.net.0.weight_g f4 [64, 1, 1]
00000000: 4d59 0b3f da9c 073f ce5b 1c3f 9886 1a3f
00000010: 31f2 103f 9b01 0e3f 8cb5 da3e d45c 1d3f
00000020: e56e 063f 2096 1a3f 867b 253f 4a33 2f3f
00000030: 3bd5 193f 8003 f03e b609 fd3e cf5d f63e
00000040: de3f 023f 4fe4 133f 2082 043f 37e5 0f3f
00000050: 8445 1d3f 74f8 223f fb29 113f a24b 183f
00000060: ee83 223f f961 123f 0f8e 1f3f b53c fd3e
00000070: 51a0 1d3f fd56 ef3e a859 033f 5b05 1e3f
00000080: 52cb f83e 4267 fb3e cd5c 133f e902 143f
00000090: ac9d 1e3f 8f5d 253f 3834 1b3f e951 fc3e
000000a0: 029e 123f cbee e83e dd18 173f 63f1 043f
000000b0: 0138 1c3f e54c 333f 78fe 103f 5532 043f
000000c0: a79a 133f 0fcf 143f 458e 003f a71e 083f
000000d0: bf86 bb3e da54 0f3f cd1b 1d3f f3f5 063f
000000e0: 9b38 053f 7644 0d3f ff7c 183f 0bef 113f
000000f0: b2d0 143f 8fd2 163f 34e0 103f fef2 173f
0.5443314 0.5297371 0.6107758 0.60361624 0.56619555 0.554712 0.42716634 0.6146977
0.5251296 0.6038532 0.64641607 0.68437636 0.6009099 0.4687767 0.4942147 0.48118445
0.50878704 0.57770246 0.51761055 0.5620913 0.614342 0.6366036 0.5670468 0.59490407
0.6348256 0.57180744 0.6232614 0.49460378 0.6157275 0.46746054 0.5130868 0.6172692
0.4859262 0.49102217 0.5756348 0.5781694 0.6195934 0.64595884 0.60626554 0.49281242
0.5727235 0.45494685 0.59022313 0.51930827 0.61022955 0.70039207 0.5663829 0.516393
0.57657856 0.58128446 0.50217086 0.5317177 0.3662624 0.5598885 0.61370546 0.5271904
0.520395 0.5518259 0.5956573 0.57005376 0.58130944 0.58915037 0.56592107 0.5935515

tcn.network.0.net.0.weight_v f4 [64, 10, 3]
00000000: 740f a13d b649 b63d d9a7 c3bd 1d17 323e
00000010: 2c35 3dbd 8777 233d 7a7d b6bd 0b7d 3c3e
00000020: 38a1 713e e843 17be d3e7 383e fee9 cd3c
00000030: f905 3c3e e352 033c 82c7 d63d 74cd c3bd
00000040: a657 083e 8ae6 a8bd 2c19 fbbd a49d 483d
00000050: bbde d5bd 186a b1bd 1496 e8bd e3aa cc3d
00000060: 4903 29be d825 8dbd d855 b1bd 5de6 50bd
00000070: caa8 8d3d 2901 57be 1fe4 e23d d12c 59be
00000080: ebf8 a93d cee1 233d c34e 58bd 8f02 103e
00000090: 9b60 5f3b 842b 1e3e 26fc 4d3c d26b 113b
000000a0: 9e4e 0b3e bd3b 863c fd6c 23bd aca2 ef3d
000000b0: e1fe bd3d d94d c8bd 104a 333e f5d9 453d
000000c0: 9746 053e 757d 4dbd 105c ecbd 9f42 6cbd
000000d0: 761c 0bbe 20ab 623e 2afd 183d 33f5 0b3e
000000e0: ed01 a83d 2798 7f3d d7fa 5f3e 956b 3fbe
000000f0: 8892 113b 1e04 08be 86c5 203d ee03 62bd
00000100: 75f2 573d 14c2 9bbd ef02 2f3e d4e8 d5bd
00000110: f504 24be f9ea 02be 8bad 0e3e 2d3d 93bb
00000120: a248 2e3e 3907 c9bd da53 3bbe fdd2 04be
00000130: 1c2c 07be cfa6 083e 5743 323d 5f07 c43d
00000140: 2e41 7dbe f067 05be 3c59 e83d 36b9 3bbe
00000150: e443 023d af08 9cbd 1500 873d e32c 39be
00000160: 7dee 0abe 7f30 a33d a113 e63c 13ae 71bd
00000170: ba6e b93d 0da4 b33d 8f06 29be 6136 12be
00000180: ec0c 153e 9ae0 a7bd 396c c3bd c22d 80be
00000190: 44b6 abbd 7f93 973d dfac edbd f45f f9bd
000001a0: 3bce 5c3c 014a d73d d580 5e3d 91a7 143e
000001b0: aba7 cdbc 5661 413c 5034 8b3e 476d 103e
000001c0: 6f61 c23c 675f 38be b09b 49be 28bd eebd
000001d0: c224 8e3d 821f 67be 4157 cebd 8ed9 20be
000001e0: 66d6 d2bc 3c7a c0bd 6ec0 2bbd b15b 83bd
000001f0: a536 abbd 5f84 b1bd 8e97 e1bd 5b26 3dbe
00000200: 121d cf3d 447c 9fbd c0b0 0a3e 0bf6 613d
00000210: 17e7 69be d914 de3d 7dc4 8cbd 1088 9bbc
00000220: f4f9 d5bd c202 fabd 3767 e83d 11f5 1cbe
00000230: 9ed5 ca3d d7af eabd 0653 5e3e f87d e5bd
00000240: 5262 553c 5fa7 d43c 9a5e 4b3e 0e5b d63d
00000250: 0661 9a3d fef9 4cbe 6bd7 b73d 405f 21bd
00000260: a517 723c 3880 12be 0c00 1d3e 9570 10be
00000270: 077c c03d 39a4 8a3d be74 823d c3d2 22bd
00000280: e63e 7f3e 8509 d63d 33b1 f43d e0cf c0bd
00000290: 86f7 f43d 19c7 2fbd ac7c 1bbe 89e5 203e
000002a0: a9d0 333d 2838 f3bd 0e3c 64bd 960e 68be
000002b0: b00a 07be de5e 82be e7da e7bd 3b2e adbd
000002c0: 25aa 2abe d099 f23c c8f1 163d 6996 2fbe
000002d0: 3b75 c3bb 9ea2 3c3d 5086 4bbc 3678 97bd
000002e0: af44 cf3d c94c d43d df90 8c3d 0ee9 73bd
000002f0: 894a 96bd eac5 133d d295 3bbd 3c03 8dbd
00000300: c042 a23d 9ef3 0e3e 00ec 9bbd dac9 3ebd
00000310: a2c9 30bd 1503 c83b b855 bf3d 9526 f3bb
00000320: cb0f 49be 17b4 d8bd 1bc5 463e 3694 d53d
00000330: f0b8 5d3d e899 1abe f423 0dbe 1e38 1bbe
00000340: 85ac 9ebc fbf7 113e 89d1 ef3d 4390 ae3d
00000350: 6135 35be 47d4 13be 0e79 70bd c6a3 013e
00000360: 58d3 95bc 5a8f c8bd d12f 8abc 1d49 33be
00000370: 5c6d a3bd 3f13 6e3e ab3e 41be fde7 023d
00000380: fdab 95bd db56 223e bc45 393e 9eb9 1e3e
00000390: 86a8 49bd 6774 efbd f676 62be 3fb3 803e
000003a0: 91ca 733d 1a91 143e 5128 c63d 3abb aa3d
000003b0: 7d77 953d 6abf 2bbe 6570 9fbd 051c b0bc
000003c0: 5847 9b3d 8ef4 b9bd 4168 31bd 4943 63bd
000003d0: d16a 903b 29a1 05be 166b cbbd f183 913d
000003e0: 4f2c 99bd 24ce 2f3e ba68 e4bc ba8d 8fbd
000003f0: 3bed ecbc 88f5 b8bd 97b8 d83d 5336 1dbe
0.078642756 0.08900778 -0.09553499 0.1739163 -0.046193287 0.039908912 -0.089106515 0.18407075
0.23596656 -0.14771998 0.18057184 0.02513599 0.18361653 0.008015367 0.10487272 -0.095606714
0.13314685 -0.08247097 -0.122606605 0.048978463 -0.10442873 -0.08662814 -0.1135675 0.099935316
-0.1650516 -0.06891984 -0.086589515 -0.05100094 0.069169596 -0.20996536 0.11078667 -0.21208502
0.082994305 0.040010266 -0.052809488 0.14063476 0.003408468 0.15446287 0.012572324 0.002218951
0.13604209 0.016385907 -0.03989886 0.11700949 0.0927713 -0.09780473 0.17508721 0.048303563
0.13015209 -0.050168473 -0.11540997 -0.057680722 -0.13585076 0.22135592 0.03735081 0.13667755
0.08203492 0.062400963 0.21873032 -0.18693383 0.0022212584 -0.1328282 0.039250873 -0.05517953
0.05272146 -0.07605377 0.17090963 -0.10444799 -0.16017516 -0.12784947 0.13933389 -0.0044933767
0.17019895 -0.09815831 -0.18293706 -0.1297111 -0.1320042 0.13344882 0.04352125 0.095717184
-0.24731895 -0.1302793 0.11345145 -0.18332371 0.031803027 -0.07618844 0.065918125 -0.18083529
-0.13567539 0.07968234 0.028085532 -0.0590039 0.090543225 0.087715246 -0.16506408 -0.14278556
0.1455571 -0.08197136 -0.09542126 -0.2503491 -0.08384374 0.074011795 -0.11605238 -0.12176505
0.013476904 0.10512162 0.054322083 0.14517047 -0.025104364 0.011802992 0.2718835 0.14104186
0.0237281 -0.18005143 -0.19688296 -0.116571724 0.06940605 -0.22570613 -0.10075236 -0.1570799
-0.025736999 -0.09398314 -0.041931562 -0.06413973 -0.08360032 -0.08667826 -0.11015235 -0.18471663
0.101129666 -0.07787374 0.13543987 0.055166285 -0.2284206 0.1084382 -0.06873415 -0.018985778
-0.104480654 -0.12207557 0.11347812 -0.1532786 0.099040255 -0.1145932 0.21711358 -0.11205667
0.01302393 0.025958715 0.19860306 0.10466586 0.07538037 -0.2001724 0.089766346 -0.039397478
0.014776145 -0.14306724 0.15332049 -0.14105447 0.09398656 0.06769604 0.06369923 -0.03975178
0.24926338 0.104510345 0.119478606 -0.09414649 0.11961274 -0.042914484 -0.15184277 0.1571256
0.043900166 -0.11875945 -0.055721335 -0.22661814 -0.1318767 -0.25463003 -0.11321049 -0.084560834
-0.16666467 0.02961436 0.036851674 -0.1714722 -0.0059649027 0.04605352 -0.012422159 -0.07395975
0.10120522 0.10366208 0.068635695 -0.05954843 -0.07338435 0.036077417 -0.045797177 -0.068853825
0.07922888 0.1396012 -0.07613373 -0.04657922 -0.043161042 0.006103883 0.093425214 -0.007420371
-0.19634931 -0.105812244 0.19411127 0.104286596 0.05413145 -0.15097773 -0.13783246 -0.15158126
-0.019369373 0.14254753 0.117098875 0.085236095 -0.17696144 -0.14436446 -0.058709197 0.12660131
-0.018289253 -0.09792967 -0.016868504 -0.17508359 -0.07979843 0.2324953 -0.18871562 0.031959523
-0.07308195 0.15853445 0.18093008 0.15500495 -0.049232982 -0.11692124 -0.22115692 0.25136754
0.059519354 0.14508477 0.096756585 0.08336492 0.07298181 -0.16772237 -0.077851094 -0.021497736
0.07581967 -0.09079848 -0.043312315 -0.05548409 0.0044072648 -0.13049759 -0.099325344 0.07105244
-0.07479154 0.1716848 -0.027881969 -0.07009454 -0.028921714 -0.09031206 0.10582083 -0.15352754

tcn.network.0.net.4.bias f4 [64]
00000000: 3b82 933d 100b bf3c e98b 9dbc 57e2 903d
00000010: 9433 a4bd 9e5b 203c 6ab4 47bd 70df 5dbd
00000020: 83b4 58bd fbe5 46ba 8282 82bc c1ec 063d
00000030: d750 21be 3bbb a1bd 0535 223c fc24 4ebc
00000040: 7c03 823d 5b5b ae3c a597 83bd 54a1 bcbd
00000050: ba21 4f3d 77d8 86bc 7e11 bebc f49c aa3c
00000060: 731b 2cbc 9deb e53c e8e2 b4bd 5af8 df3b
00000070: fdb1 b83a 5b75 94bc db25 7c3d 29a9 193d
00000080: 90f6 e6bc cac9 4d3d 740a 4d3d 2366 01be
00000090: 11f7 9fbd d91a ff3c 4b64 4b3d 4cf7 07bd
000000a0: d002 3e3d 8622 a6bc b6c8 06be 5674 2cbd
000000b0: c7e3 263d 039e 3abd 3555 643d 914d 2b3d
000000c0: 1cb5 553d 63c1 703d 581c 8dbd 3aff 1ebd
000000d0: 87e4 ddbc 287e 9c3c 3c27 aabd 3ee6 aebd
000000e0: 8d8f 13bd eafc d83c ba0c 2e3b e02d 5a3d
000000f0: 2545 45bd 7c23 8f3c 5647 d93b 866a 8bbd
0.07202574 0.023320705 -0.019231753 0.07074421 -0.0801765 0.009787468 -0.04875604 -0.054168165
-0.052906524 -0.00075873703 -0.015931372 0.03294063 -0.15753494 -0.078970395 0.009900336 -0.01258206
0.06348321 0.021283796 -0.06425408 -0.092104584 0.050569274 -0.01646064 -0.0232017 0.020826794
-0.010504591 0.02806645 -0.088323414 0.0068350257 0.001409113 -0.018122366 0.06155954 0.03751484
-0.028193742 0.05024127 0.050058797 -0.12636618 -0.07810796 0.031140732 0.049656194 -0.033194825
0.0463894 -0.020280134 -0.13162503 -0.042103134 0.04074457 -0.045560848 0.055745322 0.04182202
0.052174672 0.058778178 -0.06890172 -0.03881762 -0.02708651 0.019103125 -0.083082646 -0.08540009
-0.036025573 0.026487786 0.0026557879 0.053266406 -0.048161644 0.017472975 0.0066308184 -0.06807427

tcn.network.0.net.4.weight_g f4 [64, 1, 1]
00000000: a57f fd3e fb78 123f 4982 103f 00d8 103f
00000010: 3560 e93e 32e2 0b3f 159a 043f 3ca3 013f
00000020: d3c0 163f fb71 073f 67d7 ed3e 1cae 113f
00000030: 55d7 153f f1f0 ea3e e275 163f 5169 dd3e
00000040: e227 113f 3bb9 093f b212 0a3f d19a 073f
00000050: 9049 1a3f bc2f f53e dde6 013f 55bc 133f
00000060: c42b 0b3f fd6c 143f c401 143f 6e89 be3e
00000070: 9f37 093f 5b0f 093f a73c 163f aae1 0a3f
00000080: 1040 103f 28f8 0c3f 639f 053f 0b1c fe3e
00000090: 20b0 123f 596c 123f 9ad9 0b3f 6877 0e3f
000000a0: f093 0a3f 584a 1b3f 8206 0c3f baf1 123f
000000b0: f266 003f 9542 013f 4587 113f 9933 103f
000000c0: 5507 0d3f 6589 123f d10b 043f ce1c 173f
000000d0: da06 0b3f e5ad 1d3f cd96 0f3f 3985 033f
000000e0: c716 0e3f c628 0d3f 2afe 0c3f 9767 fe3e
000000f0: 0dab 083f 0b16 113f 4c4c 063f 8770 ef3e
0.49511448 0.5721585 0.564488 0.5657959 0.45581213 0.5464202 0.5179761 0.506397
0.58887976 0.52908295 0.464534 0.56906295 0.58531696 0.4588695 0.58773625 0.43244413
0.5670148 0.53798264 0.53934777 0.52970606 0.602685 0.4788798 0.50742894 0.57709247
0.54363656 0.579788 0.57815194 0.37214226 0.53600496 0.53539056 0.586863 0.54250586
0.5634775 0.55066156 0.5219633 0.4963077 0.57299995 0.57196575 0.5462891 0.5565095
0.54131985 0.60660315 0.5469743 0.57400095 0.5015708 0.5049222 0.5684703 0.5632873
0.5508931 0.572409 0.5158053 0.5902833 0.5430733 0.61593467 0.5608948 0.51375157
0.55503505 0.5514034 0.55075324 0.49688408 0.53386 0.5667426 0.5246017 0.4676554

tcn.network.0.net.4.weight_v f4 [64, 64, 3]
00000000: a3cc 4dbb 4e81 88bd 18bc bebd 0b3e febc
00000010: cb83 d6bd da25 c2bc dae1 76bc 9203 9a3d
00000020: aae7 e03d 86b7 7dbd f13d c6bd 0c09 71bd
00000030: 69fc e1bc 8a9b ebbc 79ef 95bd 7b4c 55bd
00000040: d16b fabc 3b69 25bd 41c7 273d e99d 14bc
00000050: 4303 cb3c 0081 c2bd e67d c7bd c7bb 5bbd
00000060: 9c86 91bc 5f77 9fbd f1fa a2bc dcb1 4ebd
00000070: ad2a 79bc c32d b1bc 82a6 ab3d d068 3dbc
00000080: 4cf7 393d d663 1bbd b18d cebc 1f14 f7ba
00000090: c21c 823d 415b b8bc 7fb5 8c3d 9f8e 97bc
000000a0: 9a70 503d aba5 ca3c 9991 263d d122 b73c
000000b0: f7b4 403c e75b 3e3d 0f50 3f3d 8564 023d
000000c0: 2fce c7bc b963 43bd 8887 6e3b 8c18 33bd
000000d0: 72a5 5ebd 829e 07bd 3a32 5c3d 4f12 8d3d
000000e0: 0326 0abc e905 43bd 46c6 18bd ddbc a33c
000000f0: 3e99 303d 6cdb b83c 282a 273c 7faf af3d
00000100: bdb9 9a3d 025a 563d 9f40 813d ac15 d03d
00000110: d0c1 893d e75a c4bd 4d83 aabd bd80 03bc
00000120: 9c88 263b 9d26 6b3c 7571 81bd 16a8 f8bd
00000130: 707f 9dbd c7ff 65bd d857 fc3b 4277 323d
00000140: 4882 0b3e 90e0 8a3d c255 c33d 7ce0 57bc
00000150: 3866 9e3c 2369 32bd 3520 36bd d3a2 b3bc
00000160: f8e7 f6bd 7f0a 40bc 9957 e4bc 504d a8bb
00000170: 16ca 303d b88a bfbd c750 67bd 7a81 323d
00000180: 798d 2ebd 469c af3d eef5 4fbc 170f 6dbb
00000190: 2bbb 28bd 31a4 463c 6a08 3abd 8557 07bd
000001a0: 109a fc3c 8d97 08bd 53a7 bc3c 9268 8f3c
000001b0: b0f1 b53b 382f 023e cd36 003b ab28 143b
000001c0: 3c06 593a 1d3e ed3c 2b72 d63b b29c a0bd
000001d0: 476d c53c ad82 99bb 1e9a bf3c 4e0e 3bbc
000001e0: 820b 633d 6e75 bc3c b0b5 5d3c 4335 933d
000001f0: c8e7 e2bc a682 01bd dda0 0cbd c31c 34bd
00000200: 9b77 9c3c e2f7 1d3c 215b 4f3d 4338 6c3b
00000210: 5d91 683d 3313 9eb8 457c 0bbc 360e 8fbd
00000220: d067 f2bd b1f9 8cbd 499f e03d 7303 083e
00000230: 5b04 533d 8129 343d daf4 0d3e 1ad3 bdbd
00000240: 107f 88bc a357 ea3b 5ddf 2fbc 7a70 07be
00000250: fa77 b1bd fbd2 47bd 6193 24bd 81e2 bebb
00000260: 84b1 cf3c 0ba8 acbd 6eb6 75bd caba 8abd
00000270: 62cf df3c de17 85bd 9860 bb3c e492 443d
00000280: 8f2f 983d 41ae b23d b9f3 f9bc caae 96bd
00000290: e8d0 b13d e5e6 1dbd 0d9e 2c3b 3b08 3cbd
000002a0: 76ac dd3c 44b1 70bc 3340 753d 2fb6 86bc
000002b0: 64cb fe3b 2182 d73c 4e9f b8bd 530c 9cbd
000002c0: e2df 0dbd 7494 043d 6d44 c53b 4ae1 873c
000002d0: d11f ab3d 4225 493d 92d8 dfbc 0c0a cebd
000002e0: e70d 87bc 356b 923b 93d6 a33c a46c aebd
000002f0: 7fec f1bd 7f44 cebd 5aa4 b63d f7da 75bc
00000300: 288f c3bd 5661 02bd fbe2 3dbe 3bb0 e7bc
00000310: 6d75 f0bd 37eb 43bd c4b7 f2bb 46ab 1cbc
00000320: dce1 043e a409 abbd 1fbc bcbd 7c54 833a
00000330: 8deb c3bc 1cb3 a33b d832 9539 91ff b7bd
00000340: 2327 67bd c330 0a3b 65bd f33c 8665 e83d
00000350: f3bc 9e3d f013 a3bc f3c9 ad3c 542a ea3d
00000360: 4ea6 003c 97c2 f4bc 89e6 39bc fa67 f6bc
00000370: 90c2 57bd a897 b0bd d047 613d 24f8 fd3d
00000380: c8d0 c9bd e865 80bc 6c1a f83c ac35 233d
00000390: f8be d8bd ac2a d5bd 7ca4 d5bd 436a 473d
000003a0: b0f2 83bc 1242 6fbd 431c 3fbc 6c0b 103c
000003b0: 1035 313c f0e9 003d b88b 143c 1ff1 fcbb
000003c0: e0a5 13bd fc27 75bd 823c 91bc 4b20 e03d
000003d0: 2709 a93c 53cd edbd db64 673c 36ab 063c
000003e0: f928 a53b d984 1fbd 5d65 803d 0812 72ba
000003f0: db90 a63b 6c2c 7f3d b31c a0bc f9b5 32be
-0.003140249 -0.06665288 -0.0931322 -0.031035444 -0.10474356 -0.02369969 -0.015068496 0.07520212
0.109816864 -0.0619426 -0.09679783 -0.05884652 -0.027586179 -0.02876069 -0.073210664 -0.05207489
-0.030568989 -0.04038356 0.040961508 -0.009070852 0.024781829 -0.09497261 -0.0974081 -0.053645875
-0.017764382 -0.0778644 -0.019895049 -0.05046259 -0.015207929 -0.021628266 0.08381368 -0.011560634
0.045401856 -0.037937008 -0.025214048 -0.0018850601 0.06353141 -0.02250445 0.06870555 -0.018500624
0.050888635 0.0247372 0.040666196 0.022355469 0.011761895 0.046474364 0.04670721 0.031834144
-0.024390308 -0.047702525 0.00363967 -0.04372458 -0.054357 -0.03311015 0.053758837 0.06888258
-0.008431914 -0.04761306 -0.037298463 0.019987518 0.043114893 0.022565566 0.010202922 0.08578395
0.07554958 0.052331932 0.063111536 0.101603836 0.0672642 -0.09587651 -0.08325825 -0.008026299
0.0025411015 0.014352468 -0.06320468 -0.12141435 -0.076903224 -0.05615213 0.0077009015 0.043570764
0.13623917 0.06781113 0.095378414 -0.01317608 0.019335851 -0.043557297 -0.04446431 -0.021928227
-0.12055963 -0.011721252 -0.027873801 -0.0051361695 0.043161474 -0.093526304 -0.05647352 0.04358051
-0.042615388 0.08574729 -0.012692912 -0.0036172324 -0.041194122 0.012124107 -0.04541818 -0.03304245
0.030835181 -0.033347655 0.023029005 0.017505918 0.005552493 0.12713325 0.0019563914 0.0022607248
0.0008278822 0.028960282 0.0065443716 -0.07842387 0.024099959 -0.004684767 0.023388918 -0.011416985
0.055430897 0.023005214 0.013532087 0.07187893 -0.027698413 -0.031618737 -0.0343331 -0.04397274
0.019100001 0.009641619 0.050624017 0.0036044277 0.056779254 -7.537603e-05 -0.008513515 -0.069851324
-0.11836207 -0.06883562 0.10967881 0.13282566 0.051517826 0.043984894 0.13862935 -0.0926878
-0.01666215 0.0071515604 -0.010734406 -0.132265 -0.08665462 -0.04878519 -0.040179614 -0.005825341
0.0253532 -0.08430489 -0.05998843 -0.067739084 0.027320568 -0.06498693 0.022873208 0.04799165
0.07430946 0.087246425 -0.030511724 -0.07357557 0.08682424 -0.038550276 0.0026339323 -0.045906287
0.027059775 -0.014690701 0.05987568 -0.016444294 0.007775711 0.026307167 -0.0901476 -0.07619538
-0.03463734 0.03236814 0.00602012 0.016586918 0.08355678 0.049107797 -0.027324948 -0.1006051
-0.016486121 0.0044683465 0.019999778 -0.08516815 -0.11812686 -0.10071658 0.08918066 -0.015005819
-0.09548789 -0.031831108 -0.18543617 -0.028282275 -0.11741147 -0.04783174 -0.0074071605 -0.009562319
0.12976784 -0.08351448 -0.09215569 0.0010019685 -0.02391603 0.0049957167 0.00028457376 -0.08984292
-0.056433808 0.0021086193 0.029753396 0.11347489 0.07750883 -0.019906968 0.021214461 0.11433855
0.00785215 -0.029877944 -0.011346468 -0.030078877 -0.052675784 -0.08622676 0.055000126 0.12400845
-0.09854275 -0.015673593 0.030286036 0.039846107 -0.105832994 -0.1040853 -0.104317635 0.048685323
-0.016106933 -0.05841262 -0.011664453 0.008791786 0.010815874 0.0314731 0.009066515 -0.0077191736
-0.036046863 -0.059852585 -0.017729048 0.109436594 0.020634247 -0.11611428 0.014123167 0.008219531
0.0050402847 -0.038945053 0.062693335 -0.0009234254 0.005083186 0.062298223 -0.019544935 -0.1745223

tcn.network.0.downsample.weight f4 [64, 10, 1]
00000000: 9580 f3bb 2ebb 91bd 06e8 f8bd a7f8 f63d
00000010: 6910 f6bd 0610 263d cd25 18be 5a3f a93d
00000020: bccc 0d3d 55f6 dabd 3da7 eebd 5795 a3be
00000030: f86b 9ebd 25e3 abbc aa22 4f3d c54c b6bc
00000040: ed1d b63c 04ef 98bd 8286 2a3c 12ed e63d
00000050: dada b53d 4e71 4fba 38fd d03d 3e02 523c
00000060: 77c0 05bd 4113 a6bd 56df 0f3e 9bf8 533d
00000070: 473f 70be 04d3 b13d 3d14 e03c 0d20 643d
00000080: 82da 753d fd8e 00be 2e30 89bc 6abb 73bd
00000090: 19f7 843d 6f25 4d3d 453f 24be bcf5 b83d
000000a0: 97de 68bc 7496 ddbd eec2 17be c3a1 773c
000000b0: 065f 44bd 60f6 1bbd 0628 63ba 8cd0 2f3d
000000c0: 9b19 c6bd d1cb 1dbd 5453 873c c00b 883d
000000d0: fb2b c93b 3f40 f0bd 1800 6c3c 4751 10bd
000000e0: b303 db3d 0489 163d e481 b3bc e97c cb3b
000000f0: b451 f53c 274a 113e a1fc 9a3d 3e1b 6c3c
00000100: e031 1dbc 68c5 413d bce4 113e 3823 783d
00000110: 4789 2cbe 232a 433d b5b1 bc3d eb09 e43d
00000120: 8609 193e a4d7 ca3d b429 c3bd 5b6b ebbd
00000130: 0716 883d b86c c23d 26e5 25be 8ea9 9abc
00000140: c1da 19be ab0b 28be ad69 613c 5f56 da3d
00000150: 2a2e 6dbc 4900 083d c059 acbd 2659 0fbe
00000160: 278a 523e 42be f63c 2e6e 01be 592d 3dbe
00000170: 8c1c 11be a90b f33d e047 673d 0b8c b3bd
00000180: 1a1f f4bd 0dc3 08bd 770c 773d 8fee 893c
00000190: 5725 55bd 4f75 99bd ebea 0bbe 2389 103e
000001a0: 5ec7 98bd 6e28 b53d e995 1ebe 8354 93bd
000001b0: ba98 4ebd 7543 76bd 783d 993d bb15 af3d
000001c0: 94cd 073e 7fef 8f3c 7509 3c3d 60b5 593d
000001d0: 5f1c 903b c7ec 0a3d a27c ac39 ba5b 6b3c
000001e0: bcc0 babb 9ac9 2ebe 5d46 b9bc c0e5 c83d
000001f0: 6682 0f3d 8eea 983e 4c5d 5c3d bc9b 8b3d
00000200: 02d0 66be e879 213c 461c 16be 7b78 60be
00000210: f55e 83bd 71e4 143d e1da cdbd 8abb 23be
00000220: 3acb b9bd 3eda ccbc 7c22 ea3d 9c02 f33d
00000230: 539d ba3c bafd a8bd 6afb 10bd 0c4e d8bc
00000240: 85ea c03c d40e 203c bc08 eb3c 65c5 d23b
00000250: 1d92 533d 3c59 f73c e54f 1a3d b506 c43c
00000260: 1f76 d3be 63f0 31be 269a 383d dd36 d23d
00000270: 9d2a 0bbd 27d9 f7bc 9db5 543e 8f4f 44be
00000280: 641f 39bc d6bf b1bd 23d1 11bc 2874 4f3c
00000290: b10c 2f3d 80f5 3a3c ac1f eabd 58e6 6a3d
000002a0: 72a4 283b a79c 99bd 54ec 03bd 5ffb 9fbd
000002b0: 2198 2bbe 20f9 aa3d ac4b e93c b9cd fbbd
000002c0: 40e2 74ba a600 a93d de10 fd3c 1b17 4dbe
000002d0: 60b7 66bd 330c bcbd 8e73 fabc cce5 933d
000002e0: 9ee3 46be c266 95bd 0130 74bd 2695 763e
000002f0: 9a1d f63a dc0c 8b3c 0d4b 7cbc 19c8 cfbd
00000300: 393a cabd 6e76 06bd db01 f53d 9aa8 f8ba
00000310: 7a8a abbd eafd d83d f86d 9bbb 02c8 84bc
00000320: 275b 2bbd d07d 02be 2694 22be 416a cb3d
00000330: b796 3fbe 493b 313e 0396 ddbd fd8c a7bd
00000340: 1892 5b3c 6ebc d63d 83af 933d b947 593e
00000350: c5e0 6c3d 3a6d 313d d156 bdbd 8e48 663d
00000360: a7c3 4e3c ea4e 9ebd 8841 d4bd 3a0f 88bd
00000370: 6c93 203d f61a 2e3e 7314 a53d c8ce 50bd
00000380: 8f57 0dbd 8693 983c 0753 393e 64f7 423d
00000390: b570 13be 44c5 cf3c c1ff cf3c e3e7 633d
000003a0: 3751 003e cd2d 453d 47f5 0fbc cb58 483d
000003b0: 0484 be3d e2ad f53d 0fed 7a3a e747 243d
000003c0: 0a70 b23d 95b2 8b3d 5ba5 3f3d 4a5b 813d
000003d0: 6e2e 513b 5b4a 39bd bb4d 0f3e 4a3a 023d
000003e0: 1403 adbd bdb0 823d 3641 9b3d c7d3 6f3d
000003f0: 479a 4a3e 0f7b 663c 9940 6e3d c3f0 5abd
-0.0074310997 -0.0711578 -0.1215363 0.120591454 -0.12014849 0.040542625 -0.1485817 0.082640365
0.034619078 -0.10691515 -0.11652992 -0.31949875 -0.07735437 -0.020982334 0.050570168 -0.022253403
0.022231067 -0.074674636 0.010408046 0.11275686 0.08879633 -0.0007913307 0.10204548 0.012817917
-0.032654252 -0.08109141 0.1405004 0.05175076 -0.23461638 0.08682826 0.0273534 0.05569463
0.06002284 -0.12554546 -0.016746607 -0.059504904 0.06492443 0.050084528 -0.1603976 0.09031245
-0.014213226 -0.10819712 -0.14820454 0.015114251 -0.047942184 -0.03807676 -0.0008665327 0.042923495
-0.096728526 -0.038524453 0.016519226 0.06642866 0.006139276 -0.11731004 0.014404319 -0.035233762
0.10694065 0.036751762 -0.021912523 0.006209959 0.029946186 0.14188443 0.075677164 0.014410792
-0.009594411 0.047307402 0.14247411 0.060580462 -0.16849242 0.047647607 0.092135824 0.11134704
0.14945039 0.099044114 -0.095294386 -0.11495086 0.066448264 0.09493393 -0.16200694 -0.018879678
-0.15024854 -0.16410701 0.013758105 0.10661005 -0.014476338 0.033203397 -0.08415556 -0.13998851
0.20560513 0.030120019 -0.12639686 -0.1847433 -0.14171046 0.118674584 0.05646503 -0.087669455
-0.11919995 -0.03338914 0.06031462 0.016837386 -0.052037563 -0.07493078 -0.13663833 0.14114814
-0.07459901 0.08845602 -0.15486874 -0.07193854 -0.05043862 -0.060122926 0.07482427 0.08549067
0.13262016 0.017570255 0.045907456 0.05315149 0.0043979133 0.033917215 0.00032899255 0.014365131
-0.0056992453 -0.17069092 -0.02261656 0.09809446 0.035036467 0.2986645 0.053799912 0.06816813
-0.22540286 0.009855725 -0.14659223 -0.2192096 -0.06414596 0.03635067 -0.100515135 -0.15989509
-0.090719655 -0.02500641 0.114323586 0.11865732 0.022780096 -0.082515195 -0.035396017 -0.026404403
0.023549328 0.00976916 0.028690688 0.0064322227 0.051653016 0.030193917 0.03767385 0.02392898
-0.41301057 -0.17376857 0.045068882 0.102643706 -0.033976186 -0.030254913 0.20772405 -0.19170974
-0.011298988 -0.08679168 -0.00889996 0.012661971 0.042736713 0.011411071 -0.11431822 0.05734858
0.0025732783 -0.07500582 -0.032207802 -0.07811617 -0.16757251 0.08348298 0.028478466 -0.12295098
-0.0009341575 0.08252077 0.030891832 -0.20028345 -0.056327224 -0.09182014 -0.030572679 0.07221565
-0.19422767 -0.0729499 -0.059616093 0.24080333 0.0018777132 0.016973905 -0.015398753 -0.101455875
-0.09874386 -0.032827787 0.119632445 -0.0018971146 -0.08376022 0.10595305 -0.004743334 -0.016208652
-0.041834977 -0.12743306 -0.15876827 0.09932376 -0.18709837 0.17307772 -0.10819628 -0.08181188
0.013401531 0.10485159 0.072112106 0.21218766 0.057831544 0.043317057 -0.092450745 0.056221537
0.012619889 -0.077298954 -0.103640616 -0.06643529 0.039203092 0.17002472 0.08060541 -0.050978452
-0.03450733 0.018625032 0.18098079 0.04759921 -0.14398463 0.025362618 0.025390508 0.055641066
0.12530981 0.048139382 -0.008786506 0.048912805 0.09302524 0.11996056 0.00095720676 0.040107634
0.08712776 0.06821171 0.046788555 0.0631624 0.0031918543 -0.045236927 0.13994496 0.03179387
-0.08447853 0.063813664 0.075807974 0.058551576 0.19785415 0.014067425 0.058167074 -0.053452265

tcn.network.0.downsample.bias f4 [64]
00000000: d1ac c7bd 9231 22be 1996 563e e4ca 9b3e
00000010: 236b a13e 53ed 653e 8799 473e e535 b7bb
00000020: 0f0c 59be a565 d63d a7c8 663e add7 da3c
00000030: fdd9 4bbe f81d 0a3e c7dc a3be 4ee6 46bc
00000040: fb22 693c 8a16 703e a423 873d 2ccf 5e3e
00000050: 973a cabd 829b ab3e 1b23 18be 5caf ae3d
00000060: 8e00 ae3e d625 6d3d 0f49 8cbe bfcd 253e
00000070: 9087 8abe 5fc0 283e dcf1 04be c204 a03e
00000080: 2fa5 a03c 4f46 b53d 97c8 42be 9964 33bd
00000090: b798 64be 2b85 a63e 5098 023d e993 bdbd
000000a0: ec0d 3bbe 4682 6e3d a7cd d3be 5d7b fd3d
000000b0: cbe4 1dbe f2dd edbd e028 a43e feee 2fbd
000000c0: ffa2 843e fbcd 9dbe a9fb 4f3e 9003 a7be
000000d0: 1925 c7be 5268 c1be 31aa 9bbe e1d7 cbbd
000000e0: 58e6 a3be 048c 763d 546f 7ebe 099a 0f3d
000000f0: 7059 273e aa28 d33d 042c bebd b170 c4be
-0.09749759 -0.15839222 0.20955695 0.3042823 0.3152705 0.22453813 0.1949216 -0.0055911415
-0.21196006 0.10468606 0.2253748 0.02671417 -0.19907375 0.13487995 -0.32004377 -0.01213987
0.014229531 0.23446098 0.06598595 0.21758717 -0.098744564 0.3351708 -0.14857142 0.08529541
0.33984798 0.05789741 -0.2739949 0.16191767 -0.2705655 0.16479634 -0.12982887 0.3125363
0.019610016 0.08851301 -0.19021831 -0.04379711 -0.22323881 0.32523474 0.031883538 -0.09256727
-0.1826703 0.058229707 -0.41367838 0.12377045 -0.15419309 -0.11614598 0.32062435 -0.04295253
0.25905606 -0.30821213 0.20310844 -0.32619905 -0.3889549 -0.37774903 -0.30403283 -0.09953285
-0.32011676 0.060192123 -0.24847156 0.03505901 0.16342711 0.103104904 -0.09285739 -0.38367227

tcn.network.1.conv1.bias f4 [32]
00000000: 2dd9 bcbc cf53 c4bc 17e7 583c 2495 373d
00000010: e88c 70bc b683 9cbc 34c3 973d af31 f3bd
00000020: 8caf b43d 04b9 bfbc a83b c0bd 3348 55bc
00000030: e256 96bd df89 273d 65d7 edbd 51b4 04bd
00000040: d585 5b3d 86bc a73b 4f88 43bd 9d59 543d
00000050: cec0 003d 6697 533d badb 5fbd f2b6 bdbd
00000060: 6795 b93c 83a3 c73c e174 aa3d 592d 403d
00000070: ecee 6a3d 77f2 2dbc 5b31 94bd 12d2 d3bc
-0.023052776 -0.023965744 0.01323869 0.044819966 -0.014682032 -0.019105773 0.07410279 -0.11874711
0.088225454 -0.023403652 -0.093863785 -0.013017702 -0.0734079 0.04090297 -0.11613349 -0.032398526
0.05359443 0.0051189093 -0.047737416 0.051843274 0.031433873 0.051658057 -0.054652907 -0.0926341
0.022654248 0.02436996 0.08323074 0.046918247 0.05735676 -0.01061689 -0.07235976 -0.025857005

tcn.network.1.conv1.weight_g f4 [32, 1, 1]
00000000: 1062 0e3f 2abc 1f3f 004c 133f 06ae 183f
00000010: 81d5 253f ed90 0b3f 2450 3d3f 7600 0e3f
00000020: 2d25 373f 5806 003f 03b5 ef3e d6ab 203f
00000030: ffc3 103f 24ee 0c3f 42cb 123f a444 103f
00000040: c80a 2d3f 670e 113f e35c 143f a375 413f
00000050: 8263 113f 86da 0b3f 7273 0d3f e072 0a3f
00000060: 3ddb 123f 0fff 083f 91f8 233f 43b4 0a3f
00000070: f0d2 143f 6139 003f c65e 123f 15c8 1a3f
0.5561838 0.6239649 0.5753784 0.5964054 0.64778906 0.54518014 0.7395041 0.55469453
0.715411 0.5000968 0.46817788 0.627622 0.56549066 0.55050874 0.57341397 0.5635474
0.67594576 0.566626 0.57954234 0.75570124 0.5679246 0.54630315 0.5525428 0.54081535
0.5736578 0.5351419 0.6405116 0.5418131 0.58134365 0.50087553 0.5717586 0.6046155
