checkpoints/tcn/sh-CEEMDAN-h64-k3-lr0.01-d0.3-ep200.pth (torch, 23319 bytes, 15 tensors)

tcn.network.0.conv1.bias f4 [32]
000000 18 db 7b be 62 7c 42 be 40 0d cc be 8e 9a 83 be
       -0.24595296 -0.18992761 -0.3985386 -0.25703853
000010 cc 2c a3 be e1 37 8b bd 51 b4 07 be ea 26 a9 be
       -0.31870115 -0.067977674 -0.13252379 -0.33037502
000020 cb 9b 2d be bc d8 8b be f3 8e e3 bd 87 47 00 be
       -0.16953962 -0.27313793 -0.1111125 -0.12527286
000030 40 4c fb bd c8 d7 a1 be ec d4 0d be f5 ef 8a be
       -0.12270403 -0.3160994 -0.13850754 -0.27136198
000040 5c b3 84 be 81 88 10 be f9 27 dd bd 6e d3 6a 3c
       -0.2591809 -0.14114572 -0.1079864 0.014332635
000050 c8 7a 33 be 52 2a 13 be bd 44 8c bc e1 b1 18 be
       -0.17527306 -0.14371613 -0.01712262 -0.14911605
000060 21 bb a2 be b4 9a 58 be 1d bd d1 be 56 10 ad bd
       -0.31783393 -0.21152765 -0.40964594 -0.084503815
000070 6c 48 32 be 41 23 6c be bc b1 8f be a5 69 05 be
       -0.17410439 -0.23060323 -0.28065288 -0.13028581

tcn.network.0.conv1.weight_g f4 [32, 1, 1]
000000 3e 3d 09 3f b0 74 11 3f c2 d3 ef 3e d3 63 08 3f
       0.53609073 0.56818676 0.46841246 0.5327732
000010 44 fb 06 3f 65 94 04 3f 9e 2e cc 3e e6 6b 1a 3f
       0.5272715 0.5178893 0.39879316 0.6032089
000020 cf df f0 3e d2 b7 0e 3f 81 1d 1f 3f 1b c3 0e 3f
       0.47045752 0.5574924 0.62154394 0.5576646
000030 97 75 1a 3f ba 57 05 3f 92 56 d6 3e f6 74 fe 3e
       0.6033568 0.52086985 0.41862923 0.4969861
000040 ce 57 bf 3e 2c 22 ff 3e 35 5e 03 3f 6c 64 05 3f
       0.37371677 0.4983076 0.51315624 0.52106357
000050 e7 2a 02 3f c6 2f 0a 3f 00 7b 01 3f c2 70 15 3f
       0.50846714 0.53979146 0.5057831 0.5837518
000060 f5 78 18 3f 83 ac 17 3f 16 c9 f9 3e c8 11 0c 3f
       0.59559566 0.59247607 0.4878623 0.5471463
000070 3e 25 0b 3f cd 81 c3 3e 68 ed cc 3e 2e 72 e9 3e
       0.543537 0.38184968 0.40024877 0.45594925

tcn.network.0.conv1.weight_v f4 [32, 10, 3]
000000 66 21 a1 3d 56 b2 ad 3d 8a 9f ea bd 45 e7 0b 3e
       0.07867698 0.084812805 -0.11456211 0.13662441
000010 28 36 b8 bd 65 ff 87 ba bd 92 0d be 0c 58 1f 3e
       -0.089947045 -0.0010375796 -0.13825507 0.15560931
000020 8f 9c 83 3e 58 80 38 be dc 0f 2a 3e 56 a8 0f 3e
       0.25705382 -0.1801771 0.16607612 0.14029059
000030 db 5e c9 3d 90 3d 8c 3d fa a6 c8 bd 4f 16 1e be
       0.09832545 0.068476796 -0.09797473 -0.15438198
000040 1c 2f bc 3d f3 80 b0 bd 96 d2 b2 bd 79 33 48 bd
       0.09188673 -0.08618345 -0.08731572 -0.048877213
000050 4f 44 06 be 17 72 0f be 65 e7 94 bd eb 61 ba bd
       -0.13111995 -0.14008366 -0.072706975 -0.091007076
000060 5b 19 c1 bd 6b 2c c3 be ac d8 02 be db b7 a8 bb
       -0.09428664 -0.38119826 -0.12777966 -0.0051488704
000070 fb 58 05 3d d2 36 9f be 88 75 0c 3e da ab 3e be
       0.03255556 -0.31096512 0.1371671 -0.18620244
000080 db 90 eb 3d 31 fb 13 3d 9e 6b 82 bd 3e e3 11 3e
       0.11502238 0.036128227 -0.063681826 0.14246842
000090 83 f3 b0 3c f8 d6 26 3e 1f 0b 84 3d 39 2f 6f 3c
       0.02160049 0.16292942 0.06447434 0.014598661
0000a0 60 a4 4d 3e 11 bb 23 3e 7f 3e ba bc a4 89 1f 3e
       0.20082235 0.15989329 -0.022734879 0.1557985
0000b0 0e 62 d0 3d f4 18 74 be 0b df 80 3d 93 e7 af bc
       0.101749524 -0.23837644 0.06292542 -0.021472728
0000c0 92 46 05 3e c9 78 8e bd 9a eb 83 ba 46 1b cb 3c
       0.13015202 -0.06956632 -0.0010064722 0.024793278
0000d0 19 b1 72 bc 5f 29 17 3e 90 89 3d 3e 5d 3f 2d 3e
       -0.014812731 0.14761876 0.18509507 0.16918702
0000e0 7e b1 c8 3d 1a cb 8e 3d 6a 52 6f 3e 19 1a da bd
       0.09799479 0.06972332 0.23371282 -0.10649509
0000f0 15 01 0e 3c c1 c3 f5 bd 3f 3b a4 3d 50 03 9c bd
       0.00866725 -0.12000228 0.08019113 -0.07617819
000100 a2 8b 6a 3d ea b7 7c bd e8 a1 5f 3e cf 07 82 bd
       0.05726207 -0.06169883 0.21839106 -0.063491456
000110 a5 cb 64 bd be a8 b1 bd 4c b0 26 3e e6 55 3d 3c
       -0.055858273 -0.08674763 0.1627819 0.011556124
000120 4a d1 8c bd 32 48 60 be bf 08 9d bd 48 35 fa bd
       -0.06875856 -0.2190254 -0.07667684 -0.12217194
000130 24 ac 82 be 3b ce 0f bd 83 f7 09 bd 26 29 1e 3e
       -0.25521958 -0.035108786 -0.03368331 0.15445384
000140 40 a6 3e be e0 2a d9 bd a8 4b c8 3d 1c 5a 2e be
       -0.18618107 -0.10603881 0.09780055 -0.17026561
000150 2a 69 68 3e 83 50 39 bc 79 6f 51 3e 6f cf 7c be
       0.22696367 -0.011310699 0.2045268 -0.24688505
000160 0b 8d 7f be 9c 17 e2 bc 2a 23 1c 3d 15 44 86 bd
       -0.24956147 -0.027599148 0.038119473 -0.06555954
000170 a8 8f a9 3d 34 35 44 3e 02 50 c0 bd ac 42 92 bd
       0.082793534 0.1916092 -0.0939026 -0.07141623
000180 05 aa 43 3e f7 d9 c5 bd ef 59 e9 bd 28 af 14 bd
       0.19107826 -0.09660714 -0.113941066 -0.036299855
000190 0f 76 dc 3c 97 4d 43 3e 57 8c ab 3d ae 2f 8e 3d
       0.026911763 0.19072567 0.08376377 0.06942688
0001a0 0c cb 68 3e 10 85 3e 3c 35 6d 09 be 31 cd 73 3d
       0.22733706 0.011628404 -0.13420565 0.059521858
0001b0 0d 87 78 bd 08 13 89 3d a6 34 a9 3e 6f a7 64 3e
       -0.06067567 0.06693083 0.3304798 0.22329496
0001c0 22 2a 7c 3d 6c 02 0c be 90 7c 27 be 2f 7d a1 bc
       0.06156362 -0.13672799 -0.1635611 -0.019713013
0001d0 23 95 0d 3e 78 f2 42 be 9e 7a a5 bd b1 31 e4 bd
       0.13826422 -0.19037807 -0.08080028 -0.111422904
0001e0 4f fb 16 bd 76 d5 05 be 10 72 ad bd 0a 11 02 be
       -0.03686076 -0.1306971 -0.08469021 -0.12701812
0001f0 49 2c 02 be 28 5e bf bd 7e d9 13 be 5d 29 84 be
       -0.12712206 -0.09344131 -0.14438435 -0.25812808
000200 90 9c e6 3d a0 ad 89 3d 6c 8f 18 3e 7e dd 0a 3d
       0.11260331 0.067225695 0.14898461 0.033902638
000210 a5 9d df bd 52 92 55 3d 44 5e 02 be d2 02 78 bd
       -0.1091874 0.052141495 -0.12731272 -0.060549565
000220 17 5a 16 be ff 2d 32 be 81 5b d1 3d 0e a1 b6 bd
       -0.14682804 -0.17400359 0.10222531 -0.089174375
000230 f3 ff ef 3d ee 16 b4 bd 25 8f b8 3d f6 31 36 be
       0.1171874 -0.08793436 0.09011678 -0.17792496
000240 c9 6e 27 3d 97 80 88 bd bb 2b 46 bc bf ac 41 3d
       0.040877137 -0.066651516 -0.012095387 0.047283884
000250 68 38 07 3e 91 7b 75 be e5 bf 9f 3d 27 da 5d bd
       0.13205111 -0.23972918 0.07800273 -0.054163124
000260 ba e1 ba b9 6d f4 da bd a2 7e 43 3e b4 57 0a be
       -0.00035644864 -0.10691152 0.19091275 -0.13510019
000270 d1 e1 b8 3d 99 ba 57 3c c2 27 60 bb 6e a1 42 be
       0.09027446 0.013167047 -0.0034203385 -0.19006893
000280 e7 54 de 3d 51 66 9e 3d fc 9b 08 3e 8a 58 fe bd
       0.108560376 0.07734359 0.13340753 -0.12419231
000290 58 04 1e 3e b9 02 04 3e 81 45 85 bd fd 6b 14 3e
       0.15431345 0.12891664 -0.065073974 0.1449432
0002a0 e9 c8 03 3e d6 e4 e1 bc d1 72 f5 bd 0d 74 dc 3d
       0.1286961 -0.027574938 -0.1198479 0.107643224
0002b0 1b d3 20 bd 3b 2e 54 be 2a 34 83 be 91 f5 cf bd
       -0.039263826 -0.2072076 -0.25625736 -0.1015426
0002c0 a7 d2 5e 3d a7 62 65 3e 6d f2 35 3e 6b a8 6b be
       0.054400112 0.22400914 0.1776826 -0.23013465
0002d0 e7 bb 35 bd d1 ba da 3c 22 84 12 bd 9f 5f e5 bd
       -0.04436865 0.02670041 -0.035770543 -0.11199879
0002e0 8b 0d a4 3d b9 ba b0 3d 33 2c 78 3d 40 58 8d bd
       0.080103956 0.086293645 0.060589027 -0.06901598
0002f0 75 16 ae bd e2 5b 47 3d 9e 5d 83 bd 0c ea b8 bd
       -0.08500377 0.04867161 -0.064143404 -0.09029016
000300 43 91 04 3d c3 6c 9f 3d a4 59 72 bd cb 7e 3b bd
       0.032365095 0.077844165 -0.05916752 -0.045775216
000310 cf e2 f9 3c 2c 58 54 bd 31 78 fe 3d aa 03 e1 3d
       0.030503659 -0.0518419 0.124252684 0.10987027
000320 24 51 18 be 55 65 1f be 89 00 1f 3e 05 40 72 3d
       -0.14874703 -0.15565999 0.15527548 0.059143085
000330 74 ce 59 3d ef 14 8a be 5b 81 0e be c5 d3 67 be
       0.053175405 -0.26969096 -0.13916533 -0.22639377
000340 c0 72 eb bc 97 fa ef 3d ed 8d 19 3e 66 a1 fc 3d
       -0.02874124 0.11717718 0.14995547 0.12335472
000350 43 3e 03 be 81 80 b5 bd 13 28 e0 bc 05 ee 42 3e
       -0.1281672 -0.08862401 -0.027362859 0.1903611
000360 21 fb a7 bd af cc ed bd 23 f4 43 3d 6f 14 59 bc
       -0.08202196 -0.11611306 0.04784025 -0.013249501
000370 68 a6 a4 3c 4b 34 90 3e 4a 95 48 be eb 3c 99 bd
       0.02009888 0.28164896 -0.195882 -0.07482322
000380 b2 cc b4 bd f1 c1 8f 3e 1f 18 86 3e a4 ff bc 3d
       -0.08828105 0.28077653 0.26190278 0.09228447
000390 2d 0a 5f bd 6b 3b 32 be 93 08 f4 bd 26 1b 9a ba
       -0.054453064 -0.17405479 -0.11915698 -0.0011757358
0003a0 f2 fe 73 3d 8b 7d 46 3e 8d 03 02 3e a9 51 8a 3c
       0.059569307 0.19383828 0.12696667 0.016884642
0003b0 61 8d 1f be 94 ef 38 3d 50 26 21 be a7 f7 5b be
       -0.15581276 0.045150355 -0.15737271 -0.2148119
0003c0 4d e5 11 3d 8f ed 12 be ef b2 c3 bd 8a e0 b8 bd
       0.03561907 -0.14348434 -0.09555613 -0.090272024
0003d0 18 f6 8f bc ab f7 e5 bd 77 c8 12 be e3 c1 04 3d
       -0.017573401 -0.112288795 -0.14334284 0.032411467
0003e0 55 8c 24 be 38 18 7d 3e 13 ae ea 3b 94 63 17 bd
       -0.16069157 0.2471627 0.0071618645 -0.0369602
0003f0 ac 71 41 3b 97 b0 a4 3b 91 d5 21 bd d0 47 b9 bd
       0.0029517217 0.005025934 -0.039510313 -0.090469

tcn.network.0.conv2.bias f4 [32]
000000 88 63 ae 3d 51 66 62 3c 58 6e 1f 3d e3 63 78 bd
       0.08515078 0.013818339 0.03892359 -0.060642134
000010 90 10 3e 3d ea 6b f4 bc ba 1f c9 bd ee d3 06 bd
       0.046402514 -0.029836614 -0.098205045 -0.032916956
000020 90 ea 87 bd 7f 60 7f 3d 9f 76 85 bd d0 5a e6 bc
       -0.06636536 0.062347885 -0.06516766 -0.028119475
000030 e7 db b2 bd 20 68 3f be c5 ce 73 bc 6b 7d 7e 3d
       -0.08733349 -0.18692064 -0.014880841 0.062131327
000040 87 24 3a 3d 30 e9 09 be 24 50 c9 3c b7 5f e1 bd
       0.04544499 -0.1346786 0.024574347 -0.11004584
000050 7e 79 11 3e 35 2d 9c bd 6e 62 c4 bd 90 0a 86 bd
       0.14206502 -0.0762581 -0.095890865 -0.065449834
000060 c8 f0 aa 3b cc 34 85 bd ab 46 4f bc df fa bc 3d
       0.0052166916 -0.06504211 -0.012651126 0.09227537
000070 46 a0 01 be fb 71 8e 3d 58 99 82 bd cb fc 5e bd
       -0.12658796 0.06955334 -0.06376904 -0.0544403

tcn.network.0.conv2.weight_g f4 [32, 1, 1]
000000 37 df 00 3f 4f ee 24 3f 78 1d d0 3e c0 ec ed 3e
       0.503406 0.6442613 0.40647483 0.46469688
000010 61 e6 f2 3e 08 01 12 3f 23 cd fb 3e f1 e7 0b 3f
       0.4744139 0.57032824 0.49179944 0.5465079
000020 69 dc 02 3f 07 c1 34 3f 4c d0 e1 3e 2b 0f bd 3e
       0.5111757 0.70607036 0.4410423 0.36925635
000030 eb 0a f7 3e bd 8c 06 3f cd 20 09 3f 4a 1f 29 3f
       0.48250517 0.525585 0.53565675 0.6606337
000040 a4 3a 12 3f 44 82 1a 3f ee 60 d8 3e 48 fd f7 3e
       0.5712073 0.6035502 0.4226145 0.48435426
000050 65 76 40 3f 61 7a fa 3e a0 ea 03 3f d1 47 0a 3f
       0.75180656 0.48921493 0.51529884 0.54015833
000060 5d 9f b5 3e b9 47 11 3f 99 02 fe 3e c7 89 11 3f
       0.35473147 0.56750065 0.49611357 0.56850857
000070 39 fd 08 3f cb 9a 0d 3f bb ad 0b 3f 26 cd e2 3e
       0.5351139 0.5531432 0.54561967 0.4429714

tcn.network.0.conv2.weight_v f4 [32, 32, 3]
000000 4f 04 cb bd 1f 89 09 be 89 e4 d3 bd 02 97 d1 bd
       -0.09912931 -0.13431214 -0.10346324 -0.102338806
000010 90 ea 1f ba 5e 36 1b 3b 32 d9 df 3a c7 f3 9e bd
       -0.0006100321 0.0023683528 0.0017078279 -0.077613406
000020 2b 26 27 3e 0a 61 ed bd fb 0f f8 bd 62 bc 9b bd
       0.16323154 -0.11590774 -0.12112423 -0.076042905
000030 cd b1 04 be 7a 81 41 be e7 9d 31 be c8 a7 cc 3d
       -0.1295845 -0.18897048 -0.17345391 0.09992939
000040 29 2c 66 ba 8d 88 82 3b 39 dc ad 3b 14 4e 72 be
       -0.0008780384 0.0039835633 0.0053057936 -0.23662597
000050 2f 09 29 be ef 92 e6 3c 03 b1 cf ba 7f db b2 bb
       -0.1650741 0.028146235 -0.00158456 -0.005458295
000060 0a 54 31 be f6 0f ee bd ef 61 bd bd 07 50 92 bd
       -0.17317215 -0.11624138 -0.09247195 -0.0714417
000070 e4 79 19 be 5c 7c 44 be af 49 9f 3d 11 29 0d 3c
       -0.14987904 -0.19188064 0.07777726 0.008615748
000080 eb 86 87 bc 6e e9 96 3c 76 44 8f 3c dc 1f 3f bd
       -0.016543826 0.018421855 0.0174887 -0.046661243
000090 83 49 80 bd a9 d4 16 be 23 3f a6 bd 86 79 0a be
       -0.06264021 -0.14729561 -0.08117511 -0.1352292
0000a0 46 ab e7 bd 6a c7 1b be ff 03 f9 bd fa 45 65 bd
       -0.11311965 -0.15212789 -0.12158965 -0.055974938
0000b0 d8 b5 2c bd a2 56 c5 3d 74 2a 89 3d 69 4a 8b bc
       -0.042165607 0.096356645 0.066975504 -0.017003255
0000c0 63 20 74 bd e4 d3 a1 3d fb d3 1b bd 9d 6f 0f 3d
       -0.0596012 0.07901743 -0.038043957 0.035018552
0000d0 48 f9 7b bc 60 ee 27 3c b8 4f cd 3c 49 d6 fe 3c
       -0.0153792575 0.010249704 0.025062427 0.031108038
0000e0 c5 c4 69 bc a3 ad eb bd 56 c6 6c 3d f8 ee 25 bb
       -0.014268105 -0.11507728 0.057806335 -0.0025319438
0000f0 e1 9b 85 bd 5d 99 18 be 14 be d0 bc fe a9 f3 bc
       -0.06523872 -0.14902253 -0.025481261 -0.029744145
000100 ff 74 38 bc a8 31 02 bc 5f 73 47 3b 3a 10 f4 bc
       -0.011258363 -0.007946409 0.0030433757 -0.029792894
000110 93 8a 2e be 19 c9 00 be d7 bb a6 bd 2f 65 f0 3c
       -0.1704505 -0.12576713 -0.08141296 0.029345123
000120 48 fb 63 bd f2 d1 42 3e 95 dc 0d be 19 59 6d 3d
       -0.055659562 0.190254 -0.13853677 0.0579463
000130 35 c3 f7 3b 0b ad ae 3b 75 13 df bc 92 32 b4 bc
       0.0075611123 0.005330687 -0.027230958 -0.02199677
000140 6a 61 99 bd cd e0 26 be f7 7a 36 be 53 a5 47 bd
       -0.074892834 -0.16296692 -0.17820345 -0.04874165
000150 84 58 cf 3c 0c c2 4a bd 9b 4f fc bd 08 8f 01 be
       0.025310762 -0.049501464 -0.12319871 -0.12652218
000160 ba 12 02 be d2 2d 40 bd f0 92 af bd 35 cd db 3c
       -0.12702456 -0.046918698 -0.08572948 0.026831249
000170 2d 18 90 bc bb 71 b0 3b c7 bb c7 3b 6f 6a 8d 3c
       -0.017589653 0.0053846515 0.006095383 0.017262666
000180 64 a6 fa bd 5e 66 13 be 71 42 36 bd 05 33 c9 bc
       -0.12238768 -0.14394519 -0.044496957 -0.02456046
000190 43 6f 23 be 95 62 41 bd 2d d9 a5 bc 09 44 fc bc
       -0.15960412 -0.047213156 -0.020245159 -0.03079416
0001a0 dc 88 b7 bc 9d b8 98 bc c7 03 b9 3a d0 93 a0 3d
       -0.022404127 -0.018642718 0.0014115506 0.07840693
0001b0 a6 3c 48 be 9b 13 03 be c8 1d 16 be 27 18 05 3e
       -0.19554386 -0.12800448 -0.14659798 0.12997495
0001c0 60 4c 4c 3d 66 2d 25 3e f8 52 8b bd 43 b0 7d 3c
       0.049877524 0.161306 -0.068029344 0.015483919
0001d0 b5 b2 8c bd 71 19 88 bd fc a0 3b be 2d 9e 5c be
       -0.06870023 -0.066454776 -0.1832313 -0.21544714
0001e0 d2 63 24 bd f5 c6 1b 3d 24 11 56 bb 7b cd cc bb
       -0.04013426 0.038031537 -0.0032664025 -0.006250081
0001f0 9a f5 ad bd 73 7b e7 bc de da e6 3d 2d 91 95 3d
       -0.084941104 -0.028257107 0.11272214 0.07303081
000200 93 f5 22 bd b0 cd 8d bd 00 88 0f bd 66 f6 cb ba
       -0.03978498 -0.069239974 -0.03504181 -0.0015561103
000210 f6 f4 c7 bd 6a 74 1a be 74 61 dd bd 4a f6 e7 bd
       -0.097635195 -0.15083471 -0.10809603 -0.11326273
000220 85 bd 17 3a ed 24 4d bd b5 13 0e be e2 71 28 3c
       0.00057884335 -0.050084043 -0.13874705 0.010281058
000230 47 9a c8 bd e2 a7 94 bd 0d 94 8d 3a 27 4e ae bd
       -0.09795051 -0.072585836 0.0010801569 -0.08511
000240 52 48 6f 3c 79 a9 b0 3d 01 15 b8 ba ce cc 9a bd
       0.014604645 0.08626074 -0.0014044346 -0.07558595
000250 75 a5 44 be 39 55 bb bc a3 45 e9 bc 38 eb 9b bd
       -0.19203742 -0.022867786 -0.028475588 -0.07613224
000260 68 cc ac bd 1f d3 09 be d2 ad 1c be c0 a6 16 be
       -0.08437425 -0.13459443 -0.15300682 -0.14712048
000270 bc c7 78 3c 72 c3 29 bc 05 51 c8 bd db 12 e4 bc
       0.015184339 -0.010361539 -0.09781078 -0.027841022
000280 57 72 fe bc 09 e8 a0 bc 7d ba 11 be c4 1c 68 bd
       -0.03106038 -0.019641893 -0.14231296 -0.056668058
000290 3c a0 9e bd 8f 6f 99 bc de e7 20 be 8e fd a9 bd
       -0.07745406 -0.018729953 -0.1571345 -0.08300315
0002a0 04 63 04 bd 83 06 62 bc 21 aa 4c 3c 1d 32 85 bc
       -0.03232099 -0.013795498 0.012491734 -0.016259247
0002b0 80 0c e1 bd c1 7d dc bc 54 88 a6 bd 5e 9a 39 3d
       -0.10988712 -0.026915433 -0.08131471 0.04531323
0002c0 6e 1e cd 3d d8 56 5a be de 07 54 be 28 2e 5d be
       0.100155696 -0.21322191 -0.20706126 -0.21599638
0002d0 4b 0b 0c bd 22 5c fd 3d b0 af e8 3d 24 fe 82 3d
       -0.034190457 0.123710886 0.11361635 0.0639613
0002e0 67 ad 35 3d 5a fa 48 3d 5b c0 8b bb 1d ba 46 bb
       0.044354822 0.04906688 -0.004264874 -0.0030323335
0002f0 83 6d f2 3c 3d ac 76 bc 2e 01 7f bd e1 27 ff bd
       0.029593235 -0.015055713 -0.062256984 -0.12458778
000300 58 3a 43 3c 7c ed 15 bd 84 61 bd bd 47 97 cc bd
       0.011915766 -0.036603436 -0.09247115 -0.09989791
000310 04 fb da bd d8 7a 5c bd b0 55 62 3d 45 b3 a7 3d
       -0.10692409 -0.05382809 0.0552575 0.0818849
000320 aa 5a 9b 3d a1 52 37 be 0f 70 28 be 21 73 45 be
       0.07585652 -0.17902614 -0.16448997 -0.192822
000330 dd b8 96 3c a7 1a 51 3c b5 6e ad bc 25 39 c1 bd
       0.018398697 0.012762702 -0.021170953 -0.094347276
000340 47 8d b9 bc 44 3c 51 bd 14 e3 e3 3c 98 ae 03 3e
       -0.022650374 -0.051082864 0.02781824 0.12859571
000350 8b 46 dd 3c 51 82 6b be a4 5c 0e be 8d 44 60 be
       0.027011177 -0.2299893 -0.13902527 -0.2190115
000360 0a 47 61 3d b7 09 f9 bc 96 d5 93 bc 83 29 47 bd
       0.05499939 -0.03040014 -0.018046182 -0.048623573
000370 8a 6e f8 bc 7c bd 56 bd 44 35 b2 bd a1 86 8e 3d
       -0.030326147 -0.0524268 -0.08701566 0.06959272
000380 48 d6 90 3c f3 49 ed bd 0e 90 38 3d ee af f8 bc
       0.017680302 -0.1158637 0.045059256 -0.030357327
000390 42 15 ae 3b 88 e5 72 bc 0f 5e 04 bd 82 c5 1c be
       0.0053125927 -0.014825232 -0.032316264 -0.15309718
0003a0 2f 16 d8 bd c4 93 41 be 05 b2 30 3d 49 36 70 3d
       -0.10551106 -0.18904024 0.043138523 0.05864552
0003b0 9c cb 60 bc 90 cb d3 bd 5a 7f 75 bd 90 8d cd bc
       -0.013720419 -0.10341561 -0.059935905 -0.025091916
0003c0 b3 4a 0e 3e 0e a8 1b 3d 22 33 ef 3c 4d 31 ab 3c
       0.13895683 0.038002066 0.029199187 0.020897532
0003d0 64 0a 76 3c f4 4c d0 3c 37 41 ad bd 0e 90 9d bc
       0.015017126 0.02542732 -0.08459704 -0.01923373
0003e0 23 2e 28 bd bf 94 37 3d 1f 0f 72 3d 90 1f 5c bd
       -0.041059624 0.04481959 0.05909645 -0.053741038
0003f0 f6 bd 25 3d 17 b0 78 3d 60 c5 39 3c 7e ae 11 bd
       0.040464364 0.060714807 0.011338562 -0.0355668

tcn.network.0.net.0.bias f4 [32]
000000 18 db 7b be 62 7c 42 be 40 0d cc be 8e 9a 83 be
       -0.24595296 -0.18992761 -0.3985386 -0.25703853
000010 cc 2c a3 be e1 37 8b bd 51 b4 07 be ea 26 a9 be
       -0.31870115 -0.067977674 -0.13252379 -0.33037502
000020 cb 9b 2d be bc d8 8b be f3 8e e3 bd 87 47 00 be
       -0.16953962 -0.27313793 -0.1111125 -0.12527286
000030 40 4c fb bd c8 d7 a1 be ec d4 0d be f5 ef 8a be
       -0.12270403 -0.3160994 -0.13850754 -0.27136198
000040 5c b3 84 be 81 88 10 be f9 27 dd bd 6e d3 6a 3c
       -0.2591809 -0.14114572 -0.1079864 0.014332635
000050 c8 7a 33 be 52 2a 13 be bd 44 8c bc e1 b1 18 be
       -0.17527306 -0.14371613 -0.01712262 -0.14911605
000060 21 bb a2 be b4 9a 58 be 1d bd d1 be 56 10 ad bd
       -0.31783393 -0.21152765 -0.40964594 -0.084503815
000070 6c 48 32 be 41 23 6c be bc b1 8f be a5 69 05 be
       -0.17410439 -0.23060323 -0.28065288 -0.13028581

tcn.network.0.net.0.weight_g f4 [32, 1, 1]
000000 3e 3d 09 3f b0 74 11 3f c2 d3 ef 3e d3 63 08 3f
       0.53609073 0.56818676 0.46841246 0.5327732
000010 44 fb 06 3f 65 94 04 3f 9e 2e cc 3e e6 6b 1a 3f
       0.5272715 0.5178893 0.39879316 0.6032089
000020 cf df f0 3e d2 b7 0e 3f 81 1d 1f 3f 1b c3 0e 3f
       0.47045752 0.5574924 0.62154394 0.5576646
000030 97 75 1a 3f ba 57 05 3f 92 56 d6 3e f6 74 fe 3e
       0.6033568 0.52086985 0.41862923 0.4969861
000040 ce 57 bf 3e 2c 22 ff 3e 35 5e 03 3f 6c 64 05 3f
       0.37371677 0.4983076 0.51315624 0.52106357
000050 e7 2a 02 3f c6 2f 0a 3f 00 7b 01 3f c2 70 15 3f
       0.50846714 0.53979146 0.5057831 0.5837518
000060 f5 78 18 3f 83 ac 17 3f 16 c9 f9 3e c8 11 0c 3f
       0.59559566 0.59247607 0.4878623 0.5471463
000070 3e 25 0b 3f cd 81 c3 3e 68 ed cc 3e 2e 72 e9 3e
       0.543537 0.38184968 0.40024877 0.45594925

tcn.network.0.net.0.weight_v f4 [32, 10, 3]
000000 66 21 a1 3d 56 b2 ad 3d 8a 9f ea bd 45 e7 0b 3e
       0.07867698 0.084812805 -0.11456211 0.13662441
000010 28 36 b8 bd 65 ff 87 ba bd 92 0d be 0c 58 1f 3e
       -0.089947045 -0.0010375796 -0.13825507 0.15560931
000020 8f 9c 83 3e 58 80 38 be dc 0f 2a 3e 56 a8 0f 3e
       0.25705382 -0.1801771 0.16607612 0.14029059
000030 db 5e c9 3d 90 3d 8c 3d fa a6 c8 bd 4f 16 1e be
       0.09832545 0.068476796 -0.09797473 -0.15438198
000040 1c 2f bc 3d f3 80 b0 bd 96 d2 b2 bd 79 33 48 bd
       0.09188673 -0.08618345 -0.08731572 -0.048877213
000050 4f 44 06 be 17 72 0f be 65 e7 94 bd eb 61 ba bd
       -0.13111995 -0.14008366 -0.072706975 -0.091007076
000060 5b 19 c1 bd 6b 2c c3 be ac d8 02 be db b7 a8 bb
       -0.09428664 -0.38119826 -0.12777966 -0.0051488704
000070 fb 58 05 3d d2 36 9f be 88 75 0c 3e da ab 3e be
       0.03255556 -0.31096512 0.1371671 -0.18620244
000080 db 90 eb 3d 31 fb 13 3d 9e 6b 82 bd 3e e3 11 3e
       0.11502238 0.036128227 -0.063681826 0.14246842
000090 83 f3 b0 3c f8 d6 26 3e 1f 0b 84 3d 39 2f 6f 3c
       0.02160049 0.16292942 0.06447434 0.014598661
0000a0 60 a4 4d 3e 11 bb 23 3e 7f 3e ba bc a4 89 1f 3e
       0.20082235 0.15989329 -0.022734879 0.1557985
0000b0 0e 62 d0 3d f4 18 74 be 0b df 80 3d 93 e7 af bc
       0.101749524 -0.23837644 0.06292542 -0.021472728
0000c0 92 46 05 3e c9 78 8e bd 9a eb 83 ba 46 1b cb 3c
       0.13015202 -0.06956632 -0.0010064722 0.024793278
0000d0 19 b1 72 bc 5f 29 17 3e 90 89 3d 3e 5d 3f 2d 3e
       -0.014812731 0.14761876 0.18509507 0.16918702
0000e0 7e b1 c8 3d 1a cb 8e 3d 6a 52 6f 3e 19 1a da bd
       0.09799479 0.06972332 0.23371282 -0.10649509
0000f0 15 01 0e 3c c1 c3 f5 bd 3f 3b a4 3d 50 03 9c bd
       0.00866725 -0.12000228 0.08019113 -0.07617819
000100 a2 8b 6a 3d ea b7 7c bd e8 a1 5f 3e cf 07 82 bd
       0.05726207 -0.06169883 0.21839106 -0.063491456
000110 a5 cb 64 bd be a8 b1 bd 4c b0 26 3e e6 55 3d 3c
       -0.055858273 -0.08674763 0.1627819 0.011556124
000120 4a d1 8c bd 32 48 60 be bf 08 9d bd 48 35 fa bd
       -0.06875856 -0.2190254 -0.07667684 -0.12217194
000130 24 ac 82 be 3b ce 0f bd 83 f7 09 bd 26 29 1e 3e
       -0.25521958 -0.035108786 -0.03368331 0.15445384
000140 40 a6 3e be e0 2a d9 bd a8 4b c8 3d 1c 5a 2e be
       -0.18618107 -0.10603881 0.09780055 -0.17026561
000150 2a 69 68 3e 83 50 39 bc 79 6f 51 3e 6f cf 7c be
       0.22696367 -0.011310699 0.2045268 -0.24688505
000160 0b 8d 7f be 9c 17 e2 bc 2a 23 1c 3d 15 44 86 bd
       -0.24956147 -0.027599148 0.038119473 -0.06555954
000170 a8 8f a9 3d 34 35 44 3e 02 50 c0 bd ac 42 92 bd
       0.082793534 0.1916092 -0.0939026 -0.07141623
000180 05 aa 43 3e f7 d9 c5 bd ef 59 e9 bd 28 af 14 bd
       0.19107826 -0.09660714 -0.113941066 -0.036299855
000190 0f 76 dc 3c 97 4d 43 3e 57 8c ab 3d ae 2f 8e 3d
       0.026911763 0.19072567 0.08376377 0.06942688
0001a0 0c cb 68 3e 10 85 3e 3c 35 6d 09 be 31 cd 73 3d
       0.22733706 0.011628404 -0.13420565 0.059521858
0001b0 0d 87 78 bd 08 13 89 3d a6 34 a9 3e 6f a7 64 3e
       -0.06067567 0.06693083 0.3304798 0.22329496
0001c0 22 2a 7c 3d 6c 02 0c be 90 7c 27 be 2f 7d a1 bc
       0.06156362 -0.13672799 -0.1635611 -0.019713013
0001d0 23 95 0d 3e 78 f2 42 be 9e 7a a5 bd b1 31 e4 bd
       0.13826422 -0.19037807 -0.08080028 -0.111422904
0001e0 4f fb 16 bd 76 d5 05 be 10 72 ad bd 0a 11 02 be
       -0.03686076 -0.1306971 -0.08469021 -0.12701812
0001f0 49 2c 02 be 28 5e bf bd 7e d9 13 be 5d 29 84 be
       -0.12712206 -0.09344131 -0.14438435 -0.25812808
000200 90 9c e6 3d a0 ad 89 3d 6c 8f 18 3e 7e dd 0a 3d
       0.11260331 0.067225695 0.14898461 0.033902638
000210 a5 9d df bd 52 92 55 3d 44 5e 02 be d2 02 78 bd
       -0.1091874 0.052141495 -0.12731272 -0.060549565
000220 17 5a 16 be ff 2d 32 be 81 5b d1 3d 0e a1 b6 bd
       -0.14682804 -0.17400359 0.10222531 -0.089174375
000230 f3 ff ef 3d ee 16 b4 bd 25 8f b8 3d f6 31 36 be
       0.1171874 -0.08793436 0.09011678 -0.17792496
000240 c9 6e 27 3d 97 80 88 bd bb 2b 46 bc bf ac 41 3d
       0.040877137 -0.066651516 -0.012095387 0.047283884
000250 68 38 07 3e 91 7b 75 be e5 bf 9f 3d 27 da 5d bd
       0.13205111 -0.23972918 0.07800273 -0.054163124
000260 ba e1 ba b9 6d f4 da bd a2 7e 43 3e b4 57 0a be
       -0.00035644864 -0.10691152 0.19091275 -0.13510019
000270 d1 e1 b8 3d 99 ba 57 3c c2 27 60 bb 6e a1 42 be
       0.09027446 0.013167047 -0.0034203385 -0.19006893
000280 e7 54 de 3d 51 66 9e 3d fc 9b 08 3e 8a 58 fe bd
       0.108560376 0.07734359 0.13340753 -0.12419231
000290 58 04 1e 3e b9 02 04 3e 81 45 85 bd fd 6b 14 3e
       0.15431345 0.12891664 -0.065073974 0.1449432
0002a0 e9 c8 03 3e d6 e4 e1 bc d1 72 f5 bd 0d 74 dc 3d
       0.1286961 -0.027574938 -0.1198479 0.107643224
0002b0 1b d3 20 bd 3b 2e 54 be 2a 34 83 be 91 f5 cf bd
       -0.039263826 -0.2072076 -0.25625736 -0.1015426
0002c0 a7 d2 5e 3d a7 62 65 3e 6d f2 35 3e 6b a8 6b be
       0.054400112 0.22400914 0.1776826 -0.23013465
0002d0 e7 bb 35 bd d1 ba da 3c 22 84 12 bd 9f 5f e5 bd
       -0.04436865 0.02670041 -0.035770543 -0.11199879
0002e0 8b 0d a4 3d b9 ba b0 3d 33 2c 78 3d 40 58 8d bd
       0.080103956 0.086293645 0.060589027 -0.06901598
0002f0 75 16 ae bd e2 5b 47 3d 9e 5d 83 bd 0c ea b8 bd
       -0.08500377 0.04867161 -0.064143404 -0.09029016
000300 43 91 04 3d c3 6c 9f 3d a4 59 72 bd cb 7e 3b bd
       0.032365095 0.077844165 -0.05916752 -0.045775216
000310 cf e2 f9 3c 2c 58 54 bd 31 78 fe 3d aa 03 e1 3d
       0.030503659 -0.0518419 0.124252684 0.10987027
000320 24 51 18 be 55 65 1f be 89 00 1f 3e 05 40 72 3d
       -0.14874703 -0.15565999 0.15527548 0.059143085
000330 74 ce 59 3d ef 14 8a be 5b 81 0e be c5 d3 67 be
       0.053175405 -0.26969096 -0.13916533 -0.22639377
000340 c0 72 eb bc 97 fa ef 3d ed 8d 19 3e 66 a1 fc 3d
       -0.02874124 0.11717718 0.14995547 0.12335472
000350 43 3e 03 be 81 80 b5 bd 13 28 e0 bc 05 ee 42 3e
       -0.1281672 -0.08862401 -0.027362859 0.1903611
000360 21 fb a7 bd af cc ed bd 23 f4 43 3d 6f 14 59 bc
       -0.08202196 -0.11611306 0.04784025 -0.013249501
000370 68 a6 a4 3c 4b 34 90 3e 4a 95 48 be eb 3c 99 bd
       0.02009888 0.28164896 -0.195882 -0.07482322
000380 b2 cc b4 bd f1 c1 8f 3e 1f 18 86 3e a4 ff bc 3d
       -0.08828105 0.28077653 0.26190278 0.09228447
000390 2d 0a 5f bd 6b 3b 32 be 93 08 f4 bd 26 1b 9a ba
       -0.054453064 -0.17405479 -0.11915698 -0.0011757358
0003a0 f2 fe 73 3d 8b 7d 46 3e 8d 03 02 3e a9 51 8a 3c
       0.059569307 0.19383828 0.12696667 0.016884642
0003b0 61 8d 1f be 94 ef 38 3d 50 26 21 be a7 f7 5b be
       -0.15581276 0.045150355 -0.15737271 -0.2148119
0003c0 4d e5 11 3d 8f ed 12 be ef b2 c3 bd 8a e0 b8 bd
       0.03561907 -0.14348434 -0.09555613 -0.090272024
0003d0 18 f6 8f bc ab f7 e5 bd 77 c8 12 be e3 c1 04 3d
       -0.017573401 -0.112288795 -0.14334284 0.032411467
0003e0 55 8c 24 be 38 18 7d 3e 13 ae ea 3b 94 63 17 bd
       -0.16069157 0.2471627 0.0071618645 -0.0369602
0003f0 ac 71 41 3b 97 b0 a4 3b 91 d5 21 bd d0 47 b9 bd
       0.0029517217 0.005025934 -0.039510313 -0.090469

tcn.network.0.net.4.bias f4 [32]
000000 88 63 ae 3d 51 66 62 3c 58 6e 1f 3d e3 63 78 bd
       0.08515078 0.013818339 0.03892359 -0.060642134
000010 90 10 3e 3d ea 6b f4 bc ba 1f c9 bd ee d3 06 bd
       0.046402514 -0.029836614 -0.098205045 -0.032916956
000020 90 ea 87 bd 7f 60 7f 3d 9f 76 85 bd d0 5a e6 bc
       -0.06636536 0.062347885 -0.06516766 -0.028119475
000030 e7 db b2 bd 20 68 3f be c5 ce 73 bc 6b 7d 7e 3d
       -0.08733349 -0.18692064 -0.014880841 0.062131327
000040 87 24 3a 3d 30 e9 09 be 24 50 c9 3c b7 5f e1 bd
       0.04544499 -0.1346786 0.024574347 -0.11004584
000050 7e 79 11 3e 35 2d 9c bd 6e 62 c4 bd 90 0a 86 bd
       0.14206502 -0.0762581 -0.095890865 -0.065449834
000060 c8 f0 aa 3b cc 34 85 bd ab 46 4f bc df fa bc 3d
       0.0052166916 -0.06504211 -0.012651126 0.09227537
000070 46 a0 01 be fb 71 8e 3d 58 99 82 bd cb fc 5e bd
       -0.12658796 0.06955334 -0.06376904 -0.0544403

tcn.network.0.net.4.weight_g f4 [32, 1, 1]
000000 37 df 00 3f 4f ee 24 3f 78 1d d0 3e c0 ec ed 3e
       0.503406 0.6442613 0.40647483 0.46469688
000010 61 e6 f2 3e 08 01 12 3f 23 cd fb 3e f1 e7 0b 3f
       0.4744139 0.57032824 0.49179944 0.5465079
000020 69 dc 02 3f 07 c1 34 3f 4c d0 e1 3e 2b 0f bd 3e
       0.5111757 0.70607036 0.4410423 0.36925635
000030 eb 0a f7 3e bd 8c 06 3f cd 20 09 3f 4a 1f 29 3f
       0.48250517 0.525585 0.53565675 0.6606337
000040 a4 3a 12 3f 44 82 1a 3f ee 60 d8 3e 48 fd f7 3e
       0.5712073 0.6035502 0.4226145 0.48435426
000050 65 76 40 3f 61 7a fa 3e a0 ea 03 3f d1 47 0a 3f
       0.75180656 0.48921493 0.51529884 0.54015833
000060 5d 9f b5 3e b9 47 11 3f 99 02 fe 3e c7 89 11 3f
       0.35473147 0.56750065 0.49611357 0.56850857
000070 39 fd 08 3f cb 9a 0d 3f bb ad 0b 3f 26 cd e2 3e
       0.5351139 0.5531432 0.54561967 0.4429714

tcn.network.0.net.4.weight_v f4 [32, 32, 3]
000000 4f 04 cb bd 1f 89 09 be 89 e4 d3 bd 02 97 d1 bd
       -0.09912931 -0.13431214 -0.10346324 -0.102338806
000010 90 ea 1f ba 5e 36 1b 3b 32 d9 df 3a c7 f3 9e bd
       -0.0006100321 0.0023683528 0.0017078279 -0.077613406
000020 2b 26 27 3e 0a 61 ed bd fb 0f f8 bd 62 bc 9b bd
       0.16323154 -0.11590774 -0.12112423 -0.076042905
000030 cd b1 04 be 7a 81 41 be e7 9d 31 be c8 a7 cc 3d
       -0.1295845 -0.18897048 -0.17345391 0.09992939
000040 29 2c 66 ba 8d 88 82 3b 39 dc ad 3b 14 4e 72 be
       -0.0008780384 0.0039835633 0.0053057936 -0.23662597
000050 2f 09 29 be ef 92 e6 3c 03 b1 cf ba 7f db b2 bb
       -0.1650741 0.028146235 -0.00158456 -0.005458295
000060 0a 54 31 be f6 0f ee bd ef 61 bd bd 07 50 92 bd
       -0.17317215 -0.11624138 -0.09247195 -0.0714417
000070 e4 79 19 be 5c 7c 44 be af 49 9f 3d 11 29 0d 3c
       -0.14987904 -0.19188064 0.07777726 0.008615748
000080 eb 86 87 bc 6e e9 96 3c 76 44 8f 3c dc 1f 3f bd
       -0.016543826 0.018421855 0.0174887 -0.046661243
000090 83 49 80 bd a9 d4 16 be 23 3f a6 bd 86 79 0a be
       -0.06264021 -0.14729561 -0.08117511 -0.1352292
0000a0 46 ab e7 bd 6a c7 1b be ff 03 f9 bd fa 45 65 bd
       -0.11311965 -0.15212789 -0.12158965 -0.055974938
0000b0 d8 b5 2c bd a2 56 c5 3d 74 2a 89 3d 69 4a 8b bc
       -0.042165607 0.096356645 0.066975504 -0.017003255
0000c0 63 20 74 bd e4 d3 a1 3d fb d3 1b bd 9d 6f 0f 3d
       -0.0596012 0.07901743 -0.038043957 0.035018552
0000d0 48 f9 7b bc 60 ee 27 3c b8 4f cd 3c 49 d6 fe 3c
       -0.0153792575 0.010249704 0.025062427 0.031108038
0000e0 c5 c4 69 bc a3 ad eb bd 56 c6 6c 3d f8 ee 25 bb
       -0.014268105 -0.11507728 0.057806335 -0.0025319438
0000f0 e1 9b 85 bd 5d 99 18 be 14 be d0 bc fe a9 f3 bc
       -0.06523872 -0.14902253 -0.025481261 -0.029744145
000100 ff 74 38 bc a8 31 02 bc 5f 73 47 3b 3a 10 f4 bc
       -0.011258363 -0.007946409 0.0030433757 -0.029792894
000110 93 8a 2e be 19 c9 00 be d7 bb a6 bd 2f 65 f0 3c
       -0.1704505 -0.12576713 -0.08141296 0.029345123
000120 48 fb 63 bd f2 d1 42 3e 95 dc 0d be 19 59 6d 3d
       -0.055659562 0.190254 -0.13853677 0.0579463
000130 35 c3 f7 3b 0b ad ae 3b 75 13 df bc 92 32 b4 bc
       0.0075611123 0.005330687 -0.027230958 -0.02199677
000140 6a 61 99 bd cd e0 26 be f7 7a 36 be 53 a5 47 bd
       -0.074892834 -0.16296692 -0.17820345 -0.04874165
000150 84 58 cf 3c 0c c2 4a bd 9b 4f fc bd 08 8f 01 be
       0.025310762 -0.049501464 -0.12319871 -0.12652218
000160 ba 12 02 be d2 2d 40 bd f0 92 af bd 35 cd db 3c
       -0.12702456 -0.046918698 -0.08572948 0.026831249
000170 2d 18 90 bc bb 71 b0 3b c7 bb c7 3b 6f 6a 8d 3c
       -0.017589653 0.0053846515 0.006095383 0.017262666
000180 64 a6 fa bd 5e 66 13 be 71 42 36 bd 05 33 c9 bc
       -0.12238768 -0.14394519 -0.044496957 -0.02456046
000190 43 6f 23 be 95 62 41 bd 2d d9 a5 bc 09 44 fc bc
       -0.15960412 -0.047213156 -0.020245159 -0.03079416
0001a0 dc 88 b7 bc 9d b8 98 bc c7 03 b9 3a d0 93 a0 3d
       -0.022404127 -0.018642718 0.0014115506 0.07840693
0001b0 a6 3c 48 be 9b 13 03 be c8 1d 16 be 27 18 05 3e
       -0.19554386 -0.12800448 -0.14659798 0.12997495
0001c0 60 4c 4c 3d 66 2d 25 3e f8 52 8b bd 43 b0 7d 3c
       0.049877524 0.161306 -0.068029344 0.015483919
0001d0 b5 b2 8c bd 71 19 88 bd fc a0 3b be 2d 9e 5c be
       -0.06870023 -0.066454776 -0.1832313 -0.21544714
0001e0 d2 63 24 bd f5 c6 1b 3d 24 11 56 bb 7b cd cc bb
       -0.04013426 0.038031537 -0.0032664025 -0.006250081
0001f0 9a f5 ad bd 73 7b e7 bc de da e6 3d 2d 91 95 3d
       -0.084941104 -0.028257107 0.11272214 0.07303081
000200 93 f5 22 bd b0 cd 8d bd 00 88 0f bd 66 f6 cb ba
       -0.03978498 -0.069239974 -0.03504181 -0.0015561103
000210 f6 f4 c7 bd 6a 74 1a be 74 61 dd bd 4a f6 e7 bd
       -0.097635195 -0.15083471 -0.10809603 -0.11326273
000220 85 bd 17 3a ed 24 4d bd b5 13 0e be e2 71 28 3c
       0.00057884335 -0.050084043 -0.13874705 0.010281058
000230 47 9a c8 bd e2 a7 94 bd 0d 94 8d 3a 27 4e ae bd
       -0.09795051 -0.072585836 0.0010801569 -0.08511
000240 52 48 6f 3c 79 a9 b0 3d 01 15 b8 ba ce cc 9a bd
       0.014604645 0.08626074 -0.0014044346 -0.07558595
000250 75 a5 44 be 39 55 bb bc a3 45 e9 bc 38 eb 9b bd
       -0.19203742 -0.022867786 -0.028475588 -0.07613224
000260 68 cc ac bd 1f d3 09 be d2 ad 1c be c0 a6 16 be
       -0.08437425 -0.13459443 -0.15300682 -0.14712048
000270 bc c7 78 3c 72 c3 29 bc 05 51 c8 bd db 12 e4 bc
       0.015184339 -0.010361539 -0.09781078 -0.027841022
000280 57 72 fe bc 09 e8 a0 bc 7d ba 11 be c4 1c 68 bd
       -0.03106038 -0.019641893 -0.14231296 -0.056668058
000290 3c a0 9e bd 8f 6f 99 bc de e7 20 be 8e fd a9 bd
       -0.07745406 -0.018729953 -0.1571345 -0.08300315
0002a0 04 63 04 bd 83 06 62 bc 21 aa 4c 3c 1d 32 85 bc
       -0.03232099 -0.013795498 0.012491734 -0.016259247
0002b0 80 0c e1 bd c1 7d dc bc 54 88 a6 bd 5e 9a 39 3d
       -0.10988712 -0.026915433 -0.08131471 0.04531323
0002c0 6e 1e cd 3d d8 56 5a be de 07 54 be 28 2e 5d be
       0.100155696 -0.21322191 -0.20706126 -0.21599638
0002d0 4b 0b 0c bd 22 5c fd 3d b0 af e8 3d 24 fe 82 3d
       -0.034190457 0.123710886 0.11361635 0.0639613
0002e0 67 ad 35 3d 5a fa 48 3d 5b c0 8b bb 1d ba 46 bb
       0.044354822 0.04906688 -0.004264874 -0.0030323335
0002f0 83 6d f2 3c 3d ac 76 bc 2e 01 7f bd e1 27 ff bd
       0.029593235 -0.015055713 -0.062256984 -0.12458778
000300 58 3a 43 3c 7c ed 15 bd 84 61 bd bd 47 97 cc bd
       0.011915766 -0.036603436 -0.09247115 -0.09989791
000310 04 fb da bd d8 7a 5c bd b0 55 62 3d 45 b3 a7 3d
       -0.10692409 -0.05382809 0.0552575 0.0818849
000320 aa 5a 9b 3d a1 52 37 be 0f 70 28 be 21 73 45 be
       0.07585652 -0.17902614 -0.16448997 -0.192822
000330 dd b8 96 3c a7 1a 51 3c b5 6e ad bc 25 39 c1 bd
       0.018398697 0.012762702 -0.021170953 -0.094347276
000340 47 8d b9 bc 44 3c 51 bd 14 e3 e3 3c 98 ae 03 3e
       -0.022650374 -0.051082864 0.02781824 0.12859571
000350 8b 46 dd 3c 51 82 6b be a4 5c 0e be 8d 44 60 be
       0.027011177 -0.2299893 -0.13902527 -0.2190115
000360 0a 47 61 3d b7 09 f9 bc 96 d5 93 bc 83 29 47 bd
       0.05499939 -0.03040014 -0.018046182 -0.048623573
000370 8a 6e f8 bc 7c bd 56 bd 44 35 b2 bd a1 86 8e 3d
       -0.030326147 -0.0524268 -0.08701566 0.06959272
000380 48 d6 90 3c f3 49 ed bd 0e 90 38 3d ee af f8 bc
       0.017680302 -0.1158637 0.045059256 -0.030357327
000390 42 15 ae 3b 88 e5 72 bc 0f 5e 04 bd 82 c5 1c be
       0.0053125927 -0.014825232 -0.032316264 -0.15309718
0003a0 2f 16 d8 bd c4 93 41 be 05 b2 30 3d 49 36 70 3d
       -0.10551106 -0.18904024 0.043138523 0.05864552
0003b0 9c cb 60 bc 90 cb d3 bd 5a 7f 75 bd 90 8d cd bc
       -0.013720419 -0.10341561 -0.059935905 -0.025091916
0003c0 b3 4a 0e 3e 0e a8 1b 3d 22 33 ef 3c 4d 31 ab 3c
       0.13895683 0.038002066 0.029199187 0.020897532
0003d0 64 0a 76 3c f4 4c d0 3c 37 41 ad bd 0e 90 9d bc
       0.015017126 0.02542732 -0.08459704 -0.01923373
0003e0 23 2e 28 bd bf 94 37 3d 1f 0f 72 3d 90 1f 5c bd
       -0.041059624 0.04481959 0.05909645 -0.053741038
0003f0 f6 bd 25 3d 17 b0 78 3d 60 c5 39 3c 7e ae 11 bd
       0.040464364 0.060714807 0.011338562 -0.0355668

tcn.network.0.downsample.weight f4 [32, 10, 1]
000000 c7 b2 7d be a9 52 6a be 43 6f b8 bd 34 ad 32 3d
       -0.2477523 -0.22883095 -0.090055965 0.04362221
000010 87 2d 41 bd 15 d7 66 bd 30 61 64 be 98 a8 07 bd
       -0.04716256 -0.056357462 -0.22302699 -0.033119768
000020 dd 17 20 3d 57 a6 8e 3d 87 ff db 3d ae 9e 86 bd
       0.039085258 0.069653206 0.10742097 -0.065732345
000030 ae 7e e4 be 3a 12 f4 3c 2b 3e 41 3d 72 7f cf 3e
       -0.446279 0.029793847 0.04717843 0.4052692
000040 37 6c 75 3d 5b f1 dd bc 2c 0a b8 3c e0 2f 14 be
       0.059917655 -0.027092626 0.022465788 -0.14471388
000050 47 31 3d be 1b 94 1a be d9 bd 16 be 94 a4 56 3d
       -0.18475829 -0.1509556 -0.14720859 0.052403048
000060 d5 6c d4 3d db 75 7a bd e0 64 6c bc 18 1f ac bd
       0.103723206 -0.061147552 -0.014428347 -0.08404368
000070 05 f9 a2 3d 4f 9e 95 be 85 32 80 3d 2e a0 1e 3e
       0.07957653 -0.29222342 0.06259636 0.15490791
000080 58 41 2f 3e c2 11 40 bc 8d aa 53 3c a1 fd c7 bc
       0.1711477 -0.011722984 0.01291908 -0.024412932
000090 13 75 3e 3d ad 9d 27 3d 93 43 31 bd 95 ba 0f 3e
       0.04649837 0.040921856 -0.043277334 0.14036019
0000a0 51 4f 24 3d 81 a8 b5 bd 2e b9 37 be 91 d1 b1 3d
       0.040114705 -0.0887003 -0.17941734 0.0868255
0000b0 c2 77 3c bd dc 84 46 be 9d 3d 32 3e ce de 07 3e
       -0.046012647 -0.1938662 0.17406316 0.13268587
0000c0 d7 0a de bd c9 6f 14 3e fc 3c 00 3c 3c 79 6e 3e
       -0.10841911 0.14495768 0.00782704 0.23288435
0000d0 9c ed d6 ba a2 d9 88 be c9 36 d3 3c 8f 80 73 be
       -0.0016397717 -0.2672854 0.02578296 -0.2377951
0000e0 c7 7b aa 3e 4c 84 18 3e c3 52 31 3d e4 d1 fc bd
       0.3329756 0.14894217 0.04329182 -0.12344721
0000f0 4b 05 d8 3c 67 b4 db bc ff 98 77 be db 0c 41 3d
       0.026369711 -0.026819421 -0.24179457 0.0471314
000100 74 27 c4 3d cc 27 2c 3d 66 83 96 be de f1 96 bd
       0.095778376 0.04203014 -0.29397124 -0.07370351
000110 5e 4e 22 3e 5d e5 2c bd 17 73 77 3d d8 ce 88 3d
       0.15850207 -0.042210925 0.060412493 0.06680077
000120 12 9e 5c 3c e5 fd 44 3d f0 6f 73 ba 5b f3 5a 3d
       0.013465421 0.048093695 -0.00092863943 0.053454738
000130 e6 c0 2e 3c 9e 64 ac bd 23 fb 88 bd 0b 01 7e 3d
       0.010666108 -0.08417629 -0.066885255 0.062012713
000140 fe 8b 00 3d dd 57 31 3e cd 83 87 3d 53 5f b7 3d
       0.031383507 0.17318673 0.06616936 0.089537285
000150 e1 51 35 bd a7 d7 d7 3d da fb 48 3d e4 3d c4 bc
       -0.04426754 0.10539179 0.04906831 -0.023955293
000160 2f fe ea bd b8 23 8d bd 3e 14 46 3d a6 c8 47 bd
       -0.11474263 -0.068915784 0.04835915 -0.048775338
000170 ee 40 18 be 82 55 b7 bd da fe 8e 3c 99 20 c8 3d
       -0.14868519 -0.08951856 0.017455507 0.097718425
000180 de 1f 0f be da 73 e2 bd 48 16 16 3e bc 0a 32 be
       -0.13977 -0.11057253 0.14656937 -0.17386907
000190 3d d7 2a bd b0 d7 30 3e 2c 27 58 3d 8c 7e 5c 3d
       -0.041709173 0.17269778 0.052771732 0.053831622
0001a0 d8 06 70 bc c7 6a eb 3d 56 fb 8b 3e c9 75 da 3c
       -0.014650069 0.114949755 0.27340192 0.026667492
0001b0 59 b1 2c be 3d 01 6e bd 24 68 57 bd 66 9e 68 be
       -0.16864528 -0.05810665 -0.05258955 -0.22716674
0001c0 06 98 8a bd 93 f9 7a 3e c0 73 37 3c 0f 1a c7 3e
       -0.067672774 0.24509268 0.011197031 0.3888707
0001d0 03 eb a8 be f8 aa e6 bb 28 10 56 bd e3 58 6b 3c
       -0.329918 -0.007039424 -0.0522615 0.014364454
0001e0 01 60 84 3d b0 d2 4b bd 65 1b ba bd c5 a2 7d 3d
       0.06463624 -0.049761474 -0.09087256 0.061922807
0001f0 8e 35 86 3d 4f 4b 33 be 64 46 06 bd 5d f4 a9 3b
       0.065531835 -0.17509197 -0.032781973 0.005186601
000200 c6 ae 91 3c 83 a5 c8 bd 0f e9 36 3d 29 19 bb 3d
       0.017783534 -0.09797194 0.044655856 0.09135658
000210 12 00 22 bd 81 96 e5 bd 09 1c 13 3c 15 70 09 3e
       -0.03955085 -0.11210347 0.008978852 0.13421662
000220 18 13 36 bd 24 05 93 bd e0 b7 b7 3d b7 c2 00 be
       -0.044451803 -0.07178715 0.08970618 -0.12574278
000230 8f f1 16 bc a2 ae 33 3e 17 eb a0 3e b4 a4 31 3c
       -0.0092128655 0.17547086 0.3142936 0.010842491
000240 76 6a 10 3d 94 c6 68 bd b8 88 86 3e 20 81 f8 3b
       0.03525778 -0.056830004 0.26276183 0.0075837523
000250 21 3d 85 bd 2b a3 39 be c0 d3 88 bd 61 a3 ad bd
       -0.065058 -0.1812865 -0.06681013 -0.08478428
000260 68 d0 27 be ec 66 ae bc 45 dc 98 bd 41 54 81 3d
       -0.16388094 -0.021289311 -0.07463888 0.06314898
000270 58 20 96 3d ba 5a a4 3d 63 bd 0a 3b 16 86 25 be
       0.07330388 0.08025117 0.0021170012 -0.16164431
000280 a8 2f 1a 3d 02 e4 e2 bc 54 90 62 be e4 33 f0 3c
       0.037643105 -0.027696613 -0.2212537 0.029321618
000290 f9 e0 40 3d c9 54 84 3d 33 0e 72 be 23 ed 8b bd
       0.04708955 0.06461484 -0.23638229 -0.068323396
0002a0 9d 12 db 3d 5e 68 b6 bd 1c 8a 6a 3d 67 93 a5 3d
       0.106969096 -0.08906625 0.057260618 0.080847554
0002b0 fd e4 7d 3d a9 0e 22 bd 95 3c 1b 3d 1e 60 50 3d
       0.06198596 -0.039564762 0.037899572 0.050872914
0002c0 82 10 03 3d e6 7d 2a 3d a1 f2 04 be 8a cb 37 3e
       0.031998165 0.041623972 -0.1298318 0.17948738
0002d0 5b 4e 93 bd cb 51 7a 3e 20 b5 59 3b bf 8e 01 be
       -0.071926795 0.24445264 0.0033219531 -0.1265211
0002e0 37 0a 2d 3c 03 ae 58 3d 97 97 ac 3d 66 9c e8 bb
       0.010561517 0.052900326 0.08427351 -0.0070987223
0002f0 b5 c1 96 3c fe 87 1e be cf f1 2f 3d 8d 43 a7 3d
       0.018402914 -0.15481564 0.042955216 0.08167181
000300 78 96 ff 3d 95 4c 42 3d f8 de 87 bd 03 30 cf 3c
       0.124798715 0.047436316 -0.06634325 0.025291448
000310 3d 14 ba 3d e3 66 5a 3d 5d be b3 3d 04 27 3e 3e
       0.090858914 0.053320777 0.08776543 0.18569571
000320 7a 88 51 3d 07 58 cb bc e9 36 71 be c3 b0 27 be
       0.051155545 -0.024822248 -0.23556103 -0.16376023
000330 2a b7 82 3d b1 65 62 3e 29 7c a3 bd cd 7b b3 bd
       0.06382592 0.22109105 -0.07982666 -0.087638475
000340 ca 91 21 3e c4 cc bc be 4a bb c0 3d 71 a3 2b 3d
       0.1577827 -0.36874974 0.094107226 0.041903917
000350 16 cc a6 bc 85 73 4b 3d be 5e eb bd 41 4a 0e 3e
       -0.020360988 0.049670715 -0.1149268 0.13895513
000360 ec 1b 69 3c 4d d0 58 3d 9c 66 aa bd 3d 30 9a 3d
       0.0142278485 0.052933026 -0.083203524 0.07528732
000370 96 67 b7 3c 25 d9 3a 3b c4 a0 59 3d 21 9a ae bd
       0.02238826 0.0028510776 0.053131834 -0.085254915
000380 a7 93 9b bd 81 88 36 bd bf f9 19 3d ec 49 b1 3d
       -0.07596522 -0.044563774 0.037591692 0.086566776
000390 63 2c 05 be cd 1a 44 3e 0d c4 12 3e 3d 53 74 3e
       -0.13005213 0.19150849 0.143326 0.23859878
0003a0 7e c5 58 3e 70 84 77 3d 45 e2 9b bc e5 72 0b 3d
       0.21169087 0.060429037 -0.019028792 0.03404512
0003b0 b0 d8 8c 3d 87 6c 05 bc 9d e1 a8 bd f9 7c a1 3d
       0.06877267 -0.008143551 -0.08246157 0.07885165
0003c0 67 41 0a be e5 84 d6 be ec e1 01 3e 88 a6 2d 3e
       -0.13501512 -0.41898265 0.12683839 0.16958058
0003d0 07 fc a6 bd 63 aa e0 bc 09 c1 68 3e 4e 88 07 3c
       -0.08153539 -0.027424997 0.22729887 0.008272244
0003e0 66 74 1d be 7e 09 0c 3e d2 91 7b 3d bb bd 48 3d
       -0.15376434 0.13675496 0.061418362 0.049009066
0003f0 e5 ac 8b 3d 4b 10 70 bc dd 55 6e bc a2 20 ff bb
       0.068200864 -0.014652322 -0.014546839 -0.0077858726

tcn.network.0.downsample.bias f4 [32]
000000 b0 be ad 3e 36 b3 d6 be c2 27 7e be 0a c7 b7 3d
       0.33934546 -0.41933602 -0.24819854 0.089735106
000010 74 36 f3 be 2e c9 de be fd 2e 4b be 9f 99 a7 3e
       -0.47502482 -0.43512863 -0.19842143 0.3273439
000020 e0 b3 8b 3e f1 fa f9 bc fe da 98 3c cf 94 b4 be
       0.2728567 -0.030515166 0.018659111 -0.35269782
000030 72 48 0a bf 6d 7d 09 bf 3b 3e db be 0f 0d a1 3e
       -0.5401679 -0.5370701 -0.42820916 0.31455275
000040 d8 45 d7 bd b7 91 65 bd b0 23 d4 be f9 9d e3 3d
       -0.105113685 -0.056047168 -0.41433477 0.11114115
000050 c2 ea 86 bd f6 f3 85 be ff a9 95 3e ec fd e2 3e
       -0.06587745 -0.2616269 0.2923126 0.44334352
000060 75 49 9f be f1 78 7e 3e fb 80 e8 bd 2b bd 6a 3d
       -0.3111073 0.24850823 -0.11352726 0.05730931
000070 16 0d 1d 3e 82 86 81 3d 32 1b ad 3e 3b 82 9b 3e
       0.15337023 0.063244835 0.3380981 0.30372795

linear.weight f4 [1, 32]
000000 dc 74 45 3e 9f b8 79 3e ae c1 28 3e 25 09 07 be
       0.1928286 0.24386834 0.16480133 -0.13187082
000010 1d 5f c4 3e 53 10 0c be c5 df 95 3d 2a 94 c4 bd
       0.38353816 -0.13678102 0.07318071 -0.095985726
000020 c8 9a 3e be ae d3 00 3e cf 15 83 be 46 a8 39 3e
       -0.18613732 0.1258075 -0.25602576 0.18130597
000030 ac ac 72 3e 43 11 09 bf 2e 3c db bd 9b b8 91 3d
       0.23698682 -0.53541964 -0.10704838 0.07115289
000040 ec 23 fb 3d 58 fa 92 bd 37 56 b0 be 6a 2e f1 bd
       0.12262711 -0.071766555 -0.34440777 -0.11776431
000050 96 8f 18 3e 00 d7 9e bd 79 d0 09 be b7 84 e7 bd
       0.14898524 -0.07755852 -0.13458432 -0.1130461
000060 4a 5e 8e 3e 53 6e a2 bd 11 28 52 be 5e e8 24 3e
       0.27806312 -0.07931199 -0.20523097 0.16104266
000070 b0 ef 26 be d5 bd 27 be ba 2a 90 bd 2e 9f 20 3e
       -0.16302371 -0.16381009 -0.070393994 0.15685722
