checkpoints/tcn/sh-EEMD-h64-k3-lr0.001-d0.3-ep200.pth (torch, 66047 bytes, 15 tensors)

tcn.network.0.conv1.bias f4 [64]
000000 16 bd f6 bd c2 2e 44 be 2a 95 87 bd 7d 99 8a be
       -0.12047784 -0.19158462 -0.06620248 -0.27070227
000010 a0 9b 90 bd 26 ea 0d be 3f 97 bf bd 43 4b 4f be
       -0.07060933 -0.13858852 -0.0935502 -0.20243554
000020 f9 e5 98 bc 68 4b 0f be 2a 90 67 be 2d 84 4d be
       -0.018664347 -0.13993609 -0.22613588 -0.20069952
000030 98 58 84 be 0d 25 fe bd a9 89 99 be 4a 2f 92 be
       -0.25848842 -0.124094106 -0.2998784 -0.28551704
000040 77 c1 85 3a f4 7e a8 be eb 91 22 bd a4 d1 20 be
       0.0010204752 -0.32909358 -0.03968994 -0.15704972
000050 52 a9 9f bd bb 11 9f be dd ea b7 bc f6 8a 38 be
       -0.07795967 -0.31068215 -0.022450859 -0.1802176
000060 f5 db 10 be b9 78 cc bd 29 5e 60 be aa 5e 7b be
       -0.14146407 -0.099839635 -0.21910919 -0.2454783
000070 1c e3 c5 bc 72 24 89 be 3f 33 b6 be 7d c5 2d be
       -0.024156146 -0.26785618 -0.35585973 -0.16969867
000080 dc eb 55 be b0 48 85 be ed e2 7d be c1 ef e7 bd
       -0.20890754 -0.2603202 -0.24793597 -0.11325026
000090 ae ec 92 be 37 b3 00 be 6f 36 3f 3c 0f 7d ca bd
       -0.28696197 -0.12568365 0.011670693 -0.09887134
0000a0 fe 90 58 be 36 77 b4 bd 0d d3 31 be f3 af 27 be
       -0.2114906 -0.088118 -0.17365666 -0.16375713
0000b0 43 30 6f be fa b1 46 be 89 34 61 be 2a 2b 9e 3d
       -0.23358254 -0.1940383 -0.21992697 0.07723077
0000c0 17 bb 4a be 99 28 2c 3c 24 b4 b9 bd b5 9b 53 bd
       -0.19797932 0.010507726 -0.09067562 -0.051662166
0000d0 90 52 84 be 32 df 36 be cb af 75 be 08 96 9d bd
       -0.2584424 -0.1785858 -0.23992841 -0.07694632
0000e0 73 13 5d be 1f 12 17 be 69 ff 10 be 2a b5 2f 3d
       -0.2158945 -0.14753006 -0.14159931 0.04289738
0000f0 f3 de 99 bd c7 78 08 bd 34 9e 95 3b db df c7 bd
       -0.07513227 -0.033318307 0.0045659784 -0.09759494

tcn.network.0.conv1.weight_g f4 [64, 1, 1]
000000 ba 73 0d 3f 85 96 09 3f f8 5b 27 3f 58 e0 07 3f
       0.5525471 0.537453 0.6537471 0.53076696
000010 3b 35 18 3f cc 4a 0a 3f 84 22 e1 3e a4 78 2c 3f
       0.59456223 0.5402038 0.43971646 0.67371583
000020 c0 64 0e 3f 52 17 1c 3f 96 bb 22 3f af 85 19 3f
       0.5562248 0.60973084 0.63567483 0.5996961
000030 0e 27 12 3f d5 ad 03 3f 79 89 17 3f 0c 0b 0e 3f
       0.5709084 0.5143712 0.5919414 0.55485606
000040 66 b0 df 3e 19 a6 21 3f b1 86 0f 3f 63 e7 0b 3f
       0.4368927 0.6314407 0.560649 0.54649943
000050 8c af 11 3f 87 0d 19 3f c9 51 fe 3e 54 72 16 3f
       0.5690849 0.59786266 0.49671772 0.587682
000060 9c f6 28 3f b9 ab 04 3f f2 2a 1d 3f 32 e2 05 3f
       0.66001296 0.5182453 0.61393654 0.5229827
000070 17 d0 15 3f b2 99 e3 3e b5 00 f9 3e b8 22 0e 3f
       0.58520645 0.44453198 0.48633352 0.55521727
000080 86 34 dc 3e 7b 9b da 3e 4e 05 ef 3e 92 90 1b 3f
       0.43008822 0.42696747 0.46683735 0.6076747
000090 cf 37 1f 3f 8a a1 30 3f a1 48 26 3f f6 c1 e7 3e
       0.6219453 0.6899649 0.6495457 0.45265168
0000a0 bf 31 2d 3f 6c a5 f5 3e c8 e1 17 3f 7d 20 fe 3e
       0.6765403 0.4797777 0.5932889 0.49634162
0000b0 f5 3d 08 3f ee 5d 17 3f 69 a2 14 3f c6 3f 0a 3f
       0.5321954 0.591277 0.5806032 0.5400356
0000c0 6e f0 08 3f 2c 61 03 3f 83 67 e7 3e 9c 70 0d 3f
       0.53491867 0.5132015 0.4519616 0.55249953
0000d0 6a dc a8 3e 6b 30 16 3f de ac 03 3f 11 5f 01 3f
       0.32980663 0.5866763 0.5143565 0.50535685
0000e0 e9 91 05 3f c8 98 16 3f 9e 73 11 3f 40 e3 10 3f
       0.52175766 0.58826876 0.5681704 0.56596756
0000f0 6c 50 06 3f d6 37 18 3f 52 45 18 3f 07 59 0c 3f
       0.52466464 0.594602 0.59480774 0.54823345

tcn.network.0.conv1.weight_v f4 [64, 10, 3]
000000 56 2f af 3d 17 66 be 3d 47 fe c4 bd 3c 6e 40 3e
       0.085539505 0.09296816 -0.09618812 0.18792051
000010 16 1b 2e bd 72 20 27 3d 20 10 ad bd d6 d9 19 3e
       -0.0425063 0.040802427 -0.08450341 0.15024504
000020 64 b8 4a 3e ab d7 0b be 10 f9 37 3e fd 98 d4 3d
       0.19796902 -0.1365649 0.17966104 0.10380743
000030 97 2d 2c 3e 00 b7 f2 3a 7e aa ea bc 6c eb f6 bd
       0.16814266 0.0018517673 -0.02864575 -0.12056622
000040 d8 70 a9 3d 19 53 12 be bb e8 13 be 8f 28 d6 bd
       0.08273476 -0.14289512 -0.14444248 -0.10456955
000050 76 41 a5 bd 9d 51 12 bd af 86 d6 bd 23 8e a5 3c
       -0.08069126 -0.035722364 -0.104749076 0.020209378
000060 a1 dc 64 be 5f 16 47 be 70 e8 3c bd 3e 7c cf bc
       -0.22349788 -0.19442128 -0.046120107 -0.025327798
000070 17 25 42 3c 64 d9 8b be 8b e1 18 3e 56 bb 3a be
       0.011849663 -0.27314293 0.14929788 -0.18235525
000080 00 81 eb 3d f5 45 96 3c 27 65 95 bd d8 b5 e7 3d
       0.11499214 0.018343905 -0.07294684 0.11313981
000090 6b e1 14 3c 5d 5a 2e 3e fb d2 07 3d c8 27 ad bc
       0.009086947 0.17026658 0.03316019 -0.021137133
0000a0 84 09 1b 3e a6 fc 42 3c b6 ff 15 3e 6d ee 08 3e
       0.15140349 0.011901056 0.14648327 0.13372202
0000b0 6f b9 13 3e bc 48 94 bd f1 af 16 3e 85 35 98 3d
       0.14426206 -0.072404355 0.14715554 0.07432083
0000c0 de 6f 48 3e 9c 3b 0e 3c 22 11 0e be 1d 44 a3 bd
       0.19573924 0.008681204 -0.13873723 -0.07971976
0000d0 51 80 9a bd 8e ff de 3d 61 e1 28 bc a3 d2 2c 3e
       -0.07544006 0.10888587 -0.010307641 0.16877227
0000e0 8f 0b 4c bc d1 0b a3 3d cd b1 30 3e 91 b0 64 be
       -0.012453928 0.07961238 0.17255326 -0.2233298
0000f0 5c 2a 50 3d 9b 36 be bd 74 b2 a7 3d 72 eb f5 bc
       0.050821647 -0.09287759 0.08188334 -0.030019496
000100 dc a4 8b 3d 07 c0 19 bd 97 31 7d 3d 36 4e 58 be
       0.06818554 -0.037536647 0.06181487 -0.21123585
000110 25 81 80 be 0a 2b 87 bd 2a 4b 56 3e e6 33 ec 3d
       -0.2509853 -0.06600006 0.2092711 0.11533336
000120 5f 4f 8f 3d 30 a4 3a be 8e ff 49 be f6 9d 87 bd
       0.06997561 -0.18226695 -0.19726393 -0.066219255
000130 96 ee 31 be c7 fa 14 3e 82 64 c8 3d 40 75 02 3e
       -0.1737617 0.14548789 0.09784795 0.1274004
000140 c2 dd 8b bd e2 20 f1 bd 6f 06 cc 3d ea df 46 bd
       -0.06829406 -0.1177385 0.099621646 -0.048553385
000150 b1 52 aa 3d b4 4d 95 bd 99 63 2b 3d ed 53 58 be
       0.083165534 -0.07290211 0.04184303 -0.21125765
000160 92 8e 94 be 20 01 a2 3d 2f 27 aa 3c 2c 5b 8f bd
       -0.29015023 0.07910371 0.020770637 -0.069998115
000170 a7 e6 a9 3d 66 d4 0f 3e ab d3 0b be 4a 81 e6 bd
       0.082959466 0.14045867 -0.13654964 -0.11255129
000180 4d 2b 55 3e e2 d9 72 bd e7 47 89 bd ed d1 49 be
       0.20817299 -0.05928982 -0.067031674 -0.19708987
000190 d3 dc c3 bd da e7 01 3e b4 43 1d bd 04 f4 0f be
       -0.09563603 0.126861 -0.038394645 -0.14057928
0001a0 80 bf 8d 3d ad 2f 7c bd df 6a d2 bd 5c 41 aa bc
       0.06921291 -0.061568905 -0.1027429 -0.020783119
0001b0 35 c9 25 be d0 25 11 be 7a 48 31 3e 5f c0 b2 3d
       -0.16190036 -0.1417458 0.17312804 0.08728098
0001c0 c0 3b 2f 3d 13 14 88 be 84 aa 08 be 41 e1 2b bc
       0.04278159 -0.26577815 -0.13346297 -0.010490716
0001d0 80 45 30 3e 8f 29 55 bd 76 b8 c5 3c ea 56 5a 3d
       0.17214012 -0.052041586 0.02413581 0.053305544
0001e0 6b cf 67 bc 23 41 d0 bd 95 af 6f bd 94 fa 37 bd
       -0.014148573 -0.10168674 -0.058517057 -0.044916704
0001f0 45 96 52 bd 47 04 39 bd a1 75 03 be 27 86 36 be
       -0.05141284 -0.045170095 -0.1283784 -0.17824613
000200 95 31 ea 3d 8f 3b 67 3b 8d 47 38 3e 7e 2a 24 3d
       0.11435238 0.0035283302 0.17996044 0.040079586
000210 01 f5 33 be 7f 8b 01 3e d1 d5 12 be 12 7a ad bc
       -0.1757393 0.1265087 -0.14339377 -0.021176372
000220 e0 b3 cf bd dd 96 17 be 6b 87 cc 3d 74 57 2c be
       -0.1014173 -0.14803644 0.099867664 -0.16830236
000230 10 bc 0a 3e b6 43 9f be a7 76 48 3e 0f 57 22 be
       0.13548303 -0.31106347 0.19576512 -0.15853523
000240 3a 9d da bc 6a a2 1e bb 55 cd 7c 3e 90 21 62 3e
       -0.0266863 -0.0024205693 0.24687703 0.22083116
000250 e2 c4 10 3e 3d 42 51 be 6d 93 b2 3d a9 53 ec bc
       0.14137605 -0.20435424 0.087195255 -0.028848486
000260 17 8b 11 3d 9b f2 ed bd a0 b3 26 3e b3 f4 2b be
       0.035533037 -0.11618539 0.16279459 -0.16792564
000270 92 7a 3d 3d 83 07 df 3b c9 a1 1b bc 97 2e d8 bd
       0.04625947 0.0068063154 -0.009499022 -0.10555761
000280 5f 00 ce 3d 22 1e 17 3d 97 28 9c 3d 0f 88 42 be
       0.100586645 0.03689397 0.076249294 -0.18997215
000290 30 03 46 bc 90 bf ab 3d d0 97 0b bd 27 c9 a9 3e
       -0.012085721 0.08386147 -0.034080327 0.3316128
0002a0 ba 1a 82 3e 41 16 7f 3c 0f 66 da bd 99 5a 12 3c
       0.25411016 0.015569271 -0.106639974 0.008932733
0002b0 73 40 f7 3d 4f 3a c2 bc eb cd 7f be 4c 5a 53 be
       0.120728396 -0.023709444 -0.24980895 -0.20639914
0002c0 b2 b4 65 be 0b f2 b6 3d 86 4a 10 3e 43 80 d7 3c
       -0.22432211 0.08932885 0.14090928 0.026306277
0002d0 f0 78 dc bc b5 54 20 3d c1 78 4e bc 29 00 df bd
       -0.026913136 0.039143283 -0.012602032 -0.108887024
0002e0 f6 c9 a6 3d 84 9e bb 3d 73 70 27 3d ff cf 68 bd
       0.0814399 0.09161094 0.040878724 -0.056838986
0002f0 de 0a 9c bd 4c b5 63 3d 48 91 9a bc b8 50 dc bd
       -0.0761926 0.05559282 -0.018868104 -0.107575834
000300 22 2f d7 3d 8e 0c 9c 3d 35 ff b2 3b d6 82 62 bd
       0.10507037 0.07619582 0.005462552 -0.055300556
000310 60 00 4a 3d f0 59 5e 3d db 10 0e 3e a7 37 32 3e
       0.049316764 0.05428499 0.13873617 0.17404042
000320 0c d5 11 be 36 27 9f bd 6e 97 5a 3e 9e f1 58 3d
       -0.14241427 -0.07771151 0.21346828 0.0529648
000330 cf 5c 0b 39 6f 4c 00 be e3 36 89 be 54 c9 54 be
       0.00013290647 -0.12529157 -0.26799688 -0.20779926
000340 b4 82 23 bd b5 f0 26 3e 8b 29 e5 3d fc 9a 95 3d
       -0.03991957 0.1630276 0.11189564 0.073049515
000350 5c e7 36 be d4 3f 21 be fa 2f ac bd 19 90 cc 3d
       -0.17861694 -0.15747005 -0.08407588 0.09988422
000360 0b 4a 5a bd de bc fc bd 1b 5c 81 bc 12 c5 f3 bd
       -0.05329327 -0.12340711 -0.01579099 -0.119028226
000370 b0 3f 01 be 70 9f 41 3e da 7a 8d bd 48 7f 61 bd
       -0.12621951 0.18908477 -0.06908198 -0.055053025
000380 d4 1f 66 be 58 11 10 3e dd 2b 9c 3d 24 8c 9e 3d
       -0.22473079 0.14069116 0.07625554 0.077415735
000390 9c a5 9b 3d 76 96 0f be 65 99 0d be 7f fd a2 3d
       0.07599947 -0.1402224 -0.13828047 0.07958507
0003a0 97 80 a9 3d 9c f5 94 3e 2d 31 87 3d 91 cb 9a bd
       0.0827648 0.29093635 0.066011764 -0.075583585
0003b0 0b 39 1e bd 80 b9 23 be 3e 19 91 be aa c0 5e be
       -0.03862862 -0.15988731 -0.2833957 -0.21753183
0003c0 18 99 c3 3d 84 41 a8 bd 3c fa 00 bd 48 5a 2b bd
       0.09550685 -0.08215621 -0.031488642 -0.041834146
0003d0 76 0f b8 3c 87 f2 9a bd 7f 24 a7 bd b7 07 8c 3d
       0.02246831 -0.0756579 -0.08161258 0.06837409
0003e0 88 68 a2 bd 83 2e 13 3e d4 5e 87 bd c6 3b 9f bd
       -0.07930094 0.14373212 -0.06609884 -0.07775073
0003f0 98 5f d1 3c 02 2f 5a be 60 3d 00 be 68 1f b9 bd
       0.025558278 -0.21306995 -0.12523413 -0.090391934

tcn.network.0.conv2.bias f4 [64]
000000 38 f3 bd 3d 7c 96 f3 3b 3a a8 7c 3d 73 6a 06 3d
       0.09274906 0.0074337106 0.06168387 0.03281636
000010 e7 7b 28 3c ee f4 f7 bc 6f 52 77 bd bd eb 96 bd
       0.010283447 -0.030268159 -0.06038135 -0.07369182
000020 fe fd ca bd 76 40 a2 3d 38 ec 06 3c 7c 33 49 3d
       -0.099117264 0.07922451 0.00823503 0.049121365
000030 00 a6 19 bd 69 6a 0f bd b9 c1 fb 3c 56 d9 7b 3c
       -0.037511826 -0.03501359 0.030732023 0.015371641
000040 f9 25 89 3d c5 5b a7 3c 42 2f b5 bd e3 bc 59 bd
       0.06696696 0.020429501 -0.08846904 -0.053158652
000050 ad 86 0b 3e a3 e0 7e bd b7 04 ff 3c 3b c7 bd bc
       0.13625593 -0.06222595 0.031130178 -0.02316629
000060 ea cb 04 bd f8 b7 08 bb 65 0c 72 bd e8 5f 97 ba
       -0.03242103 -0.0020861607 -0.05909385 -0.0011548968
000070 b9 d9 bf bb 69 f8 f9 3d f1 6a 81 3d 19 57 01 be
       -0.005854812 0.122055836 0.063192256 -0.12630881
000080 be 62 e5 bc 53 3b 0d 3e 26 98 19 bc 3f 46 db bd
       -0.028001186 0.13792162 -0.009374654 -0.10706758
000090 c5 13 36 bc e3 b5 50 3d b0 d4 30 3d 7f f8 28 3c
       -0.011113112 0.05095471 0.043171585 0.010313152
0000a0 07 df 16 3c 92 37 6e 3c 45 e7 b0 bc 52 c8 1d bd
       0.009208447 0.014539616 -0.021594653 -0.03852112
0000b0 0c c5 2e 3d cc 42 bf 3c 3a 00 bb 3c dd 17 7f 3c
       0.042668387 0.02334728 0.022827256 0.015569654
0000c0 01 b7 1e 3e 6c ae 2e 3d eb f7 9f 3c 58 02 65 bd
       0.15499498 0.04264681 0.019527396 -0.05591044
0000d0 b7 78 c0 bd 1c 69 2b 3d 24 c5 c7 bd 45 77 66 bd
       -0.093980245 0.041848287 -0.097543985 -0.056266088
0000e0 87 d7 ad bc 51 fa 55 3d 0a 78 93 bd 26 6b 1b 3e
       -0.021220936 0.052240673 -0.0720063 0.15177593
0000f0 e1 2d b3 bd f8 44 08 3e 52 b3 ad bd bd 9b 71 3c
       -0.08748985 0.1330756 -0.08481468 0.014746604

tcn.network.0.conv2.weight_g f4 [64, 1, 1]
000000 c7 85 ce 3e 1f 6a d8 3e d0 e3 37 3f c7 57 23 3f
       0.4033644 0.42268464 0.7183199 0.6380581
000010 79 6a 1c 3f ef 05 ea 3e 7c 19 08 3f 35 eb ff 3e
       0.61099964 0.45707652 0.53163886 0.49984136
000020 18 6b 12 3f 61 ee 00 3f bb 4e f9 3e 77 48 10 3f
       0.5719466 0.5036374 0.4869288 0.5636057
000030 63 f7 f8 3e e2 70 0a 3f a9 9a ea 3e 79 f2 1c 3f
       0.4862624 0.54078496 0.4582112 0.61307484
000040 13 0e 17 3f 97 dc 28 3f 4d 34 03 3f 5b 11 0d 3f
       0.5900585 0.65961593 0.5125168 0.5510461
000050 c3 0a f4 3e 72 0e 07 3f 85 f5 17 3f d2 25 0b 3f
       0.4766446 0.52756417 0.5935901 0.54354584
000060 c4 a7 10 3f 8a 04 17 3f ca dc f8 3e f4 87 31 3f
       0.5650599 0.589913 0.4860595 0.69348073
000070 c7 38 0c 3f a0 e3 4f 3f 82 ae 16 3f 88 37 c0 3e
       0.54774135 0.81206703 0.5886003 0.37542367
000080 67 71 16 3f 8f ee 00 3f e1 2e 01 3f 6d 29 fc 3e
       0.5876679 0.5036401 0.50462157 0.49250355
000090 ee b6 1a 3f 18 58 22 3f 45 84 2f 3f 9e e6 0b 3f
       0.6043538 0.6341567 0.685612 0.5464877
0000a0 1b 05 0f 3f a0 09 23 3f 3a 39 12 3f 7f 90 1f 3f
       0.55867165 0.6368656 0.5711857 0.6232986
0000b0 16 26 17 3f 33 a1 11 3f 37 33 07 3f 31 5b f5 3e
       0.5904249 0.56886595 0.5281252 0.47921136
0000c0 3b 5a 26 3f 02 37 1b 3f 2b 84 0f 3f 33 eb 0a 3f
       0.6498143 0.6063081 0.5606105 0.54265136
0000d0 26 7f 01 3f a0 bd 0d 3f 71 ec 01 3f 4c 1d 05 3f
       0.5058464 0.5536747 0.50751406 0.5199783
0000e0 2f 83 ee 3e ed 37 0f 3f f6 78 1c 3f 8a 99 49 3f
       0.4658446 0.5594471 0.6112207 0.78749907
0000f0 12 96 18 3f 35 08 00 3f 48 d5 0f 3f aa ae c0 3e
       0.5960399 0.5001252 0.56184816 0.37633258

tcn.network.0.conv2.weight_v f4 [64, 64, 3]
000000 19 ea ca 3c bc dc 43 bc 5a c3 ed bb 6e a5 1a bc
       0.02476983 -0.011954483 -0.0072559537 -0.009438856
000010 f0 5d 8d bc fd 0e 8f 3b f1 13 dd bd 1f 63 c4 bd
       -0.017256707 0.0043658004 -0.10794819 -0.09589218
000020 8e a8 b8 3b fa cd e2 bd dd 91 ff bd 60 81 cd bd
       0.0056353277 -0.11074443 -0.12478993 -0.10034442
000030 33 01 c3 bd 78 26 07 3d 3c 43 e4 bd 3d c6 b2 bd
       -0.09521713 0.03299567 -0.111456364 -0.08729217
000040 fd 2b 27 be cb 3c 11 be be b3 b1 3c 64 6c 17 bc
       -0.16325374 -0.14183347 0.021692153 -0.009242151
000050 05 a0 29 3c fd f9 c6 bd ac 9a c8 bd 30 ee 23 bd
       0.010353093 -0.0971565 -0.09795126 -0.040022075
000060 f7 38 1f bd 0b 24 14 bd 75 38 3a bd 76 37 0b 3c
       -0.038872685 -0.036167186 -0.045463998 0.00849711
000070 63 9d 08 bd 28 7b 46 39 3b 16 be bd 8f 3c 37 be
       -0.03335322 0.00018928631 -0.09281584 -0.17894195
000080 85 74 c4 3c 32 6f 87 bd 14 2f e0 bd 0e 10 0d bd
       0.023981342 -0.06613006 -0.109464794 -0.03443914
000090 8c d5 1f bc 0a 2b 86 3a a5 c3 ba 3c bf 51 f3 bd
       -0.009755503 0.0010236215 0.022798369 -0.11880826
0000a0 1c 43 a6 3c 35 fd 1d bc d1 3f b3 3a 73 59 7f bc
       0.020295672 -0.009642889 0.0013675635 -0.015585291
0000b0 45 e6 5f bb df ba b5 3c 07 fc 42 3c 16 ea 1a 3d
       -0.003416435 0.022183834 0.011900908 0.037820898
0000c0 70 dd 62 bd f3 7a c0 bc 5e 5b 27 bd 38 cc b2 bd
       -0.05538696 -0.023496127 -0.04085862 -0.08730358
0000d0 47 d8 48 bd 6f 71 c0 bd 44 74 e2 b9 b2 cb 54 3d
       -0.049034383 -0.09396636 -0.00043192704 0.05195207
0000e0 29 d0 53 3c 9d 83 8a bd 63 09 b6 bd 9d b1 4a bd
       0.012928047 -0.067633845 -0.08888509 -0.04948579
0000f0 01 5d d7 3c ca 4a 5a 3b a7 ca 1f bd cf 58 96 bc
       0.026289465 0.0033308738 -0.039011624 -0.018352894
000100 3c 7d c1 bc df 65 29 bd f9 b2 d7 bc e6 09 9c 3b
       -0.023619287 -0.041356917 -0.026330458 0.004761922
000110 46 cb e1 3c 8d 46 2a bd 26 9e f7 bc 2e 1b 02 3d
       0.027562749 -0.04157119 -0.030226778 0.0317642
000120 69 64 9d 3c 6f 32 14 3b 76 df 61 bb be aa a4 bd
       0.019212918 0.0022613069 -0.0034465468 -0.08040379
000130 df 7d b1 3c 88 f9 45 3d 1f e3 0d 3d 59 27 e7 bd
       0.021666465 0.048333675 0.034640428 -0.11286802
000140 a3 56 15 3d 65 12 64 bd 82 36 8c 3a 53 a9 a7 bd
       0.036459576 -0.055681605 0.0010697397 -0.08186593
000150 d5 34 b0 3c 0a b5 b0 bb 24 70 c0 bd ca d3 b9 bb
       0.021509567 -0.0053926753 -0.09396389 -0.005670999
000160 5a 90 fc bd 45 4b 19 3c 03 2e 88 bb 9a c3 0a b9
       -0.123322204 0.009356325 -0.0041558756 -0.00013233573
000170 68 e5 a2 3c 2f 4d ce bc d7 1a 1c bd 3d 2e 84 3c
       0.01988478 -0.025183288 -0.038111534 0.01613533
000180 a5 94 11 bd 14 d5 45 3d 13 7d 11 bd ae a2 d9 bd
       -0.03554215 0.04829891 -0.03551967 -0.10626732
000190 22 d8 fc bd f3 48 57 bd cf 84 dc bd c0 6b b2 bd
       -0.123459116 -0.052559804 -0.10767519 -0.08711958
0001a0 7e bc 66 3c 09 e4 cb bc 1b 87 ff 3c 2d ef cf bb
       0.014083026 -0.02488901 0.031192353 -0.0063456506
0001b0 89 2c 37 3d 2d ec 4b 3d 15 77 c3 bd 8b 68 ec bc
       0.044720206 0.04978578 -0.095441975 -0.028858444
0001c0 3f cc c3 3d a0 05 8d 3b a9 54 5a bd 49 50 ec bd
       0.09560441 0.004303649 -0.053303394 -0.11538751
0001d0 33 be 9c 3d 8c 95 a8 3c ab 9f 60 bc cb 5c b9 bb
       0.07653465 0.020579122 -0.013709943 -0.0056568137
0001e0 a1 4c 58 bd dc 7a 09 3e ca 04 e8 bb b0 96 02 3d
       -0.052807454 0.13425773 -0.007080649 0.031881988
0001f0 ee bd 0b 3c 79 ea 17 bc e8 21 7a 3d b3 8b 21 bc
       0.0085291695 -0.009272211 0.06106749 -0.009859967
000200 50 4c 09 bc fb 64 6f 3c de f5 5a 3d 26 dc 42 3c
       -0.008380011 0.014611478 0.053457133 0.011893308
000210 cf 7b d1 bc 19 34 a2 3d 95 c6 53 3b fd c6 62 3c
       -0.025571732 0.07920093 0.003231441 0.013841388
000220 0b 2f 8d 3c 4d 1f 70 3b e5 69 07 3d 81 4f 53 3b
       0.017234346 0.003663975 0.033059973 0.0032243433
000230 7d 79 df 3b 16 a2 e1 bc 84 83 94 3c c3 5b f4 bd
       0.0068199025 -0.027543109 0.018129118 -0.11931565
000240 cd 79 1c 3d 45 fc a2 3c 92 e9 9c 3c e8 62 85 bd
       0.038202096 0.019895682 0.019154344 -0.065130055
000250 ab f1 75 bd 60 c9 67 3d 77 20 fb bd cd 8a 78 bd
       -0.060044926 0.05658853 -0.122620516 -0.060679246
000260 fc 23 86 bd 53 9f 1c be 37 92 c8 bd d0 96 cb bd
       -0.06549832 -0.15295152 -0.09793513 -0.099408746
000270 ef 1a 43 bd 9d a2 df bd 20 5e 3d bd 39 e2 24 3d
       -0.047633108 -0.10919688 -0.046232343 0.040254805
000280 c2 c4 dd 3d c4 c8 5c 3d 72 e1 8d 3c 07 b8 0d bd
       0.10828544 0.053902403 0.017319415 -0.03459933
000290 32 83 98 3d 88 93 a2 bc 3d 0b 2a bd c4 2c e7 bd
       0.074468985 -0.019845739 -0.041514624 -0.11287835
0002a0 8c e1 a1 bc 74 39 d5 bc 56 af 76 3d 07 f6 14 3d
       -0.01976087 -0.026028372 0.060225807 0.036367442
0002b0 a2 65 43 3d 18 62 8a 3d 90 1c 3a bd d4 cd 13 bd
       0.047704346 0.06756991 -0.045437396 -0.036084965
0002c0 27 5d 14 bd b4 85 d1 bb e6 46 23 3d e9 37 84 3d
       -0.03622165 -0.0063941125 0.039862536 0.064559765
0002d0 1c ef 85 3d 4c 55 03 bd e8 ab 0e be d2 50 70 bd
       0.06539747 -0.032063767 -0.13932765 -0.058670826
0002e0 0f 17 05 3d 17 d0 5c 3d e6 23 18 3d 13 2c 9c 3c
       0.032492694 0.053909387 0.03714361 0.019063985
0002f0 02 13 bb bc 5e 6f 5c bd 58 77 67 bd 5c 9a 3b bd
       -0.022836212 -0.053817146 -0.0565103 -0.045801505
000300 42 33 11 3c 18 eb 69 3d 73 3e 9d 3b f2 46 9a bc
       0.0088623185 0.05710897 0.0047987043 -0.018832657
000310 6a 10 ea 3c 3f 6e 0b 3d 18 1e 5f bd 74 f2 34 be
       0.02857228 0.034040686 -0.05447206 -0.17670614
000320 48 aa 55 bd 4e 14 14 3e ff 09 e1 bd 83 aa cc bc
       -0.052164346 0.1446087 -0.10988235 -0.02498365
000330 14 ee 88 bd 20 b7 8d bd 20 9e 1f bd 9d 60 bb bc
       -0.06686035 -0.06919694 -0.03896916 -0.022873217
000340 e7 3a 02 3d 84 40 65 bc e1 b5 6e bd 2e 98 ba bd
       0.031794455 -0.0139924325 -0.058278922 -0.09111057
000350 56 31 58 bd e0 c0 1e bc da 81 4a 3d 32 7b 75 3d
       -0.052781425 -0.00968954 0.049440242 0.05993194
000360 40 3e cb bc eb e5 2b be aa d6 94 bd 18 60 00 be
       -0.024809957 -0.16786925 -0.072675064 -0.12536657
000370 3a 83 03 bd 01 65 ee 3c 5d 98 05 bc 66 24 36 3d
       -0.03210757 0.029100897 -0.008154002 0.044468306
000380 89 43 dd 3c f0 42 7f bd 20 4f 27 bd ce a4 61 bc
       0.027009742 -0.062319696 -0.040846944 -0.013772203
000390 d4 12 14 be 6a 7a 95 bd c0 cb 03 be 7e e6 4a 3d
       -0.14460307 -0.07298739 -0.12870693 0.04953622
0003a0 30 42 46 bd 88 79 e9 bd ba 98 40 bd 89 a8 23 3d
       -0.048402965 -0.11400133 -0.04702065 0.03995565
0003b0 89 60 10 3d 15 28 e7 bc fd fe 9f bd db 4a da bb
       0.035248313 -0.028217355 -0.07812307 -0.0066617555
0003c0 dd e4 9a 3a ab 4f 0b 3d d5 77 e6 3c e9 8f 3b 3d
       0.0011817474 0.034011524 0.028133312 0.04579154
0003d0 91 e4 ac 3d e1 f5 e1 3c 68 e6 de 3c 16 b7 e8 3c
       0.08442033 0.027583065 0.027209476 0.028407615
0003e0 9e 2b 02 bc d3 43 5c bc 1c 5f c2 bb 82 be f7 bd
       -0.007944969 -0.013443905 -0.005931748 -0.12096883
0003f0 cc a7 97 3d e1 d2 1b bc fa ed f0 bc 54 8b 2c be
       0.074050516 -0.009510727 -0.029410351 -0.16850024

tcn.network.0.net.0.bias f4 [64]
000000 16 bd f6 bd c2 2e 44 be 2a 95 87 bd 7d 99 8a be
       -0.12047784 -0.19158462 -0.06620248 -0.27070227
000010 a0 9b 90 bd 26 ea 0d be 3f 97 bf bd 43 4b 4f be
       -0.07060933 -0.13858852 -0.0935502 -0.20243554
000020 f9 e5 98 bc 68 4b 0f be 2a 90 67 be 2d 84 4d be
       -0.018664347 -0.13993609 -0.22613588 -0.20069952
000030 98 58 84 be 0d 25 fe bd a9 89 99 be 4a 2f 92 be
       -0.25848842 -0.124094106 -0.2998784 -0.28551704
000040 77 c1 85 3a f4 7e a8 be eb 91 22 bd a4 d1 20 be
       0.0010204752 -0.32909358 -0.03968994 -0.15704972
000050 52 a9 9f bd bb 11 9f be dd ea b7 bc f6 8a 38 be
       -0.07795967 -0.31068215 -0.022450859 -0.1802176
000060 f5 db 10 be b9 78 cc bd 29 5e 60 be aa 5e 7b be
       -0.14146407 -0.099839635 -0.21910919 -0.2454783
000070 1c e3 c5 bc 72 24 89 be 3f 33 b6 be 7d c5 2d be
       -0.024156146 -0.26785618 -0.35585973 -0.16969867
000080 dc eb 55 be b0 48 85 be ed e2 7d be c1 ef e7 bd
       -0.20890754 -0.2603202 -0.24793597 -0.11325026
000090 ae ec 92 be 37 b3 00 be 6f 36 3f 3c 0f 7d ca bd
       -0.28696197 -0.12568365 0.011670693 -0.09887134
0000a0 fe 90 58 be 36 77 b4 bd 0d d3 31 be f3 af 27 be
       -0.2114906 -0.088118 -0.17365666 -0.16375713
0000b0 43 30 6f be fa b1 46 be 89 34 61 be 2a 2b 9e 3d
       -0.23358254 -0.1940383 -0.21992697 0.07723077
0000c0 17 bb 4a be 99 28 2c 3c 24 b4 b9 bd b5 9b 53 bd
       -0.19797932 0.010507726 -0.09067562 -0.051662166
0000d0 90 52 84 be 32 df 36 be cb af 75 be 08 96 9d bd
       -0.2584424 -0.1785858 -0.23992841 -0.07694632
0000e0 73 13 5d be 1f 12 17 be 69 ff 10 be 2a b5 2f 3d
       -0.2158945 -0.14753006 -0.14159931 0.04289738
0000f0 f3 de 99 bd c7 78 08 bd 34 9e 95 3b db df c7 bd
       -0.07513227 -0.033318307 0.0045659784 -0.09759494

tcn.network.0.net.0.weight_g f4 [64, 1, 1]
000000 ba 73 0d 3f 85 96 09 3f f8 5b 27 3f 58 e0 07 3f
       0.5525471 0.537453 0.6537471 0.53076696
000010 3b 35 18 3f cc 4a 0a 3f 84 22 e1 3e a4 78 2c 3f
       0.59456223 0.5402038 0.43971646 0.67371583
000020 c0 64 0e 3f 52 17 1c 3f 96 bb 22 3f af 85 19 3f
       0.5562248 0.60973084 0.63567483 0.5996961
000030 0e 27 12 3f d5 ad 03 3f 79 89 17 3f 0c 0b 0e 3f
       0.5709084 0.5143712 0.5919414 0.55485606
000040 66 b0 df 3e 19 a6 21 3f b1 86 0f 3f 63 e7 0b 3f
       0.4368927 0.6314407 0.560649 0.54649943
000050 8c af 11 3f 87 0d 19 3f c9 51 fe 3e 54 72 16 3f
       0.5690849 0.59786266 0.49671772 0.587682
000060 9c f6 28 3f b9 ab 04 3f f2 2a 1d 3f 32 e2 05 3f
       0.66001296 0.5182453 0.61393654 0.5229827
000070 17 d0 15 3f b2 99 e3 3e b5 00 f9 3e b8 22 0e 3f
       0.58520645 0.44453198 0.48633352 0.55521727
000080 86 34 dc 3e 7b 9b da 3e 4e 05 ef 3e 92 90 1b 3f
       0.43008822 0.42696747 0.46683735 0.6076747
000090 cf 37 1f 3f 8a a1 30 3f a1 48 26 3f f6 c1 e7 3e
       0.6219453 0.6899649 0.6495457 0.45265168
0000a0 bf 31 2d 3f 6c a5 f5 3e c8 e1 17 3f 7d 20 fe 3e
       0.6765403 0.4797777 0.5932889 0.49634162
0000b0 f5 3d 08 3f ee 5d 17 3f 69 a2 14 3f c6 3f 0a 3f
       0.5321954 0.591277 0.5806032 0.5400356
0000c0 6e f0 08 3f 2c 61 03 3f 83 67 e7 3e 9c 70 0d 3f
       0.53491867 0.5132015 0.4519616 0.55249953
0000d0 6a dc a8 3e 6b 30 16 3f de ac 03 3f 11 5f 01 3f
       0.32980663 0.5866763 0.5143565 0.50535685
0000e0 e9 91 05 3f c8 98 16 3f 9e 73 11 3f 40 e3 10 3f
       0.52175766 0.58826876 0.5681704 0.56596756
0000f0 6c 50 06 3f d6 37 18 3f 52 45 18 3f 07 59 0c 3f
       0.52466464 0.594602 0.59480774 0.54823345

tcn.network.0.net.0.weight_v f4 [64, 10, 3]
000000 56 2f af 3d 17 66 be 3d 47 fe c4 bd 3c 6e 40 3e
       0.085539505 0.09296816 -0.09618812 0.18792051
000010 16 1b 2e bd 72 20 27 3d 20 10 ad bd d6 d9 19 3e
       -0.0425063 0.040802427 -0.08450341 0.15024504
000020 64 b8 4a 3e ab d7 0b be 10 f9 37 3e fd 98 d4 3d
       0.19796902 -0.1365649 0.17966104 0.10380743
000030 97 2d 2c 3e 00 b7 f2 3a 7e aa ea bc 6c eb f6 bd
       0.16814266 0.0018517673 -0.02864575 -0.12056622
000040 d8 70 a9 3d 19 53 12 be bb e8 13 be 8f 28 d6 bd
       0.08273476 -0.14289512 -0.14444248 -0.10456955
000050 76 41 a5 bd 9d 51 12 bd af 86 d6 bd 23 8e a5 3c
       -0.08069126 -0.035722364 -0.104749076 0.020209378
000060 a1 dc 64 be 5f 16 47 be 70 e8 3c bd 3e 7c cf bc
       -0.22349788 -0.19442128 -0.046120107 -0.025327798
000070 17 25 42 3c 64 d9 8b be 8b e1 18 3e 56 bb 3a be
       0.011849663 -0.27314293 0.14929788 -0.18235525
000080 00 81 eb 3d f5 45 96 3c 27 65 95 bd d8 b5 e7 3d
       0.11499214 0.018343905 -0.07294684 0.11313981
000090 6b e1 14 3c 5d 5a 2e 3e fb d2 07 3d c8 27 ad bc
       0.009086947 0.17026658 0.03316019 -0.021137133
0000a0 84 09 1b 3e a6 fc 42 3c b6 ff 15 3e 6d ee 08 3e
       0.15140349 0.011901056 0.14648327 0.13372202
0000b0 6f b9 13 3e bc 48 94 bd f1 af 16 3e 85 35 98 3d
       0.14426206 -0.072404355 0.14715554 0.07432083
0000c0 de 6f 48 3e 9c 3b 0e 3c 22 11 0e be 1d 44 a3 bd
       0.19573924 0.008681204 -0.13873723 -0.07971976
0000d0 51 80 9a bd 8e ff de 3d 61 e1 28 bc a3 d2 2c 3e
       -0.07544006 0.10888587 -0.010307641 0.16877227
0000e0 8f 0b 4c bc d1 0b a3 3d cd b1 30 3e 91 b0 64 be
       -0.012453928 0.07961238 0.17255326 -0.2233298
0000f0 5c 2a 50 3d 9b 36 be bd 74 b2 a7 3d 72 eb f5 bc
       0.050821647 -0.09287759 0.08188334 -0.030019496
000100 dc a4 8b 3d 07 c0 19 bd 97 31 7d 3d 36 4e 58 be
       0.06818554 -0.037536647 0.06181487 -0.21123585
000110 25 81 80 be 0a 2b 87 bd 2a 4b 56 3e e6 33 ec 3d
       -0.2509853 -0.06600006 0.2092711 0.11533336
000120 5f 4f 8f 3d 30 a4 3a be 8e ff 49 be f6 9d 87 bd
       0.06997561 -0.18226695 -0.19726393 -0.066219255
000130 96 ee 31 be c7 fa 14 3e 82 64 c8 3d 40 75 02 3e
       -0.1737617 0.14548789 0.09784795 0.1274004
000140 c2 dd 8b bd e2 20 f1 bd 6f 06 cc 3d ea df 46 bd
       -0.06829406 -0.1177385 0.099621646 -0.048553385
000150 b1 52 aa 3d b4 4d 95 bd 99 63 2b 3d ed 53 58 be
       0.083165534 -0.07290211 0.04184303 -0.21125765
000160 92 8e 94 be 20 01 a2 3d 2f 27 aa 3c 2c 5b 8f bd
       -0.29015023 0.07910371 0.020770637 -0.069998115
000170 a7 e6 a9 3d 66 d4 0f 3e ab d3 0b be 4a 81 e6 bd
       0.082959466 0.14045867 -0.13654964 -0.11255129
000180 4d 2b 55 3e e2 d9 72 bd e7 47 89 bd ed d1 49 be
       0.20817299 -0.05928982 -0.067031674 -0.19708987
000190 d3 dc c3 bd da e7 01 3e b4 43 1d bd 04 f4 0f be
       -0.09563603 0.126861 -0.038394645 -0.14057928
0001a0 80 bf 8d 3d ad 2f 7c bd df 6a d2 bd 5c 41 aa bc
       0.06921291 -0.061568905 -0.1027429 -0.020783119
0001b0 35 c9 25 be d0 25 11 be 7a 48 31 3e 5f c0 b2 3d
       -0.16190036 -0.1417458 0.17312804 0.08728098
0001c0 c0 3b 2f 3d 13 14 88 be 84 aa 08 be 41 e1 2b bc
       0.04278159 -0.26577815 -0.13346297 -0.010490716
0001d0 80 45 30 3e 8f 29 55 bd 76 b8 c5 3c ea 56 5a 3d
       0.17214012 -0.052041586 0.02413581 0.053305544
0001e0 6b cf 67 bc 23 41 d0 bd 95 af 6f bd 94 fa 37 bd
       -0.014148573 -0.10168674 -0.058517057 -0.044916704
0001f0 45 96 52 bd 47 04 39 bd a1 75 03 be 27 86 36 be
       -0.05141284 -0.045170095 -0.1283784 -0.17824613
000200 95 31 ea 3d 8f 3b 67 3b 8d 47 38 3e 7e 2a 24 3d
       0.11435238 0.0035283302 0.17996044 0.040079586
000210 01 f5 33 be 7f 8b 01 3e d1 d5 12 be 12 7a ad bc
       -0.1757393 0.1265087 -0.14339377 -0.021176372
000220 e0 b3 cf bd dd 96 17 be 6b 87 cc 3d 74 57 2c be
       -0.1014173 -0.14803644 0.099867664 -0.16830236
000230 10 bc 0a 3e b6 43 9f be a7 76 48 3e 0f 57 22 be
       0.13548303 -0.31106347 0.19576512 -0.15853523
000240 3a 9d da bc 6a a2 1e bb 55 cd 7c 3e 90 21 62 3e
       -0.0266863 -0.0024205693 0.24687703 0.22083116
000250 e2 c4 10 3e 3d 42 51 be 6d 93 b2 3d a9 53 ec bc
       0.14137605 -0.20435424 0.087195255 -0.028848486
000260 17 8b 11 3d 9b f2 ed bd a0 b3 26 3e b3 f4 2b be
       0.035533037 -0.11618539 0.16279459 -0.16792564
000270 92 7a 3d 3d 83 07 df 3b c9 a1 1b bc 97 2e d8 bd
       0.04625947 0.0068063154 -0.009499022 -0.10555761
000280 5f 00 ce 3d 22 1e 17 3d 97 28 9c 3d 0f 88 42 be
       0.100586645 0.03689397 0.076249294 -0.18997215
000290 30 03 46 bc 90 bf ab 3d d0 97 0b bd 27 c9 a9 3e
       -0.012085721 0.08386147 -0.034080327 0.3316128
0002a0 ba 1a 82 3e 41 16 7f 3c 0f 66 da bd 99 5a 12 3c
       0.25411016 0.015569271 -0.106639974 0.008932733
0002b0 73 40 f7 3d 4f 3a c2 bc eb cd 7f be 4c 5a 53 be
       0.120728396 -0.023709444 -0.24980895 -0.20639914
0002c0 b2 b4 65 be 0b f2 b6 3d 86 4a 10 3e 43 80 d7 3c
       -0.22432211 0.08932885 0.14090928 0.026306277
0002d0 f0 78 dc bc b5 54 20 3d c1 78 4e bc 29 00 df bd
       -0.026913136 0.039143283 -0.012602032 -0.108887024
0002e0 f6 c9 a6 3d 84 9e bb 3d 73 70 27 3d ff cf 68 bd
       0.0814399 0.09161094 0.040878724 -0.056838986
0002f0 de 0a 9c bd 4c b5 63 3d 48 91 9a bc b8 50 dc bd
       -0.0761926 0.05559282 -0.018868104 -0.107575834
000300 22 2f d7 3d 8e 0c 9c 3d 35 ff b2 3b d6 82 62 bd
       0.10507037 0.07619582 0.005462552 -0.055300556
000310 60 00 4a 3d f0 59 5e 3d db 10 0e 3e a7 37 32 3e
       0.049316764 0.05428499 0.13873617 0.17404042
000320 0c d5 11 be 36 27 9f bd 6e 97 5a 3e 9e f1 58 3d
       -0.14241427 -0.07771151 0.21346828 0.0529648
000330 cf 5c 0b 39 6f 4c 00 be e3 36 89 be 54 c9 54 be
       0.00013290647 -0.12529157 -0.26799688 -0.20779926
000340 b4 82 23 bd b5 f0 26 3e 8b 29 e5 3d fc 9a 95 3d
       -0.03991957 0.1630276 0.11189564 0.073049515
000350 5c e7 36 be d4 3f 21 be fa 2f ac bd 19 90 cc 3d
       -0.17861694 -0.15747005 -0.08407588 0.09988422
000360 0b 4a 5a bd de bc fc bd 1b 5c 81 bc 12 c5 f3 bd
       -0.05329327 -0.12340711 -0.01579099 -0.119028226
000370 b0 3f 01 be 70 9f 41 3e da 7a 8d bd 48 7f 61 bd
       -0.12621951 0.18908477 -0.06908198 -0.055053025
000380 d4 1f 66 be 58 11 10 3e dd 2b 9c 3d 24 8c 9e 3d
       -0.22473079 0.14069116 0.07625554 0.077415735
000390 9c a5 9b 3d 76 96 0f be 65 99 0d be 7f fd a2 3d
       0.07599947 -0.1402224 -0.13828047 0.07958507
0003a0 97 80 a9 3d 9c f5 94 3e 2d 31 87 3d 91 cb 9a bd
       0.0827648 0.29093635 0.066011764 -0.075583585
0003b0 0b 39 1e bd 80 b9 23 be 3e 19 91 be aa c0 5e be
       -0.03862862 -0.15988731 -0.2833957 -0.21753183
0003c0 18 99 c3 3d 84 41 a8 bd 3c fa 00 bd 48 5a 2b bd
       0.09550685 -0.08215621 -0.031488642 -0.041834146
0003d0 76 0f b8 3c 87 f2 9a bd 7f 24 a7 bd b7 07 8c 3d
       0.02246831 -0.0756579 -0.08161258 0.06837409
0003e0 88 68 a2 bd 83 2e 13 3e d4 5e 87 bd c6 3b 9f bd
       -0.07930094 0.14373212 -0.06609884 -0.07775073
0003f0 98 5f d1 3c 02 2f 5a be 60 3d 00 be 68 1f b9 bd
       0.025558278 -0.21306995 -0.12523413 -0.090391934

tcn.network.0.net.4.bias f4 [64]
000000 38 f3 bd 3d 7c 96 f3 3b 3a a8 7c 3d 73 6a 06 3d
       0.09274906 0.0074337106 0.06168387 0.03281636
000010 e7 7b 28 3c ee f4 f7 bc 6f 52 77 bd bd eb 96 bd
       0.010283447 -0.030268159 -0.06038135 -0.07369182
000020 fe fd ca bd 76 40 a2 3d 38 ec 06 3c 7c 33 49 3d
       -0.099117264 0.07922451 0.00823503 0.049121365
000030 00 a6 19 bd 69 6a 0f bd b9 c1 fb 3c 56 d9 7b 3c
       -0.037511826 -0.03501359 0.030732023 0.015371641
000040 f9 25 89 3d c5 5b a7 3c 42 2f b5 bd e3 bc 59 bd
       0.06696696 0.020429501 -0.08846904 -0.053158652
000050 ad 86 0b 3e a3 e0 7e bd b7 04 ff 3c 3b c7 bd bc
       0.13625593 -0.06222595 0.031130178 -0.02316629
000060 ea cb 04 bd f8 b7 08 bb 65 0c 72 bd e8 5f 97 ba
       -0.03242103 -0.0020861607 -0.05909385 -0.0011548968
000070 b9 d9 bf bb 69 f8 f9 3d f1 6a 81 3d 19 57 01 be
       -0.005854812 0.122055836 0.063192256 -0.12630881
000080 be 62 e5 bc 53 3b 0d 3e 26 98 19 bc 3f 46 db bd
       -0.028001186 0.13792162 -0.009374654 -0.10706758
000090 c5 13 36 bc e3 b5 50 3d b0 d4 30 3d 7f f8 28 3c
       -0.011113112 0.05095471 0.043171585 0.010313152
0000a0 07 df 16 3c 92 37 6e 3c 45 e7 b0 bc 52 c8 1d bd
       0.009208447 0.014539616 -0.021594653 -0.03852112
0000b0 0c c5 2e 3d cc 42 bf 3c 3a 00 bb 3c dd 17 7f 3c
       0.042668387 0.02334728 0.022827256 0.015569654
0000c0 01 b7 1e 3e 6c ae 2e 3d eb f7 9f 3c 58 02 65 bd
       0.15499498 0.04264681 0.019527396 -0.05591044
0000d0 b7 78 c0 bd 1c 69 2b 3d 24 c5 c7 bd 45 77 66 bd
       -0.093980245 0.041848287 -0.097543985 -0.056266088
0000e0 87 d7 ad bc 51 fa 55 3d 0a 78 93 bd 26 6b 1b 3e
       -0.021220936 0.052240673 -0.0720063 0.15177593
0000f0 e1 2d b3 bd f8 44 08 3e 52 b3 ad bd bd 9b 71 3c
       -0.08748985 0.1330756 -0.08481468 0.014746604

tcn.network.0.net.4.weight_g f4 [64, 1, 1]
000000 c7 85 ce 3e 1f 6a d8 3e d0 e3 37 3f c7 57 23 3f
       0.4033644 0.42268464 0.7183199 0.6380581
000010 79 6a 1c 3f ef 05 ea 3e 7c 19 08 3f 35 eb ff 3e
       0.61099964 0.45707652 0.53163886 0.49984136
000020 18 6b 12 3f 61 ee 00 3f bb 4e f9 3e 77 48 10 3f
       0.5719466 0.5036374 0.4869288 0.5636057
000030 63 f7 f8 3e e2 70 0a 3f a9 9a ea 3e 79 f2 1c 3f
       0.4862624 0.54078496 0.4582112 0.61307484
000040 13 0e 17 3f 97 dc 28 3f 4d 34 03 3f 5b 11 0d 3f
       0.5900585 0.65961593 0.5125168 0.5510461
000050 c3 0a f4 3e 72 0e 07 3f 85 f5 17 3f d2 25 0b 3f
       0.4766446 0.52756417 0.5935901 0.54354584
000060 c4 a7 10 3f 8a 04 17 3f ca dc f8 3e f4 87 31 3f
       0.5650599 0.589913 0.4860595 0.69348073
000070 c7 38 0c 3f a0 e3 4f 3f 82 ae 16 3f 88 37 c0 3e
       0.54774135 0.81206703 0.5886003 0.37542367
000080 67 71 16 3f 8f ee 00 3f e1 2e 01 3f 6d 29 fc 3e
       0.5876679 0.5036401 0.50462157 0.49250355
000090 ee b6 1a 3f 18 58 22 3f 45 84 2f 3f 9e e6 0b 3f
       0.6043538 0.6341567 0.685612 0.5464877
0000a0 1b 05 0f 3f a0 09 23 3f 3a 39 12 3f 7f 90 1f 3f
       0.55867165 0.6368656 0.5711857 0.6232986
0000b0 16 26 17 3f 33 a1 11 3f 37 33 07 3f 31 5b f5 3e
       0.5904249 0.56886595 0.5281252 0.47921136
0000c0 3b 5a 26 3f 02 37 1b 3f 2b 84 0f 3f 33 eb 0a 3f
       0.6498143 0.6063081 0.5606105 0.54265136
0000d0 26 7f 01 3f a0 bd 0d 3f 71 ec 01 3f 4c 1d 05 3f
       0.5058464 0.5536747 0.50751406 0.5199783
0000e0 2f 83 ee 3e ed 37 0f 3f f6 78 1c 3f 8a 99 49 3f
       0.4658446 0.5594471 0.6112207 0.78749907
0000f0 12 96 18 3f 35 08 00 3f 48 d5 0f 3f aa ae c0 3e
       0.5960399 0.5001252 0.56184816 0.37633258

tcn.network.0.net.4.weight_v f4 [64, 64, 3]
000000 19 ea ca 3c bc dc 43 bc 5a c3 ed bb 6e a5 1a bc
       0.02476983 -0.011954483 -0.0072559537 -0.009438856
000010 f0 5d 8d bc fd 0e 8f 3b f1 13 dd bd 1f 63 c4 bd
       -0.017256707 0.0043658004 -0.10794819 -0.09589218
000020 8e a8 b8 3b fa cd e2 bd dd 91 ff bd 60 81 cd bd
       0.0056353277 -0.11074443 -0.12478993 -0.10034442
000030 33 01 c3 bd 78 26 07 3d 3c 43 e4 bd 3d c6 b2 bd
       -0.09521713 0.03299567 -0.111456364 -0.08729217
000040 fd 2b 27 be cb 3c 11 be be b3 b1 3c 64 6c 17 bc
       -0.16325374 -0.14183347 0.021692153 -0.009242151
000050 05 a0 29 3c fd f9 c6 bd ac 9a c8 bd 30 ee 23 bd
       0.010353093 -0.0971565 -0.09795126 -0.040022075
000060 f7 38 1f bd 0b 24 14 bd 75 38 3a bd 76 37 0b 3c
       -0.038872685 -0.036167186 -0.045463998 0.00849711
000070 63 9d 08 bd 28 7b 46 39 3b 16 be bd 8f 3c 37 be
       -0.03335322 0.00018928631 -0.09281584 -0.17894195
000080 85 74 c4 3c 32 6f 87 bd 14 2f e0 bd 0e 10 0d bd
       0.023981342 -0.06613006 -0.109464794 -0.03443914
000090 8c d5 1f bc 0a 2b 86 3a a5 c3 ba 3c bf 51 f3 bd
       -0.009755503 0.0010236215 0.022798369 -0.11880826
0000a0 1c 43 a6 3c 35 fd 1d bc d1 3f b3 3a 73 59 7f bc
       0.020295672 -0.009642889 0.0013675635 -0.015585291
0000b0 45 e6 5f bb df ba b5 3c 07 fc 42 3c 16 ea 1a 3d
       -0.003416435 0.022183834 0.011900908 0.037820898
0000c0 70 dd 62 bd f3 7a c0 bc 5e 5b 27 bd 38 cc b2 bd
       -0.05538696 -0.023496127 -0.04085862 -0.08730358
0000d0 47 d8 48 bd 6f 71 c0 bd 44 74 e2 b9 b2 cb 54 3d
       -0.049034383 -0.09396636 -0.00043192704 0.05195207
0000e0 29 d0 53 3c 9d 83 8a bd 63 09 b6 bd 9d b1 4a bd
       0.012928047 -0.067633845 -0.08888509 -0.04948579
0000f0 01 5d d7 3c ca 4a 5a 3b a7 ca 1f bd cf 58 96 bc
       0.026289465 0.0033308738 -0.039011624 -0.018352894
000100 3c 7d c1 bc df 65 29 bd f9 b2 d7 bc e6 09 9c 3b
       -0.023619287 -0.041356917 -0.026330458 0.004761922
000110 46 cb e1 3c 8d 46 2a bd 26 9e f7 bc 2e 1b 02 3d
       0.027562749 -0.04157119 -0.030226778 0.0317642
000120 69 64 9d 3c 6f 32 14 3b 76 df 61 bb be aa a4 bd
       0.019212918 0.0022613069 -0.0034465468 -0.08040379
000130 df 7d b1 3c 88 f9 45 3d 1f e3 0d 3d 59 27 e7 bd
       0.021666465 0.048333675 0.034640428 -0.11286802
000140 a3 56 15 3d 65 12 64 bd 82 36 8c 3a 53 a9 a7 bd
       0.036459576 -0.055681605 0.0010697397 -0.08186593
000150 d5 34 b0 3c 0a b5 b0 bb 24 70 c0 bd ca d3 b9 bb
       0.021509567 -0.0053926753 -0.09396389 -0.005670999
000160 5a 90 fc bd 45 4b 19 3c 03 2e 88 bb 9a c3 0a b9
       -0.123322204 0.009356325 -0.0041558756 -0.00013233573
000170 68 e5 a2 3c 2f 4d ce bc d7 1a 1c bd 3d 2e 84 3c
       0.01988478 -0.025183288 -0.038111534 0.01613533
000180 a5 94 11 bd 14 d5 45 3d 13 7d 11 bd ae a2 d9 bd
       -0.03554215 0.04829891 -0.03551967 -0.10626732
000190 22 d8 fc bd f3 48 57 bd cf 84 dc bd c0 6b b2 bd
       -0.123459116 -0.052559804 -0.10767519 -0.08711958
0001a0 7e bc 66 3c 09 e4 cb bc 1b 87 ff 3c 2d ef cf bb
       0.014083026 -0.02488901 0.031192353 -0.0063456506
0001b0 89 2c 37 3d 2d ec 4b 3d 15 77 c3 bd 8b 68 ec bc
       0.044720206 0.04978578 -0.095441975 -0.028858444
0001c0 3f cc c3 3d a0 05 8d 3b a9 54 5a bd 49 50 ec bd
       0.09560441 0.004303649 -0.053303394 -0.11538751
0001d0 33 be 9c 3d 8c 95 a8 3c ab 9f 60 bc cb 5c b9 bb
       0.07653465 0.020579122 -0.013709943 -0.0056568137
0001e0 a1 4c 58 bd dc 7a 09 3e ca 04 e8 bb b0 96 02 3d
       -0.052807454 0.13425773 -0.007080649 0.031881988
0001f0 ee bd 0b 3c 79 ea 17 bc e8 21 7a 3d b3 8b 21 bc
       0.0085291695 -0.009272211 0.06106749 -0.009859967
000200 50 4c 09 bc fb 64 6f 3c de f5 5a 3d 26 dc 42 3c
       -0.008380011 0.014611478 0.053457133 0.011893308
000210 cf 7b d1 bc 19 34 a2 3d 95 c6 53 3b fd c6 62 3c
       -0.025571732 0.07920093 0.003231441 0.013841388
000220 0b 2f 8d 3c 4d 1f 70 3b e5 69 07 3d 81 4f 53 3b
       0.017234346 0.003663975 0.033059973 0.0032243433
000230 7d 79 df 3b 16 a2 e1 bc 84 83 94 3c c3 5b f4 bd
       0.0068199025 -0.027543109 0.018129118 -0.11931565
000240 cd 79 1c 3d 45 fc a2 3c 92 e9 9c 3c e8 62 85 bd
       0.038202096 0.019895682 0.019154344 -0.065130055
000250 ab f1 75 bd 60 c9 67 3d 77 20 fb bd cd 8a 78 bd
       -0.060044926 0.05658853 -0.122620516 -0.060679246
000260 fc 23 86 bd 53 9f 1c be 37 92 c8 bd d0 96 cb bd
       -0.06549832 -0.15295152 -0.09793513 -0.099408746
000270 ef 1a 43 bd 9d a2 df bd 20 5e 3d bd 39 e2 24 3d
       -0.047633108 -0.10919688 -0.046232343 0.040254805
000280 c2 c4 dd 3d c4 c8 5c 3d 72 e1 8d 3c 07 b8 0d bd
       0.10828544 0.053902403 0.017319415 -0.03459933
000290 32 83 98 3d 88 93 a2 bc 3d 0b 2a bd c4 2c e7 bd
       0.074468985 -0.019845739 -0.041514624 -0.11287835
0002a0 8c e1 a1 bc 74 39 d5 bc 56 af 76 3d 07 f6 14 3d
       -0.01976087 -0.026028372 0.060225807 0.036367442
0002b0 a2 65 43 3d 18 62 8a 3d 90 1c 3a bd d4 cd 13 bd
       0.047704346 0.06756991 -0.045437396 -0.036084965
0002c0 27 5d 14 bd b4 85 d1 bb e6 46 23 3d e9 37 84 3d
       -0.03622165 -0.0063941125 0.039862536 0.064559765
0002d0 1c ef 85 3d 4c 55 03 bd e8 ab 0e be d2 50 70 bd
       0.06539747 -0.032063767 -0.13932765 -0.058670826
0002e0 0f 17 05 3d 17 d0 5c 3d e6 23 18 3d 13 2c 9c 3c
       0.032492694 0.053909387 0.03714361 0.019063985
0002f0 02 13 bb bc 5e 6f 5c bd 58 77 67 bd 5c 9a 3b bd
       -0.022836212 -0.053817146 -0.0565103 -0.045801505
000300 42 33 11 3c 18 eb 69 3d 73 3e 9d 3b f2 46 9a bc
       0.0088623185 0.05710897 0.0047987043 -0.018832657
000310 6a 10 ea 3c 3f 6e 0b 3d 18 1e 5f bd 74 f2 34 be
       0.02857228 0.034040686 -0.05447206 -0.17670614
000320 48 aa 55 bd 4e 14 14 3e ff 09 e1 bd 83 aa cc bc
       -0.052164346 0.1446087 -0.10988235 -0.02498365
000330 14 ee 88 bd 20 b7 8d bd 20 9e 1f bd 9d 60 bb bc
       -0.06686035 -0.06919694 -0.03896916 -0.022873217
000340 e7 3a 02 3d 84 40 65 bc e1 b5 6e bd 2e 98 ba bd
       0.031794455 -0.0139924325 -0.058278922 -0.09111057
000350 56 31 58 bd e0 c0 1e bc da 81 4a 3d 32 7b 75 3d
       -0.052781425 -0.00968954 0.049440242 0.05993194
000360 40 3e cb bc eb e5 2b be aa d6 94 bd 18 60 00 be
       -0.024809957 -0.16786925 -0.072675064 -0.12536657
000370 3a 83 03 bd 01 65 ee 3c 5d 98 05 bc 66 24 36 3d
       -0.03210757 0.029100897 -0.008154002 0.044468306
000380 89 43 dd 3c f0 42 7f bd 20 4f 27 bd ce a4 61 bc
       0.027009742 -0.062319696 -0.040846944 -0.013772203
000390 d4 12 14 be 6a 7a 95 bd c0 cb 03 be 7e e6 4a 3d
       -0.14460307 -0.07298739 -0.12870693 0.04953622
0003a0 30 42 46 bd 88 79 e9 bd ba 98 40 bd 89 a8 23 3d
       -0.048402965 -0.11400133 -0.04702065 0.03995565
0003b0 89 60 10 3d 15 28 e7 bc fd fe 9f bd db 4a da bb
       0.035248313 -0.028217355 -0.07812307 -0.0066617555
0003c0 dd e4 9a 3a ab 4f 0b 3d d5 77 e6 3c e9 8f 3b 3d
       0.0011817474 0.034011524 0.028133312 0.04579154
0003d0 91 e4 ac 3d e1 f5 e1 3c 68 e6 de 3c 16 b7 e8 3c
       0.08442033 0.027583065 0.027209476 0.028407615
0003e0 9e 2b 02 bc d3 43 5c bc 1c 5f c2 bb 82 be f7 bd
       -0.007944969 -0.013443905 -0.005931748 -0.12096883
0003f0 cc a7 97 3d e1 d2 1b bc fa ed f0 bc 54 8b 2c be
       0.074050516 -0.009510727 -0.029410351 -0.16850024

tcn.network.0.downsample.weight f4 [64, 10, 1]
000000 d4 c3 83 3d c3 07 68 3d 0f 4c 42 3c 8d 74 25 3d
       0.064338356 0.056648027 0.011858954 0.040394355
000010 33 ed 17 bd f7 8f 65 3e fd 88 d6 3d 37 f8 32 3d
       -0.037091445 0.224182 0.10475347 0.043693747
000020 a7 b9 af bd 23 7c 68 3e c3 77 32 3c 4d 9a 6a 3e
       -0.08580332 0.22703604 0.010892811 0.22910424
000030 09 bb 97 3d bd 11 a1 bd 38 3c 73 3c ae 53 a0 bc
       0.07408721 -0.078647114 0.0148459 -0.019571152
000040 25 86 51 3e 67 34 91 3d 9c 1a 19 be 8c 53 d0 bc
       0.20461328 0.07090073 -0.14951557 -0.025430463
000050 2b 70 bc bc d8 f8 7c bc bf 4c c9 bd 16 6f 1d bc
       -0.023002705 -0.015440188 -0.09829091 -0.0096090045
000060 f8 b4 02 bd 58 86 d6 3d 0b f4 c9 3d fd 37 54 3d
       -0.031910866 0.10474843 0.098610006 0.051811207
000070 80 08 25 bd 7c 46 a2 bd d4 29 e5 3c 3a 71 74 3d
       -0.04029131 -0.079236 0.027974047 0.059678294
000080 03 7f 5a 3d e0 cb db bd 61 97 81 bd 7b f9 40 bd
       0.053343784 -0.107322454 -0.06327701 -0.047112923
000090 76 29 40 3d 25 d7 22 3d 92 47 d1 bd 03 a7 98 3d
       0.04691454 0.03975596 -0.10218729 0.0745373
0000a0 4f 9e 02 bd c3 cf 36 bd b3 7b 30 bd 9c 91 6b 3d
       -0.031889256 -0.04463173 -0.04308672 0.05751191
0000b0 71 4d 2c bd 8f 5e 29 bd 5b 21 88 3d fc 66 32 bc
       -0.04206604 -0.041349944 0.06646987 -0.010888811
0000c0 70 55 0c 3e 06 47 d0 3b c6 55 ab bd 3d 42 b0 bd
       0.13704467 0.006356123 -0.08365969 -0.08606384
0000d0 9c 43 10 bd 89 51 af 3c 77 30 97 bd e8 97 20 bd
       -0.035220727 0.021401184 -0.07382291 -0.03920737
0000e0 45 4a 1f bd d3 2d 17 bc 3b c5 a9 3c 72 54 70 3d
       -0.03888919 -0.009227234 0.02072393 0.058674283
0000f0 16 86 9f bd 3b 13 a6 bd 47 9c 26 bd 4d 7f 74 3c
       -0.07789247 -0.08109137 -0.04067638 0.014922929
000100 8a be 58 bd 39 21 43 bd 19 d0 60 bd 10 55 bb 3b
       -0.052916087 -0.047639105 -0.054885957 0.0057169273
000110 98 66 40 3c d4 42 8b 3d 18 dd 3d 3d d1 a5 c2 3c
       0.01174321 0.06799856 0.04635343 0.023760708
000120 ff 79 44 bd 7f a4 28 3d 6b a9 17 3d e6 6a b1 bd
       -0.047967907 0.0411725 0.037026804 -0.086629674
000130 5c 0b ea 3d 98 b7 d8 bb 2d 07 ba bd 4d da b2 3c
       0.11427948 -0.006613683 -0.090834 0.02183261
000140 c4 f0 ca 3d fa c5 67 bd f5 1e 6a be 66 a6 08 be
       0.09909204 -0.05658529 -0.22863372 -0.13344726
000150 e7 58 2a bd 3b 0a 3c 3e 7e 18 8a 3d 2e 15 f3 bc
       -0.04158869 0.18363278 0.06742953 -0.029673185
000160 08 c0 18 3d fd 8f 28 be 78 03 3c 3d 79 65 b8 3d
       0.03729251 -0.16461177 0.045901746 0.090037294
000170 2c 1e c4 3d a5 17 d5 3c 9d fd e4 bc e2 04 7d 3c
       0.09576067 0.026012251 -0.027952963 0.015443059
000180 07 94 4a 3d 6e e8 66 3d f0 ed 94 bd 81 af 9f bc
       0.049457576 0.056374006 -0.072719455 -0.019492866
000190 61 c7 be bc be bf cb bc d0 0a 98 bd 07 48 00 bd
       -0.02328843 -0.024871703 -0.07423937 -0.03131869
0001a0 63 18 1e 3c e5 4d 99 3d 9c 82 1a 3c 2f f9 02 bd
       0.009649369 0.0748556 0.009430554 -0.03197592
0001b0 18 0e 28 bc 01 df ce bd 5e 17 70 3d fe f1 dd 3d
       -0.010257266 -0.10101128 0.058616035 0.10837172
0001c0 3f 0c 00 3e 66 97 47 bb 39 d2 cc bc 76 b9 05 3c
       0.12504672 -0.003045523 -0.025002586 0.008161893
0001d0 fd b0 42 3d a1 31 ca 3c 6b b0 98 bd 91 2d 3b 3d
       0.04753207 0.024681868 -0.07455524 0.045697752
0001e0 ad 36 90 3d 16 2c 1b 3e e6 c9 17 3e a3 26 d5 bc
       0.070416786 0.15153536 0.14823112 -0.0260194
0001f0 d3 34 4f 3d b6 3a 36 3d b8 5c 1e 3d f6 96 0c bd
       0.050587486 0.044489585 0.038662642 -0.034323655
000200 13 c5 46 be d9 b7 e1 bc e2 1b 95 bd f3 3f d8 bd
       -0.19411115 -0.027553486 -0.07280709 -0.10559072
000210 45 e9 a6 bd 65 76 7b 3d ce 63 1e 3d 36 50 52 bc
       -0.081499614 0.061392207 0.0386694 -0.012836507
000220 7f 1e d3 bd fd f2 1b bd ee 58 a3 3d 2b f4 1a 3c
       -0.10308551 -0.03807353 0.07975946 0.009457628
000230 7e b0 0b 3c 3f 81 01 3e 28 60 4d 3d ff f7 62 bd
       0.008525966 0.1264696 0.05014053 -0.05541229
000240 c8 3a a7 3d 25 d4 75 3b 23 a0 de 3d 46 52 02 3e
       0.081655085 0.0037510481 0.108703874 0.12726697
000250 f4 e8 35 3d 18 3c 06 be ce 75 56 3d 01 ec bb 3c
       0.044411615 -0.13108861 0.05235844 0.022939684
000260 8a 13 82 bd 8e 6e 95 bd c3 dd 52 3d d2 a9 c2 bc
       -0.06351383 -0.07296477 0.05148102 -0.023762617
000270 b8 9e 1b 3e fb ec 20 3d 9e 4f 19 be 0b 40 b3 3c
       0.15197265 0.039288502 -0.14971778 0.021881124
000280 63 d1 92 bd c0 00 b8 bd 10 4e 0b be 04 46 b2 3d
       -0.071688436 -0.08984518 -0.13603997 0.08704761
000290 9c 9b 2a 3c 4e b0 95 3d b3 82 58 bd c2 67 9c bc
       0.010413077 0.07309018 -0.05285902 -0.019092444
0002a0 c9 82 17 3c 9b d9 2b bc 1e 1f c3 3d ed 16 c5 3d
       0.00924749 -0.010488893 0.095274195 0.09623513
0002b0 2b dd bc 3d 31 c3 81 3c ba 7c 6c 3b e4 ee a5 3c
       0.09221872 0.015840145 0.0036085085 0.020255513
0002c0 16 cc 59 3d 7a 53 d6 bc 33 1e 01 bd d1 13 bb bc
       0.053173147 -0.026162852 -0.03152294 -0.022836598
0002d0 c1 35 6c 3d bf 12 fb 3d 00 21 ce 3d da 95 76 3d
       0.05766845 0.12259435 0.10064888 0.060201503
0002e0 8c 9c de bc 66 ba 07 3d c9 cc 70 3d 46 48 2c bc
       -0.027174257 0.033136748 0.05878905 -0.010515278
0002f0 c0 84 c7 bd e3 47 4c 3a d7 03 0d 3d bd 49 89 3d
       -0.09742117 0.00077926944 0.03442749 0.067035176
000300 64 d2 1f 3d cb 5a ae bc 8e 16 9e bc 4e a9 45 bb
       0.039019004 -0.021283528 -0.019297864 -0.0030160728
000310 f4 13 3b 3d f7 10 06 bb 63 27 79 bd e0 59 05 bc
       0.045673326 -0.002045689 -0.060828578 -0.008139104
000320 7a b4 99 3d 50 94 06 3e dd 53 23 3e 2d 56 07 bc
       0.07505126 0.13142514 0.1594996 -0.008260292
000330 b6 21 9d 3d da 4a 07 3d cd 17 84 3d c9 30 84 3c
       0.076724455 0.03303037 0.06449852 0.016136544
000340 2b f7 1d be 31 a6 7f 3c 2d 78 7d 3d 55 a0 60 3d
       -0.15426318 0.015603588 0.061882187 0.054840405
000350 16 64 5d 3d 0a bb 27 3d b2 ce bc 3b b8 59 08 3d
       0.054050528 0.04094986 0.0057619447 0.033288687
000360 34 41 ab 3d 65 27 e5 ba 00 a2 8e bd 91 d7 2c bd
       0.08362046 -0.0017483054 -0.06964493 -0.042197768
000370 1c 31 18 3c 4e 16 08 3e 61 a1 03 bd cf f8 ec 3c
       0.009289052 0.13289759 -0.032136325 0.028927235
000380 e8 e5 ec bc 81 78 0d be 09 4b 11 3e 49 18 82 3d
       -0.028918222 -0.138155 0.1418878 0.06352288
000390 20 0c c6 bd f8 51 b6 bd 08 38 61 3d 35 43 00 3d
       -0.096702814 -0.08902353 0.054985076 0.031314094
0003a0 c2 e5 b9 3d 86 00 99 ba 51 10 2e bd e4 30 04 3d
       0.09077026 -0.001167313 -0.04249603 0.03227319
0003b0 72 d9 ad 3c 81 74 ab 3d f8 9f 2c ba b3 a1 02 3d
       0.02122185 0.08371831 -0.00065851165 0.03189249
0003c0 bc b3 dc bc 0b 52 ed bd 2f a8 e3 bd 0e de fb 3c
       -0.026941173 -0.11587914 -0.11116063 0.030745532
0003d0 29 63 8b 3d 61 9f 49 3d 01 2f bb 3c 72 2e a1 bb
       0.06806023 0.04922426 0.022849562 -0.004918867
0003e0 ba 8a 02 3e 0e 7c 8b bd bd 9c f7 bc 7a 9b 65 bd
       0.12748232 -0.06810771 -0.030226106 -0.056056477
0003f0 a1 94 cc bd 21 b5 c7 3c 0c ad bb bc 52 41 c2 3c
       -0.09989286 0.024378361 -0.022909664 0.023712788
