checkpoints/tcn/sh-EMD-h64-k3-lr0.001-d0.3-ep200.pth (torch, 66035 bytes, 15 tensors)

tcn.network.0.conv1.bias f4 [64]
-0.1269607 -0.19968653 -0.007423465 -0.15064807 -0.002038532 -0.113159485 -0.03889348 -0.21115825
0.101158746 -0.04132119 -0.22777615 -0.12379898 -0.23413566 -0.0752585 -0.2797138 -0.20832455
0.110020064 -0.29532194 -0.0150012495 -0.14115267 0.032007027 -0.20513733 0.020179437 -0.10970564
-0.08959385 0.031169936 -0.21864249 -0.19847518 0.03907478 -0.20571977 -0.3070355 -0.15003283
-0.13978656 -0.14319748 -0.21888007 -0.047408585 -0.27372247 -0.100874275 0.058144495 -0.06368909
-0.11809422 -0.028448896 -0.13558409 -0.12864369 -0.18973115 -0.14067958 -0.21480139 0.148882
-0.14282879 0.05048364 0.010600853 -0.060363766 -0.18997714 -0.22376575 -0.16820246 -0.020599868
-0.2018685 -0.0876404 -0.057529487 0.05990264 -0.0438125 -0.014096915 0.031596594 -0.03240647
00000000: fc01 02be a07a 4cbe 8a40 f3bb 7d43 1abe
00000010: e498 05bb 29c0 e7bd c54e 1fbd de39 58be
00000020: 512c cf3d 6840 29bd 273e 69be 528a fdbd
00000030: 42c1 6fbe 2121 9abd a636 8fbe 0853 55be
00000040: 3352 e13d 7034 97be cdc7 75bc 538a 10be
00000050: cd19 033d 850f 52be 594f a53c 5aad e0bd
00000060: fb7c b7bd 1858 ff3c d1e3 5fbe 143d 4bbe
00000070: e00c 203d 34a8 52be c233 9dbe 35a2 19be
00000080: 3524 0fbe 5ca2 12be 1922 60be 812f 42bd
00000090: 5a25 8cbe 2c97 cebd ec28 6e3d 6d6f 82bd
000000a0: 62db f1bd a90d e9bc 8ed6 0abe 2cbb 03be
000000b0: e248 42be 4f0e 10be e5f4 5bbe 8674 183e
000000c0: b641 12be efc7 4e3d 33af 2d3c ff3f 77bd
000000d0: 5e89 42be d922 65be 443d 2cbe 0ec1 a8bc
000000e0: 9eb6 4ebe cf7c b3bd 0aa4 6bbd 785c 753d
000000f0: bc74 33bd bff6 66bc 6e6b 013d a6bc 04bd

tcn.network.0.conv1.weight_g f4 [64, 1, 1]
0.55019176 0.51729643 0.6928391 0.52958477 0.5536931 0.5531406 0.41755563 0.59692824
0.51551354 0.59539723 0.56991124 0.59816575 0.5504375 0.4880196 0.5513196 0.5181843
0.4564541 0.57874864 0.5398686 0.49410725 0.5640326 0.55565697 0.47783744 0.5949446
0.61652166 0.522058 0.58394504 0.46435153 0.5454724 0.44897327 0.4718695 0.54896474
0.47729942 0.47103083 0.46362 0.5920311 0.5763811 0.60762894 0.6246155 0.4751487
0.5218321 0.46942315 0.58346766 0.5174102 0.5333688 0.57708555 0.53926396 0.5076229
0.5344804 0.5692655 0.43454212 0.53108 0.33615968 0.53629774 0.49608567 0.46330962
0.5129314 0.5521689 0.57820475 0.5292795 0.46789226 0.54219574 0.5887059 0.59091663
00000000: 5ed9 0c3f 8a6d 043f e75d 313f de92 073f
00000010: d5be 0d3f 9f9a 0d3f dac9 d53e 4ad0 183f
00000020: b2f8 033f f46b 183f b4e5 113f 6421 193f
00000030: 79e9 0c3f b4dd f93e 4823 0d3f baa7 043f
00000040: 5ab4 e93e df28 143f d434 0a3f a0fb fc3e
00000050: 7164 103f 893f 0e3f 1ca7 f43e 4a4e 183f
00000060: 5dd4 1d3f 98a5 053f 6c7d 153f 7cbf ed3e
00000070: 14a4 0b3f d3df e53e e198 f13e f488 0c3f
00000080: 9760 f43e f42a f13e 9a5f ed3e 5a8f 173f
00000090: b68d 133f 928d 1b3f cde6 1f3f b146 f33e
000000a0: ca96 053f 3b58 f03e 235e 153f ff74 043f
000000b0: dc8a 083f e1bb 133f 340d 0a3f 93f3 013f
000000c0: b5d3 083f 62bb 113f 4e7c de3e dcf4 073f
000000d0: 1f1d ac3e cf4a 093f f1fe fd3e eb36 ed3e
000000e0: 794f 033f f15a 0d3f 3a05 143f dc7e 073f
000000f0: 938f ef3e 57cd 0a3f 6eb5 163f 5046 173f

tcn.network.0.conv1.weight_v f4 [64, 10, 3]
0.104573205 0.112066485 -0.07832256 0.1824235 -0.037978336 0.044980414 -0.06383008 0.17447026
0.215529 -0.08564148 0.1987231 0.062402915 0.18885194 0.053291418 0.08967798 -0.08162818
0.07970109 -0.08064871 -0.09912588 -0.015004489 -0.07464211 -0.062140364 -0.12511316 0.09522378
-0.16167179 -0.12948528 -0.04460242 -0.026543403 0.021218251 -0.19427674 0.14579327 -0.18735349
0.111071974 0.027423985 -0.06643958 0.1207244 -0.0016224093 0.14228128 -0.0047290074 -0.013264441
0.10101152 -0.044035196 0.07067224 0.11600443 0.10777338 -0.07316585 0.14040127 0.054237403
0.17334798 -0.06631793 -0.16274679 -0.029346293 -0.103677236 0.18705799 -0.038474344 0.06460774
0.015444937 0.021255568 0.16467033 -0.20726076 0.038609754 -0.09614525 0.07534591 -0.04137518
0.059876755 -0.039675523 0.04924754 -0.20974433 -0.23265819 -0.04479263 0.20046428 0.115004264
0.07671095 -0.18420084 -0.18214808 -0.095043965 -0.11645723 0.11243979 0.12020783 0.14289393
-0.08761404 -0.112234145 0.09473426 -0.046546016 0.105718836 -0.06990319 0.049231194 -0.18356866
-0.1848206 0.065383025 0.019226342 -0.06910673 0.08506887 0.13149431 -0.13937475 -0.109132044
0.16086271 -0.08871367 -0.09158111 -0.21463093 -0.085406095 0.08080836 -0.033459704 -0.13592343
0.0020942905 -0.09566626 -0.1328706 -0.072395936 -0.1549443 -0.10212348 0.16934583 0.041959736
0.10642339 -0.22617337 -0.15788041 -0.027701866 0.07500353 -0.08413589 0.007229756 -0.07010022
-0.020607108 -0.09234102 -0.038057704 -0.05145622 -0.052271966 -0.045188986 -0.12601115 -0.19664072
0.1437507 -0.026727373 0.18334527 0.07150565 -0.19222695 0.10835327 -0.043927703 -0.01391868
-0.09328814 -0.12540159 0.07045671 -0.11509273 0.13459314 -0.25567433 0.16842556 -0.15898596
-0.0026993845 0.040427428 0.22273093 0.16704279 0.17077059 -0.20497538 0.08687445 -0.03576903
0.02047192 -0.12698169 0.16090307 -0.15510572 0.028899277 -0.022314861 -0.029779673 -0.11947953
0.11591304 0.04080226 0.049894974 -0.17464474 0.032511383 0.04607887 -0.044534177 0.24029148
0.20130283 0.009149264 -0.06681503 0.09600187 0.16563345 -0.0058015706 -0.21302849 -0.18637119
-0.28764006 0.038083043 0.12954669 -0.08249413 -0.03757748 0.025124475 -0.029712904 -0.09909418
0.07986135 0.088952586 0.044572536 -0.05563904 -0.0696205 0.013749641 -0.03452113 -0.07317502
0.10684669 0.13421494 -0.045059893 0.010341698 0.046267435 0.024383415 0.03994478 0.09785869
-0.18706508 -0.08284477 0.1854267 0.0663218 -0.0061734025 -0.17619193 -0.25549555 -0.15035968
-0.038106844 0.11572761 0.116833694 0.07903448 -0.17689428 -0.150977 -0.07434518 0.12576708
-0.010722115 -0.08534713 0.036239207 -0.08909983 -0.12998591 0.1970655 -0.12496339 -0.06938746
-0.19551785 0.17256373 0.13377038 0.14013825 0.08720645 -0.08714121 -0.037990365 0.08162144
0.01892658 0.16896744 0.049077667 -0.08193484 -0.07588858 -0.1364449 -0.2271373 -0.114331245
0.10324695 -0.07139288 -0.02187835 -0.03355964 0.030432213 -0.07145025 -0.12137957 0.06478601
-0.07522931 0.16155842 -0.072773345 -0.14986657 0.004060277 -0.14149702 -0.06624628 -0.19757515
00000000: 7a2a d63d 1d83 e53d 9467 a0bd 3acd 3a3e
00000010: 2c8f 1bbd 623d 383d 58b9 82bd 55a8 323e
00000020: a2b3 5c3e cd64 afbd 117e 4b3e 339a 7f3d
00000030: 6762 413e 1a48 5a3d 17a9 b73d ad2c a7bd
00000040: 533a a33d 272b a5bd 8202 cbbd 63d5 75bc
00000050: f6dd 98bd e586 7ebd aa1d 00be af04 c33d
00000060: 4a8d 25be ca97 04be 07b1 36bd 8d71 d9bc
00000070: e6d1 ad3c 7bf0 46be d54a 153e 98d9 3fbe
00000080: b479 e33d 44a8 e03c 7911 88bd 5b3e f73d
00000090: 06a7 d4ba 2fb2 113e caf5 9abb 1953 59bc
000000a0: 21df ce3d 405e 34bd 9bbc 903d bb93 ed3d
000000b0: 4ab8 dc3d fad7 95bd 5ac5 0f3e 0a28 5e3d
000000c0: 2282 313e b2d1 87bd 18a7 26be a367 f0bc
000000d0: bb54 d4bd 218c 3f3e 4697 1dbd 1051 843d
000000e0: c30c 7d3c 2820 ae3c 579f 283e 2a3c 54be
000000f0: 4325 1e3d cde7 c4bd f54e 9a3d 0579 29bd
00000100: 5441 753d cd82 22bd cab7 493d 38c7 56be
00000110: f33d 6ebe 7a78 37bd 8246 4d3e 5b87 eb3d
00000120: a11a 9d3d 259f 3cbe 0785 3abe 69a6 c2bd
00000130: 2181 eebd d546 e63d 862f f63d c952 123e
00000140: fd6e b3bd 04db e5bd 0904 c23d 09a7 3ebd
00000150: 1e83 d83d 6729 8fbd a6a6 493d 6cf9 3bbe
00000160: 9d41 3dbe 89e7 853d 9080 9d3c d487 8dbd
00000170: 9638 ae3d 72a6 063e 41b8 0ebe 9f80 dfbd
00000180: 32b9 243e 83af b5bd e18e bbbd 36c8 5bbe
00000190: 64e9 aebd da7e a53d 0b0d 09bd 832f 0bbe
000001a0: 5d40 093b acec c3bd 3b0f 08be 5244 94bd
000001b0: b8a9 1ebe 1d26 d1bd fe68 2d3e f9dd 2b3d
000001c0: 82f4 d93d fe99 67be 67ab 21be 06ef e2bc
000001d0: 739b 993d 704f acbd 97e7 ec3b b490 8fbd
000001e0: 3dd0 a8bc 4a1d bdbd 65e2 1bbd c2c3 52bd
000001f0: 211b 56bd 1618 39bd 1109 01be 2f5c 49be
00000200: 6233 133e 5df3 dabc ddbe 3b3e 8e71 923d
00000210: 24d7 44be 52e8 dd3d 89ed 33bd 2d0b 64bc
00000220: da0d bfbd 4669 00be 9c4b 903d bdb5 ebbd
00000230: c9d2 093e bfe7 82be c077 2c3e 37cd 22be
00000240: 28e8 30bb 3b97 253d 9413 643e 440d 2b3e
00000250: 7cde 2e3e 11e5 51be 3beb b13d 8c82 12bd
00000260: bab4 a73c 7d07 02be c6c3 243e 09d4 1ebe
00000270: 2dbe ec3c a8cd b6bc 80f4 f3bc afb1 f4bd
00000280: d163 ed3d 4520 273d ac5e 4c3d 12d6 32be
00000290: a82a 053d 32bd 3c3d 7869 36bd f80e 763e
000002a0: 5422 4e3e cbe6 153c 52d6 88bd a19c c43d
000002b0: d19b 293e 1a1b bebb 2424 5abe 17d8 3ebe
000002c0: 8f45 93be f7fc 1b3d e3a7 043e aff2 a8bd
000002d0: d8ea 19bd d8d1 cd3c 7a68 f3bc e4f1 cabd
000002e0: 598e a33d c62c b63d b191 363d c3e5 63bd
000002f0: 3195 8ebd 2d46 613c 0766 0dbd c9dc 95bd
00000300: 70d2 da3d a46f 093e b990 38bd 3a70 293c
00000310: ec82 3d3d babf c73c 239d 233d 236a c83d
00000320: fd8d 3fbe 85aa a9bd 7fe0 3d3e b9d3 873d
00000330: 414a cabb a86b 34be 50d0 82be e3f7 19be
00000340: ec15 1cbd 9902 ed3d 8146 ef3d d4dc a13d
00000350: c623 35be b799 1abe 4942 98bd 16c9 003e
00000360: cfab 2fbc 7aca aebd 906f 143d f979 b6bd
00000370: 071b 05be 8acb 493e ceec ffbd 031b 8ebd
00000380: d535 48be 8cb4 303e 1afb 083e 6780 0f3e
00000390: 4c99 b23d 1777 b2bd c99b 1bbd 2429 a73d
000003a0: ea0b 9b3c cd05 2d3e aa05 493d 74cd a7bd
000003b0: 796b 9bbd 36b8 0bbe ae96 68be 8026 eabd
000003c0: 2373 d33d 6e36 92bd 3a3a b3bc d575 09bd
000003d0: fa4c f93c 8254 92bd da95 f8bd 87ae 843d
000003e0: d311 9abd 926f 253e 310a 95bd 9f76 19be
000003f0: 120c 853b 98e4 10be 21ac 87bd 2451 4abe

tcn.network.0.conv2.bias f4 [64]
0.045790516 -0.011761676 -0.038388673 0.028740315 -0.052410953 -0.04429846 -0.0575022 -0.0848629
-0.09610177 0.01762616 0.028416596 -0.0043044034 -0.05980155 -0.036147807 0.008663422 0.004468086
0.054635808 -0.0008915421 -0.058213945 -0.061698716 0.039223548 -0.0880443 -0.017452113 -0.0419582
-0.041689314 0.007826056 -0.07575826 -0.042290844 -0.053214602 0.13168621 0.027460579 -0.10434532
-0.07015858 0.05775229 0.008782689 -0.09637474 -0.047826663 0.013450863 0.03396076 -0.027498493
-0.014746539 0.04583432 -0.02161256 -0.046274345 -0.052990798 -0.03039089 0.014964755 0.020956982
0.10179325 0.024407431 -0.006635123 -0.050664052 -0.13172261 0.04373064 -0.105882294 -0.095881626
-0.061608363 -0.014870635 -0.054689214 0.10230795 -0.1027527 0.09984492 -0.06362441 -0.035161395
00000000: d68e 3b3d 0bb4 40bc 713d 1dbd cf70 eb3c
00000010: deac 56bd 4d72 35bd 6d87 6bbd 9acc adbd
00000020: 01d1 c4bd bd64 903c ecc9 e83c f40b 8dbb
00000030: 78f2 74bd b90f 14bd 07f1 0d3c 0669 923b
00000040: ccc9 5f3d 61b6 69ba bf71 6ebd cbb7 7cbd
00000050: dfa8 203d 9250 b4bd bcf7 8ebc 5ddc 2bbd
00000060: 6ac2 2abd dc38 003c 2627 9bbd 2a39 2dbd
00000070: 8ef7 59bd c0d8 063e 02f5 e03c 00b3 d5bd
00000080: 4daf 8fbd aa8d 6c3d 45e5 0f3c 1f60 c5bd
00000090: e4e5 43bd 0261 5c3c 701a 0b3d 8544 e1bc
000000a0: 789b 71bc c5bc 3b3d d30c b1bc 2b8a 3dbd
000000b0: e10c 59bd 51f6 f8bc bb2e 753c faad ab3c
000000c0: fb78 d03d 18f2 c73c 726b d9bb 1c85 4fbd
000000d0: 4be2 06be e61e 333d d1d8 d8bd 965d c4bd
000000e0: 0d59 7cbd f7a3 73bc cc01 60bd d586 d13d
000000f0: 0270 d2bd 7e7b cc3d 844d 82bd 6505 10bd

tcn.network.0.conv2.weight_g f4 [64, 1, 1]
0.4800051 0.43461734 0.57450914 0.5412862 0.5523776 0.49894184 0.5433842 0.5046802
0.5213553 0.53365445 0.4704184 0.5538916 0.5507345 0.52339196 0.51933736 0.5693679
0.53678674 0.43611926 0.5207195 0.5412214 0.46431756 0.5401443 0.54577035 0.55026674
0.540075 0.56140494 0.5434992 0.51569164 0.526045 0.6220506 0.53733724 0.4355074
0.5422682 0.5003746 0.5117185 0.5181341 0.5307886 0.5743068 0.5682955 0.58067065
0.53357077 0.5389267 0.44953072 0.5342531 0.5776645 0.4815887 0.55608475 0.5035969
0.558325 0.60880107 0.5363513 0.5654716 0.50884086 0.55305636 0.5345366 0.5205529
0.5474197 0.51612717 0.4366137 0.5335939 0.5541436 0.54349965 0.5642439 0.45837533
00000000: 3ac3 f53e 2a86 de3e 0813 133f bb91 0a3f
00000010: 9e68 0d3f 4e75 ff3e 3a1b 0b3f b932 013f
00000020: 8a77 053f 949d 083f aeda f03e d7cb 0d3f
00000030: f0fc 0c3f 04fd 053f 4bf3 043f 18c2 113f
00000040: db6a 093f 064b df3e e04d 053f 7c8d 0a3f
00000050: 08bb ed3e e646 0a3f 9bb7 0b3f 48de 0c3f
00000060: 5b42 0a3f 3cb8 0f3f c322 0b3f 5e04 043f
00000070: e3aa 063f b53e 1f3f ef8e 093f d3fa de3e
00000080: 17d2 0a3f 8d18 003f fcff 023f 70a4 043f
00000090: c3e1 073f c505 133f d07b 113f d5a6 143f
000000a0: 1898 083f 1af7 093f e428 e63e d0c4 083f
000000b0: d2e1 133f cb92 f63e 925b 0e3f baeb 003f
000000c0: 63ee 0e3f 63da 1b3f 524e 093f bfc2 103f
000000d0: 6543 023f 1a95 0d3f 64d7 083f f442 053f
000000e0: b323 0c3f e920 043f d58b df3e 9c99 083f
000000f0: 5bdc 0d3f cb22 0b3f 4a72 103f 2cb0 ea3e

tcn.network.0.conv2.weight_v f4 [64, 64, 3]
0.05067531 -0.010624521 -0.034919653 -0.014315176 0.008868246 0.01146846 -0.07180718 -0.08425115
-0.05044993 -0.08591353 -0.11084437 -0.07257927 -0.058832135 0.023095561 -0.06824143 -0.0409613
-0.088732235 -0.11627279 0.0017086328 -0.022317633 0.012697295 -0.08928929 -0.05652561 -0.031323563
-0.042369913 -0.054389924 -0.025950408 -0.0021672936 -0.026863094 -0.015856031 -0.07136836 -0.13247119
0.03055124 -0.060423378 -0.071064636 -0.033299822 -0.008763143 -0.02705606 0.0051385704 -0.056426186
0.0357814 0.016565796 -0.06485443 -0.07416722 0.017067034 0.0019018081 0.047257088 0.037072506
-0.07201662 -0.056644514 -0.050327133 -0.07615086 -0.050450522 -0.089404136 0.009559645 0.04305242
-0.027540894 -0.039928325 -0.07832615 -0.00941662 0.00792324 -0.023122067 -0.0069925734 -0.014886334
-0.009781719 -0.0017573854 -0.043500487 0.02453787 0.014030618 -0.04275958 -0.011618994 0.008243381
-0.0013137005 0.015617887 -0.025665915 -0.0700001 0.014902768 -0.0034938452 0.0024296665 -0.059666365
0.029303098 -0.007015336 0.03486347 -0.036956888 0.0052374774 -0.018580487 -0.07440271 0.016718835
-0.10779959 0.024621781 0.0029797207 0.014198821 0.023620475 -0.007888163 0.0007849808 0.029515734
-0.07271092 0.005869787 -0.045088734 -0.048935905 -0.021922288 0.04760691 -0.07777526 -0.09066375
0.037460994 -0.031211432 0.00881299 -0.020364165 -0.012005691 0.042385835 -0.06874513 -0.028382953
0.037888993 0.00040036402 -0.038621582 -0.10963317 0.022750277 -0.0089063635 -0.01722496 -0.029268956
-0.03796487 0.03283234 -0.014126641 0.07666644 0.0058749905 0.010772262 0.040656626 0.020746151
-0.024809653 0.018129366 0.04801373 0.0149099305 0.023136934 0.015585512 -0.003988106 0.013879732
0.022224054 0.0020131255 0.055213526 0.06623165 0.011586617 -0.037880998 0.04127388 -0.09855418
0.041699436 0.020755982 0.037261166 -0.042091582 -0.06267911 -0.0026582994 -0.08869144 -0.03567425
-0.033577703 -0.106434695 -0.045319162 -0.08039878 0.0075132805 -0.083169214 -0.01849845 0.039341055
0.028448787 0.053472202 0.024269918 -0.056844987 0.0508416 0.0006010638 -0.021756265 -0.082403496
-0.006790772 -0.008535187 0.08209634 0.05137842 0.055772886 0.05908083 -0.04348374 -0.00453661
-0.015140211 -0.012595766 0.085110575 0.05424182 0.050553527 -0.02556568 -0.10277027 -0.012887741
0.014702994 0.0400761 0.02902263 -0.009035459 -0.08249002 -0.101930395 -0.029906176 -0.07454641
-0.004955603 0.06473745 0.03411231 -0.015541169 0.033742055 0.07235122 -0.061780855 -0.16592652
-0.052307826 0.018299771 -0.08153136 -0.018985968 -0.080739886 -0.06320253 -0.07484206 -0.017278474
0.031325523 -0.029763974 -0.021285616 -0.03760937 0.027095329 -0.030332131 -0.029225385 0.03504615
-0.047802076 -0.09660285 -0.08711915 -0.012314311 -0.011920146 0.08223861 -0.04574243 0.051994093
0.021117767 -0.09338321 -0.02662383 -0.036700647 -0.11848383 -0.036031175 -0.10178584 0.050522152
-0.07825481 -0.121541 -0.017732251 0.035730764 0.043438405 -0.04342634 -0.026591025 -0.016803486
0.01567703 0.048716355 0.024171727 0.064556405 0.014584996 0.011709578 0.008678326 -0.0030171936
0.0031006604 -0.046042375 -0.013714316 -0.09483746 0.074477464 0.033770118 -0.033466227 -0.11587622
00000000: ea90 4f3d 7912 2ebc e907 0fbd 338a 6abc
00000010: 1f4c 113c 35e6 3b3c a50f 93bd de8b acbd
00000020: 96a4 4ebd 6ff3 afbd 6002 e3bd 71a4 94bd
00000030: f7f9 70bd e732 bd3c 2ac2 8bbd 09c7 27bd
00000040: 3fb9 b5bd 6e20 eebd 34f4 df3a 78d3 b6bc
00000050: 5108 503c 4edd b6bd 6687 67bd 234d 00bd
00000060: 138c 2dbd f8c7 5ebd f395 d4bc 2709 0ebb
00000070: fe0f dcbc 82e4 81bc 9329 92bd 87a6 07be
00000080: 9846 fa3c 817e 77bd 568a 91bd 6565 08bd
00000090: 4993 0fbc aca4 ddbc 7461 a83b 251f 67bd
000000a0: 848f 123d feb4 873c 66d2 84bd fce4 97bd
000000b0: 2ad0 8b3c 1746 f93a a690 413d 57d9 173d
000000c0: 737d 93bd 1404 68bd d323 4ebd fbf4 9bbd
000000d0: 35a5 4ebd 8419 b7bd 0fa0 1c3c bc57 303d
000000e0: 719d e1bc e28b 23bd 7669 a0bd 2b48 1abc
000000f0: 7ad0 013c 7d6a bdbc f521 e5bb cfe5 73bc
00000100: 8143 20bc 1258 e6ba 912d 32bd a503 c93c
00000110: ade0 653c ab24 2fbd 985d 3ebc 3f0f 073c
00000120: 7930 acba 2ae2 7f3c 5341 d2bc 365c 8fbd
00000130: bd2a 743c fff8 64bb 0a3b 1f3b b864 74bd
00000140: 0d0d f03c e7e0 e5bb ffcc 0e3d 1b60 17bd
00000150: 259f ab3b 1b36 98bc 7360 98bd f0f5 883c
00000160: 08c6 dcbd 9eb3 c93c 6b47 433b 2ca2 683c
00000170: ba7f c13c 5b3d 01bc 2bc7 4d3a fbca f13c
00000180: 76e9 94bd 5857 c03b f7ae 38bd 0471 48bd
00000190: 5f96 b3bc 77ff 423d a348 9fbd ebad b9bd
000001a0: b370 193d 1eaf ffbc 5c64 103c c0d2 a6bc
000001b0: 85b3 44bc c59c 2d3d 3fca 8cbd 5e83 e8bc
000001c0: 7d31 1b3d f3e7 d139 aa31 1ebd 5b87 e0bd
000001d0: ca5e ba3c ffeb 11bc 5c1b 8dbc 73c5 efbc
000001e0: 0d81 1bbd 347b 063d 6d73 67bc 4b03 9d3d
000001f0: fe82 c03b 247e 303c 9087 263d d5f3 a93c
00000200: 9d3d cbbc 0984 943c 0caa 443d c848 743c
00000210: ab89 bd3c 605a 7f3c a8ae 82bb d167 633c
00000220: 380f b63c a4ee 033b 9427 623d 76a4 873d
00000230: cbd5 3d3c 1b29 1bbd cd0e 293d c6d6 c9bd
00000240: 07cd 2a3d 7308 aa3c 2a9f 183d 3968 2cbd
00000250: e85d 80bd dd36 2ebb dca3 b5bd 2a1f 12bd
00000260: c688 09bd 6ffa d9bd 96a0 39bd 1ea8 a4bd
00000270: f731 f63b 9f54 aabd 108a 97bc 1624 213d
00000280: 6e0d e93c ab05 5b3d b5d1 c63c 4ad6 68bd
00000290: 483f 503d b590 1d3a 323a b2bc 2ac3 a8bd
000002a0: 2085 debb 2bd7 0bbc 2022 a83d 2e72 523d
000002b0: 1c72 643d befe 713d 021c 32bd d8a7 94bb
000002c0: a60e 78bc 795e 4ebc 744e ae3d ac2c 5e3d
000002d0: 3711 4f3d 1e6f d1bc 3879 d2bd 1b27 53bc
000002e0: d4e4 703c d626 243d dec0 ed3c 7609 14bc
000002f0: 87f0 a8bd e2c0 d0bd ccfd f4bc caab 98bd
00000300: 9c62 a2bb 1195 843d 59b9 0b3d 63a0 7ebc
00000310: 1c35 0a3d e02c 943d ec0d 7dbd a4e8 29be
00000320: bb40 56bd 67e9 953c eaf9 a6bd 7688 9bbc
00000330: f45a a5bd 5470 81bd cb46 99bd 968b 8dbc
00000340: 314f 003d 94d3 f3bc 2c5f aebc 480c 1abd
00000350: 06f7 dd3c 177b f8bc 136a efbc 8d8c 0f3d
00000360: 1ccc 43bd b7d7 c5bd 866b b2bd f7c1 49bc
00000370: b74c 43bc b76c a83d 6a5c 3bbd c2f7 543d
00000380: 2bff ac3c b23f bfbd 381a dabc 6b53 16bd
00000390: a6a7 f2bd 6d95 13bd 1875 d0bd 51f0 4e3d
000003a0: 0f44 a0bd 7dea f8bd 3a43 91bc 6c5a 123d
000003b0: 78ec 313d d1df 31bd 6cd5 d9bc 77a7 89bc
000003c0: 1d6d 803c cd8a 473d c903 c63c 2636 843d
000003d0: e8f5 6e3c 88d9 3f3c 8a2f 0e3c 1cbc 45bb
000003e0: 7334 4b3b ee96 3cbd 03b2 60bc 243a c2bd
000003f0: a487 983d 8952 0a3d e213 09bd 8350 edbd

tcn.network.0.net.0.bias f4 [64]
-0.1269607 -0.19968653 -0.007423465 -0.15064807 -0.002038532 -0.113159485 -0.03889348 -0.21115825
0.101158746 -0.04132119 -0.22777615 -0.12379898 -0.23413566 -0.0752585 -0.2797138 -0.20832455
0.110020064 -0.29532194 -0.0150012495 -0.14115267 0.032007027 -0.20513733 0.020179437 -0.10970564
-0.08959385 0.031169936 -0.21864249 -0.19847518 0.03907478 -0.20571977 -0.3070355 -0.15003283
-0.13978656 -0.14319748 -0.21888007 -0.047408585 -0.27372247 -0.100874275 0.058144495 -0.06368909
-0.11809422 -0.028448896 -0.13558409 -0.12864369 -0.18973115 -0.14067958 -0.21480139 0.148882
-0.14282879 0.05048364 0.010600853 -0.060363766 -0.18997714 -0.22376575 -0.16820246 -0.020599868
-0.2018685 -0.0876404 -0.057529487 0.05990264 -0.0438125 -0.014096915 0.031596594 -0.03240647
00000000: fc01 02be a07a 4cbe 8a40 f3bb 7d43 1abe
00000010: e498 05bb 29c0 e7bd c54e 1fbd de39 58be
00000020: 512c cf3d 6840 29bd 273e 69be 528a fdbd
00000030: 42c1 6fbe 2121 9abd a636 8fbe 0853 55be
00000040: 3352 e13d 7034 97be cdc7 75bc 538a 10be
00000050: cd19 033d 850f 52be 594f a53c 5aad e0bd
00000060: fb7c b7bd 1858 ff3c d1e3 5fbe 143d 4bbe
00000070: e00c 203d 34a8 52be c233 9dbe 35a2 19be
00000080: 3524 0fbe 5ca2 12be 1922 60be 812f 42bd
00000090: 5a25 8cbe 2c97 cebd ec28 6e3d 6d6f 82bd
000000a0: 62db f1bd a90d e9bc 8ed6 0abe 2cbb 03be
000000b0: e248 42be 4f0e 10be e5f4 5bbe 8674 183e
000000c0: b641 12be efc7 4e3d 33af 2d3c ff3f 77bd
000000d0: 5e89 42be d922 65be 443d 2cbe 0ec1 a8bc
000000e0: 9eb6 4ebe cf7c b3bd 0aa4 6bbd 785c 753d
000000f0: bc74 33bd bff6 66bc 6e6b 013d a6bc 04bd

tcn.network.0.net.0.weight_g f4 [64, 1, 1]
0.55019176 0.51729643 0.6928391 0.52958477 0.5536931 0.5531406 0.41755563 0.59692824
0.51551354 0.59539723 0.56991124 0.59816575 0.5504375 0.4880196 0.5513196 0.5181843
0.4564541 0.57874864 0.5398686 0.49410725 0.5640326 0.55565697 0.47783744 0.5949446
0.61652166 0.522058 0.58394504 0.46435153 0.5454724 0.44897327 0.4718695 0.54896474
0.47729942 0.47103083 0.46362 0.5920311 0.5763811 0.60762894 0.6246155 0.4751487
0.5218321 0.46942315 0.58346766 0.5174102 0.5333688 0.57708555 0.53926396 0.5076229
0.5344804 0.5692655 0.43454212 0.53108 0.33615968 0.53629774 0.49608567 0.46330962
0.5129314 0.5521689 0.57820475 0.5292795 0.46789226 0.54219574 0.5887059 0.59091663
00000000: 5ed9 0c3f 8a6d 043f e75d 313f de92 073f
00000010: d5be 0d3f 9f9a 0d3f dac9 d53e 4ad0 183f
00000020: b2f8 033f f46b 183f b4e5 113f 6421 193f
00000030: 79e9 0c3f b4dd f93e 4823 0d3f baa7 043f
00000040: 5ab4 e93e df28 143f d434 0a3f a0fb fc3e
00000050: 7164 103f 893f 0e3f 1ca7 f43e 4a4e 183f
00000060: 5dd4 1d3f 98a5 053f 6c7d 153f 7cbf ed3e
00000070: 14a4 0b3f d3df e53e e198 f13e f488 0c3f
00000080: 9760 f43e f42a f13e 9a5f ed3e 5a8f 173f
00000090: b68d 133f 928d 1b3f cde6 1f3f b146 f33e
000000a0: ca96 053f 3b58 f03e 235e 153f ff74 043f
000000b0: dc8a 083f e1bb 133f 340d 0a3f 93f3 013f
000000c0: b5d3 083f 62bb 113f 4e7c de3e dcf4 073f
000000d0: 1f1d ac3e cf4a 093f f1fe fd3e eb36 ed3e
000000e0: 794f 033f f15a 0d3f 3a05 143f dc7e 073f
000000f0: 938f ef3e 57cd 0a3f 6eb5 163f 5046 173f

tcn.network.0.net.0.weight_v f4 [64, 10, 3]
0.104573205 0.112066485 -0.07832256 0.1824235 -0.037978336 0.044980414 -0.06383008 0.17447026
0.215529 -0.08564148 0.1987231 0.062402915 0.18885194 0.053291418 0.08967798 -0.08162818
0.07970109 -0.08064871 -0.09912588 -0.015004489 -0.07464211 -0.062140364 -0.12511316 0.09522378
-0.16167179 -0.12948528 -0.04460242 -0.026543403 0.021218251 -0.19427674 0.14579327 -0.18735349
0.111071974 0.027423985 -0.06643958 0.1207244 -0.0016224093 0.14228128 -0.0047290074 -0.013264441
0.10101152 -0.044035196 0.07067224 0.11600443 0.10777338 -0.07316585 0.14040127 0.054237403
0.17334798 -0.06631793 -0.16274679 -0.029346293 -0.103677236 0.18705799 -0.038474344 0.06460774
0.015444937 0.021255568 0.16467033 -0.20726076 0.038609754 -0.09614525 0.07534591 -0.04137518
0.059876755 -0.039675523 0.04924754 -0.20974433 -0.23265819 -0.04479263 0.20046428 0.115004264
0.07671095 -0.18420084 -0.18214808 -0.095043965 -0.11645723 0.11243979 0.12020783 0.14289393
-0.08761404 -0.112234145 0.09473426 -0.046546016 0.105718836 -0.06990319 0.049231194 -0.18356866
-0.1848206 0.065383025 0.019226342 -0.06910673 0.08506887 0.13149431 -0.13937475 -0.109132044
0.16086271 -0.08871367 -0.09158111 -0.21463093 -0.085406095 0.08080836 -0.033459704 -0.13592343
0.0020942905 -0.09566626 -0.1328706 -0.072395936 -0.1549443 -0.10212348 0.16934583 0.041959736
0.10642339 -0.22617337 -0.15788041 -0.027701866 0.07500353 -0.08413589 0.007229756 -0.07010022
-0.020607108 -0.09234102 -0.038057704 -0.05145622 -0.052271966 -0.045188986 -0.12601115 -0.19664072
0.1437507 -0.026727373 0.18334527 0.07150565 -0.19222695 0.10835327 -0.043927703 -0.01391868
-0.09328814 -0.12540159 0.07045671 -0.11509273 0.13459314 -0.25567433 0.16842556 -0.15898596
-0.0026993845 0.040427428 0.22273093 0.16704279 0.17077059 -0.20497538 0.08687445 -0.03576903
0.02047192 -0.12698169 0.16090307 -0.15510572 0.028899277 -0.022314861 -0.029779673 -0.11947953
0.11591304 0.04080226 0.049894974 -0.17464474 0.032511383 0.04607887 -0.044534177 0.24029148
0.20130283 0.009149264 -0.06681503 0.09600187 0.16563345 -0.0058015706 -0.21302849 -0.18637119
-0.28764006 0.038083043 0.12954669 -0.08249413 -0.03757748 0.025124475 -0.029712904 -0.09909418
0.07986135 0.088952586 0.044572536 -0.05563904 -0.0696205 0.013749641 -0.03452113 -0.07317502
0.10684669 0.13421494 -0.045059893 0.010341698 0.046267435 0.024383415 0.03994478 0.09785869
-0.18706508 -0.08284477 0.1854267 0.0663218 -0.0061734025 -0.17619193 -0.25549555 -0.15035968
-0.038106844 0.11572761 0.116833694 0.07903448 -0.17689428 -0.150977 -0.07434518 0.12576708
-0.010722115 -0.08534713 0.036239207 -0.08909983 -0.12998591 0.1970655 -0.12496339 -0.06938746
-0.19551785 0.17256373 0.13377038 0.14013825 0.08720645 -0.08714121 -0.037990365 0.08162144
0.01892658 0.16896744 0.049077667 -0.08193484 -0.07588858 -0.1364449 -0.2271373 -0.114331245
0.10324695 -0.07139288 -0.02187835 -0.03355964 0.030432213 -0.07145025 -0.12137957 0.06478601
-0.07522931 0.16155842 -0.072773345 -0.14986657 0.004060277 -0.14149702 -0.06624628 -0.19757515
00000000: 7a2a d63d 1d83 e53d 9467 a0bd 3acd 3a3e
00000010: 2c8f 1bbd 623d 383d 58b9 82bd 55a8 323e
00000020: a2b3 5c3e cd64 afbd 117e 4b3e 339a 7f3d
00000030: 6762 413e 1a48 5a3d 17a9 b73d ad2c a7bd
00000040: 533a a33d 272b a5bd 8202 cbbd 63d5 75bc
00000050: f6dd 98bd e586 7ebd aa1d 00be af04 c33d
00000060: 4a8d 25be ca97 04be 07b1 36bd 8d71 d9bc
00000070: e6d1 ad3c 7bf0 46be d54a 153e 98d9 3fbe
00000080: b479 e33d 44a8 e03c 7911 88bd 5b3e f73d
00000090: 06a7 d4ba 2fb2 113e caf5 9abb 1953 59bc
000000a0: 21df ce3d 405e 34bd 9bbc 903d bb93 ed3d
000000b0: 4ab8 dc3d fad7 95bd 5ac5 0f3e 0a28 5e3d
000000c0: 2282 313e b2d1 87bd 18a7 26be a367 f0bc
000000d0: bb54 d4bd 218c 3f3e 4697 1dbd 1051 843d
000000e0: c30c 7d3c 2820 ae3c 579f 283e 2a3c 54be
000000f0: 4325 1e3d cde7 c4bd f54e 9a3d 0579 29bd
00000100: 5441 753d cd82 22bd cab7 493d 38c7 56be
00000110: f33d 6ebe 7a78 37bd 8246 4d3e 5b87 eb3d
00000120: a11a 9d3d 259f 3cbe 0785 3abe 69a6 c2bd
00000130: 2181 eebd d546 e63d 862f f63d c952 123e
00000140: fd6e b3bd 04db e5bd 0904 c23d 09a7 3ebd
00000150: 1e83 d83d 6729 8fbd a6a6 493d 6cf9 3bbe
00000160: 9d41 3dbe 89e7 853d 9080 9d3c d487 8dbd
00000170: 9638 ae3d 72a6 063e 41b8 0ebe 9f80 dfbd
00000180: 32b9 243e 83af b5bd e18e bbbd 36c8 5bbe
00000190: 64e9 aebd da7e a53d 0b0d 09bd 832f 0bbe
000001a0: 5d40 093b acec c3bd 3b0f 08be 5244 94bd
000001b0: b8a9 1ebe 1d26 d1bd fe68 2d3e f9dd 2b3d
000001c0: 82f4 d93d fe99 67be 67ab 21be 06ef e2bc
000001d0: 739b 993d 704f acbd 97e7 ec3b b490 8fbd
000001e0: 3dd0 a8bc 4a1d bdbd 65e2 1bbd c2c3 52bd
000001f0: 211b 56bd 1618 39bd 1109 01be 2f5c 49be
00000200: 6233 133e 5df3 dabc ddbe 3b3e 8e71 923d
00000210: 24d7 44be 52e8 dd3d 89ed 33bd 2d0b 64bc
00000220: da0d bfbd 4669 00be 9c4b 903d bdb5 ebbd
00000230: c9d2 093e bfe7 82be c077 2c3e 37cd 22be
00000240: 28e8 30bb 3b97 253d 9413 643e 440d 2b3e
00000250: 7cde 2e3e 11e5 51be 3beb b13d 8c82 12bd
00000260: bab4 a73c 7d07 02be c6c3 243e 09d4 1ebe
00000270: 2dbe ec3c a8cd b6bc 80f4 f3bc afb1 f4bd
00000280: d163 ed3d 4520 273d ac5e 4c3d 12d6 32be
00000290: a82a 053d 32bd 3c3d 7869 36bd f80e 763e
000002a0: 5422 4e3e cbe6 153c 52d6 88bd a19c c43d
000002b0: d19b 293e 1a1b bebb 2424 5abe 17d8 3ebe
000002c0: 8f45 93be f7fc 1b3d e3a7 043e aff2 a8bd
000002d0: d8ea 19bd d8d1 cd3c 7a68 f3bc e4f1 cabd
000002e0: 598e a33d c62c b63d b191 363d c3e5 63bd
000002f0: 3195 8ebd 2d46 613c 0766 0dbd c9dc 95bd
00000300: 70d2 da3d a46f 093e b990 38bd 3a70 293c
00000310: ec82 3d3d babf c73c 239d 233d 236a c83d
00000320: fd8d 3fbe 85aa a9bd 7fe0 3d3e b9d3 873d
00000330: 414a cabb a86b 34be 50d0 82be e3f7 19be
00000340: ec15 1cbd 9902 ed3d 8146 ef3d d4dc a13d
00000350: c623 35be b799 1abe 4942 98bd 16c9 003e
00000360: cfab 2fbc 7aca aebd 906f 143d f979 b6bd
00000370: 071b 05be 8acb 493e ceec ffbd 031b 8ebd
00000380: d535 48be 8cb4 303e 1afb 083e 6780 0f3e
00000390: 4c99 b23d 1777 b2bd c99b 1bbd 2429 a73d
000003a0: ea0b 9b3c cd05 2d3e aa05 493d 74cd a7bd
000003b0: 796b 9bbd 36b8 0bbe ae96 68be 8026 eabd
000003c0: 2373 d33d 6e36 92bd 3a3a b3bc d575 09bd
000003d0: fa4c f93c 8254 92bd da95 f8bd 87ae 843d
000003e0: d311 9abd 926f 253e 310a 95bd 9f76 19be
000003f0: 120c 853b 98e4 10be 21ac 87bd 2451 4abe

tcn.network.0.net.4.bias f4 [64]
0.045790516 -0.011761676 -0.038388673 0.028740315 -0.052410953 -0.04429846 -0.0575022 -0.0848629
-0.09610177 0.01762616 0.028416596 -0.0043044034 -0.05980155 -0.036147807 0.008663422 0.004468086
0.054635808 -0.0008915421 -0.058213945 -0.061698716 0.039223548 -0.0880443 -0.017452113 -0.0419582
-0.041689314 0.007826056 -0.07575826 -0.042290844 -0.053214602 0.13168621 0.027460579 -0.10434532
-0.07015858 0.05775229 0.008782689 -0.09637474 -0.047826663 0.013450863 0.03396076 -0.027498493
-0.014746539 0.04583432 -0.02161256 -0.046274345 -0.052990798 -0.03039089 0.014964755 0.020956982
0.10179325 0.024407431 -0.006635123 -0.050664052 -0.13172261 0.04373064 -0.105882294 -0.095881626
-0.061608363 -0.014870635 -0.054689214 0.10230795 -0.1027527 0.09984492 -0.06362441 -0.035161395
00000000: d68e 3b3d 0bb4 40bc 713d 1dbd cf70 eb3c
00000010: deac 56bd 4d72 35bd 6d87 6bbd 9acc adbd
00000020: 01d1 c4bd bd64 903c ecc9 e83c f40b 8dbb
00000030: 78f2 74bd b90f 14bd 07f1 0d3c 0669 923b
00000040: ccc9 5f3d 61b6 69ba bf71 6ebd cbb7 7cbd
00000050: dfa8 203d 9250 b4bd bcf7 8ebc 5ddc 2bbd
00000060: 6ac2 2abd dc38 003c 2627 9bbd 2a39 2dbd
00000070: 8ef7 59bd c0d8 063e 02f5 e03c 00b3 d5bd
00000080: 4daf 8fbd aa8d 6c3d 45e5 0f3c 1f60 c5bd
00000090: e4e5 43bd 0261 5c3c 701a 0b3d 8544 e1bc
000000a0: 789b 71bc c5bc 3b3d d30c b1bc 2b8a 3dbd
000000b0: e10c 59bd 51f6 f8bc bb2e 753c faad ab3c
000000c0: fb78 d03d 18f2 c73c 726b d9bb 1c85 4fbd
000000d0: 4be2 06be e61e 333d d1d8 d8bd 965d c4bd
000000e0: 0d59 7cbd f7a3 73bc cc01 60bd d586 d13d
000000f0: 0270 d2bd 7e7b cc3d 844d 82bd 6505 10bd

tcn.network.0.net.4.weight_g f4 [64, 1, 1]
0.4800051 0.43461734 0.57450914 0.5412862 0.5523776 0.49894184 0.5433842 0.5046802
0.5213553 0.53365445 0.4704184 0.5538916 0.5507345 0.52339196 0.51933736 0.5693679
0.53678674 0.43611926 0.5207195 0.5412214 0.46431756 0.5401443 0.54577035 0.55026674
0.540075 0.56140494 0.5434992 0.51569164 0.526045 0.6220506 0.53733724 0.4355074
0.5422682 0.5003746 0.5117185 0.5181341 0.5307886 0.5743068 0.5682955 0.58067065
0.53357077 0.5389267 0.44953072 0.5342531 0.5776645 0.4815887 0.55608475 0.5035969
0.558325 0.60880107 0.5363513 0.5654716 0.50884086 0.55305636 0.5345366 0.5205529
0.5474197 0.51612717 0.4366137 0.5335939 0.5541436 0.54349965 0.5642439 0.45837533
00000000: 3ac3 f53e 2a86 de3e 0813 133f bb91 0a3f
00000010: 9e68 0d3f 4e75 ff3e 3a1b 0b3f b932 013f
00000020: 8a77 053f 949d 083f aeda f03e d7cb 0d3f
00000030: f0fc 0c3f 04fd 053f 4bf3 043f 18c2 113f
00000040: db6a 093f 064b df3e e04d 053f 7c8d 0a3f
00000050: 08bb ed3e e646 0a3f 9bb7 0b3f 48de 0c3f
00000060: 5b42 0a3f 3cb8 0f3f c322 0b3f 5e04 043f
00000070: e3aa 063f b53e 1f3f ef8e 093f d3fa de3e
00000080: 17d2 0a3f 8d18 003f fcff 023f 70a4 043f
00000090: c3e1 073f c505 133f d07b 113f d5a6 143f
000000a0: 1898 083f 1af7 093f e428 e63e d0c4 083f
000000b0: d2e1 133f cb92 f63e 925b 0e3f baeb 003f
000000c0: 63ee 0e3f 63da 1b3f 524e 093f bfc2 103f
000000d0: 6543 023f 1a95 0d3f 64d7 083f f442 053f
000000e0: b323 0c3f e920 043f d58b df3e 9c99 083f
000000f0: 5bdc 0d3f cb22 0b3f 4a72 103f 2cb0 ea3e

tcn.network.0.net.4.weight_v f4 [64, 64, 3]
0.05067531 -0.010624521 -0.034919653 -0.014315176 0.008868246 0.01146846 -0.07180718 -0.08425115
-0.05044993 -0.08591353 -0.11084437 -0.07257927 -0.058832135 0.023095561 -0.06824143 -0.0409613
-0.088732235 -0.11627279 0.0017086328 -0.022317633 0.012697295 -0.08928929 -0.05652561 -0.031323563
-0.042369913 -0.054389924 -0.025950408 -0.0021672936 -0.026863094 -0.015856031 -0.07136836 -0.13247119
0.03055124 -0.060423378 -0.071064636 -0.033299822 -0.008763143 -0.02705606 0.0051385704 -0.056426186
0.0357814 0.016565796 -0.06485443 -0.07416722 0.017067034 0.0019018081 0.047257088 0.037072506
-0.07201662 -0.056644514 -0.050327133 -0.07615086 -0.050450522 -0.089404136 0.009559645 0.04305242
-0.027540894 -0.039928325 -0.07832615 -0.00941662 0.00792324 -0.023122067 -0.0069925734 -0.014886334
-0.009781719 -0.0017573854 -0.043500487 0.02453787 0.014030618 -0.04275958 -0.011618994 0.008243381
-0.0013137005 0.015617887 -0.025665915 -0.0700001 0.014902768 -0.0034938452 0.0024296665 -0.059666365
0.029303098 -0.007015336 0.03486347 -0.036956888 0.0052374774 -0.018580487 -0.07440271 0.016718835
-0.10779959 0.024621781 0.0029797207 0.014198821 0.023620475 -0.007888163 0.0007849808 0.029515734
-0.07271092 0.005869787 -0.045088734 -0.048935905 -0.021922288 0.04760691 -0.07777526 -0.09066375
0.037460994 -0.031211432 0.00881299 -0.020364165 -0.012005691 0.042385835 -0.06874513 -0.028382953
0.037888993 0.00040036402 -0.038621582 -0.10963317 0.022750277 -0.0089063635 -0.01722496 -0.029268956
-0.03796487 0.03283234 -0.014126641 0.07666644 0.0058749905 0.010772262 0.040656626 0.020746151
-0.024809653 0.018129366 0.04801373 0.0149099305 0.023136934 0.015585512 -0.003988106 0.013879732
0.022224054 0.0020131255 0.055213526 0.06623165 0.011586617 -0.037880998 0.04127388 -0.09855418
0.041699436 0.020755982 0.037261166 -0.042091582 -0.06267911 -0.0026582994 -0.08869144 -0.03567425
-0.033577703 -0.106434695 -0.045319162 -0.08039878 0.0075132805 -0.083169214 -0.01849845 0.039341055
0.028448787 0.053472202 0.024269918 -0.056844987 0.0508416 0.0006010638 -0.021756265 -0.082403496
-0.006790772 -0.008535187 0.08209634 0.05137842 0.055772886 0.05908083 -0.04348374 -0.00453661
-0.015140211 -0.012595766 0.085110575 0.05424182 0.050553527 -0.02556568 -0.10277027 -0.012887741
0.014702994 0.0400761 0.02902263 -0.009035459 -0.08249002 -0.101930395 -0.029906176 -0.07454641
-0.004955603 0.06473745 0.03411231 -0.015541169 0.033742055 0.07235122 -0.061780855 -0.16592652
-0.052307826 0.018299771 -0.08153136 -0.018985968 -0.080739886 -0.06320253 -0.07484206 -0.017278474
0.031325523 -0.029763974 -0.021285616 -0.03760937 0.027095329 -0.030332131 -0.029225385 0.03504615
-0.047802076 -0.09660285 -0.08711915 -0.012314311 -0.011920146 0.08223861 -0.04574243 0.051994093
0.021117767 -0.09338321 -0.02662383 -0.036700647 -0.11848383 -0.036031175 -0.10178584 0.050522152
-0.07825481 -0.121541 -0.017732251 0.035730764 0.043438405 -0.04342634 -0.026591025 -0.016803486
0.01567703 0.048716355 0.024171727 0.064556405 0.014584996 0.011709578 0.008678326 -0.0030171936
0.0031006604 -0.046042375 -0.013714316 -0.09483746 0.074477464 0.033770118 -0.033466227 -0.11587622
00000000: ea90 4f3d 7912 2ebc e907 0fbd 338a 6abc
00000010: 1f4c 113c 35e6 3b3c a50f 93bd de8b acbd
00000020: 96a4 4ebd 6ff3 afbd 6002 e3bd 71a4 94bd
00000030: f7f9 70bd e732 bd3c 2ac2 8bbd 09c7 27bd
00000040: 3fb9 b5bd 6e20 eebd 34f4 df3a 78d3 b6bc
00000050: 5108 503c 4edd b6bd 6687 67bd 234d 00bd
00000060: 138c 2dbd f8c7 5ebd f395 d4bc 2709 0ebb
00000070: fe0f dcbc 82e4 81bc 9329 92bd 87a6 07be
00000080: 9846 fa3c 817e 77bd 568a 91bd 6565 08bd
00000090: 4993 0fbc aca4 ddbc 7461 a83b 251f 67bd
000000a0: 848f 123d feb4 873c 66d2 84bd fce4 97bd
000000b0: 2ad0 8b3c 1746 f93a a690 413d 57d9 173d
000000c0: 737d 93bd 1404 68bd d323 4ebd fbf4 9bbd
000000d0: 35a5 4ebd 8419 b7bd 0fa0 1c3c bc57 303d
000000e0: 719d e1bc e28b 23bd 7669 a0bd 2b48 1abc
000000f0: 7ad0 013c 7d6a bdbc f521 e5bb cfe5 73bc
00000100: 8143 20bc 1258 e6ba 912d 32bd a503 c93c
00000110: ade0 653c ab24 2fbd 985d 3ebc 3f0f 073c
00000120: 7930 acba 2ae2 7f3c 5341 d2bc 365c 8fbd
00000130: bd2a 743c fff8 64bb 0a3b 1f3b b864 74bd
00000140: 0d0d f03c e7e0 e5bb ffcc 0e3d 1b60 17bd
00000150: 259f ab3b 1b36 98bc 7360 98bd f0f5 883c
00000160: 08c6 dcbd 9eb3 c93c 6b47 433b 2ca2 683c
00000170: ba7f c13c 5b3d 01bc 2bc7 4d3a fbca f13c
00000180: 76e9 94bd 5857 c03b f7ae 38bd 0471 48bd
00000190: 5f96 b3bc 77ff 423d a348 9fbd ebad b9bd
000001a0: b370 193d 1eaf ffbc 5c64 103c c0d2 a6bc
000001b0: 85b3 44bc c59c 2d3d 3fca 8cbd 5e83 e8bc
000001c0: 7d31 1b3d f3e7 d139 aa31 1ebd 5b87 e0bd
000001d0: ca5e ba3c ffeb 11bc 5c1b 8dbc 73c5 efbc
000001e0: 0d81 1bbd 347b 063d 6d73 67bc 4b03 9d3d
000001f0: fe82 c03b 247e 303c 9087 263d d5f3 a93c
00000200: 9d3d cbbc 0984 943c 0caa 443d c848 743c
00000210: ab89 bd3c 605a 7f3c a8ae 82bb d167 633c
00000220: 380f b63c a4ee 033b 9427 623d 76a4 873d
00000230: cbd5 3d3c 1b29 1bbd cd0e 293d c6d6 c9bd
00000240: 07cd 2a3d 7308 aa3c 2a9f 183d 3968 2cbd
00000250: e85d 80bd dd36 2ebb dca3 b5bd 2a1f 12bd
00000260: c688 09bd 6ffa d9bd 96a0 39bd 1ea8 a4bd
00000270: f731 f63b 9f54 aabd 108a 97bc 1624 213d
00000280: 6e0d e93c ab05 5b3d b5d1 c63c 4ad6 68bd
00000290: 483f 503d b590 1d3a 323a b2bc 2ac3 a8bd
000002a0: 2085 debb 2bd7 0bbc 2022 a83d 2e72 523d
000002b0: 1c72 643d befe 713d 021c 32bd d8a7 94bb
000002c0: a60e 78bc 795e 4ebc 744e ae3d ac2c 5e3d
000002d0: 3711 4f3d 1e6f d1bc 3879 d2bd 1b27 53bc
000002e0: d4e4 703c d626 243d dec0 ed3c 7609 14bc
000002f0: 87f0 a8bd e2c0 d0bd ccfd f4bc caab 98bd
00000300: 9c62 a2bb 1195 843d 59b9 0b3d 63a0 7ebc
00000310: 1c35 0a3d e02c 943d ec0d 7dbd a4e8 29be
00000320: bb40 56bd 67e9 953c eaf9 a6bd 7688 9bbc
00000330: f45a a5bd 5470 81bd cb46 99bd 968b 8dbc
00000340: 314f 003d 94d3 f3bc 2c5f aebc 480c 1abd
00000350: 06f7 dd3c 177b f8bc 136a efbc 8d8c 0f3d
00000360: 1ccc 43bd b7d7 c5bd 866b b2bd f7c1 49bc
00000370: b74c 43bc b76c a83d 6a5c 3bbd c2f7 543d
00000380: 2bff ac3c b23f bfbd 381a dabc 6b53 16bd
00000390: a6a7 f2bd 6d95 13bd 1875 d0bd 51f0 4e3d
000003a0: 0f44 a0bd 7dea f8bd 3a43 91bc 6c5a 123d
000003b0: 78ec 313d d1df 31bd 6cd5 d9bc 77a7 89bc
000003c0: 1d6d 803c cd8a 473d c903 c63c 2636 843d
000003d0: e8f5 6e3c 88d9 3f3c 8a2f 0e3c 1cbc 45bb
000003e0: 7334 4b3b ee96 3cbd 03b2 60bc 243a c2bd
000003f0: a487 983d 8952 0a3d e213 09bd 8350 edbd

tcn.network.0.downsample.weight f4 [64, 10, 1]
0.07315432 0.0582004 0.015910331 -0.010386967 -0.064388685 0.12962127 -0.011886687 0.03517018
-0.09156049 0.07772273 0.013418835 0.22207475 0.078175835 -0.07755659 0.01128338 -0.046284948
0.20039345 0.10016454 -0.17398106 -0.050878305 0.000406091 -0.059102066 -0.092093825 -0.05203104
-0.027427187 0.039083943 0.09138772 0.11723767 0.05195243 -0.121374205 0.04240795 0.067919135
0.044788517 -0.057241283 -0.02093937 -0.030075923 0.038908396 0.020645352 -0.09330952 0.059801932
-0.025407474 -0.049045417 -0.07088111 0.027543843 -0.033659883 0.01734085 0.036732946 -0.02402887
0.11333047 -0.03676276 -0.07805057 -0.07218234 -0.051087435 0.06950435 -0.055141605 -0.030849611
-0.036558434 -0.00726904 0.016380243 0.059469104 -0.075644456 -0.082311 -0.05227834 0.02251591
-0.049541228 -0.045953024 -0.050359663 0.014056663 -0.0031094076 0.04088745 0.07771497 0.04402743
0.08107158 0.1263392 -0.029377718 0.032384742 -0.046958458 0.0007134284 0.021897051 -0.14778446
0.12561886 -0.01805035 -0.22012825 -0.0013219096 0.01337007 0.28321132 0.0061949827 -0.022070266
0.060521707 -0.1630486 0.043811403 0.081703275 0.09279922 0.019472266 -0.017841032 0.0074418155
0.05644195 0.025014931 -0.076391 0.007974636 -0.015141359 -0.03260958 -0.09355898 -0.0655854
-0.041543942 0.081923716 -0.015766412 -0.051451974 -0.0126413 -0.10598486 0.040911462 0.09756886
0.11778744 0.006651326 -0.031433154 0.0041400907 0.06620628 0.054633543 -0.052526187 0.089113735
0.057678718 0.12440121 0.12152822 -0.042877212 0.015766239 0.04506449 -0.0019522195 -0.033814635
-0.17065746 -0.020237496 -0.071308434 -0.098811656 -0.08993921 0.07662783 0.046964195 -0.017929671
-0.10762406 -0.03145182 0.08615597 0.0016716699 0.03871022 0.15568994 0.022387963 0.005513985
0.038690086 0.03748767 0.1401892 0.08127369 -0.07172801 -0.16516457 0.058136214 0.027312933
-0.06059054 -0.07960664 0.04873745 -0.05252462 0.15713693 0.041033573 -0.16008472 0.015803145
-0.06700217 -0.08248196 -0.12462436 0.082898 -0.0017318034 0.05489201 -0.06665599 -0.013692722
0.019906174 -0.020358777 0.0922654 0.091768265 0.07942232 0.024807107 -0.017192714 0.029492283
0.04932551 -0.028223552 -0.03494141 -0.014005017 0.050596777 0.120173335 0.09454683 0.05268881
-0.02669961 0.019108668 0.06435621 0.009479707 -0.11880601 0.00901808 0.05192732 0.07613588
0.035386566 -0.00969019 -0.015406073 0.003018983 0.041279025 0.005672836 -0.075087965 0.004587828
0.074400276 0.11327206 0.15719566 -0.021320911 0.090183325 0.03002297 0.040936902 0.04610177
-0.1658234 -0.012366886 0.07096084 0.059387296 0.072569 0.037731588 0.0054986007 0.02721163
0.08741864 -0.002974021 -0.07417477 -0.04077938 0.0034628564 0.11003278 -0.055177167 -0.010042233
-0.026520006 -0.16041344 0.14695406 0.112131454 -0.09500375 -0.10718374 0.057192042 0.03866968
0.085462555 -0.0032534509 -0.0072417343 0.0031256494 0.06416612 0.038313605 -0.018028429 0.025888693
-0.0262183 -0.108615026 -0.07817448 0.01902123 0.020150498 0.0754968 -0.031016516 -0.036111087
0.084171146 -0.13059038 -0.02674609 -0.076848134 -0.06598883 -0.0126416925 0.004997904 -0.010610152
00000000: efd1 953d 8b63 6e3d 6256 823c 192e 2abc
00000010: 37de 83bd 70bb 043e 61c0 42bc 9b0e 103d
00000020: 1184 bbbd 182d 9f3d acda 5b3c 9067 633e
00000030: a71a a03d fdd5 9ebd eddd 383c 4995 3dbd
00000040: f133 4d3e 1123 cd3d 1728 32be c565 50bd
00000050: 9de8 d439 0215 72bd b09b bcbd 801e 55bd
00000060: fbae e0bc 7c16 203d 7c29 bb3d 4e1a f03d
00000070: 12cc 543d 0a93 f8bd f5b3 2d3d 3019 8b3d
00000080: 2a74 373d d675 6abd 0b89 abbc c861 f6bc
00000090: 695e 1f3d 7120 a93c 1019 bfbd dff2 743d
000000a0: 5623 d0bc d9e3 48bd 1e2a 91bd a0a3 e13c
000000b0: f2de 09bd 660e 8e3c 4975 163d 31d8 c4bc
000000c0: ce19 e83d 8c94 16bd fad8 9fbd 56d4 93bd
000000d0: 0f41 51bd 4c58 8e3d 2adc 61bd 53b8 fcbc
000000e0: 4cbe 15bd 2131 eebb dc2f 863c e095 733d
000000f0: 7beb 9abd ab92 a8bd d021 56bd 4973 b83c
00000100: beeb 4abd 3d39 3cbd ef45 4ebd eb4d 663c
00000110: 34c7 4bbb 9979 273d 0729 9f3d 1b56 343d
00000120: db08 a63d 105f 013e 8aa9 f0bc dda5 043d
00000130: 8357 40bd 5f05 3b3a 7261 b33c cf54 17be
00000140: 3ba2 003e 54de 93bc 4d69 61be ed43 adba
00000150: 230e 5b3c 1301 913e 48ff ca3b b4cc b4bc
00000160: 9ce5 773d 36f6 26be 9673 333d 0c54 a73d
00000170: 840d be3d 4d84 9f3c 5b27 92bc 79da f33b
00000180: ad2f 673d 1dec cc3c e272 9cbd 0ca8 023c
00000190: 7613 78bc 9f91 05bd da9b bfbd a351 86bd
000001a0: fb29 2abd 9fc7 a73d 9028 81bc 4ebf 52bd
000001b0: 751d 4fbc 970e d9bd c792 273d 2fd2 c73d
000001c0: 8b3a f13d 5ef3 d93b 0dc0 00bd 99a9 873b
000001d0: 2897 873d 6cc7 5f3d b325 57bd 4381 b63d
000001e0: 8540 6c3d 10c6 fe3d cae3 f83d 04a0 2fbd
000001f0: 3328 813c 8b95 383d 9ee1 ffba 3781 0abd
00000200: d4c0 2ebe 1bc9 a5bc 280a 92bd c45d cabd
00000210: 0c32 b8bd 0def 9c3d 875d 403d 3fe1 92bc
00000220: 016a dcbd a0d3 00bd 8b72 b03d ef1b db3a
00000230: 9c8e 1e3d 2f6d 1f3e f666 b73c a9ae b43b
00000240: 7f79 1e3d ac8c 193d c28d 0f3e d272 a63d
00000250: 23e6 92bd e720 29be 3d20 6e3d 5fbf df3c
00000260: c92d 78bd ce08 a3bd eca0 473d 0e24 57bd
00000270: 81e8 203e d212 283d 40ed 23be 9975 813c
00000280: 6f38 89bd 4dec a8bd 0e3b ffbd 6dc6 a93d
00000290: aefd e2ba 72d6 603d f082 88bd 7057 60bc
000002a0: 4612 a33c 73c7 a6bc a4f5 bc3d 00f1 bb3d
000002b0: 2ba8 a23d 4638 cb3c bcd7 8cbc cd99 f13c
000002c0: 8c09 4a3d 1435 e7bc b91e 0fbd 4c75 65bc
000002d0: 913e 4f3d 701d f63d c5a1 c13d 39d0 573d
000002e0: 24b9 dabc c889 9c3c 30cd 833d c650 1b3c
000002f0: 9150 f3bd 92c0 133c beb1 543d 21ed 9b3d
00000300: 81f1 103d 9ac3 1ebc c169 7cbc 21da 453b
00000310: 3214 293d 33e3 b93b b8c7 99bd 7e55 963b
00000320: 2c5f 983d 2ffb e73d e6f7 203e 31a9 aebc
00000330: 09b2 b83d bbf2 f53c 74ad 273d 36d5 3c3d
00000340: 9ccd 29be 7b9e 4abc eb53 913d 1840 733d
00000350: 0e9f 943d 708c 1a3d 9b2d b43b edea de3c
00000360: 8b08 b33d cbe7 42bb f1e8 97bd 4708 27bd
00000370: 17f1 623b de58 e13d 7401 62bd 2e88 24bc
00000380: 7c40 d9bc 6c43 24be 207b 163e 2da5 e53d
00000390: 5391 c2bd 2683 dbbd 3442 6a3d 1964 1e3d
000003a0: fe06 af3d d937 55bb 124c edbb b2d7 4c3b
000003b0: 8769 833d baee 1c3d 5bb0 93bc 8614 d43c
000003c0: c3c7 d6bc 8e71 debd f119 a0bd 69d2 9b3c
000003d0: a812 a53c 119e 9a3d 5916 febc 38e9 13bd
000003e0: ec61 ac3d 7cb9 05be 9e1a dbbc 8e62 9dbd
000003f0: 2725 87bd 1a1f 4fbc 75c5 a33b 34d6 2dbc

tcn.network.0.downsample.bias f4 [64]
-0.110188715 -0.1965888 0.21928799 0.3212282 0.28376207 0.2157793 0.1546947 0.032101918
-0.13170345 0.16770896 0.25734368 0.11179749 0.07134513 0.06443708 -0.3110218 0.105332024
0.07631621 0.39044952 0.2402785 0.34416658 0.1192845 0.33812547 -0.1917845 0.19959229
0.27074894 0.115926884 -0.28254583 0.1919433 -0.30519223 0.14943896 -0.18778573 0.23782484
0.048828505 0.19169484 -0.29721504 0.06937601 -0.16322711 0.34698483 0.13949844 -0.10126565
-0.10142147 0.19245167 -0.18610333 0.105682276 -0.15123245 -0.06122104 0.30263212 0.017001474
0.26619434 -0.35588306 0.30312935 -0.34474742 -0.3826024 -0.31389812 -0.3378846 -0.13867049
-0.2727395 0.1363942 -0.23565 0.15209666 -0.14348623 0.24060243 0.027601037 -0.4060776
00000000: 9faa e1bd 934e 49be 088d 603e 0678 a43e
00000010: 4349 913e 40f5 5c3e 4a68 1e3e 4d7d 033d
00000020: 45dd 06be e6bb 2b3e 8dc2 833e 15f6 e43d
00000030: 651d 923d 96f7 833d 403e 9fbe 51b8 d73d
00000040: ac4b 9c3d 00e9 c73e 910b 763e 9a36 b03e
00000050: 6f4b f43d c81e ad3e 2863 44be ec61 4c3e
00000060: 9b9f 8a3e 136b ed3d d9a9 90be c98c 443e
00000070: 2842 9cbe 8706 193e e74a 40be 5b88 733e
00000080: 6600 483d a74b 443e 922c 98be 0215 8e3d
00000090: 0225 27be ffa7 b13e aed8 0e3e 5d64 cfbd
000000a0: 0fb6 cfbd 0d12 453e df91 3ebe f36f d83d
000000b0: aedc 1abe eac2 7abd 99f2 9a3e ad46 8b3c
000000c0: a04a 883e 4e36 b6be c533 9b3e bc82 b0be
000000d0: 76e4 c3be 41b7 a0be 36ff acbe a3ff 0dbe
000000e0: 83a4 8bbe ecaa 0b3e 3c4e 71be 3abf 1b3e
000000f0: 0eee 12be 7c60 763e 921b e23c 67e9 cfbe

linear.weight f4 [1, 64]
-0.07367392 -0.19237295 0.03192825 -0.050414 0.016546126 0.13471441 0.11414909 -0.15643863
0.16023505 -0.06857751 0.114123434 -0.100895725 -0.13325135 0.09023306 -0.047358792 -0.10771089
0.05319286 -0.059506617 -0.14154688 -0.11124333 -0.059076622 -0.06336222 -0.10948493 -0.07310011
0.033103213 0.089709036 0.15950295 0.08032972 0.039007824 0.06119344 -0.039556712 0.16717322
0.08193373 -0.05364903 0.16570178 0.13115951 0.042291973 -0.060797177 0.040832207 -0.03809736
0.035164043 0.05842491 0.10364545 0.062489826 0.08971596 0.10181385 -0.11729862 0.084516175
-0.060504153 0.13831733 -0.06558125 -0.09143819 0.13305154 0.0014506173 -0.09718276 -0.102305986
-0.027883375 0.061448142 0.061672095 0.10392076 0.24020603 -0.14825496 -0.10346252 -0.07395654
00000000: 5ae2 96bd 6afd 44be 32c7 023d e97e 4ebd
00000010: be8b 873c 93f2 093e 00c7 e93d 7331 20be
00000020: a814 243e 5e72 8cbd 8cb9 e93d 6ba2 cebd
00000030: 0b73 08be 1ccc b83d 4bfb 41bd 8797 dcbd
00000040: c2e0 593d 36bd 73bd aaf1 10be 8bd3 e3bd
00000050: 54fa 71bd 0dc4 81bd a339 e0bd 83b5 95bd
00000060: 3c97 073d 5fb9 b73d be54 233e e983 a43d
00000070: abc6 1f3d f9a5 7a3d 3806 22bd 752f 2b3e
00000080: dfcc a73d 16bf 5bbd baad 293e ae4e 063e
00000090: 593a 2d3d 7606 79bd ac3f 273d fa0b 1cbd
000000a0: 2c08 103d f54e 6f3d 1144 d43d 55f5 7f3d
000000b0: 00bd b73d c883 d03d 423a f0bd d116 ad3d
000000c0: 34d3 77bd 0fa3 0d3e 764f 86bd f243 bbbd
000000d0: aa3e 083e a422 be3a c107 c7bd cd85 d1bd
000000e0: ad6b e4bc 0cb1 7b3d e19b 7c3d 68d4 d43d
000000f0: 92f8 753e 26d0 17be 28e4 d3bd 8776 97bd
