checkpoints/tcn/sh-h[64,32,16]-k3-lr0.001-d0.3-ep200.pth (torch, 131715 bytes, 43 tensors)

tcn.network.0.conv1.bias f4 [64]
0	0xbdfe5d0f	-0.12420093
1	0xbe25457f	-0.16139792
2	0xbdb1576f	-0.08659255
3	0xbdae38b9	-0.08506913
4	0x3de41551	0.11136878
5	0xbd3f3aac	-0.046686813
6	0x3d1b26b3	0.037878703
7	0xbdef98b5	-0.116990484
8	0x3df464f8	0.11933321
9	0x3dc0a508	0.09406477
10	0xbe3f2e84	-0.18670088
11	0xbd52d4bb	-0.051472407
12	0xbe238926	-0.15970287
13	0x3d5fd5ac	0.054647133
14	0xbe688c9a	-0.22709885
15	0xbe196f9d	-0.14983983
16	0x3e17c89e	0.14822623
17	0xbe722a49	-0.23648943
18	0x3cbf14d7	0.023325367
19	0x3c5305bc	0.012879785
20	0x3dad5209	0.084629126
21	0xbe3ccb0f	-0.18436836
22	0x3d935f08	0.0719586
23	0xb9cdae5c	-0.00039230555
24	0x3c18b9bc	0.009321626
25	0x3df888bd	0.12135456
26	0xbe73e695	-0.23818429
27	0xbe4372c0	-0.19086742
28	0x3ddc5cb8	0.10759872
29	0xbe32e574	-0.17470342
30	0xbe20a922	-0.15689519
31	0xbd8bc599	-0.06824798
32	0xbd8c6225	-0.06854657
33	0xbd99f34b	-0.075171076
34	0xbd8f1cec	-0.06987938
35	0x3cfbcdf2	0.03073785
36	0xbe63d24b	-0.22248189
37	0xbced1bbb	-0.028943887
38	0x3df4a290	0.11945069
39	0xbbbdcc2a	-0.0057921605
40	0xbb20c252	-0.0024529886
41	0xba2f6632	-0.00066909485
42	0xbdd7b229	-0.10532028
43	0xbd3af59d	-0.04564439
44	0xbdfdf113	-0.12399497
45	0xbe1bd6fe	-0.15218732
46	0xbe3d726c	-0.1850068
47	0x3e140fcf	0.14459155
48	0xbd40f957	-0.04711279
49	0x3d010ba0	0.031505227
50	0x3dc7d430	0.097572684
51	0xbd7a4a0d	-0.061105777
52	0xbe097197	-0.13422237
53	0xbe4756e5	-0.19466741
54	0xbdbc1529	-0.091837235
55	0x3d7732bc	0.06035112
56	0xbe3dcbd6	-0.18534788
57	0xbd23ecbe	-0.040020697
58	0x3d8812b0	0.06644189
59	0x3dc35731	0.09538115
60	0x3d39a52d	0.04532354
61	0xbbcde7b5	-0.006283725
62	0x3deb0782	0.114760414
63	0x3d395017	0.045242395

tcn.network.0.conv1.weight_g f4 [64, 1, 1]
0	0x3f108388	0.564507
1	0x3f0f11e5	0.5588668
2	0x3f17018b	0.5898673
3	0x3f1f9473	0.6233589
4	0x3f1b04b1	0.60554034
5	0x3f0961d5	0.53664905
6	0x3ee3f2e4	0.44521248
7	0x3f1f0c46	0.621281
8	0x3f0fcf8c	0.56176066
9	0x3f168fa6	0.5881294
10	0x3f1c7dec	0.6112964
11	0x3f19f2c6	0.6013607
12	0x3f1bfa9a	0.6092926
13	0x3f076444	0.5288737
14	0x3f07d016	0.5305189
15	0x3f0577ad	0.52135736
16	0x3f00a5f9	0.50253254
17	0x3f143399	0.5789123
18	0x3f0d6311	0.5522929
19	0x3f064186	0.5244373
20	0x3f1da6ef	0.61582845
21	0x3f185d21	0.59517103
22	0x3f05fa39	0.52334934
23	0x3f20b46e	0.62775314
24	0x3f2592b9	0.64677006
25	0x3f0bb815	0.5457776
26	0x3f188b2a	0.5958735
27	0x3efb569d	0.49089518
28	0x3f1b25ec	0.6060474
29	0x3ee92310	0.45534563
30	0x3f0aa832	0.54162896
31	0x3f153d7e	0.58296955
32	0x3f041421	0.51593214
33	0x3efcb7cc	0.49358976
34	0x3f04064a	0.51572096
35	0x3f190277	0.59769386
36	0x3f16ffa0	0.589838
37	0x3f1e4e72	0.6183845
38	0x3f21f2cf	0.6326112
39	0x3f00ed64	0.5036223
40	0x3f16a84a	0.5885054
41	0x3ef41140	0.4766941
42	0x3f1808b6	0.5938829
43	0x3f0cdf17	0.5502791
44	0x3f12ad8a	0.5729605
45	0x3f0cc9f9	0.54995686
46	0x3f0f5779	0.5599285
47	0x3f045ba6	0.51702344
48	0x3f1778df	0.5916881
49	0x3f07c2aa	0.5303141
50	0x3effc104	0.49951947
51	0x3f059e9d	0.5219515
52	0x3ebf73d2	0.3739305
53	0x3f092650	0.53574085
54	0x3f20d291	0.628213
55	0x3f118ee3	0.5685865
56	0x3f0eeed3	0.55833167
57	0x3f096b0c	0.53678966
58	0x3f1fe0ec	0.6245258
59	0x3f17535f	0.5911159
60	0x3f0d0f9c	0.55101943
61	0x3f0ecac0	0.5577812
62	0x3f11f447	0.5701336
63	0x3f19cb3d	0.6007574

tcn.network.0.conv1.weight_v f4 [64, 10, 3]
0	0x3df664b5	0.12030927
1	0x3e07a232	0.13245466
2	0xbd6e357e	-0.058156483
3	0x3e415ce4	0.18883091
4	0xbce11084	-0.027473696
5	0x3d6d181a	0.057884313
6	0xbd3f55f9	-0.04671285
7	0x3e6846ee	0.22683308
8	0x3e845970	0.25849485
9	0xbe0b5209	-0.13605513
10	0x3e10d7e6	0.14144859
11	0x3ae89810	0.0017745513
12	0x3e098667	0.13430177
13	0x3c5b78a5	0.013395463
14	0x3dbee67c	0.09321305
15	0xbbfffa29	-0.007811804
16	0x3e12025c	0.14258713
17	0xbc2a9f71	-0.01041399
18	0xbd9ede58	-0.077572525
19	0x3d4a3022	0.04936231
20	0xbd49b148	-0.049241334
21	0x3d9420a3	0.072327875
22	0xbd16fb85	-0.03686096
23	0x3e1b2608	0.15151227
24	0xbe04008a	-0.1289083
25	0xbd2b9e43	-0.041898977
26	0x39cb2136	0.0003874392
27	0xbd9c420c	-0.07629785
28	0x3cccc858	0.024997875
29	0xbe3d458e	-0.18483564
30	0x3e0e882a	0.1391913
31	0xbe3779a9	-0.17917503
32	0x3dedfab9	0.11620087
33	0x3d487af3	0.04894538
34	0xbd2a4e4a	-0.04157857
35	0x3e16e581	0.14735986
36	0x3d47062e	0.048589878
37	0x3e3e8d26	0.18608531
38	0x3d5655d8	0.05232796
39	0xbd98b1c3	-0.0745578
40	0x3d1147a5	0.035468716
41	0xbd9fab16	-0.07796304
42	0x3da8861f	0.082287066
43	0x3e1a019e	0.1503968
44	0x3d831959	0.06401319
45	0xbdb0a59f	-0.0862534
46	0x3dda35e3	0.10654809
47	0x3c985f81	0.018600227
48	0x3d80d52f	0.062906615
49	0xbde6f919	-0.1127798
50	0xbe26c4cd	-0.16286011
51	0xbd6726ac	-0.056433365
52	0xbe0f6715	-0.14004166
53	0x3e28470e	0.16433355
54	0x3d816e6c	0.063198894
55	0x3da1a9c5	0.07893709
56	0x3d80af55	0.06283442
57	0x3ce2d0e7	0.027687503
58	0x3e2270dd	0.15863366
59	0xbe057488	-0.13032734
60	0x3acde8ae	0.0015709603
61	0xbe0d25ec	-0.13783997
62	0x3d1ddb6d	0.03853934
63	0xbdbc687f	-0.091996185
64	0x3c74df09	0.014945754
65	0xbdd9d94c	-0.10637149
66	0x3e1718de	0.1475558
67	0xbe0901ea	-0.13379636
68	0xbe20d095	-0.15704568
69	0xbdc5397c	-0.09630105
70	0x3e2acc1a	0.16679421
71	0x3da896e0	0.08231902
72	0x3e3c4ce6	0.1838871
73	0xbd5001c1	-0.050782923
74	0xbdc5fbeb	-0.0966719
75	0xbd99903c	-0.07498214
76	0xbd99b560	-0.07505298
77	0x3e1138f0	0.14181876
78	0x3d44acd2	0.048016377
79	0x3db5c397	0.088751964
80	0xbe2820d8	-0.16418779
81	0xbd330893	-0.04370935
82	0x3d9073a0	0.07053304
83	0xbdc0b95e	-0.09410356
84	0x3e01864f	0.12648891
85	0xbcabac6b	-0.020956239
86	0x3d695e8e	0.05697494
87	0xbe76fa39	-0.2411889
88	0xbe247c9c	-0.1606316
89	0x3d179fde	0.037017696
90	0x3d10a808	0.035316497
91	0xbd481b9b	-0.04885445
92	0x3dd5ca98	0.10439032
93	0x3da47411	0.080299504
94	0xbe2f4428	-0.17115843
95	0xbe113b78	-0.14182842
96	0x3e4e470c	0.2014429
97	0xbcd72ffb	-0.026267996
98	0xbd1cb970	-0.038262784
99	0xbe832c7b	-0.25619873
100	0xbe225367	-0.15852128
101	0x3c058298	0.008148812
102	0xbc4f7bb4	-0.0126637705
103	0xbdd97c6e	-0.10619436
104	0x3cb7e9d6	0.022450369
105	0x3d73b42c	0.059497997
106	0x3c6c168a	0.014409671
107	0x3cd74987	0.026280178
108	0xbcbb7b2d	-0.022885883
109	0x3b43bbce	0.002986658
110	0x3e66eb99	0.22550811
111	0x3d5eecb3	0.054424953
112	0x3d961bc4	0.073295146
113	0xbe149ebd	-0.14513679
114	0xbdd4547d	-0.10367677
115	0xbd8ba0dd	-0.068177916
116	0x3c32e469	0.010918715
117	0xbe2ff962	-0.17184976
118	0xbdc2d635	-0.09513513
119	0xbe3e98d2	-0.18612984
120	0x3a20b4d1	0.00061304594
121	0xbd8dfb3a	-0.06932683
122	0xbc848712	-0.016177688
123	0xbde41ad6	-0.11137931
124	0xbdf6ae50	-0.12044966
125	0xbde73212	-0.11288847
126	0xbd714463	-0.05890311
127	0xbe12dc63	-0.14341883
128	0x3e0fcca4	0.14042908
129	0xbdb781eb	-0.08960327
130	0x3dc702ac	0.097173065
131	0x3bf4a7a0	0.0074662715
132	0xbe0e3a9a	-0.13889542
133	0x3e1bcca7	0.15214787
134	0xbd1a7bd4	-0.037715748
135	0xbddabdbd	-0.10680721
136	0xbe46036c	-0.19337243
137	0xbe6747a7	-0.22585927
138	0x3dcd652f	0.10029065
139	0xbd0be2d1	-0.034151856
140	0x3db610ad	0.088898994
141	0xbe179efc	-0.14806741
142	0x3df70faa	0.120635346
143	0xbe14d699	-0.14534988
144	0xbdba83e6	-0.09107189
145	0x3b9fd215	0.0048773387
146	0x3c7a6544	0.015282933
147	0x3dd85fac	0.10565123
148	0x3ddbb7f2	0.10728444
149	0xbe3f2338	-0.18665779
150	0x3d60955d	0.054829944
151	0xbd9736db	-0.0738351
152	0xbcc71a8d	-0.024304653
153	0xbdeebb46	-0.11656813
154	0x3e3238e4	0.17404515
155	0xbe26e4d7	-0.16298233
156	0x3d4c7c84	0.049923435
157	0x3c192d3d	0.009349165
158	0xbcbdabe8	-0.02315326
159	0xbe0459b2	-0.12924841
160	0x3e2c1de5	0.16808279
161	0x3d5f3dff	0.054502483
162	0xbc832735	-0.016009906
163	0xbe17fdcf	-0.14842914
164	0x3d9e0834	0.07716408
165	0xbd729adc	-0.059229717
166	0xbde97aec	-0.114003986
167	0x3e0edbc2	0.13951018
168	0x3d2c2ed0	0.04203683
169	0xbdc27cd8	-0.09496468
170	0xbdf0484d	-0.1173254
171	0xbd091e0a	-0.033475913
172	0x3d554cdc	0.052075252
173	0xbddfdbeb	-0.10930618
174	0xbd5feaab	-0.054667156
175	0xbd651879	-0.055931542
176	0xbe5f5464	-0.21809536
177	0x3d26aeea	0.040694155
178	0x3e12e5a6	0.14345416
179	0xbe392fdf	-0.18084668
180	0x3ce34eb4	0.02774749
181	0x3da345fb	0.07972332
182	0x3ca0e96d	0.019642556
183	0xbd7c8027	-0.061645653
184	0x3de1b2df	0.11020445
185	0x3debe7c7	0.115188174
186	0x3dee65c4	0.11640504
187	0xbccc627b	-0.024949303
188	0xbd2361da	-0.03988824
189	0x3c22efd9	0.009944879
190	0xbd55456e	-0.052068166
191	0xbda81f8f	-0.08209144
192	0x3dd8e8d9	0.10591287
193	0x3e1c1a8c	0.15244502
194	0xbd78db83	-0.060756218
195	0xbd34e8be	-0.044167273
196	0xbcc594fd	-0.024118895
197	0xbcfaf3f7	-0.03063391
198	0x3d4cf4d0	0.05003816
199	0x3da0b9db	0.07847949
200	0xbe314afe	-0.17313763
201	0xbd12d113	-0.03584392
202	0x3e30ce79	0.17266263
203	0x3dcf9ebb	0.10137697
204	0x3cc55c26	0.024091791
205	0xbdd7c846	-0.10536246
206	0xbdcfc844	-0.101456195
207	0xbe244aaa	-0.16044107
208	0xbc9a6bf8	-0.018850312
209	0x3db46bf9	0.08809657
210	0x3db807d3	0.08985867
211	0x3d706b9b	0.05869637
212	0xbe3e3dbf	-0.18578242
213	0xbde24461	-0.110481985
214	0xbcebcc42	-0.028783921
215	0x3e3b5e4c	0.1829769
216	0x3bd94d95	0.006631563
217	0xbd8eb2b4	-0.06967679
218	0x3d6fa8ae	0.058510475
219	0xbdb2c8ae	-0.08729683
220	0xbe289722	-0.16463903
221	0x3df16bba	0.11788125
222	0xbd3ac5af	-0.045598682
223	0x3d30870c	0.04309754
224	0xbe0cef3d	-0.13763137
225	0x3c93a47b	0.018022766
226	0x3c8ffbc4	0.017576106
227	0xbcee0160	-0.02905339
228	0xbe06a7c1	-0.1314993
229	0xbe2f67c4	-0.17129427
230	0xbe097879	-0.13424863
231	0x3e258ebc	0.1616773
232	0x3e0a7562	0.1352134
233	0x3e336fb0	0.17523074
234	0x3e5b45c8	0.21413338
235	0x3e2e5756	0.17025504
236	0x3dcd16f8	0.100141466
237	0xbe172049	-0.1475841
238	0xbe0835b8	-0.13301742
239	0xbe0e9404	-0.13923651
240	0x3d722e23	0.05912603
241	0xbdd93a56	-0.1060683
242	0xbd69274c	-0.056922242
243	0xbdb9c6f1	-0.09071148
244	0xbd0c9e18	-0.034330457
245	0xbe207b14	-0.1567195
246	0xbdb0ef5a	-0.08639403
247	0x3d89dc02	0.06731416
248	0xbd790fcd	-0.060806084
249	0x3dbe39d6	0.09288375
250	0xbda76afb	-0.08174702
251	0xbe0bb795	-0.1364425
252	0x3cf9c9c2	0.030491713
253	0xbcda1e6b	-0.026625833
254	0x3d7bf481	0.061512474
255	0xbe2963ce	-0.16541979

tcn.network.0.conv2.bias f4 [64]
0	0x3cfaa04f	0.03059402
1	0xbcb3125b	-0.021859339
2	0xbd183acf	-0.03716546
3	0x3d50aa53	0.050943684
4	0xbd9a9fe7	-0.0755003
5	0xbc89bc45	-0.016813407
6	0xbc7d96c8	-0.015477844
7	0xbd8c3f4d	-0.06848011
8	0xbd958171	-0.073000796
9	0xbab2679b	-0.0013611199
10	0x3ca95e52	0.020674858
11	0x3ccfba5c	0.025357418
12	0xbdaf17ae	-0.085494384
13	0xbdb12c11	-0.08650983
14	0x3cffab2d	0.031209553
15	0x3dd358ca	0.103196695
16	0x3d7cd23e	0.06172394
17	0xbc9b6f8f	-0.018974094
18	0xbd8258c4	-0.06364587
19	0xbd80d19e	-0.06289981
20	0x3ce751ed	0.028237307
21	0xbd8e2b41	-0.06941844
22	0xbcfd501e	-0.030921992
23	0xbcaabcf7	-0.020842059
24	0xbca5f65d	-0.020259077
25	0x3cb7522e	0.022378054
26	0xbd865f57	-0.065611534
27	0xbc09e886	-0.008417254
28	0xbd86d96e	-0.0658444
29	0xbc8c5cfd	-0.017134184
30	0x3d01941d	0.031635392
31	0xbc02ded5	-0.007987698
32	0xbd80a30c	-0.06281099
33	0x3d05033d	0.03247379
34	0x3d422320	0.04739678
35	0xbde82cc2	-0.11336662
36	0xbd61be10	-0.0551129
37	0x3bda129e	0.0066550514
38	0xbd2134cd	-0.039356995
39	0xbdb0f44f	-0.08640348
40	0x3ca99022	0.02069861
41	0xbc22c4a3	-0.009934577
42	0xbdffe053	-0.12493958
43	0xbd5cb19c	-0.05388032
44	0xbafe4f7a	-0.0019402348
45	0xbd7c450f	-0.061589297
46	0x3d00ed14	0.031476095
47	0x3cb18a59	0.021672415
48	0x3d259fc5	0.04043557
49	0x3d41098b	0.04712824
50	0xbd8a6471	-0.06757439
51	0xbd11ea24	-0.035623685
52	0xbda17c0e	-0.0788499
53	0x3b722af6	0.0036951876
54	0xbdb81f7e	-0.08990382
55	0xbdcd966e	-0.10038458
56	0xbd8a7d0d	-0.06762133
57	0xbc2cd758	-0.010549389
58	0xbb7500b6	-0.0037384457
59	0x3c693db6	0.014235904
60	0xbd89bda3	-0.067256235
61	0xbc607b02	-0.013701202
62	0xbc794319	-0.015213751
63	0xbd3820fe	-0.04495334

tcn.network.0.conv2.weight_g f4 [64, 1, 1]
0	0x3f059119	0.52174526
1	0x3f0983b5	0.53716594
2	0x3f14aefb	0.580795
3	0x3f11758e	0.5682
4	0x3efc4809	0.49273708
5	0x3f0d6735	0.55235606
6	0x3f0aa955	0.5416463
7	0x3f08de3c	0.534641
8	0x3f0a14d7	0.5393805
9	0x3f0ec2ce	0.55766
10	0x3f057444	0.5213053
11	0x3f11e048	0.5698285
12	0x3ef1c4b2	0.4722038
13	0x3f0bf2e5	0.546675
14	0x3f130ea4	0.57444215
15	0x3f0b1bf2	0.54339516
16	0x3f13bc8e	0.57709587
17	0x3f134931	0.57533556
18	0x3f0fc1be	0.56155
19	0x3f1226eb	0.57090634
20	0x3f112622	0.5669881
21	0x3f13266d	0.5748051
22	0x3f1536ad	0.58286554
23	0x3f10df99	0.5659118
24	0x3f0e1f29	0.55516297
25	0x3f137706	0.5760349
26	0x3f1850c5	0.59498245
27	0x3f067a59	0.5253044
28	0x3f0ad984	0.5423815
29	0x3f0aaaab	0.5416667
30	0x3f01c53b	0.50691575
31	0x3f17521f	0.5910968
32	0x3f1016e8	0.5628495
33	0x3f091a42	0.5355569
34	0x3f0bfa5e	0.54678905
35	0x3f0afc4a	0.5429121
36	0x3f12abcf	0.5729341
37	0x3f143c57	0.5790457
38	0x3f0c651b	0.54841775
39	0x3f1201a2	0.5703374
40	0x3f0d2531	0.55134875
41	0x3f109617	0.5647902
42	0x3ef74d42	0.4830113
43	0x3f0fa8da	0.5611702
44	0x3f138ff3	0.57641524
45	0x3eff05f2	0.49809223
46	0x3f0afe0e	0.54293907
47	0x3f052074	0.52002645
48	0x3f1216ba	0.5706593
49	0x3f141b56	0.5785421
50	0x3f0e0db4	0.5548966
51	0x3f1709e5	0.5899947
52	0x3f06e57a	0.52693903
53	0x3f032544	0.5122874
54	0x3f119f73	0.56883925
55	0x3f081408	0.53155565
56	0x3f0fcd9a	0.561731
57	0x3f043a59	0.5165153
58	0x3f13d62c	0.57748675
59	0x3f0cc7ba	0.5499226
60	0x3f158a86	0.58414495
61	0x3f0ca232	0.5493499
62	0x3f0a89ba	0.54116404
63	0x3efe9ed5	0.49730554

tcn.network.0.conv2.weight_v f4 [64, 64, 3]
0	0x3bbb8429	0.005722542
1	0xbd215a69	-0.039392862
2	0xbd9d7ca1	-0.07689787
3	0xbd38b3b5	-0.045093257
4	0xbd5f8326	-0.054568432
5	0xbccbbcab	-0.024870237
6	0x3c8c91b5	0.017159322
7	0x3dc7f987	0.097643904
8	0x3dcab3b0	0.09897554
9	0xbd5cc2cc	-0.05389671
10	0xbdd2eed3	-0.10299458
11	0xbd27f1b4	-0.04100199
12	0xbd599473	-0.053120088
13	0x3d230ecc	0.039809033
14	0xbd2e769a	-0.042593576
15	0xbcf23aa6	-0.029568981
16	0xbc785f4c	-0.015159439
17	0xbd33cd11	-0.04389674
18	0x3cf2c299	0.029633807
19	0xbcc1b27a	-0.023644675
20	0xbc85143a	-0.016244996
21	0xbceaa1a4	-0.02864153
22	0xbc960c22	-0.018316332
23	0xbcd46925	-0.025929043
24	0x3aa080c1	0.0012245403
25	0xbc3ee029	-0.011650124
26	0x3c9d3b56	0.019193333
27	0xbd164657	-0.036688175
28	0xbd41d21e	-0.047319524
29	0xbd82fcfb	-0.063959084
30	0x3b843cb6	0.0040355576
31	0xbd29bc89	-0.041439567
32	0x3dc137ad	0.094344474
33	0xbd6abec4	-0.057310835
34	0xbd475ba6	-0.048671387
35	0xbccbf65f	-0.024897752
36	0x3d56c536	0.05243417
37	0xba82e372	-0.0009985997
38	0x3d8e4ef9	0.069486566
39	0xbcb42ddf	-0.02199453
40	0x3d53748b	0.051624816
41	0x3d04c990	0.032418787
42	0xbd22e94a	-0.039773263
43	0xbcfe0a15	-0.031010667
44	0x3d1892e2	0.037249453
45	0x3d22e968	0.039773375
46	0x3d5f285d	0.054481853
47	0x3d580708	0.05274108
48	0xbcfb9508	-0.030710712
49	0xbccb2f30	-0.024802774
50	0x3c230c06	0.009951597
51	0xbd27eebb	-0.040999155
52	0xbcc7d303	-0.02439261
53	0xbd20f0dc	-0.0392922
54	0x3d0eb57d	0.03484105
55	0x3d5f6dae	0.054547958
56	0x3c9c324f	0.019066958
57	0xbd3c5318	-0.045977682
58	0xbd3ffe6c	-0.046873495
59	0xbcd4f982	-0.02599788
60	0x3ce4187f	0.027843712
61	0x3bffe613	0.0078094094
62	0x3ca16c79	0.019705044
63	0x3deab319	0.114599414
64	0x3d91c72e	0.07118069
65	0x3d69f601	0.057119373
66	0xbc2e014a	-0.0106204245
67	0x3d114e77	0.03547522
68	0x3d1aafe3	0.037765395
69	0xbda6e596	-0.08149259
70	0xbd706b9a	-0.058696367
71	0xbcad3a5b	-0.02114599
72	0x3c3bf833	0.0114727495
73	0x3ce1dde8	0.027571633
74	0xbd4a8702	-0.04944516
75	0xbde227c2	-0.110427395
76	0xbd136676	-0.035986386
77	0xbce807af	-0.028323976
78	0x3c5e5d93	0.0135721145
79	0xbca2b89f	-0.019863425
80	0x3dbf6f70	0.09347427
81	0x3cc71570	0.024302214
82	0x3d6e52a1	0.05818427
83	0xbd3c8c00	-0.046031952
84	0x3d21f642	0.03954149
85	0x3d028d72	0.031873174
86	0xbcfa8051	-0.030578764
87	0x3d430a84	0.04761745
88	0xbdbb4181	-0.09143353
89	0x3d72bcb8	0.059262007
90	0xbb038153	-0.0020066097
91	0xba899dd6	-0.0010499309
92	0x3cb2e122	0.021835867
93	0xbbb0f228	-0.005399961
94	0x3d2bc88f	0.041939314
95	0x3d69d6aa	0.057089485
96	0xbd345b0f	-0.044032153
97	0x3d1b182e	0.037864856
98	0xbc584526	-0.01320008
99	0xbce62052	-0.028091583
100	0x3bd3f689	0.0064685983
101	0x3d299f47	0.041411664
102	0xbd5b9dd8	-0.05361733
103	0xbd4b3d54	-0.049619034
104	0x3cd7a28a	0.026322622
105	0xbccfdf22	-0.025374953
106	0x3d1713f4	0.036884263
107	0x3ba19164	0.004930662
108	0x3d8458b4	0.06462231
109	0x3dcd8214	0.10034576
110	0xbc540017	-0.012939475
111	0xbd25b73c	-0.04045795
112	0x3cb565b9	0.022143232
113	0x3bffb162	0.007803128
114	0xbc348c3d	-0.011019764
115	0xbd89baa5	-0.06725053
116	0x3d37122f	0.044695076
117	0xbc942424	-0.01808364
118	0xbc1c2f29	-0.009532728
119	0xbcd9e4c8	-0.02659835
120	0xbb9385fb	-0.0045020557
121	0x3d2e7c58	0.042599052
122	0x3cabd790	0.020976812
123	0x3d30c35a	0.04315505
124	0xbd1ab0a1	-0.037766103
125	0xbd374c10	-0.044750273
126	0xbcfd4b32	-0.030919645
127	0xbd90c497	-0.070687465
128	0xbd9a52c2	-0.07535316
129	0x3cb447af	0.022006838
130	0x3d54ac78	0.05192229
131	0x3c850c58	0.016241238
132	0x3d268695	0.04065569
133	0x3d33df6f	0.043914255
134	0x3cc88892	0.024479184
135	0xbc73ba9d	-0.014876035
136	0x3c76157b	0.01501977
137	0xbd358ef6	-0.04432579
138	0x3d99f4b0	0.075173736
139	0x3dbb6537	0.091501646
140	0x3d056d73	0.032575082
141	0x3d2e7be9	0.04259864
142	0x3de60a2a	0.112324074
143	0xbd167481	-0.0367322
144	0x3ce7bdaf	0.02828869
145	0x3ce811d5	0.028328815
146	0x3c8b48ab	0.017002424
147	0xbd3635b2	-0.0444848
148	0xbd966d77	-0.073450975
149	0x3d3b62a5	0.04574837
150	0xbd122bfd	-0.03568648
151	0x3c909d88	0.017653242
152	0x3d23b1c1	0.03996444
153	0xbd8e788d	-0.06956587
154	0x3c87a991	0.016560348
155	0xbcb4d5e0	-0.02207464
156	0x3d26ac4f	0.04069167
157	0xbd740290	-0.059572756
158	0x3d024aad	0.031809498
159	0x3d4af7e8	0.049552828
160	0x3d22090d	0.039559413
161	0x3dbd2181	0.09234906
162	0xbb7645cf	-0.003757823
163	0xbdc8f00b	-0.098114096
164	0x3c3e584d	0.011617732
165	0x3c15d2f9	0.009144538
166	0x3c84c747	0.016208304
167	0xbd85f1c9	-0.065402575
168	0xbc9e40e9	-0.019318061
169	0xbd3686ca	-0.04456214
170	0x3d3ac106	0.045594238
171	0x3d340acb	0.043955605
172	0x3d3fe5ae	0.0468499
173	0x3d1a2d0f	0.037640627
174	0xbd72a40c	-0.05923848
175	0xbd7698e0	-0.060204387
176	0xbd66cb6f	-0.056346353
177	0xbd08da1f	-0.03341114
178	0x3d05dc7e	0.03268098
179	0x3c149b13	0.009070176
180	0x3d84decc	0.06487808
181	0x3bd16c65	0.0063910955
182	0xbda093bf	-0.0784068
183	0xbd3b3f68	-0.045714766
184	0x3d189555	0.03725179
185	0x3d1a60a4	0.03768982
186	0x3c01fc59	0.0079336995
187	0xbd58a51e	-0.052891843
188	0xbdd06c92	-0.10176958
189	0xbd865adc	-0.06560299
190	0x3d249a93	0.040186476
191	0xbd1ea723	-0.038733613
192	0xbc9268e6	-0.017872285
193	0xbd801c65	-0.06255416
194	0xbe0eaa62	-0.13932183
195	0x3cf3c0ab	0.029754957
196	0xbd0f8598	-0.035039514
197	0xbd4ac928	-0.049508244
198	0xbcc7e132	-0.024399374
199	0xbcbe04b8	-0.02319561
200	0x3d81352e	0.06308971
201	0xbc092fee	-0.008373244
202	0xbd90fde4	-0.07079676
203	0x3c429485	0.01187623
204	0xbd8a2ad5	-0.06746451
205	0xbd90b798	-0.07066268
206	0xbce1943c	-0.027536504
207	0xbcde86aa	-0.027163822
208	0x3ba1fc02	0.0049433718
209	0x3cea727a	0.02861904
210	0x3bfd8b82	0.007737578
211	0xbddeedc2	-0.108851925
212	0xbc736938	-0.014856629
213	0x3de786aa	0.11304982
214	0x3d99beb4	0.07507077
215	0x3dcbcdbe	0.099513516
216	0x3d663bfc	0.05620955
217	0xbcdeec9d	-0.027212435
218	0xbd0aa253	-0.03384621
219	0xbd4ed2ea	-0.050494112
220	0xbd7969ff	-0.0608921
221	0xbd0e0ae1	-0.034678344
222	0x3b8a7442	0.004225285
223	0x3d5ed978	0.054406613
224	0x3cd32cab	0.025778135
225	0xbd191bf3	-0.03738017
226	0xbcba149f	-0.022714911
227	0xb9de3f4b	-0.00042390297
228	0xbcb8a3d6	-0.02253906
229	0x3cb9c2d9	0.022675918
230	0xbda0b3e4	-0.078468114
231	0x3d1f6e6d	0.03892367
232	0xbc203efa	-0.00978064
233	0xbd4e42e9	-0.05035678
234	0x3b8cbb56	0.004294793
235	0x3d39cb32	0.045359798
236	0x3d88df50	0.066832185
237	0x3d3d46d2	0.046210118
238	0x3c830519	0.015993642
239	0xbcb73e02	-0.022368435
240	0xbd06269e	-0.032751672
241	0x3c6846b0	0.014177009
242	0x3d18a3f1	0.03726572
243	0x3db125e4	0.08649805
244	0x3d450a7a	0.048105694
245	0xbc36028e	-0.0111090075
246	0x3ca27c71	0.019834729
247	0xbc95aba4	-0.018270321
248	0xbcdc290c	-0.026875041
249	0xbd539bea	-0.051662363
250	0x3ca3680b	0.019947072
251	0xbd24cdc2	-0.04023529
252	0x3d199367	0.03749409
253	0x3d07ef6d	0.03318732
254	0xbd58c2ea	-0.05292026
255	0xbdc51461	-0.096230276

tcn.network.0.net.0.bias f4 [64]
0	0xbdfe5d0f	-0.12420093
1	0xbe25457f	-0.16139792
2	0xbdb1576f	-0.08659255
3	0xbdae38b9	-0.08506913
4	0x3de41551	0.11136878
5	0xbd3f3aac	-0.046686813
6	0x3d1b26b3	0.037878703
7	0xbdef98b5	-0.116990484
8	0x3df464f8	0.11933321
9	0x3dc0a508	0.09406477
10	0xbe3f2e84	-0.18670088
11	0xbd52d4bb	-0.051472407
12	0xbe238926	-0.15970287
13	0x3d5fd5ac	0.054647133
14	0xbe688c9a	-0.22709885
15	0xbe196f9d	-0.14983983
16	0x3e17c89e	0.14822623
17	0xbe722a49	-0.23648943
18	0x3cbf14d7	0.023325367
19	0x3c5305bc	0.012879785
20	0x3dad5209	0.084629126
21	0xbe3ccb0f	-0.18436836
22	0x3d935f08	0.0719586
23	0xb9cdae5c	-0.00039230555
24	0x3c18b9bc	0.009321626
25	0x3df888bd	0.12135456
26	0xbe73e695	-0.23818429
27	0xbe4372c0	-0.19086742
28	0x3ddc5cb8	0.10759872
29	0xbe32e574	-0.17470342
30	0xbe20a922	-0.15689519
31	0xbd8bc599	-0.06824798
32	0xbd8c6225	-0.06854657
33	0xbd99f34b	-0.075171076
34	0xbd8f1cec	-0.06987938
35	0x3cfbcdf2	0.03073785
36	0xbe63d24b	-0.22248189
37	0xbced1bbb	-0.028943887
38	0x3df4a290	0.11945069
39	0xbbbdcc2a	-0.0057921605
40	0xbb20c252	-0.0024529886
41	0xba2f6632	-0.00066909485
42	0xbdd7b229	-0.10532028
43	0xbd3af59d	-0.04564439
44	0xbdfdf113	-0.12399497
45	0xbe1bd6fe	-0.15218732
46	0xbe3d726c	-0.1850068
47	0x3e140fcf	0.14459155
48	0xbd40f957	-0.04711279
49	0x3d010ba0	0.031505227
50	0x3dc7d430	0.097572684
51	0xbd7a4a0d	-0.061105777
52	0xbe097197	-0.13422237
53	0xbe4756e5	-0.19466741
54	0xbdbc1529	-0.091837235
55	0x3d7732bc	0.06035112
56	0xbe3dcbd6	-0.18534788
57	0xbd23ecbe	-0.040020697
58	0x3d8812b0	0.06644189
59	0x3dc35731	0.09538115
60	0x3d39a52d	0.04532354
61	0xbbcde7b5	-0.006283725
62	0x3deb0782	0.114760414
63	0x3d395017	0.045242395

tcn.network.0.net.0.weight_g f4 [64, 1, 1]
0	0x3f108388	0.564507
1	0x3f0f11e5	0.5588668
2	0x3f17018b	0.5898673
3	0x3f1f9473	0.6233589
4	0x3f1b04b1	0.60554034
5	0x3f0961d5	0.53664905
6	0x3ee3f2e4	0.44521248
7	0x3f1f0c46	0.621281
8	0x3f0fcf8c	0.56176066
9	0x3f168fa6	0.5881294
10	0x3f1c7dec	0.6112964
11	0x3f19f2c6	0.6013607
12	0x3f1bfa9a	0.6092926
13	0x3f076444	0.5288737
14	0x3f07d016	0.5305189
15	0x3f0577ad	0.52135736
16	0x3f00a5f9	0.50253254
17	0x3f143399	0.5789123
18	0x3f0d6311	0.5522929
19	0x3f064186	0.5244373
20	0x3f1da6ef	0.61582845
21	0x3f185d21	0.59517103
22	0x3f05fa39	0.52334934
23	0x3f20b46e	0.62775314
24	0x3f2592b9	0.64677006
25	0x3f0bb815	0.5457776
26	0x3f188b2a	0.5958735
27	0x3efb569d	0.49089518
28	0x3f1b25ec	0.6060474
29	0x3ee92310	0.45534563
30	0x3f0aa832	0.54162896
31	0x3f153d7e	0.58296955
32	0x3f041421	0.51593214
33	0x3efcb7cc	0.49358976
34	0x3f04064a	0.51572096
35	0x3f190277	0.59769386
36	0x3f16ffa0	0.589838
37	0x3f1e4e72	0.6183845
38	0x3f21f2cf	0.6326112
39	0x3f00ed64	0.5036223
40	0x3f16a84a	0.5885054
41	0x3ef41140	0.4766941
42	0x3f1808b6	0.5938829
43	0x3f0cdf17	0.5502791
44	0x3f12ad8a	0.5729605
45	0x3f0cc9f9	0.54995686
46	0x3f0f5779	0.5599285
47	0x3f045ba6	0.51702344
48	0x3f1778df	0.5916881
49	0x3f07c2aa	0.5303141
50	0x3effc104	0.49951947
51	0x3f059e9d	0.5219515
52	0x3ebf73d2	0.3739305
53	0x3f092650	0.53574085
54	0x3f20d291	0.628213
55	0x3f118ee3	0.5685865
56	0x3f0eeed3	0.55833167
57	0x3f096b0c	0.53678966
58	0x3f1fe0ec	0.6245258
59	0x3f17535f	0.5911159
60	0x3f0d0f9c	0.55101943
61	0x3f0ecac0	0.5577812
62	0x3f11f447	0.5701336
63	0x3f19cb3d	0.6007574

tcn.network.0.net.0.weight_v f4 [64, 10, 3]
0	0x3df664b5	0.12030927
1	0x3e07a232	0.13245466
2	0xbd6e357e	-0.058156483
3	0x3e415ce4	0.18883091
4	0xbce11084	-0.027473696
5	0x3d6d181a	0.057884313
6	0xbd3f55f9	-0.04671285
7	0x3e6846ee	0.22683308
8	0x3e845970	0.25849485
9	0xbe0b5209	-0.13605513
10	0x3e10d7e6	0.14144859
11	0x3ae89810	0.0017745513
12	0x3e098667	0.13430177
13	0x3c5b78a5	0.013395463
14	0x3dbee67c	0.09321305
15	0xbbfffa29	-0.007811804
16	0x3e12025c	0.14258713
17	0xbc2a9f71	-0.01041399
18	0xbd9ede58	-0.077572525
19	0x3d4a3022	0.04936231
20	0xbd49b148	-0.049241334
21	0x3d9420a3	0.072327875
22	0xbd16fb85	-0.03686096
23	0x3e1b2608	0.15151227
24	0xbe04008a	-0.1289083
25	0xbd2b9e43	-0.041898977
26	0x39cb2136	0.0003874392
27	0xbd9c420c	-0.07629785
28	0x3cccc858	0.024997875
29	0xbe3d458e	-0.18483564
30	0x3e0e882a	0.1391913
31	0xbe3779a9	-0.17917503
32	0x3dedfab9	0.11620087
33	0x3d487af3	0.04894538
34	0xbd2a4e4a	-0.04157857
35	0x3e16e581	0.14735986
36	0x3d47062e	0.048589878
37	0x3e3e8d26	0.18608531
38	0x3d5655d8	0.05232796
39	0xbd98b1c3	-0.0745578
40	0x3d1147a5	0.035468716
41	0xbd9fab16	-0.07796304
42	0x3da8861f	0.082287066
43	0x3e1a019e	0.1503968
44	0x3d831959	0.06401319
45	0xbdb0a59f	-0.0862534
46	0x3dda35e3	0.10654809
47	0x3c985f81	0.018600227
48	0x3d80d52f	0.062906615
49	0xbde6f919	-0.1127798
50	0xbe26c4cd	-0.16286011
51	0xbd6726ac	-0.056433365
52	0xbe0f6715	-0.14004166
53	0x3e28470e	0.16433355
54	0x3d816e6c	0.063198894
55	0x3da1a9c5	0.07893709
56	0x3d80af55	0.06283442
57	0x3ce2d0e7	0.027687503
58	0x3e2270dd	0.15863366
59	0xbe057488	-0.13032734
60	0x3acde8ae	0.0015709603
61	0xbe0d25ec	-0.13783997
62	0x3d1ddb6d	0.03853934
63	0xbdbc687f	-0.091996185
64	0x3c74df09	0.014945754
65	0xbdd9d94c	-0.10637149
66	0x3e1718de	0.1475558
67	0xbe0901ea	-0.13379636
68	0xbe20d095	-0.15704568
69	0xbdc5397c	-0.09630105
70	0x3e2acc1a	0.16679421
71	0x3da896e0	0.08231902
72	0x3e3c4ce6	0.1838871
73	0xbd5001c1	-0.050782923
74	0xbdc5fbeb	-0.0966719
75	0xbd99903c	-0.07498214
76	0xbd99b560	-0.07505298
77	0x3e1138f0	0.14181876
78	0x3d44acd2	0.048016377
79	0x3db5c397	0.088751964
80	0xbe2820d8	-0.16418779
81	0xbd330893	-0.04370935
82	0x3d9073a0	0.07053304
83	0xbdc0b95e	-0.09410356
84	0x3e01864f	0.12648891
85	0xbcabac6b	-0.020956239
86	0x3d695e8e	0.05697494
87	0xbe76fa39	-0.2411889
88	0xbe247c9c	-0.1606316
89	0x3d179fde	0.037017696
90	0x3d10a808	0.035316497
91	0xbd481b9b	-0.04885445
92	0x3dd5ca98	0.10439032
93	0x3da47411	0.080299504
94	0xbe2f4428	-0.17115843
95	0xbe113b78	-0.14182842
96	0x3e4e470c	0.2014429
97	0xbcd72ffb	-0.026267996
98	0xbd1cb970	-0.038262784
99	0xbe832c7b	-0.25619873
100	0xbe225367	-0.15852128
101	0x3c058298	0.008148812
102	0xbc4f7bb4	-0.0126637705
103	0xbdd97c6e	-0.10619436
104	0x3cb7e9d6	0.022450369
105	0x3d73b42c	0.059497997
106	0x3c6c168a	0.014409671
107	0x3cd74987	0.026280178
108	0xbcbb7b2d	-0.022885883
109	0x3b43bbce	0.002986658
110	0x3e66eb99	0.22550811
111	0x3d5eecb3	0.054424953
112	0x3d961bc4	0.073295146
113	0xbe149ebd	-0.14513679
114	0xbdd4547d	-0.10367677
115	0xbd8ba0dd	-0.068177916
116	0x3c32e469	0.010918715
117	0xbe2ff962	-0.17184976
118	0xbdc2d635	-0.09513513
119	0xbe3e98d2	-0.18612984
120	0x3a20b4d1	0.00061304594
121	0xbd8dfb3a	-0.06932683
122	0xbc848712	-0.016177688
123	0xbde41ad6	-0.11137931
124	0xbdf6ae50	-0.12044966
125	0xbde73212	-0.11288847
126	0xbd714463	-0.05890311
127	0xbe12dc63	-0.14341883
128	0x3e0fcca4	0.14042908
129	0xbdb781eb	-0.08960327
130	0x3dc702ac	0.097173065
131	0x3bf4a7a0	0.0074662715
132	0xbe0e3a9a	-0.13889542
133	0x3e1bcca7	0.15214787
134	0xbd1a7bd4	-0.037715748
135	0xbddabdbd	-0.10680721
136	0xbe46036c	-0.19337243
137	0xbe6747a7	-0.22585927
138	0x3dcd652f	0.10029065
139	0xbd0be2d1	-0.034151856
140	0x3db610ad	0.088898994
141	0xbe179efc	-0.14806741
142	0x3df70faa	0.120635346
143	0xbe14d699	-0.14534988
144	0xbdba83e6	-0.09107189
145	0x3b9fd215	0.0048773387
146	0x3c7a6544	0.015282933
147	0x3dd85fac	0.10565123
148	0x3ddbb7f2	0.10728444
149	0xbe3f2338	-0.18665779
150	0x3d60955d	0.054829944
151	0xbd9736db	-0.0738351
152	0xbcc71a8d	-0.024304653
153	0xbdeebb46	-0.11656813
154	0x3e3238e4	0.17404515
155	0xbe26e4d7	-0.16298233
156	0x3d4c7c84	0.049923435
157	0x3c192d3d	0.009349165
158	0xbcbdabe8	-0.02315326
159	0xbe0459b2	-0.12924841
160	0x3e2c1de5	0.16808279
161	0x3d5f3dff	0.054502483
162	0xbc832735	-0.016009906
163	0xbe17fdcf	-0.14842914
164	0x3d9e0834	0.07716408
165	0xbd729adc	-0.059229717
166	0xbde97aec	-0.114003986
167	0x3e0edbc2	0.13951018
168	0x3d2c2ed0	0.04203683
169	0xbdc27cd8	-0.09496468
170	0xbdf0484d	-0.1173254
171	0xbd091e0a	-0.033475913
172	0x3d554cdc	0.052075252
173	0xbddfdbeb	-0.10930618
174	0xbd5feaab	-0.054667156
175	0xbd651879	-0.055931542
176	0xbe5f5464	-0.21809536
177	0x3d26aeea	0.040694155
178	0x3e12e5a6	0.14345416
179	0xbe392fdf	-0.18084668
180	0x3ce34eb4	0.02774749
181	0x3da345fb	0.07972332
182	0x3ca0e96d	0.019642556
183	0xbd7c8027	-0.061645653
184	0x3de1b2df	0.11020445
185	0x3debe7c7	0.115188174
186	0x3dee65c4	0.11640504
187	0xbccc627b	-0.024949303
188	0xbd2361da	-0.03988824
189	0x3c22efd9	0.009944879
190	0xbd55456e	-0.052068166
191	0xbda81f8f	-0.08209144
192	0x3dd8e8d9	0.10591287
193	0x3e1c1a8c	0.15244502
194	0xbd78db83	-0.060756218
195	0xbd34e8be	-0.044167273
196	0xbcc594fd	-0.024118895
197	0xbcfaf3f7	-0.03063391
198	0x3d4cf4d0	0.05003816
199	0x3da0b9db	0.07847949
200	0xbe314afe	-0.17313763
201	0xbd12d113	-0.03584392
202	0x3e30ce79	0.17266263
203	0x3dcf9ebb	0.10137697
204	0x3cc55c26	0.024091791
205	0xbdd7c846	-0.10536246
206	0xbdcfc844	-0.101456195
207	0xbe244aaa	-0.16044107
208	0xbc9a6bf8	-0.018850312
209	0x3db46bf9	0.08809657
210	0x3db807d3	0.08985867
211	0x3d706b9b	0.05869637
212	0xbe3e3dbf	-0.18578242
213	0xbde24461	-0.110481985
214	0xbcebcc42	-0.028783921
215	0x3e3b5e4c	0.1829769
216	0x3bd94d95	0.006631563
217	0xbd8eb2b4	-0.06967679
218	0x3d6fa8ae	0.058510475
219	0xbdb2c8ae	-0.08729683
220	0xbe289722	-0.16463903
221	0x3df16bba	0.11788125
222	0xbd3ac5af	-0.045598682
223	0x3d30870c	0.04309754
224	0xbe0cef3d	-0.13763137
225	0x3c93a47b	0.018022766
226	0x3c8ffbc4	0.017576106
227	0xbcee0160	-0.02905339
228	0xbe06a7c1	-0.1314993
229	0xbe2f67c4	-0.17129427
230	0xbe097879	-0.13424863
231	0x3e258ebc	0.1616773
232	0x3e0a7562	0.1352134
233	0x3e336fb0	0.17523074
234	0x3e5b45c8	0.21413338
235	0x3e2e5756	0.17025504
236	0x3dcd16f8	0.100141466
237	0xbe172049	-0.1475841
238	0xbe0835b8	-0.13301742
239	0xbe0e9404	-0.13923651
240	0x3d722e23	0.05912603
241	0xbdd93a56	-0.1060683
242	0xbd69274c	-0.056922242
243	0xbdb9c6f1	-0.09071148
244	0xbd0c9e18	-0.034330457
245	0xbe207b14	-0.1567195
246	0xbdb0ef5a	-0.08639403
247	0x3d89dc02	0.06731416
248	0xbd790fcd	-0.060806084
249	0x3dbe39d6	0.09288375
250	0xbda76afb	-0.08174702
251	0xbe0bb795	-0.1364425
252	0x3cf9c9c2	0.030491713
253	0xbcda1e6b	-0.026625833
254	0x3d7bf481	0.061512474
255	0xbe2963ce	-0.16541979

tcn.network.0.net.4.bias f4 [64]
0	0x3cfaa04f	0.03059402
1	0xbcb3125b	-0.021859339
2	0xbd183acf	-0.03716546
3	0x3d50aa53	0.050943684
4	0xbd9a9fe7	-0.0755003
5	0xbc89bc45	-0.016813407
6	0xbc7d96c8	-0.015477844
7	0xbd8c3f4d	-0.06848011
8	0xbd958171	-0.073000796
9	0xbab2679b	-0.0013611199
10	0x3ca95e52	0.020674858
11	0x3ccfba5c	0.025357418
12	0xbdaf17ae	-0.085494384
13	0xbdb12c11	-0.08650983
14	0x3cffab2d	0.031209553
15	0x3dd358ca	0.103196695
16	0x3d7cd23e	0.06172394
17	0xbc9b6f8f	-0.018974094
18	0xbd8258c4	-0.06364587
19	0xbd80d19e	-0.06289981
20	0x3ce751ed	0.028237307
21	0xbd8e2b41	-0.06941844
22	0xbcfd501e	-0.030921992
23	0xbcaabcf7	-0.020842059
24	0xbca5f65d	-0.020259077
25	0x3cb7522e	0.022378054
26	0xbd865f57	-0.065611534
27	0xbc09e886	-0.008417254
28	0xbd86d96e	-0.0658444
29	0xbc8c5cfd	-0.017134184
30	0x3d01941d	0.031635392
31	0xbc02ded5	-0.007987698
32	0xbd80a30c	-0.06281099
33	0x3d05033d	0.03247379
34	0x3d422320	0.04739678
35	0xbde82cc2	-0.11336662
36	0xbd61be10	-0.0551129
37	0x3bda129e	0.0066550514
38	0xbd2134cd	-0.039356995
39	0xbdb0f44f	-0.08640348
40	0x3ca99022	0.02069861
41	0xbc22c4a3	-0.009934577
42	0xbdffe053	-0.12493958
43	0xbd5cb19c	-0.05388032
44	0xbafe4f7a	-0.0019402348
45	0xbd7c450f	-0.061589297
46	0x3d00ed14	0.031476095
47	0x3cb18a59	0.021672415
48	0x3d259fc5	0.04043557
49	0x3d41098b	0.04712824
50	0xbd8a6471	-0.06757439
51	0xbd11ea24	-0.035623685
52	0xbda17c0e	-0.0788499
53	0x3b722af6	0.0036951876
54	0xbdb81f7e	-0.08990382
55	0xbdcd966e	-0.10038458
56	0xbd8a7d0d	-0.06762133
57	0xbc2cd758	-0.010549389
58	0xbb7500b6	-0.0037384457
59	0x3c693db6	0.014235904
60	0xbd89bda3	-0.067256235
61	0xbc607b02	-0.013701202
62	0xbc794319	-0.015213751
63	0xbd3820fe	-0.04495334

tcn.network.0.net.4.weight_g f4 [64, 1, 1]
0	0x3f059119	0.52174526
1	0x3f0983b5	0.53716594
2	0x3f14aefb	0.580795
3	0x3f11758e	0.5682
4	0x3efc4809	0.49273708
5	0x3f0d6735	0.55235606
6	0x3f0aa955	0.5416463
7	0x3f08de3c	0.534641
8	0x3f0a14d7	0.5393805
9	0x3f0ec2ce	0.55766
10	0x3f057444	0.5213053
11	0x3f11e048	0.5698285
12	0x3ef1c4b2	0.4722038
13	0x3f0bf2e5	0.546675
14	0x3f130ea4	0.57444215
15	0x3f0b1bf2	0.54339516
16	0x3f13bc8e	0.57709587
17	0x3f134931	0.57533556
18	0x3f0fc1be	0.56155
19	0x3f1226eb	0.57090634
20	0x3f112622	0.5669881
21	0x3f13266d	0.5748051
22	0x3f1536ad	0.58286554
23	0x3f10df99	0.5659118
24	0x3f0e1f29	0.55516297
25	0x3f137706	0.5760349
26	0x3f1850c5	0.59498245
27	0x3f067a59	0.5253044
28	0x3f0ad984	0.5423815
29	0x3f0aaaab	0.5416667
30	0x3f01c53b	0.50691575
31	0x3f17521f	0.5910968
32	0x3f1016e8	0.5628495
33	0x3f091a42	0.5355569
34	0x3f0bfa5e	0.54678905
35	0x3f0afc4a	0.5429121
36	0x3f12abcf	0.5729341
37	0x3f143c57	0.5790457
38	0x3f0c651b	0.54841775
39	0x3f1201a2	0.5703374
40	0x3f0d2531	0.55134875
41	0x3f109617	0.5647902
42	0x3ef74d42	0.4830113
43	0x3f0fa8da	0.5611702
44	0x3f138ff3	0.57641524
45	0x3eff05f2	0.49809223
46	0x3f0afe0e	0.54293907
47	0x3f052074	0.52002645
48	0x3f1216ba	0.5706593
49	0x3f141b56	0.5785421
50	0x3f0e0db4	0.5548966
51	0x3f1709e5	0.5899947
52	0x3f06e57a	0.52693903
53	0x3f032544	0.5122874
54	0x3f119f73	0.56883925
55	0x3f081408	0.53155565
56	0x3f0fcd9a	0.561731
57	0x3f043a59	0.5165153
58	0x3f13d62c	0.57748675
59	0x3f0cc7ba	0.5499226
60	0x3f158a86	0.58414495
61	0x3f0ca232	0.5493499
62	0x3f0a89ba	0.54116404
63	0x3efe9ed5	0.49730554

tcn.network.0.net.4.weight_v f4 [64, 64, 3]
0	0x3bbb8429	0.005722542
1	0xbd215a69	-0.039392862
2	0xbd9d7ca1	-0.07689787
3	0xbd38b3b5	-0.045093257
4	0xbd5f8326	-0.054568432
5	0xbccbbcab	-0.024870237
6	0x3c8c91b5	0.017159322
7	0x3dc7f987	0.097643904
8	0x3dcab3b0	0.09897554
9	0xbd5cc2cc	-0.05389671
10	0xbdd2eed3	-0.10299458
11	0xbd27f1b4	-0.04100199
12	0xbd599473	-0.053120088
13	0x3d230ecc	0.039809033
14	0xbd2e769a	-0.042593576
15	0xbcf23aa6	-0.029568981
16	0xbc785f4c	-0.015159439
17	0xbd33cd11	-0.04389674
18	0x3cf2c299	0.029633807
19	0xbcc1b27a	-0.023644675
20	0xbc85143a	-0.016244996
21	0xbceaa1a4	-0.02864153
22	0xbc960c22	-0.018316332
23	0xbcd46925	-0.025929043
24	0x3aa080c1	0.0012245403
25	0xbc3ee029	-0.011650124
26	0x3c9d3b56	0.019193333
27	0xbd164657	-0.036688175
28	0xbd41d21e	-0.047319524
29	0xbd82fcfb	-0.063959084
30	0x3b843cb6	0.0040355576
31	0xbd29bc89	-0.041439567
32	0x3dc137ad	0.094344474
33	0xbd6abec4	-0.057310835
34	0xbd475ba6	-0.048671387
35	0xbccbf65f	-0.024897752
36	0x3d56c536	0.05243417
37	0xba82e372	-0.0009985997
38	0x3d8e4ef9	0.069486566
39	0xbcb42ddf	-0.02199453
40	0x3d53748b	0.051624816
41	0x3d04c990	0.032418787
42	0xbd22e94a	-0.039773263
43	0xbcfe0a15	-0.031010667
44	0x3d1892e2	0.037249453
45	0x3d22e968	0.039773375
46	0x3d5f285d	0.054481853
47	0x3d580708	0.05274108
48	0xbcfb9508	-0.030710712
49	0xbccb2f30	-0.024802774
50	0x3c230c06	0.009951597
51	0xbd27eebb	-0.040999155
52	0xbcc7d303	-0.02439261
53	0xbd20f0dc	-0.0392922
54	0x3d0eb57d	0.03484105
55	0x3d5f6dae	0.054547958
56	0x3c9c324f	0.019066958
57	0xbd3c5318	-0.045977682
58	0xbd3ffe6c	-0.046873495
59	0xbcd4f982	-0.02599788
60	0x3ce4187f	0.027843712
61	0x3bffe613	0.0078094094
62	0x3ca16c79	0.019705044
63	0x3deab319	0.114599414
64	0x3d91c72e	0.07118069
65	0x3d69f601	0.057119373
66	0xbc2e014a	-0.0106204245
67	0x3d114e77	0.03547522
68	0x3d1aafe3	0.037765395
69	0xbda6e596	-0.08149259
70	0xbd706b9a	-0.058696367
71	0xbcad3a5b	-0.02114599
72	0x3c3bf833	0.0114727495
73	0x3ce1dde8	0.027571633
74	0xbd4a8702	-0.04944516
75	0xbde227c2	-0.110427395
76	0xbd136676	-0.035986386
77	0xbce807af	-0.028323976
78	0x3c5e5d93	0.0135721145
79	0xbca2b89f	-0.019863425
80	0x3dbf6f70	0.09347427
81	0x3cc71570	0.024302214
82	0x3d6e52a1	0.05818427
83	0xbd3c8c00	-0.046031952
84	0x3d21f642	0.03954149
85	0x3d028d72	0.031873174
86	0xbcfa8051	-0.030578764
87	0x3d430a84	0.04761745
88	0xbdbb4181	-0.09143353
89	0x3d72bcb8	0.059262007
90	0xbb038153	-0.0020066097
91	0xba899dd6	-0.0010499309
92	0x3cb2e122	0.021835867
93	0xbbb0f228	-0.005399961
94	0x3d2bc88f	0.041939314
95	0x3d69d6aa	0.057089485
96	0xbd345b0f	-0.044032153
97	0x3d1b182e	0.037864856
98	0xbc584526	-0.01320008
99	0xbce62052	-0.028091583
100	0x3bd3f689	0.0064685983
101	0x3d299f47	0.041411664
102	0xbd5b9dd8	-0.05361733
103	0xbd4b3d54	-0.049619034
104	0x3cd7a28a	0.026322622
105	0xbccfdf22	-0.025374953
106	0x3d1713f4	0.036884263
107	0x3ba19164	0.004930662
108	0x3d8458b4	0.06462231
109	0x3dcd8214	0.10034576
110	0xbc540017	-0.012939475
111	0xbd25b73c	-0.04045795
112	0x3cb565b9	0.022143232
113	0x3bffb162	0.007803128
114	0xbc348c3d	-0.011019764
115	0xbd89baa5	-0.06725053
116	0x3d37122f	0.044695076
117	0xbc942424	-0.01808364
118	0xbc1c2f29	-0.009532728
119	0xbcd9e4c8	-0.02659835
120	0xbb9385fb	-0.0045020557
121	0x3d2e7c58	0.042599052
122	0x3cabd790	0.020976812
123	0x3d30c35a	0.04315505
124	0xbd1ab0a1	-0.037766103
125	0xbd374c10	-0.044750273
126	0xbcfd4b32	-0.030919645
127	0xbd90c497	-0.070687465
128	0xbd9a52c2	-0.07535316
129	0x3cb447af	0.022006838
130	0x3d54ac78	0.05192229
131	0x3c850c58	0.016241238
132	0x3d268695	0.04065569
133	0x3d33df6f	0.043914255
134	0x3cc88892	0.024479184
135	0xbc73ba9d	-0.014876035
136	0x3c76157b	0.01501977
137	0xbd358ef6	-0.04432579
138	0x3d99f4b0	0.075173736
139	0x3dbb6537	0.091501646
140	0x3d056d73	0.032575082
141	0x3d2e7be9	0.04259864
142	0x3de60a2a	0.112324074
143	0xbd167481	-0.0367322
144	0x3ce7bdaf	0.02828869
145	0x3ce811d5	0.028328815
146	0x3c8b48ab	0.017002424
147	0xbd3635b2	-0.0444848
148	0xbd966d77	-0.073450975
149	0x3d3b62a5	0.04574837
150	0xbd122bfd	-0.03568648
151	0x3c909d88	0.017653242
152	0x3d23b1c1	0.03996444
153	0xbd8e788d	-0.06956587
154	0x3c87a991	0.016560348
155	0xbcb4d5e0	-0.02207464
156	0x3d26ac4f	0.04069167
157	0xbd740290	-0.059572756
158	0x3d024aad	0.031809498
159	0x3d4af7e8	0.049552828
160	0x3d22090d	0.039559413
161	0x3dbd2181	0.09234906
162	0xbb7645cf	-0.003757823
163	0xbdc8f00b	-0.098114096
164	0x3c3e584d	0.011617732
165	0x3c15d2f9	0.009144538
166	0x3c84c747	0.016208304
167	0xbd85f1c9	-0.065402575
168	0xbc9e40e9	-0.019318061
169	0xbd3686ca	-0.04456214
170	0x3d3ac106	0.045594238
171	0x3d340acb	0.043955605
172	0x3d3fe5ae	0.0468499
173	0x3d1a2d0f	0.037640627
174	0xbd72a40c	-0.05923848
175	0xbd7698e0	-0.060204387
176	0xbd66cb6f	-0.056346353
177	0xbd08da1f	-0.03341114
178	0x3d05dc7e	0.03268098
179	0x3c149b13	0.009070176
180	0x3d84decc	0.06487808
181	0x3bd16c65	0.0063910955
182	0xbda093bf	-0.0784068
183	0xbd3b3f68	-0.045714766
184	0x3d189555	0.03725179
185	0x3d1a60a4	0.03768982
186	0x3c01fc59	0.0079336995
187	0xbd58a51e	-0.052891843
188	0xbdd06c92	-0.10176958
189	0xbd865adc	-0.06560299
190	0x3d249a93	0.040186476
191	0xbd1ea723	-0.038733613
192	0xbc9268e6	-0.017872285
193	0xbd801c65	-0.06255416
194	0xbe0eaa62	-0.13932183
195	0x3cf3c0ab	0.029754957
196	0xbd0f8598	-0.035039514
197	0xbd4ac928	-0.049508244
198	0xbcc7e132	-0.024399374
199	0xbcbe04b8	-0.02319561
200	0x3d81352e	0.06308971
201	0xbc092fee	-0.008373244
202	0xbd90fde4	-0.07079676
203	0x3c429485	0.01187623
204	0xbd8a2ad5	-0.06746451
205	0xbd90b798	-0.07066268
206	0xbce1943c	-0.027536504
207	0xbcde86aa	-0.027163822
208	0x3ba1fc02	0.0049433718
209	0x3cea727a	0.02861904
210	0x3bfd8b82	0.007737578
211	0xbddeedc2	-0.108851925
212	0xbc736938	-0.014856629
213	0x3de786aa	0.11304982
214	0x3d99beb4	0.07507077
215	0x3dcbcdbe	0.099513516
216	0x3d663bfc	0.05620955
217	0xbcdeec9d	-0.027212435
218	0xbd0aa253	-0.03384621
219	0xbd4ed2ea	-0.050494112
220	0xbd7969ff	-0.0608921
221	0xbd0e0ae1	-0.034678344
222	0x3b8a7442	0.004225285
223	0x3d5ed978	0.054406613
224	0x3cd32cab	0.025778135
225	0xbd191bf3	-0.03738017
226	0xbcba149f	-0.022714911
227	0xb9de3f4b	-0.00042390297
228	0xbcb8a3d6	-0.02253906
229	0x3cb9c2d9	0.022675918
230	0xbda0b3e4	-0.078468114
231	0x3d1f6e6d	0.03892367
232	0xbc203efa	-0.00978064
233	0xbd4e42e9	-0.05035678
234	0x3b8cbb56	0.004294793
235	0x3d39cb32	0.045359798
236	0x3d88df50	0.066832185
237	0x3d3d46d2	0.046210118
238	0x3c830519	0.015993642
239	0xbcb73e02	-0.022368435
240	0xbd06269e	-0.032751672
241	0x3c6846b0	0.014177009
242	0x3d18a3f1	0.03726572
243	0x3db125e4	0.08649805
244	0x3d450a7a	0.048105694
245	0xbc36028e	-0.0111090075
246	0x3ca27c71	0.019834729
247	0xbc95aba4	-0.018270321
248	0xbcdc290c	-0.026875041
249	0xbd539bea	-0.051662363
250	0x3ca3680b	0.019947072
251	0xbd24cdc2	-0.04023529
252	0x3d199367	0.03749409
253	0x3d07ef6d	0.03318732
254	0xbd58c2ea	-0.05292026
255	0xbdc51461	-0.096230276

tcn.network.0.downsample.weight f4 [64, 10, 1]
0	0x3c3c0b12	0.011477249
1	0xbd1dd83f	-0.038536306
2	0xbe12942a	-0.14314333
3	0xbd2f470d	-0.04279237
4	0x3df369c8	0.118854105
5	0xbd0839f4	-0.033258393
6	0xbc82c021	-0.015960755
7	0xbd804b82	-0.06264402
8	0xbe38cd09	-0.18046965
9	0xbd7ecc8e	-0.062206797
10	0xbdb7e0fb	-0.089784585
11	0xbe604631	-0.21901776
12	0xbdf1b86a	-0.11802752
13	0x3dd9648b	0.1061488
14	0x3d2e535c	0.042559966
15	0x3d4606c5	0.0483463
16	0xbddb67cb	-0.10713156
17	0xbcd6cae4	-0.026219793
18	0xbe286135	-0.16443332
19	0x3c824ada	0.015904833
20	0x3dbaf23b	0.09128233
21	0x3d032dbd	0.03202604
22	0x3df87226	0.12131147
23	0xbce9b196	-0.028527062
24	0xbc5612cd	-0.013066006
25	0xbc9fcd15	-0.01950697
26	0x3db81826	0.08988981
27	0x3c96731e	0.018365439
28	0x3dc5d300	0.09659386
29	0x3c024df8	0.0079531595
30	0x3d14ecf7	0.0363588
31	0x3d9708a0	0.07374692
32	0x3cb005c4	0.021487124
33	0xbd9d9028	-0.07693511
34	0xbbad0ce6	-0.0052810786
35	0xbc7a7681	-0.015287043
36	0x3d428867	0.047493365
37	0x3acb049a	0.0015489042
38	0x3dbd3fcc	0.09240684
39	0x3d8dec6b	0.06929859
40	0x3db1b658	0.086773574
41	0x3e426e57	0.18987404
42	0x3d92b699	0.07163734
43	0x3d50cc5d	0.050976146
44	0xbd58c11e	-0.052918546
45	0x3cd943d8	0.026521608
46	0x3d12626b	0.03573839
47	0xbd3f1606	-0.046651863
48	0x3def429c	0.116826266
49	0xbc3623b4	-0.011116911
50	0x3c9e24a3	0.01930458
51	0x3d699c5e	0.05703389
52	0xba92c1fa	-0.0011196726
53	0xbd09be5c	-0.033628806
54	0x3c9dcf2a	0.019263823
55	0xbc70188d	-0.014654291
56	0x3d238329	0.039920006
57	0x3bd82b02	0.006596924
58	0x3d15d936	0.0365841
59	0x3d63f365	0.05565204
60	0x3d196de2	0.037458308
61	0x3dcfd019	0.10147113
62	0x3dcea828	0.10090667
63	0x3cbf4f67	0.023353292
64	0xbb5d83a7	-0.0033800395
65	0x3d257a28	0.0403997
66	0x3dbe2e72	0.092862025
67	0x3d9fe617	0.07807558
68	0x3dc0a0c5	0.09405664
69	0x3d15a666	0.036535643
70	0x3dcda356	0.100409195
71	0x3dd0f461	0.102028616
72	0x3d89f332	0.06735839
73	0x3de77318	0.11301249
74	0xbd7caad0	-0.061686337
75	0xbbb00534	-0.005371714
76	0x3cd253f7	0.025674803
77	0x3d4c0d0a	0.049817123
78	0x3d928881	0.07154942
79	0x3bb6e4ed	0.0055814893
80	0xbd649123	-0.055802476
81	0xbd926193	-0.07147517
82	0xbdf92041	-0.12164355
83	0x3d8e9564	0.06962088
84	0x3dc23166	0.09482078
85	0x3d7b5dc4	0.06136872
86	0xbe29eac5	-0.16593464
87	0x3cb5de7a	0.022200812
88	0xbe7c44a0	-0.24635553
89	0xbdec3d58	-0.11535138
90	0xbdcf8504	-0.101327926
91	0xbe0c2ec8	-0.1368972
92	0xbe460f01	-0.19341661
93	0x3defde23	0.11712291
94	0x3c9840f9	0.018585669
95	0x3d625cd0	0.055264294
96	0xbde06fd4	-0.109588295
97	0xbc9261ee	-0.017868962
98	0xbdb08b3c	-0.08620307
99	0xbcc2417f	-0.023712872
100	0xbd175e7f	-0.036955353
101	0xbd3d2bde	-0.046184413
102	0xbdf26456	-0.11835544
103	0x3da32b3b	0.0796723
104	0xbd45144c	-0.04811506
105	0x3db3fbdb	0.08788272
106	0xbdc9b0c3	-0.09848168
107	0xbba63c30	-0.005073093
108	0xbd9bb787	-0.076033644
109	0xbd88bfcc	-0.06677207
110	0x3d02ea8c	0.031961963
111	0x3daa03b0	0.083014846
112	0x3db4e54e	0.08832799
113	0xbcc22a82	-0.02370191
114	0x3d83f1ff	0.064426415
115	0x3c2878a3	0.010282668
116	0x3c7ef881	0.015562178
117	0x3d5e0bd3	0.054210495
118	0x3e06f1c3	0.13178162
119	0x3b356e37	0.0027684101
120	0xbe0e8173	-0.13916568
121	0xbe9396c7	-0.2882597
122	0x3acc2e45	0.0015577754
123	0x3d56b7e3	0.05242146
124	0x3c0a7c06	0.008452421
125	0xbd691bbf	-0.056911226
126	0xbc212e65	-0.0098377215
127	0xbc1efd0c	-0.009703886
128	0xbc934008	-0.017974868
129	0x3c4f0ab7	0.012636832
130	0xbe018fb0	-0.12652469
131	0xbe4baa5f	-0.1988921
132	0xbd9696f2	-0.07353009
133	0x3c970de7	0.018439246
134	0xbd334c3c	-0.043773875
135	0xbd84727e	-0.0646715
136	0xbd86f1f3	-0.06589117
137	0xbd078f60	-0.033095717
138	0xbe1944fe	-0.14967725
139	0x3d372790	0.044715464
140	0xbc067923	-0.008207592
141	0xbdac30f3	-0.08407774
142	0xbd814144	-0.063112766
143	0xbc0cd1f4	-0.008594979
144	0x3d629a0d	0.055322696
145	0xbd0a0d53	-0.033704113
146	0xbc0144d4	-0.007889945
147	0xbd847976	-0.06468479
148	0xbdb30e7d	-0.08742998
149	0x3d19be77	0.037535157
150	0x3d00a6a3	0.031408917
151	0x3e50f525	0.20406015
152	0x3dcbeb6c	0.099570125
153	0xbe00dd29	-0.12584366
154	0xbc9fbceb	-0.019499263
155	0x3df31178	0.11868566
156	0x3d5c5f50	0.053801835
157	0xbdce6704	-0.100782424
158	0x3e39e309	0.18153013
159	0x3cc99740	0.024608254
160	0xbcc247aa	-0.023715813
161	0xbd6df207	-0.058092143
162	0xbd970394	-0.07373729
163	0x3b23ad1e	0.0024975012
164	0x3d21f700	0.0395422
165	0x3c227233	0.0099149225
166	0xbd8170e2	-0.06320359
167	0xba7be279	-0.0009608637
168	0xbd91fdf6	-0.07128517
169	0xbcf2ae34	-0.029624082
170	0xbd5b5acc	-0.053553388
171	0xbd30dc3c	-0.043178782
172	0xbe0bcb99	-0.13651885
173	0x3d55994c	0.05214815
174	0x3dcf55a3	0.10123756
175	0xbcd5cd22	-0.026098792
176	0xbd1b2256	-0.037874542
177	0x3d0d3b66	0.034480475
178	0xbdc32345	-0.095282115
179	0xbda6124f	-0.08108961
180	0xbd248379	-0.040164445
181	0xbd374b6e	-0.04474967
182	0xbdddc041	-0.10827685
183	0x3d815c61	0.06316448
184	0xbd92c306	-0.07166104
185	0x3be99047	0.007127795
186	0xbd6bc59a	-0.057561494
187	0xbcb76ea7	-0.02239163
188	0xbe003077	-0.12518488
189	0xbd2f92c1	-0.042864565
190	0x3d9f121b	0.07767125
191	0x3e4b8017	0.19873081
192	0x3dd330cd	0.103120424
193	0x3cd2f937	0.0257536
194	0x3bd8f815	0.0066213706
195	0x3d0f4229	0.034975205
196	0x3c20ca23	0.009813818
197	0xbc64859e	-0.013947872
198	0x3db5ecfe	0.08883093
199	0xbcc01914	-0.023449458
200	0xbd2242a9	-0.039614353
201	0xbdcb9e3c	-0.0994229
202	0xbe01ae37	-0.12664114
203	0x3d9e1b2a	0.07720025
204	0xbd85710e	-0.06515704
205	0x3d9e8e73	0.07742014
206	0xbdafaaf6	-0.0857753
207	0x3c5669d4	0.013086755
208	0xbd2908bd	-0.0412681
209	0x3b1b8c0e	0.0023734602
210	0x3dac18af	0.084031455
211	0x3e1a2276	0.15052208
212	0x3e16f3eb	0.14741485
213	0x3cb3f0d0	0.021965414
214	0xbcab1aa9	-0.020886736
215	0x3d5027f3	0.05081935
216	0x3db1e168	0.08685571
217	0x38baf6f3	8.915169e-05
218	0x3e14fd84	0.14549834
219	0x3b849c72	0.00404697
220	0x3c840ff1	0.016120883
221	0x3d0c56ae	0.03426235
222	0xbd4641de	-0.04840266
223	0x3d30b58f	0.043141898
224	0x3d313714	0.043265417
225	0xbe1ce853	-0.15323
226	0x3df6439e	0.12024616
227	0x3d77a031	0.060455505
228	0x3e4f3d16	0.20238146
229	0xbd057028	-0.032577664
230	0x3cc478d0	0.02398339
231	0x3d9324da	0.07184763
232	0x3d6e9e7b	0.058256608
233	0x3cc51972	0.024059985
234	0xbb003c66	-0.001956725
235	0x3c33070c	0.010926973
236	0x3d85ac95	0.06527058
237	0x3d86777d	0.06565759
238	0x3da7dea9	0.08196766
239	0x3cf7ed8f	0.030264644
240	0x3d8c0029	0.06835968
241	0x3d73a51a	0.059483625
242	0x3d6a63d0	0.057224095
243	0xbcb9620a	-0.022629756
244	0xbb81b178	-0.0039579235
245	0xbbb3bda1	-0.005485252
246	0x3d96585f	0.07341074
247	0x3cdd4d35	0.027014354
248	0x3e009fc3	0.12560944
249	0x3d841355	0.06449
250	0x3d6ff2c4	0.05858113
251	0x3d327e8a	0.04357771
252	0x3d1c5572	0.038167424
253	0xbd729d32	-0.059231944
254	0xbcad332f	-0.02114257
255	0x3c3b9b47	0.011450595

tcn.network.0.downsample.bias f4 [64]
0	0xbd1c1572	-0.03810639
1	0xbdd73dc7	-0.1050983
2	0x3e6dfa3b	0.23239987
3	0x3eaa83a0	0.33303547
4	0x3eb6b023	0.35681257
5	0x3e8624f9	0.26200083
6	0x3e1c136c	0.15241784
7	0x3d95d5ab	0.073161446
8	0xbe2a72a6	-0.16645297
9	0x3db7f969	0.08983118
10	0x3e28a22f	0.16468118
11	0x3d4a5ffc	0.049407944
12	0xbaf93f8f	-0.0019016134
13	0x3d8ad7ac	0.067794174
14	0xbe8e385f	-0.27777383
15	0xba2e5b8e	-0.0006651216
16	0x3d7405c7	0.059575822
17	0x3e82e881	0.2556801
18	0x3e07ad4a	0.13249698
19	0x3eb82b81	0.3597069
20	0x3c62771b	0.013822342
21	0x3e95ca1a	0.29255754
22	0xbe33e9c9	-0.1756965
23	0x3dcde84c	0.10054073
24	0x3eae997c	0.34101474
25	0x3e145256	0.14484534
26	0xbe3f588b	-0.1868612
27	0x3de374d5	0.11106268
28	0xbe9bf635	-0.3046128
29	0x3e16c03e	0.14721772
30	0xbe2626b1	-0.16225697
31	0x3e907611	0.28215078
32	0x3d0520fa	0.032502152
33	0x3dd53a2e	0.104114875
34	0xbe13a324	-0.14417702
35	0x3cf05570	0.029337615
36	0xbe524fb7	-0.20538221
37	0x3eae0f97	0.3399627
38	0x3de2b690	0.11069977
39	0xbe2c11a8	-0.1680361
40	0xbe013bc8	-0.12620461
41	0x3e2dd8e8	0.16977274
42	0xbe8daa30	-0.27668905
43	0x3ddd2794	0.107985646
44	0xbddb87a6	-0.10719232
45	0xbda09b34	-0.07842103
46	0x3e3a3f66	0.18188247
47	0xbd5d4cc8	-0.054028302
48	0x3e703c8d	0.23460598
49	0xbe649595	-0.22322686
50	0x3e8b2908	0.27179742
51	0xbe9dad64	-0.3079635
52	0xbe944d1e	-0.28965086
53	0xbed25afd	-0.41085044
54	0xbea1470d	-0.3149952
55	0x3b2224c3	0.002474115
56	0xbe90dc8e	-0.2829327
57	0x3dbd31a1	0.092379816
58	0xbe47981d	-0.1949162
59	0x3d7ad4a3	0.061237942
60	0x3cb8b1f4	0.022545792
61	0x3e2a46c6	0.1662856
62	0x3c2d4fe8	0.010578133
63	0xbe909145	-0.28235832

tcn.network.1.conv1.bias f4 [32]
0	0xba7fa029	-0.0009751344
1	0x3c74f793	0.014951604
2	0x3cd93e1d	0.026518876
3	0x3cc1ed3b	0.02367269
4	0xbc80f147	-0.01574005
5	0xbca9d6e3	-0.020732349
6	0x3b73e647	0.0037216113
7	0xbdee8e62	-0.11648251
8	0x3d15f859	0.036613796
9	0xbcf1e09e	-0.029526051
10	0xbdb9dac1	-0.09074927
11	0xb9faf700	-0.00047867745
12	0xbd93cf06	-0.07217221
13	0x3cd1a329	0.025590496
14	0xbd9bd376	-0.07608692
15	0xba73f440	-0.00093061104
16	0x3d447786	0.04796555
17	0x3c9105d8	0.017702982
18	0xbd6fa364	-0.05850543
19	0xbb7aa9fe	-0.0038248296
20	0x3b8e5542	0.0043436596
21	0x37fdcc47	3.0255074e-05
22	0xbcd880bb	-0.026428571
23	0xbd93941e	-0.072059855
24	0x3d2052a4	0.039141312
25	0x3d0b23c8	0.03396967
26	0x3dad8c0c	0.084739774
27	0x3d803adc	0.062612265
28	0x3d5997d1	0.0531233
29	0xbc97e3b5	-0.018541196
30	0xbdc1ce2d	-0.09463153
31	0xbbcfafe1	-0.006338105
